notebooks/Radio_27ML/27ml_rf/models/radio_27ml_export.onnx (onnx, 671553 bytes, 47 tensors)

2.weight f4 [64]
00000000: c454 803f dd04 8c3f 8fd5 963f 4012 7c3f
00000010: e396 a03f 4645 903f de68 6b3f 5c4b 693f
00000020: 8a2e 7d3f 1ef7 8d3f 4802 873f 8b5f 6d3f
00000030: 5e04 903f fda6 763f 0eea 853f ecfc 903f
00000040: 22cb 743f ee4a 7f3f 81e3 503f 9c20 633f
00000050: b3a4 6b3f 206a 943f 8b28 743f 167c 973f
00000060: 3adf 7c3f 1911 833f e89e 8b3f dd66 883f
00000070: a076 623f 8515 8e3f 3a3e 913f 07b2 853f
00000080: 2247 8c3f 3018 743f 2e0f 893f 5cd2 823f
00000090: 82dc 853f 04e2 6f3f 8387 9b3f ff0d 763f
000000a0: a493 8a3f 452b 5e3f f6a2 543f f945 903f
000000b0: 8d73 8c3f e96b 913f 656a 503f 12d7 743f
000000c0: ce6f 663f 0f64 683f 4121 653f 775b 8c3f
000000d0: bf83 673f 1f45 6a3f c071 8d3f dcc4 723f
000000e0: 203b 873f 76bf 8f3f 43e3 743f 5000 5e3f
000000f0: e380 8e3f 8b5a 593f 9532 753f 2489 9a3f
1.0025868 1.0938984 1.1783923 0.9846535 1.2546047 1.127114 0.9195689 0.91130614
0.9889914 1.1091039 1.0547571 0.9272391 1.1251333 0.96348554 1.0462053 1.1327186
0.95622456 0.9972371 0.81597143 0.8872163 0.92048186 1.1594887 0.95374364 1.1834743
0.98778117 1.0239593 1.0907869 1.0656391 0.8846226 1.1100317 1.1347115 1.0444955
1.0959208 0.9534941 1.0707757 1.0220447 1.0457919 0.9370425 1.215073 0.96115106
1.0826306 0.86784774 0.8306116 1.1271354 1.0972763 1.1361057 0.81412345 0.9564067
0.9001435 0.9077768 0.89503866 1.0965413 0.90435404 0.9151172 1.1050339 0.94831634
1.0564919 1.1230304 0.95659274 0.86719227 1.1133083 0.8490378 0.9578031 1.2073102

2.bias f4 [64]
00000000: 0968 ddbd a179 e7bd 7b16 303c c3ed 2ebe
00000010: 9e7f 9b3d ec65 57bd cd59 91be 0c64 fbbd
00000020: 8cdf b4bd 1db5 1cbe d48b 0f3e 33b3 14bd
00000030: 8658 9b3e 1a32 6dbe d0f5 6abe 228b 2fbd
00000040: b110 24be f231 51be c234 9ebe 89bb 8bbe
00000050: 0ff2 93be 1d6c f33d 1b91 53be 2a4e a63e
00000060: b219 cd3d 32b0 bc3c 8c45 053e 58ab 8a3d
00000070: aa47 6d3d 25bc 813e 7b71 863e 9760 25bd
00000080: e6fe dd3d 31ca 3ebc e655 6cbd 7ee9 8fbe
00000090: 5586 07be 34b6 8ebe 0e1a 5cbc 3141 62be
000000a0: 7903 60bd 380e e0be ff24 09bd f233 ab3e
000000b0: 6577 a9bd 9a17 553d f0a1 a6be b41a 88be
000000c0: c1c5 73bd 68b1 11be 1bad 743c 55d2 65be
000000d0: f027 eebe fcf2 6dbe c328 443e db83 64bd
000000e0: 6036 663e 2af5 ac3d 7269 15be 2b05 f5be
000000f0: 9c30 383e cf0b ca3d e824 b2be 7c39 823e
-0.10810859 -0.11302496 0.010747547 -0.17082886 0.075927004 -0.052587435 -0.28388825 -0.12274942
-0.08831701 -0.15303464 0.14018184 -0.03630371 0.30340976 -0.23163643 -0.22945333 -0.042857297
-0.16021992 -0.20429209 -0.30899626 -0.27291515 -0.28895614 0.11885855 -0.20660822 0.3248151
0.100146666 0.023033235 0.13014811 0.067709625 0.057929672 0.25338855 0.26258454 -0.04037532
0.10839634 -0.011644886 -0.057699107 -0.28107828 -0.13234837 -0.27873385 -0.013433946 -0.22095181
-0.05469081 -0.43760848 -0.033482548 0.3343807 -0.08274726 0.05202446 -0.32545424 -0.26582873
-0.059514765 -0.14227831 0.01493385 -0.22443517 -0.46514845 -0.23237222 0.19156174 -0.05578981
0.2248168 0.08445199 -0.14591005 -0.47855505 0.17987293 0.098655336 -0.34793782 0.25434482

2.running_mean f4 [64]
00000000: eb40 24bd 07a9 1e3d 1041 4bbd 9dbe 293b
00000010: c816 a23b d41a 3cbd 4b35 143d f265 5abd
00000020: e507 393d 593a 93bc 680a 253d 4f2f 913c
00000030: a75c a03d 92e3 35bd 860f 4cbd 2fc5 cb3c
00000040: 5c68 273d fb2d 9cbd 1383 043d fd98 c0bc
00000050: 196e 20bd 7733 90bd 68e6 893c a839 973d
00000060: 1456 77bd b553 9fbd 00d3 f8bc 431c 9cbd
00000070: 890a d43c 0bf2 afbb 73e7 503d 6703 e53b
00000080: 508e 86bd c57c 35bd 3948 d73c 7dc2 19bd
00000090: 3887 dcbb f1c2 3bbd 4fb6 343d e242 93bc
000000a0: 88e1 193d 7e7c f6bc 98b6 8abc ae18 24bd
000000b0: 795b 683c ccc4 9fbd 4cfe 3bbb 8765 663d
000000c0: 33a7 823b 4c76 b1bb bdad 48bd 2ab0 b53c
000000d0: e3e5 5e3d 0d8b 053d 2099 a03d c24b a9bc
000000e0: 4eed a83d 02cc 993d 6148 71bc 1242 7b3c
000000f0: 7953 aebc ad06 79bb a6c2 88bd 9e5a 9c3d
-0.040100973 0.038735416 -0.049622595 0.0025900968 0.0049465634 -0.045924023 0.036183637 -0.05331988
0.045173544 -0.017972158 0.040293127 0.017722754 0.07830172 -0.04440648 -0.04981949 0.024874298
0.04087101 -0.076259576 0.032351565 -0.02351045 -0.039167497 -0.07041066 0.0168335 0.07384044
-0.060384825 -0.07779638 -0.03037405 -0.07622578 0.02588393 -0.00536943 0.051001977 0.006988931
-0.06570113 -0.044308443 0.026279556 -0.037538994 -0.0067299865 -0.045840207 0.044119176 -0.017976228
0.0375686 -0.03008866 -0.01693277 -0.0400626 0.014181965 -0.07801208 -0.0028685508 0.056249168
0.003987217 -0.0054157134 -0.048993815 0.022178728 0.054418456 0.032603312 0.07841706 -0.020666007
0.08248387 0.075096145 -0.014726729 0.015335577 -0.021280037 -0.0037998364 -0.06677751 0.07634471

2.running_var f4 [64]
00000000: b62d 6343 db7a 6043 aa0b be43 b468 ae43
00000010: 8dc1 bc43 3c10 dd43 5a5d fd42 4ee3 9a43
00000020: dedb 6e43 1a1e d843 b184 3f43 be65 3343
00000030: 5d95 f243 2051 bc43 2494 4543 378d c243
00000040: b02a 5543 af9b bc43 f60a 9043 7929 1b43
00000050: ed8f 5d43 9bcf 9d43 5cde 6a42 3b9f c443
00000060: f8b4 ca43 9cda ea43 4061 5f43 b1e3 cf43
00000070: 0e33 4443 8995 8642 73db 6243 9b07 d043
00000080: f548 9543 324a 4a43 231b a143 a284 b742
00000090: 36b0 ad42 840a 3743 788d c343 fe71 9f43
000000a0: 1f76 6343 928a 0c43 5d0f 8d43 efa4 d343
000000b0: d2dd 9443 fc2b cf43 2e82 0543 18be 8643
000000c0: 6691 0b43 1747 fe42 9480 2f43 73cd 6843
000000d0: 0b87 5643 d1d3 e742 bcd7 0344 d4fe f742
000000e0: d7ca 2044 d93a cd43 855c 8943 f20b 4443
000000f0: 14bc 0c44 7785 9142 283b 0b44 1a18 d843
227.17856 224.4799 380.09113 348.818 377.51212 442.12683 126.68233 309.77582
238.85886 432.23517 191.51833 179.39743 485.1669 376.6338 197.57867 389.10324
213.16675 377.21628 288.08563 155.162 221.56221 315.62192 58.717148 393.244
405.41382 469.7079 223.37988 415.77884 196.19943 67.29206 226.85722 416.05942
298.56998 202.28983 322.212 91.75905 86.84416 183.04108 391.10522 318.89056
227.46141 140.54129 282.12003 423.28854 297.73297 414.34363 133.50851 269.4851
139.56796 127.13885 175.50226 232.80254 214.52751 115.913704 527.37085 123.99771
643.1694 410.45975 274.7228 196.04666 562.9387 72.76067 556.9243 432.1883

6.weight f4 [64]
00000000: c3cc 763f 2bf6 5c3f f72d 9d3f 0a36 4a3f
00000010: daac 593f 264b 823f d682 4e3f 4b50 7b3f
00000020: 0561 9f3f 4114 703f b16e 773f 70a2 6e3f
00000030: 8a2d 543f baee 7f3f 5d5d 5c3f 135e 6a3f
00000040: 169b b23f 0271 5b3f 0772 573f 66eb 813f
00000050: 4d25 8c3f 19ad 5d3f ff6c 823f be94 b53f
00000060: 616f 823f 0b8d 863f 3aad 463f 1688 663f
00000070: ab4b 4a3f b32e 7f3f a2c0 953f f7ab 843f
00000080: 80b7 7d3f a236 973f c4b0 7d3f aee6 7f3f
00000090: 1d47 5d3f 861c 6b3f d877 743f 0522 6c3f
000000a0: 16dd b33f 1bb4 ab3f 3353 7a3f 30a2 6c3f
000000b0: 0c13 6c3f cc75 6d3f 8413 733f ce47 423f
000000c0: 71bf 833f db55 853f 38e3 4b3f 8038 9b3f
000000d0: 301b 733f 526d 9f3f 0330 3b3f e846 813f
000000e0: 8472 593f 2c3d 753f b5ba 583f 3160 913f
000000f0: 7384 3c3f a4cb 7d3f 21a5 523f 333a 903f
0.9640619 0.8631312 1.2279652 0.7898871 0.85029376 1.0179183 0.8066839 0.9816939
1.2451483 0.93780905 0.96653277 0.9321661 0.8288199 0.9997364 0.8607996 0.91549796
1.3953578 0.8571931 0.84158367 1.0149963 1.0948883 0.8659225 1.0189513 1.4186018
1.019024 1.0511793 0.7760807 0.900514 0.7902171 0.9968063 1.1699412 1.036498
0.99108124 1.1813548 0.9909785 0.99961364 0.86436635 0.918404 0.9549537 0.9223941
1.4051845 1.3414339 0.977832 0.9243498 0.92216563 0.9275787 0.94951653 0.75890815
1.0292798 1.0416826 0.79643583 1.2126617 0.9496336 1.2455237 0.73120135 1.0099764
0.8494036 0.95796466 0.8465989 1.135748 0.736396 0.99138856 0.82283217 1.1267761

6.bias f4 [64]
00000000: 81f9 8fbe 9ded 92be c72e e5be 1451 86be
00000010: 0103 04bf 4251 11be 6478 9dbe 32cb a8be
00000020: 29ef babe 1763 78be 0c36 8fbe 0b46 dabe
00000030: 6c0f 06be 2ba0 04bf 66e8 6ebe cf35 50be
00000040: 7c27 6c3f c40c 523c 68b6 c7bd d6e0 7dbe
00000050: c156 eebe b48c d4be 7ac3 6cbe e095 2e3f
00000060: 9c11 a7be 2425 afbe d469 a8be 1a68 18be
00000070: bf2f abbe d1aa 75be a242 0cbf 8760 a0be
00000080: 58ed d3bd e8d2 3bbe e5c6 a8be 119c 53bd
00000090: 7e57 b8be 0fee a2be b14b 54be 85f8 93be
000000a0: 5e1c 05bf 2e89 6ebf b8e4 13be 63ae 5bbe
000000b0: 7054 7cbe 4ae4 89be 11f7 eabe fe62 8dbe
000000c0: 66c7 123e a1b6 08bf 35d2 81be c87e eabe
000000d0: 41c1 a7be b2fa b23e b4ad 88be 7e2d 8dbe
000000e0: 8874 f9be 1ef0 febd 9867 b7be 2c2b 54be
000000f0: 5e35 fc3c 7701 e6be 0d95 01bf 8837 adbe
-0.28120044 -0.2869691 -0.4476225 -0.26233733 -0.51567084 -0.14191154 -0.30755913 -0.32967526
-0.3651059 -0.2425655 -0.27970922 -0.42631564 -0.1309182 -0.51806897 -0.2333084 -0.20333026
0.9224775 0.012820426 -0.09751588 -0.247928 -0.46550563 -0.41513598 -0.23121443 0.6819744
-0.32630622 -0.34208024 -0.3289324 -0.14883462 -0.33434865 -0.23990943 -0.54789174 -0.31323645
-0.10348004 -0.18342173 -0.32964244 -0.05166251 -0.3600425 -0.3182225 -0.20731999 -0.28900543
-0.5199641 -0.9317807 -0.14442718 -0.21453242 -0.24641585 -0.26931983 -0.45891622 -0.27614588
0.14333877 -0.5340367 -0.25355688 -0.4579985 -0.3276463 0.3495689 -0.26695025 -0.2757377
-0.4872172 -0.124481425 -0.35821223 -0.20719594 0.030787166 -0.44922993 -0.5061806 -0.3383143

6.running_mean f4 [64]
00000000: 11b6 61c0 bcf2 2ec0 c1cc b140 9d1a 28c0
00000010: 23cc 31c0 d382 1741 486f 11c0 e786 0141
00000020: cc8b 03c1 adab b9bf af10 e740 acb1 7ac0
00000030: 668e 9940 46e2 6d3f a8d3 993f fc68 b440
00000040: dc42 34c1 ed02 0a41 1911 48c0 b12c 83c0
00000050: 7cb4 3bc0 d822 34c0 4485 db40 750c 5dc1
00000060: 4a01 42c0 c43e 7e40 0686 a340 5794 c0bf
00000070: df62 9dc0 312a 82c0 3411 5bc0 68e5 ed40
00000080: 384b bdbf a00c 9ac0 851c f640 e794 1441
00000090: fcc5 28c0 f5d4 77c0 2dd6 32c0 2654 2bc0
000000a0: 18f4 7c3f 91a6 853f a4cc 44bf 5179 73c0
000000b0: 06c9 e940 c5e3 aac0 8686 81c0 56b4 0340
000000c0: ba6e 4141 ff7c d8c0 e6a3 81bf 93a0 eec0
000000d0: 2e93 2fc0 fd99 2dc1 9c32 6bc0 760b 8bc0
000000e0: b41a 3bc0 e429 8ec0 e1d0 64bf 6639 eac0
000000f0: 6cad a3bf 4993 9740 2b2e 97c0 1782 89c0
-3.5267375 -2.7335653 5.5562444 -2.6266243 -2.7780845 9.4694395 -2.272417 8.095435
-8.22163 -1.4505516 7.2207866 -3.9170942 4.7986326 0.9292339 1.2017717 5.6378155
-11.266323 8.625714 -3.1260436 -4.0992055 -2.932891 -2.8146267 6.860018 -13.815541
-3.0313287 3.972581 5.1101103 -1.504527 -4.918319 -4.0676503 -3.422925 7.4342537
-1.478858 -4.814041 7.6909814 9.286353 -2.637084 -3.8723729 -2.7943223 -2.677011
0.9880996 1.0441457 -0.76874757 -3.8042796 7.305789 -5.340304 -4.0476713 2.0578818
12.089533 -6.7652583 -1.0128143 -7.4571013 -2.7433581 -10.850095 -3.674964 -4.345149
-2.9235048 -4.4426136 -0.89381224 -7.3195066 -1.2787299 4.736729 -4.7243857 -4.29713

6.running_var f4 [64]
00000000: afd3 fe41 af8e 2b42 c343 9441 a67a 0c42
00000010: 8ca5 5f41 87ed d641 e08c f741 815c 0142
00000020: 6ba4 e141 da77 e941 d726 c141 019f ae41
00000030: 1b99 3c41 ca0d f340 383d 1842 809b 9341
00000040: 10a0 a741 deb8 a041 f26f 1842 ca1e 7741
00000050: 0054 9e41 bdb7 d540 63a1 b941 69b5 d741
00000060: 0c8c c041 eecd 5541 91ed bd41 04d0 2042
00000070: 3ee9 e541 2b53 2742 ec17 7941 6668 b041
00000080: 48a5 d941 0947 5642 63b6 c941 cbbc c641
00000090: 5160 d441 142d 5a42 0c55 2a42 a73a 1b42
000000a0: b196 9641 0f0d 8741 b30b 4042 7ad8 0542
000000b0: e9e5 b141 4178 1142 a78b dc41 eed7 bd41
000000c0: 3ef8 ab41 a547 b841 7962 0142 d5c0 e241
000000d0: 8928 e841 d8de d341 c01b 1242 46ab 4f42
000000e0: 63b4 8b41 f70f db41 ce40 e841 63e2 f641
000000f0: 8725 fa41 279e d041 0e7e ce41 183c 5d42
31.853361 42.88934 18.533087 35.119774 13.977917 26.86598 30.943787 32.340336
28.205282 29.183521 24.143965 21.827639 11.787379 7.595433 38.059784 18.450928
20.953156 20.090267 38.10932 15.445017 19.791016 6.678679 23.203802 26.96358
24.068382 13.362776 23.741 40.20314 28.738888 41.83122 15.56834 22.050976
27.205704 53.56937 25.214056 24.842184 26.54703 54.54402 42.583054 38.807278
18.82358 16.881376 48.011425 33.461403 22.23726 36.367435 27.56819 23.730434
21.496212 23.034983 32.346165 28.344156 29.019793 26.48381 36.5271 51.91726
17.46308 27.382795 29.031643 30.86054 31.268324 26.077223 25.81155 55.308685

10.weight f4 [64]
00000000: 97ca 673f c3ab 313f d4a8 6e3f 7718 573f
00000010: 291e 893f c2c1 923f b2c8 ac3f 750c d53f
00000020: a802 5b3f abf6 383f 6a74 ab3f 7203 a23f
00000030: c76a 663f 96b1 743f ad39 733f ff03 803f
00000040: 30de 733f 7300 7f3f 268b 5b3f b3f6 743f
00000050: 6899 783f 8292 5d3f e6df 6a3f de05 353f
00000060: 359a 703f 6786 403f a8f8 443f 4f6c 3b3f
00000070: 4ed3 6a3f 59bc 5b3f c487 893f 30d4 733f
00000080: 571d 683f 4774 563f 708e a63f 902d 6b3f
00000090: 20e6 733f b8dd 8d3f a5c5 933f 2a6d 7b3f
000000a0: 4ea5 553f 5681 803f 8991 a83f 5eae 423f
000000b0: 1cb8 583f e16f 583f a3f4 723f 8f53 413f
000000c0: 6d9a 6c3f 5910 913f 21f3 673f 60fb 413f
000000d0: 1ace 623f e908 953f 84e1 773f a010 513f
000000e0: 5538 613f 0322 633f 2b1f 503f 5bac 683f
000000f0: ca9d 653f 8986 5e3f efe9 823f 395b 353f
0.905435 0.6940271 0.9322636 0.84021705 1.0712329 1.146538 1.3498747 1.6644427
0.8555093 0.72251385 1.3394902 1.2657301 0.9000668 0.95583475 0.9500988 1.000122
0.95260906 0.9961006 0.857592 0.95688933 0.9710908 0.8655168 0.9174789 0.7071208
0.939853 0.7520508 0.7694192 0.7321214 0.91728675 0.8583427 1.0744557 0.9524565
0.9066977 0.83771175 1.3012218 0.918664 0.9527302 1.1083288 1.1544691 0.98213446
0.8345536 1.003947 1.3169414 0.76047313 0.8465593 0.84545714 0.94904536 0.75518125
0.92423135 1.1333114 0.9060536 0.7577419 0.88595736 1.1643344 0.96828485 0.8166599
0.8797658 0.8872377 0.8129756 0.90887994 0.8969389 0.86924034 1.0227641 0.7084232

10.bias f4 [64]
00000000: 12e2 d4be 7442 e7be 549c 9bbe 2120 43be
00000010: 9f7d 64be c0b9 2bbf 4379 863d 8a0a 2abf
00000020: 2c37 a6be 15eb 00bf be7f e0be 94da c6be
00000030: 75de 8fbe 6da3 16bf 3525 5fbe d3bf 02bf
00000040: a1a3 12bf cd3b d6be b129 4fbe f0dc cebe
00000050: 28e8 34bf 2457 ebbe 28ae 9abe 8235 71be
00000060: 96c9 0abf 79e3 e9be eba8 26bf 1283 82be
00000070: 435f 18bf b9b4 85be 61af 1cbf c92f c4be
00000080: 8391 84be ef50 dbbe b1bf 84bd c67a 59be
00000090: 50ab 06bf ece8 0bbf fa35 46bf a7be f1be
000000a0: 6a36 87be 28d6 0dbf 8acf 883d cc87 ebbe
000000b0: 00e1 a8be 5e0b 17bf 5af2 edbe f09a 00bf
000000c0: 817c 42bf 9caa a5be c9c2 0bbe 3248 16bf
000000d0: 1c15 1fbe 8340 4fbf d376 34be 4336 f2bc
000000e0: 42db 6bbe 3d67 47bd 71a4 a7be def7 bcbe
000000f0: 9688 85be d7ed a8be 2691 e0be 14a5 87be
-0.41578728 -0.45167887 -0.30392706 -0.19055225 -0.22313546 -0.67080307 0.065660976 -0.6642233
-0.32463968 -0.50358707 -0.4384746 -0.38838637 -0.2809941 -0.5884312 -0.21791537 -0.5107395
-0.5728093 -0.418425 -0.20230748 -0.40402937 -0.7066674 -0.4596492 -0.30210996 -0.23555568
-0.54213846 -0.4568136 -0.651015 -0.25490624 -0.5952036 -0.26114443 -0.61205107 -0.38317707
-0.25892267 -0.42835185 -0.06481875 -0.2123824 -0.5260515 -0.54652286 -0.7742611 -0.4721577
-0.26408702 -0.554049 0.0668021 -0.46002042 -0.3298416 -0.5900172 -0.46473962 -0.50236416
-0.7597123 -0.32356727 -0.13648523 -0.5870391 -0.15535396 -0.8095781 -0.17623453 -0.02956689
-0.23032859 -0.04868244 -0.32742646 -0.36907858 -0.2608077 -0.32993957 -0.4386074 -0.26493132

10.running_mean f4 [64]
00000000: 1a9c 6ac0 8451 29c0 2ae6 5c3f 952e 4cc0
00000010: 69fd e13e b3ed ac3f e771 c4bf 1e29 dfc0
00000020: 6aef 9abf 1915 5dbf 0998 9140 9cfa 3b3d
00000030: 52c2 ba3f 928a 70bf e270 debf 3955 e43f
00000040: eafa c8bf 7dca eebf c0e8 23be 7b1a a43f
00000050: 8f4f 51c0 a3ab 7ec0 73bc debe 0e64 f33e
00000060: e0c6 273f 9ef1 a33d a147 79bf 1592 0abf
00000070: da8d 3ec0 e9d8 cb3f b6a2 46c0 1300 e2bf
00000080: 6f70 2fc0 baf8 51bf 4fe4 49c0 1ac9 06bf
00000090: 8a31 92bf 4ae6 0fbf d433 2bc0 b54d 15bf
000000a0: 8ed9 89c0 ec77 1840 5495 dcc0 c943 60bd
000000b0: af96 5a40 3f11 1ac0 26d1 68bd 6adb 06bf
000000c0: 02c4 52c0 04e4 a13f 921b bdbd 4c27 30c0
000000d0: a964 573f d549 10bf 76d5 9f3f a6de e1be
000000e0: 7692 68bf 6c0e 2040 c6c7 aebd 308d 1ebf
000000f0: b798 2bc0 9d8c da3e 6cb0 0240 9054 39bf
-3.6657777 -2.6456003 0.862887 -3.1903431 0.4413865 1.351004 -1.534726 -6.973769
-1.2104313 -0.8636032 4.549809 0.045893297 1.4590552 -0.9396144 -1.7378199 1.7838508
-1.5701573 -1.8655545 -0.16006756 1.2820581 -3.2704809 -3.9792259 -0.4350315 0.47537273
0.65537834 0.08005069 -0.9737492 -0.54129153 -2.977408 1.5925571 -3.103681 -1.7656273
-2.7412374 -0.8202015 -3.1545599 -0.52650607 -1.1421368 -0.5621077 -2.6750383 -0.58321697
-4.307807 2.3823195 -6.8932285 -0.054752145 3.415447 -2.4073026 -0.056840084 -0.5267855
-3.2932134 1.264771 -0.09233774 -2.7523985 0.8413797 -0.5636266 1.2487018 -0.4411518
-0.9084848 2.5008802 -0.085341975 -0.61934185 -2.681196 0.42685404 2.042018 -0.7239466

10.running_var f4 [64]
00000000: 606e 2b41 f817 a940 3fd0 2941 1ba0 7a41
00000010: 0908 4f41 0836 3b41 d276 0641 5d7c b341
00000020: 79e1 3b41 3a4f d340 7335 ca41 a526 1441
00000030: 8f38 0241 5150 5c41 91f6 7b41 8c0e 6d41
00000040: a7a9 e040 7048 3a41 4942 8241 d31a 0641
00000050: 9a6f 1d41 54dd 7941 3e02 2641 1998 2141
00000060: 2c46 ec40 ff68 fd40 50f9 9b40 47f5 9e41
00000070: 9fa0 2541 867a 2441 c08d 5941 2d87 1441
00000080: 4cda 6141 2dd3 5b41 ddf8 8b41 7d58 0a41
00000090: fa86 2641 3f12 3b41 943e 0341 701a 0e41
000000a0: 71e4 0641 245e 8f41 7844 6c41 bd07 3841
000000b0: f5cc a841 3dfb 5441 cdea 1541 5024 0d41
000000c0: adb6 b140 81c6 fd41 cb75 4741 95d4 9940
000000d0: ddf2 2341 a9eb 0241 a2e7 2841 a43a 0041
000000e0: c25e ea40 7d93 4d41 387e f540 d46e 3b41
000000f0: 176b 1441 5c3e 4a41 9507 a141 c6cf e040
10.714447 5.284176 10.613341 15.664088 12.939462 11.700691 8.404009 22.435724
11.742547 6.603421 25.276098 9.259435 8.138808 13.7696085 15.747697 14.8160515
7.0207095 11.642685 16.282366 8.381549 9.839746 15.616535 10.375547 10.099633
7.383566 7.919067 4.8741837 19.869764 10.351714 10.279913 13.597107 9.283002
14.115795 13.739057 17.496515 8.646604 10.407953 11.691955 8.202778 8.881454
8.430772 17.920967 14.766716 11.501889 21.100077 13.311337 9.369824 8.821365
5.5535493 31.721926 12.466258 4.8072 10.246793 8.182534 10.556551 8.014317
7.324067 12.848508 7.6716576 11.714558 9.276145 12.640224 20.128702 7.025363

14.weight f4 [64]
00000000: 42ca 883f 0040 b83f 8a2f 393f b81c 4d3f
00000010: 57a9 183f 1368 763f d728 883f 7dca 633f
00000020: 4ad3 4a3f dab7 663f 4502 593f 6159 683f
00000030: 9e64 953f f031 433f 8bb8 5e3f 7ddc 6a3f
00000040: 2466 8b3f 00d4 533f 827b 963f 2446 5a3f
00000050: a52e 583f 5e34 4a3f 34cf 3d3f bb53 bd3f
00000060: 9f5b 713f 2897 8d3f 6574 853f 306b 613f
00000070: 8eba 8e3f f4ce 723f 9316 893f 7a50 573f
00000080: ab52 853f 7584 6f3f 0df4 983f 3440 873f
00000090: 9ee6 7c3f 5634 4f3f 29de 8b3f 91f3 543f
000000a0: 502d 7f3f cc71 8b3f 7d44 903f bc85 863f
000000b0: 3884 3c3f 6f52 8f3f a020 493f 25c3 583f
000000c0: 1b22 843f aced 8a3f 96cd ac3f 0c01 5b3f
000000d0: 277f 733f 4fcb 633f 9718 663f 6b27 863f
000000e0: 0cc0 7e3f 39dc 4d3f 2b8f 683f 75b9 763f
000000f0: 72ff 923f 291f 543f 157f c63f daab 643f
1.0686724 1.4394531 0.72338164 0.80121946 0.5963339 0.96252555 1.0637463 0.8898085
0.7922865 0.90124285 0.8476909 0.9076138 1.1671331 0.76248074 0.8700034 0.9174269
1.0890546 0.8274536 1.1756442 0.85263276 0.84446174 0.78986156 0.7414429 1.4791178
0.9428043 1.1061754 1.0426146 0.8805418 1.1150682 0.94847035 1.0710014 0.8410717
1.0415853 0.9356149 1.1949478 1.0566468 0.98789394 0.80939233 1.0927173 0.8318415
0.99678516 1.0894103 1.1270901 1.0509562 0.7363925 1.1197032 0.78565407 0.84672767
1.0322908 1.0853782 1.350024 0.8554847 0.95115894 0.889821 0.8988127 1.048078
0.9951179 0.8041416 0.90843457 0.96376735 1.1484206 0.82860047 1.5507532 0.89324725

14.bias f4 [64]
00000000: 7a33 a4bd fda5 dabe 9166 fdbe cc24 9cbe
00000010: 155e 9dbb 988b efbe 8ced 4e3d 0e50 01be
00000020: 959c 0ebf d159 fab8 7c0c b0be fd89 78be
00000030: 9294 98bd 3690 88be 1a11 1c3d 914d 27bf
00000040: 2aff f8be ab6f ecbe 2786 86bf 05f0 2cbe
00000050: 2284 d2be 3c54 3cbe 4cf2 2cbe 33c9 11be
00000060: 4e9a 06be c14d bbbe 9f47 3abe 818b bbbd
00000070: 3f99 2dbe f63b 6fbe 1aee 5abf 9325 9b3d
00000080: cf95 b2be c1b8 a6be 1e10 26be cfa4 50be
00000090: a3ac 8cbe bc31 26bf c04b 51bf 1887 e1be
000000a0: 1004 f4be f6ae a4be a3a1 9ebd feef 8c3c
000000b0: bf7d dbbd 1b66 7ebd e3c6 6cbe fd11 12be
000000c0: d32f 97be 5362 8dbe 46b2 97be 9751 97be
000000d0: c5ac 95be 1364 bebe d141 d33c a152 43bd
000000e0: b86a 93be c297 b4bd 5130 89be 31ad 8abe
000000f0: 8e3c f3be 4075 dbbd 1de2 85be 85ab 9fbe
-0.08017631 -0.42704764 -0.49492314 -0.30496824 -0.004802475 -0.4678619 0.05051951 -0.12628195
-0.55707675 -0.000119376586 -0.34384525 -0.24271388 -0.074502125 -0.26672524 0.038102247 -0.6535273
-0.48632175 -0.46178946 -1.050969 -0.16888435 -0.41116434 -0.18391508 -0.16889304 -0.14236908
-0.131448 -0.3658276 -0.18191384 -0.09157468 -0.1695299 -0.23362717 -0.85519564 0.07575526
-0.3487992 -0.3256283 -0.16217086 -0.2037537 -0.2747546 -0.6491964 -0.8175621 -0.4404838
-0.4765935 -0.32164735 -0.077456735 0.017204281 -0.107173435 -0.062109094 -0.23122744 -0.14264674
-0.29528674 -0.27614078 -0.296282 -0.29554436 -0.29233375 -0.37185726 0.02578822 -0.047686223
-0.28792357 -0.08818008 -0.26794675 -0.2708526 -0.47507137 -0.10715723 -0.26149073 -0.31185547

14.running_mean f4 [64]
00000000: 924d 63c0 eb42 07c0 90a8 b7be 060b 50c0
00000010: 3f69 0340 117e 863d ae8f 68c0 965b de3f
00000020: bc35 43bf f539 cbbf d695 3e3f 3dff 3bc0
00000030: db6e 9abf 3555 db3e 3a41 7c3f 931e 1fbf
00000040: fedd 8c3f 8135 b73e d4f8 2540 2b65 51c0
00000050: 93c4 ce3f b0b0 c0bf 19b2 223e d80d 2dc0
00000060: b938 6f3f 6f65 1bc0 0339 bcbf 4234 333e
00000070: 381f 23bf 410c dcbf cd0d f93e 0615 2f3f
00000080: 6ce0 68c0 8c9b b53e edb6 e73f 5e18 5840
00000090: 67c9 6fc0 3346 d73e 12bf 0f3f edea a63f
000000a0: fe72 82be 35f7 43bf 648f 2ebf f129 893e
000000b0: 658d f43f 4eff d5c0 4b68 a7bd 9eba cc3f
000000c0: 4373 24c0 d908 2ec0 e993 51c0 0949 2bc0
000000d0: 28a5 963e 1eb9 a23f c400 1d40 20c6 a53f
000000e0: a35d 41c0 a2ac e43f 997d 893e e168 423f
000000f0: 00f2 6ec0 c65c 6dc0 4fb9 00c0 2472 c2bf
-3.5516095 -2.1134593 -0.3587079 -3.2506728 2.0532987 0.06567014 -3.6337695 1.73717
-0.7625387 -1.5877062 0.7444738 -2.9374535 -1.206508 0.42838445 0.9853703 -0.6215603
1.1005247 0.35783008 2.5933123 -3.2717998 1.615374 -1.5053921 0.15888251 -2.70397
0.93445927 -2.428066 -1.4704899 0.17500404 -0.6371951 -1.719124 0.48643342 0.68391454
-3.6386976 0.35470235 1.81027 3.3764873 -3.7466676 0.42045745 0.56150925 1.3040444
-0.25478357 -0.76549083 -0.68187547 0.2678981 1.910565 -6.687415 -0.08174189 1.5994451
-2.569535 -2.71929 -3.2746527 -2.6763327 0.2942288 1.2712743 2.4531717 1.2951088
-3.0213401 1.7865183 0.26853636 0.7594128 -3.7335205 -3.7087874 -2.0113103 -1.5191083

14.running_var f4 [64]
00000000: 0044 d340 ffd4 0041 3e10 0d40 da12 9c40
00000010: 358b 6240 8c9b 1a41 7dc6 4341 adcd 5740
00000020: 5ef3 9240 ffc7 b940 66f9 1b40 5995 d140
00000030: e0d5 9440 7a1b 9140 c7e7 4b40 ed52 0341
00000040: 8485 9840 6a3d 0c40 1ce7 2840 69ef 7040
00000050: 040b 1b40 c5c2 6940 c81f 1d40 8415 bd40
00000060: c029 1641 e298 4841 bac1 1241 3009 9640
00000070: 9b99 3b41 162e 0541 1497 4540 4ef8 9b40
00000080: 1392 cf40 04b8 ac40 0b19 a140 48d3 ab40
00000090: 3167 3041 7ddf 0241 6d35 5340 f712 7b40
000000a0: 2f12 4b41 d4ae bc40 efef e440 c47d a640
000000b0: 7add 9240 7a69 2d41 b313 9a40 abc5 ca40
000000c0: c9d7 fd40 c508 0341 4657 9140 1e71 0341
000000d0: 1fdc 8940 c7ea 8640 3eb6 ac40 ee52 0641
000000e0: 5f45 1641 865c a640 485e 9340 7083 cf40
000000f0: 5fcb 1141 4462 ea40 cbbf d940 86fb 9a40
6.602051 8.052001 2.2041163 4.877301 3.5397465 9.662975 12.235959 3.3719285
4.592208 5.8056636 2.437097 6.549481 4.651108 4.534604 3.1860216 8.207746
4.7662983 2.1912484 2.6391058 3.7646124 2.4225473 3.6525128 2.4550648 5.9088764
9.385193 12.537325 9.172297 4.6886215 11.725001 8.323751 3.087346 4.8740606
6.4865813 5.397463 5.034307 5.369541 11.025193 8.179563 3.3001359 3.9230325
12.691939 5.8963413 7.154289 5.2028522 4.5895357 10.838251 4.8149047 6.3366294
7.932591 8.189641 4.5419035 8.2151165 4.3081203 4.2161593 5.3972464 8.3952465
9.391936 5.1987944 4.605259 6.4847946 9.112151 7.3244953 6.804662 4.8432035

18.weight f4 [64]
00000000: b096 313f 49ce 743f 2aba 823f d00b 513f
00000010: d7ed 983f 706d 7e3f aed6 613f f3b1 8e3f
00000020: cbb5 a63f 39d2 893f c7a2 8f3f 991b 8b3f
00000030: d66c 893f 8921 3f3f e426 953f 9117 8e3f
00000040: 9a3f 9c3f 8f8d 5d3f c046 923f 5ea5 753f
00000050: 81d5 833f d217 993f 180b 3d3f 7c8b 633f
00000060: 6119 683f 523b 493f e4b0 743f 1188 7d3f
00000070: b720 683f b49a 593f dafe 723f 4bc0 463f
00000080: 23bb 903f 5fed 4e3f 56f7 663f 7a6f 833f
00000090: 329d 9a3f 5955 763f 025f 673f 1c02 8f3f
000000a0: b1e5 af3f 9116 843f 52a7 313f 0420 833f
000000b0: af3b 8d3f 5d51 643f 31d5 8c3f 323a 953f
000000c0: 1158 633f 9aac 443f 26e3 813f 1e69 8b3f
000000d0: a62b a13f d05c 863f be78 553f 6fad 6a3f
000000e0: 736b 7d3f b392 823f 66f6 543f d328 833f
000000f0: fda6 863f 7548 8d3f 6f4f 613f 9484 833f
0.69370556 0.95627266 1.0213063 0.8165865 1.1947583 0.9938574 0.882182 1.1148056
1.3024229 1.076728 1.1221551 1.0867797 1.0736339 0.74660546 1.1652493 1.1100942
1.220691 0.86544126 1.1427841 0.95955455 1.0299531 1.1960394 0.7384505 0.8888471
0.90663725 0.7860614 0.95582414 0.99035746 0.9067492 0.85001683 0.9492012 0.77637166
1.130711 0.8083095 0.90221155 1.0268395 1.2079222 0.9622398 0.90379345 1.1172519
1.3741971 1.0319387 0.69395936 1.0244145 1.1033839 0.8918665 1.1002561 1.1658385
0.88806254 0.7682587 1.0147445 1.0891454 1.2591445 1.0497074 0.8338736 0.9167089
0.9899208 1.0201019 0.83188474 1.0246834 1.0519711 1.1037737 0.8801183 1.0274835

18.bias f4 [64]
00000000: 58ea b63d 29fc 32be 7a4f 86be b91e ce3c
00000010: 9e7e 02bf 8e73 f23c 612b 81be 5c98 27be
00000020: e007 483e 3e40 12bf ae4b bd3b 5aca f9be
00000030: 400d f63c d623 29be 6ae1 ecbc c1e5 b63e
00000040: cc90 97be 6f8e 2dbd afdd 31be 8ba7 08be
00000050: f4a5 b53c e177 4dbe da55 aebd 9985 e7be
00000060: a2ca b4be c583 3f3e 28cd 10bf 7561 06bf
00000070: 225b 8dbe 05a2 a1be a2f8 c5be 65fb e6be
00000080: 5992 7dbd 7b7f 22be f2f6 ccbe 481a f3bd
00000090: 7eb1 11be bffd 3bbd 75e0 78be b6e8 c3be
000000a0: 2985 7fbe 2328 00bf 400e 98be 2194 56be
000000b0: 151e 94be ca3e 51be b853 0ebe 62aa 02be
000000c0: 14f2 adbd 4e32 013d aca4 663d 6651 cbbe
000000d0: 4be0 94be c07c 72be 3811 a2be 812b 0f3d
000000e0: 2f00 65be d385 a5be 9944 7fbe deea a1be
000000f0: e77d 69bd 495f 14be b8fc 5b3d 5c4b 5fbe
0.08931416 -0.17479004 -0.2623251 0.025161134 -0.5097445 0.029596116 -0.25228408 -0.16366714
0.19534254 -0.57129276 0.005776844 -0.48787194 0.030035615 -0.16517577 -0.02891608 0.35722163
-0.2960266 -0.042372163 -0.17369722 -0.13345163 0.02217386 -0.20065261 -0.08512469 -0.45219114
-0.35310847 0.1870261 -0.56563044 -0.5249246 -0.2760859 -0.31568924 -0.38666254 -0.45113674
-0.061907146 -0.15868942 -0.40032154 -0.11870247 -0.14227864 -0.045896288 -0.24304374 -0.38263482
-0.2495314 -0.50061244 -0.29698372 -0.20954944 -0.289292 -0.20434108 -0.13899124 -0.12760308
-0.08493438 0.031542115 0.056309387 -0.3971054 -0.29077372 -0.23680401 -0.31653762 0.034953598
-0.22363351 -0.32328662 -0.24928512 -0.31624502 -0.057004835 -0.14489473 0.05370781 -0.21806091

18.running_mean f4 [64]
00000000: dc27 44be 14b5 2640 470a 95c0 b1bb 0c3f
00000010: ca49 0cc0 78c4 1dbd 89f6 2640 3d4b 0f40
00000020: 3712 54c0 1bcd 5e3e b60e 8140 10c2 cf3f
00000030: bb68 abc0 dd31 ce3d f489 72c0 87c6 b3c0
00000040: 44d2 24c0 133d f0bf 4276 ea3f e615 f3bf
00000050: 873b 61bf 1e45 01c0 4f73 1140 e3dc 4dbf
00000060: abfa 143f e335 2440 ff08 cdbf 4f29 27c0
00000070: f02d 47c0 4453 b9c0 2334 8fbf bcc6 aabf
00000080: 8c68 26be d8fa 073e afbf 18c0 ac00 69c0
00000090: eff9 73c0 6a67 6840 a452 0dc0 ab6c adc0
000000a0: 55fb 9fbf 96d9 72c0 9cde f53f 1b39 8ac0
000000b0: 13fe bdc0 50b5 b5c0 f848 04bf 2114 373e
000000c0: 0523 6540 c1e9 2bbf 90f8 203f a16f dd3f
000000d0: 668f 16c0 a7e6 823f 03db 8f3f 6f10 963e
000000e0: 61af 663f c3d5 80bf 0f24 02bf 892c c9c0
000000f0: d4b0 e43f 8e76 63c0 f456 b6bf 7483 bfc0
-0.1915583 2.6048021 -4.6575046 0.54973894 -2.1920037 -0.038517445 2.6087973 2.2389672
-3.3136117 0.21757929 4.033046 1.6231098 -5.3565345 0.100681044 -3.78967 -5.6179843
-2.5753336 -1.8768638 1.831734 -1.8991058 -0.87981457 -2.0198436 2.2726629 -0.8041517
0.5819499 2.565789 -1.601837 -2.6118963 -3.1121788 -5.7914143 -1.1187786 -1.3341899
-0.16250819 0.13279283 -2.3866994 -3.640666 -3.8121297 3.631312 -2.208169 -5.419515
-1.2498575 -3.7945304 1.920856 -4.319471 -5.937265 -5.678383 -0.5167384 0.17878772
3.5802624 -0.67153555 0.62879276 1.7299691 -2.3525023 1.022664 1.1238712 0.29309413
0.90111357 -1.0065235 -0.5083627 -6.2866864 1.7866464 -3.554111 -1.4245286 -5.9847965

18.running_var f4 [64]
00000000: da58 9340 c0df a240 3e8a b740 0ecc a540
00000010: e611 2d41 08ac 0d41 50fb af40 60ef 7b40
00000020: 6663 6641 594e cd40 bf42 0f41 0431 bf40
00000030: 09f5 1b41 800a 7f40 9efe dc40 e26c 7f41
00000040: 8798 fe40 2a8c f940 c106 9140 b7b3 3f41
00000050: c4c4 e440 4520 f240 3697 bd40 08df 6e40
00000060: 1cad 8b40 77e2 2641 c4a4 b240 4eae e340
00000070: 1b76 6641 c235 1041 cb22 4e40 94a1 db40
00000080: bb5d 5d41 490a e940 5e6d a440 59d2 e840
00000090: 9b1b 4a41 d773 9040 b35f 1f41 0d69 8841
000000a0: 0617 c440 bb03 fe40 ed6d 4940 5f6d 9640
000000b0: b7db b441 9997 e540 5d84 0b41 fea6 fe40
000000c0: 00c0 7341 45d9 d440 deb2 bf40 b65e 8540
000000d0: 9e7d 0841 a10a 6240 d9ac 8c40 6530 c940
000000e0: 8d76 ff40 c1d7 a840 f8ec 1a40 6a0d 1441
000000f0: c6bb f840 1328 f040 2245 d440 b49a d240
4.604596 5.089813 5.7356253 5.181159 10.81687 8.8545 5.499428 3.9364853
14.399267 6.415814 8.953795 5.9747334 9.747323 3.9850159 6.906081 15.964083
7.956119 7.79836 4.5320745 11.981376 7.1490192 7.566439 5.9247084 3.7323627
4.3648815 10.430289 5.582613 7.1150274 14.403834 9.013124 3.2208736 6.863474
13.835383 7.2825055 5.1383505 7.275677 12.63174 4.5141406 9.960864 17.051294
6.1278105 7.9379554 3.1473343 4.700851 22.607283 7.1747556 8.719815 7.957885
15.234375 6.651522 5.9905844 4.1678114 8.530668 3.5318987 4.3960996 6.2871575
7.9832215 5.276337 2.4207134 9.253275 7.7729216 7.504892 6.633439 6.5813847

22.weight f4 [64]
00000000: 41db 893f 5a5a 9b3f d53b 993f eb37 873f
00000010: 54d6 3a3f dadf 8e3f cacf 9d3f 42d2 833f
00000020: 4ecc 793f ac8b 963f 0bae af3f a2b9 6e3f
00000030: 2735 533f 3850 833f b4f4 693f 309d 6a3f
00000040: eb32 763f bf72 723f 5b63 843f f3a0 a13f
00000050: aca7 733f 4d8a 683f de9b 6a3f 1d3a 7c3f
00000060: 653c 673f 0b1e 753f 7149 693f 0f4a 963f
00000070: 7a34 623f 7593 853f 6b38 6a3f 3588 6a3f
00000080: 5937 8b3f d0a4 813f 33be 8a3f a717 713f
00000090: b029 893f 0f80 833f 4d0c 8c3f 7315 963f
000000a0: 5511 713f 089c a13f d24d 9a3f 1903 9e3f
000000b0: eb63 6f3f 8082 8b3f 887c 5e3f 7560 923f
000000c0: bb2a 743f 8a51 7a3f 2d3c 843f 8d6a 7c3f
000000d0: da5b 8c3f b4e9 863f 839c 773f 4ce3 9f3f
000000e0: 7e24 5b3f d39b 963f f20d 773f bbd7 593f
000000f0: 5a12 933f 8782 6c3f dd5a 853f cc43 5e3f
1.0770036 1.2136948 1.1971384 1.056394 0.7298329 1.1162064 1.2329037 1.029854
0.9757737 1.1761374 1.3724989 0.93252003 0.8250298 1.0258856 0.9138901 0.916461
0.96171445 0.9470634 1.0342821 1.2627243 0.9517772 0.9083603 0.91644084 0.98526174
0.9032653 0.95748967 0.9112769 1.1741351 0.8836132 1.0435625 0.91492337 0.91614085
1.0876266 1.0128422 1.0839294 0.94176716 1.0715847 1.0273455 1.0941254 1.1725296
0.9416707 1.2625742 1.2054999 1.2344695 0.9351184 1.08992 0.8690877 1.1435686
0.953777 0.9778067 1.0330864 0.98600084 1.0965531 1.054007 0.9672319 1.249124
0.8560256 1.1766304 0.96505654 0.85094804 1.1489975 0.9238667 1.0418354 0.868222

22.bias f4 [64]
00000000: 1f8a 82bd 9951 86be 3fde 1fbf 430c 44be
00000010: c903 54be 20af 523e 9c48 c7be 0a5c aa3c
00000020: 23ad 51be 86df 693e d543 b8be 5148 173e
00000030: 0d74 9ebd 720b 30be 9cad 7fbe d5f4 a5bd
00000040: 961d c33d ffd4 1a3d a686 dc3e 2354 153f
00000050: bd3b b2be 87eb a3be ff87 293e 5d13 dd3d
00000060: 9573 11be 1007 d63d e5e1 24be 7eb6 0b3e
00000070: b177 bebd f46f 5dbe 2689 8abd 0f4f 28be
00000080: a2ac bbbe e008 c5be 13c2 fb3d b3c0 9c3d
00000090: 1589 6e3c ad49 f8bd 7081 b73d d066 cb3e
000000a0: e723 bc3d 1707 28be aafe da3d 973b 343e
000000b0: 536b 9fbd 84d4 31be 1e9f c6be fea9 00bf
000000c0: d535 813e 22a4 30bd a4e6 cebc 5346 553e
000000d0: 594f 39bd e471 1ebe 525d 16be a3c1 c43c
000000e0: aa57 51be 6a80 a13d 0129 11be d489 033e
000000f0: 1396 11be 1e04 0e3d c42f cf3c 5e9d 98b9
-0.06374001 -0.2623413 -0.62448496 -0.19145302 -0.20704569 0.20574617 -0.38922584 0.02079584
-0.20476203 0.22839174 -0.35989252 0.1477368 -0.07736979 -0.17191866 -0.2496857 -0.08103339
0.095271274 0.037800785 0.4307148 0.5833151 -0.34811202 -0.3201563 0.16555785 0.10794709
-0.14204247 0.10450566 -0.16101797 0.13643834 -0.09300173 -0.21624738 -0.0676444 -0.16436408
-0.36655146 -0.38483334 0.12292876 0.07653942 0.01455905 -0.121234275 0.08960235 0.39726877
0.09186535 -0.16408955 0.106931046 0.17600857 -0.07784142 -0.17366225 -0.38793272 -0.5025939
0.25236383 -0.04312528 -0.025256462 0.20827608 -0.045241687 -0.15473133 -0.14684036 0.024018114
-0.20443597 0.07885821 -0.14175798 0.12845546 -0.14217405 0.034671895 0.025291331 -0.00029108947

22.running_mean f4 [64]
00000000: fcc0 153f 3416 06c0 b833 2f40 daa0 edbe
00000010: 71c4 b3be 32c8 82c0 76f2 1a3f 6d8b f5c0
00000020: a687 3340 4ec9 adc0 825f 88be 50f0 03bf
00000030: 3b44 62c0 d7ec 9d3f b553 64bf fd5d ac3f
00000040: 366a bfbe 0e6d b8c0 c0bd 85c0 0949 afc0
00000050: bfd6 2b40 773b ba3f 2f69 b3bf 3fc9 31c0
00000060: adf6 3d3f 0385 babd 650e 9ec0 dbbc 9cc0
00000070: 45bd 8c3f 35ed a43f a015 a7bf 3be5 17c0
00000080: 4443 5f3f 65f8 72bf ea02 45c0 d774 0dc0
00000090: b3d5 d5be c8d0 3cc0 ee43 03c1 d5fb 86c0
000000a0: 3501 79c0 d3a4 963f f362 7dc0 74ad 49c0
000000b0: 0680 5c3f 067f 17c0 6227 03bf b337 c9bf
000000c0: e837 7f40 29c4 c6c0 c196 533f 5ac2 9bc0
000000d0: 1c90 5cc0 33b3 5cc0 f41f 51c0 7284 83c0
000000e0: 6e5f 0dbf f63d 60c0 08df 43be a2c8 06be
000000f0: d634 55c0 645e 82c0 c55e 28c0 fcbe adc0
0.58497596 -2.0951052 2.7375317 -0.46411783 -0.3511081 -4.086938 0.60526216 -7.6732697
2.8051543 -5.4308233 -0.26635367 -0.5153856 -3.5354145 1.2337903 -0.89190227 1.3466183
-0.3738572 -5.7633123 -4.179413 -5.4776654 2.684982 1.4549397 -1.4016474 -2.777908
0.7420452 -0.09107401 -4.939257 -4.8980536 1.099526 1.288489 -1.3053474 -2.373366
0.87212014 -0.9491027 -3.0783029 -2.2102563 -0.41764602 -2.950243 -8.204084 -4.218241
-3.8906987 1.176905 -3.9591644 -3.1512117 0.8613285 -2.367128 -0.5123197 -1.5720123
3.9877872 -6.2114453 0.8265191 -4.8674746 -3.4462957 -3.4484375 -3.2675753 -4.1099176
-0.5522374 -3.5037818 -0.19128048 -0.13162473 -3.3313498 -4.0740223 -2.6307843 -5.4295635

22.running_var f4 [64]
00000000: d42c 8041 8054 8c40 11b5 3041 cea2 0f41
00000010: bd34 0a41 50e9 ee40 8116 f740 bc46 5641
00000020: 818e 5f41 1808 4841 35f1 b740 0b9a 2241
00000030: c2d5 c240 cad7 2b41 8402 3741 a053 0541
00000040: e459 c240 a808 0b41 0e20 a941 493f e841
00000050: c943 2241 5e1a cf40 7bf7 2141 7698 c340
00000060: 9bae 2a41 8dbd 5a41 62f2 3e41 5fe0 8d41
00000070: 758c 4241 abbf 0241 5cd1 d140 01ed 0441
00000080: 6b06 7440 c816 9040 8e42 b240 f008 0541
00000090: f2c8 9a41 34ba e940 bfaa 5541 36a6 9341
000000a0: 40ce 2d41 a311 eb40 f22a 7241 667a 3142
000000b0: c666 c841 4c82 1941 2d67 5840 22a7 1f41
000000c0: 9f20 e440 33b6 de40 1cee f340 9f42 8241
000000d0: ed00 2141 907e 4d41 a460 fe40 247a 4341
000000e0: 38a2 2a41 f9b8 0341 e76c df40 1a47 5841
000000f0: 8c59 0041 47a9 3841 9f1a 2741 64f4 b940
16.021889 4.385315 11.044206 8.977247 8.637876 7.4659805 7.721497 13.392269
13.972291 12.501976 5.748194 10.162608 6.0885935 10.740183 11.438114 8.332916
6.073473 8.689613 21.140652 29.030901 10.141549 6.4719687 10.12292 6.112361
10.667628 13.671277 11.9341755 17.734556 12.159291 8.171794 6.5568066 8.307862
3.8128917 4.502781 5.5706244 8.314682 19.348118 7.30398 13.354186 18.456158
10.862854 7.345903 15.135485 44.36953 25.050182 9.594311 3.3812973 9.978304
7.128982 6.959741 7.622816 16.28253 10.062726 12.843399 7.949297 12.2173195
10.664604 8.232659 6.9820437 13.517359 8.021862 11.541327 10.443999 5.811083

26.weight f4 [64]
00000000: e1f0 973f 00c7 753f 76b9 213f a17f 9c3f
00000010: 8d01 853f cc89 a73f 8045 963f 6c03 933f
00000020: 2d67 6a3f ced1 743f 1d1b 833f e249 6d3f
00000030: a8fc 8d3f 2142 5d3f f982 843f ae4d 9c3f
00000040: 6fd8 7d3f 8654 7a3f 24cf 853f c4f6 8b3f
00000050: 77a3 853f 2177 743f a372 433f 3ef8 7e3f
00000060: 29c1 743f 9f62 943f 48bf 753f 9527 673f
00000070: 349d 843f f212 5a3f ad8d 933f 7d1b 833f
00000080: 43a3 473f 78e8 833f 392b 983f 28c0 933f
00000090: 0fd9 7f3f d9f7 7f3f cba0 413f 73e8 813f
000000a0: 1aca 863f 2127 983f 1827 4a3f b233 813f
000000b0: 7004 593f 443e 623f 6a2c 8d3f cee5 793f
000000c0: c2ac 4e3f 7479 883f 5b0e 8c3f 9855 6d3f
000000d0: 8b9f 863f d046 833f 09b2 8c3f d76a 903f
000000e0: 30db 7d3f 4968 823f 5197 933f 4290 833f
000000f0: d296 883f 9c2e 8f3f 9def 253f 4def 703f
1.1870385 0.96006775 0.63173616 1.2226449 1.0391098 1.3088927 1.173996 1.1485419
0.91563684 0.95632637 1.0242649 0.9269086 1.109273 0.8642903 1.035247 1.2211206
0.99158376 0.9778522 1.0453839 1.0934682 1.044051 0.95494276 0.76346797 0.9959754
0.9560724 1.1592597 0.95995 0.9029477 1.0360475 0.8518516 1.1527611 1.0242764
0.7798349 1.0305319 1.188819 1.1543016 0.9994058 0.9998756 0.75635976 1.0149063
1.0530427 1.1886941 0.789659 1.0093901 0.84772396 0.8837626 1.1029179 0.9761628
0.8073236 1.0662065 1.0941881 0.9270873 1.0517439 1.0255985 1.0991832 1.1282605
0.9916258 1.0188075 1.1530553 1.0278399 1.0671027 1.1186099 0.64818746 0.94115144

26.bias f4 [64]
00000000: 9eb1 9dbe 075a 84be 4444 643e 7945 5fbe
00000010: 3382 9fbe 3b21 82be 3540 14bf adee de3d
00000020: ea34 b8be f9a6 3fbd d208 fe3d 67e4 c03d
00000030: 70b0 9ebe e2a5 f2bd b22d 84be a722 bb3e
00000040: 63f9 3a3e 5005 c0be cdc5 d0bd 78a6 7dbe
00000050: be92 163d e108 923e bef6 68be 61ca 0bbd
00000060: 0e9a a2bd c509 02be 4cbd 003e cb7b f3bd
00000070: 163c abbe 6ec7 6fbd 63db 9cbe 077f 0d3e
00000080: 602c 4abe 75c4 313d 65d5 9c3e 94bf 443e
00000090: 5715 8fbd 2e33 b2bd 7284 cebd 769f 10bd
000000a0: 816d 1fbf 3620 bd3e 95a9 5e3d 35d3 8a3a
000000b0: a18a 21be 6923 e83d b3e7 04be 4679 90bd
000000c0: e619 82be 4569 ac3d 2baf c9bd ce05 87be
000000d0: 574e 2abe 0312 f9bd cf70 463d 0f07 24bd
000000e0: a678 f4bd 5d92 68be 7e2f d3bd 3c72 653e
000000f0: 7993 8bbd 0b00 d23d 91c2 debe 63b8 fd3d
-0.30799574 -0.25849935 0.22291666 -0.21803845 -0.31154022 -0.25415978 -0.5791047 0.108853675
-0.3597787 -0.046790097 0.12404026 0.09418564 -0.30993986 -0.11848046 -0.25816113 0.36549875
0.18259196 -0.37504053 -0.101939775 -0.24770534 0.036761038 0.285224 -0.22750375 -0.03412855
-0.0793954 -0.1269904 0.12572211 -0.11888846 -0.3344428 -0.0585398 -0.3063613 0.13817988
-0.1974349 0.043400247 0.30631557 0.19213706 -0.06986492 -0.08701168 -0.10083856 -0.035308324
-0.62276465 0.36938637 0.054360945 0.0010591509 -0.15775539 0.11334879 -0.12979011 -0.07054381
-0.25410384 0.08418516 -0.09847864 -0.26371616 -0.16631447 -0.121616386 0.048447426 -0.040045794
-0.11937074 -0.22712083 -0.10311793 0.22406858 -0.068152376 0.102539144 -0.43507817 0.123886846

26.running_mean f4 [64]
00000000: 9a7b c140 6423 0640 b496 86bf ea05 70bf
00000010: d33a 40c0 2676 e1bf 6002 573e 9ff4 87bf
00000020: 7920 b0c0 0023 0b40 4696 b53e 3b30 92be
00000030: 6138 4ac0 c95d 63c0 1c60 dbbf 2f17 9fc0
00000040: 940b c4bf baf3 6e3d 75cd 27c0 d3cb 2640
00000050: 011f 6fbf d7e5 0bc0 21e7 ffbf 5a3d 53c0
00000060: c719 b4bf a609 c23f 0f6a 4cc0 159d 4c3f
00000070: 3577 80c0 08fa 43c0 a172 be3f 5d8c 4640
00000080: 0d90 93bf 9c13 87bf 097a 62c0 96cf 01bf
00000090: 3795 51c0 90ac bd3e fb76 d3bf ef29 dac0
000000a0: 02d8 c7bf 60d9 8cbf 9649 9cc0 9b71 6cc0
000000b0: 3c6c e9bd eb09 c6c0 a17b d1c0 e1e7 50c0
000000c0: 0d07 78bf 73af aec0 b4b2 543e d2f1 15bf
000000d0: 8591 26c0 e0f4 0240 fd8c 0ec0 9c61 2bc0
000000e0: dcd8 dfbf b590 9940 c9ed 1ebf 168e 65be
000000f0: 0c97 05be 90a4 5ebf b7f8 9d3f 0505 d2c0
6.046338 2.09591 -1.0514741 -0.93759024 -3.0035903 -1.7614181 0.20997 -1.0621527
-5.503964 2.1740112 0.35466212 -0.28552422 -3.159691 -3.5525992 -1.7138705 -4.97158
-1.5316033 0.058337905 -2.621915 2.6061904 -0.93406683 -2.1859033 -1.999241 -3.3006196
-1.4070367 1.5159194 -3.1939733 0.7992719 -4.0145516 -3.0621357 1.4878732 3.102317
-1.1528336 -1.0552859 -3.5386984 -0.50707376 -3.2747324 0.37045717 -1.6520685 -6.817619
-1.5612795 -1.1003838 -4.8839827 -3.694434 -0.11397597 -6.1887107 -6.5463414 -3.2641528
-0.9688576 -5.458917 0.20771295 -0.58572114 -2.6026318 2.046196 -2.2273552 -2.6778326
-1.7488055 4.7989144 -0.6208158 -0.22417483 -0.13045901 -0.8696985 1.2341527 -6.5631127

26.running_var f4 [64]
00000000: 7678 6941 b892 6441 1967 3e41 8f8d 1e41
00000010: b46f 3541 4066 6341 89f0 0041 9d23 cf41
00000020: e3e0 a441 f235 8d41 ad78 c141 1994 9041
00000030: 13bb 0841 7ca7 4a41 4116 ef40 d71f 6242
00000040: a17c 4141 0bd8 fa40 4360 2141 d009 8541
00000050: 5609 3241 7853 7041 d7a6 1d41 b664 2e41
00000060: c582 1941 30a7 8041 2428 e541 ce75 3a41
00000070: 5f59 4a41 d960 6341 792e 4741 05ed 9341
00000080: 7597 1941 a444 7141 5c80 0842 0dfe 1542
00000090: cde0 9b41 d5a4 8341 6a19 2641 64cf 3741
000000a0: 8659 0741 04a8 a741 795d 3641 1c61 1441
000000b0: deb5 eb40 1959 1542 03c8 2041 03f2 2941
000000c0: ef3f 2441 fbec 8741 4c9d 4241 136c 1241
000000d0: 387a 4241 0b8a 6d41 5f8d a541 7c07 6a41
000000e0: 0799 df40 1767 4341 ff80 6041 dd22 c341
000000f0: b183 ca40 9ee0 6f41 481a fc40 8351 4741
14.591909 14.28582 11.90017 9.90956 11.339771 14.212463 8.058724 25.89239
20.609808 17.65134 24.183924 18.072313 8.545672 12.66589 7.4714665 56.531094
12.092927 7.8388724 10.086001 16.629791 11.127279 15.020378 9.853232 10.899588
9.594426 16.081635 28.6446 11.653761 12.646819 14.211144 12.448846 18.490732
9.599477 15.079258 34.12535 37.498096 19.484766 16.455484 10.381205 11.488132
8.459356 20.957039 11.39782 9.273708 7.3659506 37.33701 10.048831 10.621585
10.265609 16.990713 12.163403 9.151385 12.154839 14.846202 20.694029 14.626827
6.98743 12.212668 14.031493 24.392023 6.3285756 14.992338 7.878208 12.4574

31.weight f4 [128]
00000000: 5572 613f eb53 703f 6c1c 913f 7028 823f
00000010: 6a29 663f 2c4d 693f ef8a 943f 6aae 433f
00000020: e2aa 8a3f 267d 803f 0600 623f 6726 823f
00000030: 88a6 4d3f 69b8 5d3f 102c 543f 82e2 783f
00000040: 62f9 5e3f 8c7c 873f a15f 863f 66a5 b93f
00000050: 103f a33f 63f1 723f d341 9d3f ebeb 153f
00000060: 1116 803f a983 653f d346 6f3f 11a8 233f
00000070: 1e98 713f bc98 4b3f dcc0 4c3f fd2c 703f
00000080: 1793 6e3f 9e19 2c3f 2fdd 673f bdf6 5f3f
00000090: ec15 553f 7749 893f 8e99 633f b297 603f
000000a0: d9a6 8a3f 1ab1 883f 4e22 503f 3ea2 8a3f
000000b0: 33ed 633f 3914 323f 7914 5c3f 04f0 883f
000000c0: 4bdc 6e3f bd62 2e3f 19ed 833f a5f5 7f3f
000000d0: 30b0 5d3f 07e2 663f b45e 833f a9a3 563f
000000e0: e3b7 3b3f 6dcf 803f 0bdd 1a3f 6f27 913f
000000f0: d0b8 c73f 99a9 9b3f 7669 493f 7708 373f
00000100: 883a 8b3f 846f 563f 934b 6e3f ca3f 743f
00000110: 231c 6d3f 9db9 9e3f 9e31 823f 7de6 8c3f
00000120: e1fe 573f 7b23 853f 4e08 643f c91b 6f3f
00000130: edc1 883f 81e6 5a3f a343 753f a77b 6f3f
00000140: 75cc 033f b61c 893f a8ba 473f abcc 3c3f
00000150: 2c1b 4c3f efd7 693f 6989 853f 125e 473f
00000160: 30f1 a53f e587 a83f 682b 7a3f ef58 363f
00000170: a5cf 493f 3cb9 823f 37b2 b23f 6832 933f
00000180: 285d a13f c266 a73f 7575 7d3f cdbf 843f
00000190: 1ac7 663f 77af 6d3f 0270 473f 481f 3b3f
000001a0: d600 0f3f 36a5 433f f502 563f aa22 953f
000001b0: 3dfb 9f3f d4dc 513f e25e 8d3f 00fc b03f
000001c0: 3aeb 8d3f e4ce 8f3f 36f8 8a3f 126a 4d3f
000001d0: eaff 4a3f b059 7b3f 5956 853f 0777 6b3f
000001e0: 01b2 963f d107 9b3f 7690 543f 2a0e 6d3f
000001f0: f3c2 9f3f d835 7d3f 1a64 7a3f a94f 893f
0.8806508 0.9387805 1.1336799 1.016859 0.8990694 0.9113338 1.1604899 0.7643801
1.0833399 1.0038192 0.88281286 1.016797 0.8033223 0.8660951 0.82879734 0.97220623
0.8709928 1.0584884 1.0497934 1.4503601 1.275362 0.94899577 1.2285713 0.5856311
1.0006734 0.8965402 0.93467444 0.63928324 0.9437274 0.7952993 0.7998178 0.93818647
0.9319319 0.6722659 0.90571874 0.8748587 0.83236575 1.0725545 0.8890618 0.8773147
1.0832168 1.0679047 0.81302345 1.0830762 0.8903381 0.6956211 0.8596874 1.0698247
0.9330489 0.6811941 1.0306731 0.999842 0.86596966 0.9018864 1.0263276 0.83843476
0.73327464 1.0063301 0.60493535 1.1340159 1.5603275 1.2161132 0.78676546 0.7149729
1.0877237 0.8376391 0.9308407 0.95409834 0.9262106 1.2400395 1.0171392 1.100784
0.8437329 1.0401453 0.8907517 0.9340177 1.0684181 0.8550797 0.9580633 0.93548054
0.5148385 1.0711887 0.7801919 0.737498 0.7972896 0.91345114 1.0432559 0.77877915
1.296423 1.3166472 0.9772248 0.7122945 0.78832465 1.0212779 1.3960637 1.1499758
1.2606554 1.3078234 0.9900735 1.0371033 0.90147555 0.92845863 0.77905285 0.73094606
0.5586065 0.76423967 0.8359826 1.1651204 1.2498547 0.8197758 1.1044581 1.3826904
1.108741 1.1235013 1.0856998 0.80239975 0.79296744 0.9818373 1.0416976 0.91978496
1.1773072 1.211176 0.8303293 0.9259974 1.2481369 0.98910284 0.9780899 1.0727435

31.bias f4 [128]
00000000: 01ed c0bc dc52 53be f4ef 0d3e 2719 c3be
00000010: 81db bcbd 4a1c a1be e002 cebd 46a3 c8be
00000020: a55b e5bd bad5 f1bd 94ed 86be 0fbc 8fbd
00000030: 9dcc 98be 2138 4dbe 1ac2 97be 3ff8 bdbd
00000040: db9f 16bf d116 80be 00a3 4ebe c7e1 13bf
00000050: 5016 5d3d 20ca cebe 3175 05be bc53 b8be
00000060: 5317 a7be 510d d5be 38c2 3c3e 44e2 44be
00000070: df21 1abe d165 eebe de2d dfbe f533 fdbe
00000080: 2081 f6be c023 81be c28a 41be 9d6e fabd
00000090: d482 ecbe 8e7e 28be 3db9 fcbe 31ff adbe
000000a0: 9519 b9be 356a 363e a5b0 4abe 2fa3 8ebe
000000b0: aeaa 87be 4058 44bf 4dcc 2cbe 6207 c7be
000000c0: 2597 3cbd 3aeb f3be 5699 86be 1be6 e0be
000000d0: 7ef2 e43b 9fca dabe 839e adbc 8388 8abe
000000e0: cf74 f4be 609a bebe 5768 d1be f161 d7be
000000f0: 3b21 18bf 7fa9 9dbe 5001 c1bd ad0f 95be
00000100: 941e e7be 96f1 59bd c8a2 a0bd 7ca1 babe
00000110: ac8e d9ba 61e6 e7bb 4290 d5bb 37b5 82be
00000120: 993e c4be d22d 11bf 3efc 91be fb84 0bbf
00000130: e88c 0dbe dc32 acbd 5da2 c6be c9f5 b8ba
00000140: d91d b1be e3f3 0ebf 1739 83be b386 dfbd
00000150: 3ff9 dcbe cd2c 4ebe dc04 0ebf 053c cfbd
00000160: f5af 51be b21b 863e b069 02be 12a9 1abe
00000170: ba6a 33be 15f8 1dbf 8cbd c2be d2f4 1abe
00000180: 56c3 b3be 3115 48bf 9d8d 0fbf 7267 21be
00000190: 952c 25be f0c2 32be 94da 9ebe e877 62be
000001a0: ec4c debe c7c1 97be 1c94 493d f39d 9ebe
000001b0: a70a 87bb 293f e0be 5b83 d7bc 754b d5be
000001c0: 0f74 2bbe 2640 04bf 0f6c 0a3f d503 a6be
000001d0: 17cf 81be 83fa c9bd 4470 11bf d59d f3be
000001e0: 7ec9 94be ccf4 4fbd abdd dbbe 11de cebe
000001f0: 66d2 f5bc 1620 4ebe 069e 95be ce41 f6be
-0.023550512 -0.20637077 0.13861066 -0.38105127 -0.092215545 -0.31466895 -0.10059142 -0.39187068
-0.111991204 -0.11808343 -0.26353133 -0.07018291 -0.29843608 -0.20040943 -0.29640275 -0.09275865
-0.5883767 -0.25017408 -0.20179367 -0.57766384 0.053976357 -0.40388584 -0.13032986 -0.36001384
-0.32634982 -0.41611722 0.18433464 -0.19226938 -0.15051983 -0.46562055 -0.4358968 -0.49453703
-0.4814539 -0.25222588 -0.18900588 -0.12228129 -0.46193564 -0.16454527 -0.49360076 -0.33983758
-0.3615233 0.17813952 -0.19793947 -0.27858874 -0.26497406 -0.7669716 -0.1687481 -0.3887282
-0.04604258 -0.476404 -0.2628886 -0.43925557 0.006986915 -0.42732713 -0.021193748 -0.27057275
-0.47745368 -0.37227154 -0.40899917 -0.4206691 -0.59425706 -0.30793378 -0.094240785 -0.29113522
-0.45140517 -0.05320891 -0.07843548 -0.36451328 -0.0016598306 -0.007077024 -0.006517441 -0.2552888
-0.38329008 -0.5671054 -0.28512758 -0.5449979 -0.13823283 -0.08408138 -0.38795748 -0.0014111336
-0.34593084 -0.5584089 -0.25629494 -0.10914364 -0.4315891 -0.20134278 -0.55476165 -0.1011887
-0.20477279 0.26193005 -0.12735629 -0.15103558 -0.17521182 -0.6170667 -0.38035238 -0.15132454
-0.35109967 -0.78157336 -0.5607546 -0.15762118 -0.16130288 -0.17457175 -0.31026137 -0.22116053
-0.43418062 -0.29640028 0.049213514 -0.3097988 -0.004121143 -0.43798187 -0.026307752 -0.41659132
-0.16743492 -0.5166038 0.54071134 -0.324248 -0.2535331 -0.098622344 -0.5681193 -0.47581354
-0.29059976 -0.050770566 -0.42942557 -0.40403798 -0.030007552 -0.20129427 -0.29222125 -0.4809708
