notebooks/Radio_27ML/27ml_rf/models/radio_27ml_finn.onnx (onnx, 711196 bytes, 57 tensors)

2.weight f4 [64]
0	0x3f819ab2	1.0125334
1	0x3f6e4ded	0.93087655
2	0x3f8541d1	1.041071
3	0x3f696760	0.9117336
4	0x3f8c8dbc	1.0980754
5	0x3f8cec28	1.1009569
6	0x3f836d4a	1.0267727
7	0x3f81cb99	1.0140258
8	0x3f8505c8	1.0392389
9	0x3f83273a	1.0246346
10	0x3f73d209	0.95242363
11	0x3f79f796	0.9764341
12	0x3f8e8a4f	1.1135958
13	0x3f7bf435	0.98419505
14	0x3f87d9b4	1.0613313
15	0x3f876192	1.0576651
16	0x3f828bbe	1.0198896
17	0x3f85f553	1.0465492
18	0x3f833f7a	1.0253747
19	0x3f6e5a9d	0.93107015
20	0x3f7b7fde	0.98241985
21	0x3f82a6fc	1.020721
22	0x3f7051b5	0.93874675
23	0x3f8ea118	1.1142912
24	0x3f7c6833	0.98596495
25	0x3f7a01ca	0.9765898
26	0x3f843fd9	1.0331985
27	0x3f75cb1a	0.96013033
28	0x3f6fff97	0.93749374
29	0x3f866f86	1.0502784
30	0x3f89ad67	1.0756043
31	0x3f725b71	0.9467078
32	0x3f87d7ff	1.0612792
33	0x3f82c21e	1.021549
34	0x3f74bf5d	0.956045
35	0x3f747135	0.9548524
36	0x3f7d2062	0.9887754
37	0x3f6aba55	0.9169057
38	0x3f83007c	1.0234523
39	0x3f874bba	1.0569985
40	0x3f84770b	1.0348829
41	0x3f83e6af	1.0304774
42	0x3f8615af	1.0475367
43	0x3f6ee3c1	0.93316275
44	0x3f70650f	0.93904203
45	0x3f8b3a10	1.0877094
46	0x3f80b9a5	1.0056654
47	0x3f62cd64	0.8859465
48	0x3f786ea7	0.9704384
49	0x3f6834ae	0.9070538
50	0x3f8175b1	1.0114042
51	0x3f776170	0.9663305
52	0x3f6774f3	0.90412825
53	0x3f68b281	0.90897375
54	0x3f87da22	1.0613444
55	0x3f7bedd7	0.9840979
56	0x3f76b841	0.963749
57	0x3f81af9e	1.0131719
58	0x3f831ad4	1.0242562
59	0x3f6230ba	0.883556
60	0x3f803c1d	1.0018345
61	0x3f69189a	0.91053164
62	0x3f6b5f97	0.91942734
63	0x3f91442a	1.1348927

2.bias f4 [64]
0	0x3d533c61	0.051571254
1	0xbd90a05e	-0.070618376
2	0x3d6fc3e9	0.058536444
3	0xbd51c715	-0.05121525
4	0xbd0b1a7f	-0.033960816
5	0xbc84030e	-0.016114738
6	0x3dab8d21	0.083765276
7	0x3d890cb5	0.06691877
8	0x3d68c0a3	0.056824338
9	0x3d596cf6	0.05308243
10	0xbd46cb9b	-0.048534017
11	0xbd9d0b64	-0.07668188
12	0x3dc71f25	0.09722737
13	0xbd1dc22a	-0.038515247
14	0xbd5f0969	-0.054452334
15	0x3c399b1f	0.011328488
16	0x3d8a633c	0.06757209
17	0x3d008893	0.031380247
18	0x3c71f7a3	0.014768514
19	0xbcac88c7	-0.021061314
20	0xbda4e4df	-0.08051466
21	0xbc9fa029	-0.01948555
22	0x3dabc7d1	0.08387721
23	0x3dd8a05e	0.105774626
24	0xbd58fd28	-0.052975804
25	0xbd450e38	-0.048109263
26	0xbd906be9	-0.07051832
27	0x3d143d7c	0.03619145
28	0xbd48da1d	-0.049036134
29	0xbd836ef8	-0.0641765
30	0xbd0ed174	-0.03486772
31	0x3d758367	0.05993977
32	0x3d067b14	0.03283222
33	0xbcc4e54d	-0.02403512
34	0x3cc37930	0.023861498
35	0xbd97c237	-0.074100904
36	0xbcade391	-0.021226676
37	0xbdb4de2d	-0.08831439
38	0x3da2be42	0.07946445
39	0x3d96e1f4	0.07367316
40	0x3d6b0d88	0.05738595
41	0xbdbdd22d	-0.092686035
42	0x3d47777a	0.048697926
43	0xbd50e8d8	-0.051003307
44	0xbd8bd468	-0.06827623
45	0x3a23d7fd	0.00062501413
46	0xbdc33663	-0.09531858
47	0xbe0d8d12	-0.13823345
48	0x3d8620cc	0.06549224
49	0xbe02557f	-0.12727927
50	0x3cdc660e	0.026904132
51	0x3d1384d3	0.036015343
52	0xbda4420a	-0.080204085
53	0x3cbabcb5	0.02279506
54	0x3da20ba1	0.07912374
55	0xbd612a73	-0.054972123
56	0x3df02e8d	0.11727629
57	0xbd2b67ce	-0.041847043
58	0x3d80e89c	0.06294367
59	0xbdc5d721	-0.09660173
60	0xbd8425c6	-0.06452517
61	0xbd93d9d3	-0.07219281
62	0xbd8100be	-0.0629897
63	0x3db928ca	0.09040983

2.running_mean f4 [64]
0	0x3c5246b2	0.012834238
1	0x3cb3eadf	0.021962581
2	0xbd5c0040	-0.053711176
3	0xbd08188f	-0.033226546
4	0x3ccdf551	0.02514139
5	0x3ae3c8ab	0.0017378529
6	0x3cec0494	0.028810777
7	0xbd237034	-0.039901927
8	0xbc8a988f	-0.016918449
9	0x3cf31819	0.029674577
10	0x3ab28c2d	0.0013622098
11	0x3cae002f	0.021240322
12	0x3d5e511f	0.05427658
13	0xbd1bb6b5	-0.03801604
14	0xbc626064	-0.013816927
15	0x3d4ef7e8	0.05052939
16	0x3c1fd4d2	0.00975533
17	0xbd2d1699	-0.04225788
18	0xbc2947eb	-0.010332088
19	0xbca2e9f3	-0.019886946
20	0x3af99291	0.0019040873
21	0xbcc68cfd	-0.02423715
22	0x3c3f1e00	0.011664867
23	0x3cef2dc0	0.02919662
24	0xbc89bfd6	-0.016815107
25	0xbd4d8b7f	-0.050181862
26	0xbc307114	-0.010769147
27	0xbd5d8845	-0.054085035
28	0x3c08184b	0.008306573
29	0xbc8aa069	-0.016922193
30	0x3bfac7c5	0.007653209
31	0xbd4817b5	-0.048850734
32	0xbd23bc6f	-0.039974626
33	0xbbe60f09	-0.0070208353
34	0xbb7fe30e	-0.0039045247
35	0x3c3019c7	0.010748333
36	0xbc85636e	-0.016282763
37	0x3b4e46af	0.0031475236
38	0xbcac37db	-0.021022728
39	0x3ba8e475	0.0051541873
40	0x3cd493be	0.025949355
41	0x3c503464	0.012707803
42	0x3c45e4b0	0.012078449
43	0xbd24cc98	-0.04023418
44	0xbbc0e741	-0.0058869426
45	0xbd42ee32	-0.047590442
46	0xbbfb9462	-0.0076776007
47	0xbc44a18c	-0.012001406
48	0xbcce601b	-0.025192311
49	0xbc192d15	-0.009349127
50	0xbc37c468	-0.0112162605
51	0x3d0bb646	0.034109376
52	0x3cb369dc	0.021901064
53	0x3c4352f9	0.011921638
54	0x3d5fc961	0.05463541
55	0xbcc0d783	-0.023540264
56	0x3d956c71	0.07296074
57	0x3bcf0d92	0.0063187564
58	0xbcc190b5	-0.023628572
59	0xbc1ebefe	-0.009689091
60	0xbd8ddb89	-0.06926639
61	0xbcd75233	-0.026284313
62	0xbd8618e6	-0.06547718
63	0x3d2617cb	0.040550034

2.running_var f4 [64]
0	0x42a361d0	81.69104
1	0x4245df82	49.46827
2	0x43427484	194.45514
3	0x42fb522b	125.660484
4	0x434b4946	203.28622
5	0x434981b1	201.5066
6	0x42922b61	73.084724
7	0x4311da60	145.85303
8	0x431e2574	158.1463
9	0x437adb45	250.85652
10	0x426b10d4	58.766434
11	0x42729c0c	60.65239
12	0x436b0704	235.0274
13	0x432781e9	167.50746
14	0x41df5936	27.91856
15	0x433c235a	188.13809
16	0x426bcc1e	58.949333
17	0x435de538	221.89539
18	0x428abeb5	69.372475
19	0x42382b97	46.04257
20	0x42eee586	119.44829
21	0x429bdcd4	77.931305
22	0x4204d585	33.208515
23	0x43191f91	153.1233
24	0x430de043	141.87602
25	0x433d7e9d	189.49458
26	0x42866e14	67.215
27	0x4334f5f2	180.96072
28	0x429748b5	75.642006
29	0x4280e83d	64.45359
30	0x42ac9e36	86.309006
31	0x4358dc4f	216.86058
32	0x42f21c6c	121.05551
33	0x4297983b	75.797325
34	0x4290aea9	72.34113
35	0x41392a1e	11.5727825
36	0x4292b6e6	73.35722
37	0x425da5a7	55.41177
38	0x431f58e8	159.34729
39	0x426073fd	56.11327
40	0x4291ebd1	72.96058
41	0x427c92c9	63.143345
42	0x42a2a269	81.31721
43	0x435abbee	218.7341
44	0x42dce9af	110.45641
45	0x4361e1df	225.88231
46	0x422bcac2	42.948006
47	0x42aa9b23	85.303
48	0x42484142	50.06373
49	0x4241ae26	48.420067
50	0x422a2b84	42.542496
51	0x42cc809a	102.251175
52	0x421e5c92	39.5904
53	0x41cc2c23	25.521551
54	0x432c0c7c	172.04877
55	0x42be5346	95.16264
56	0x43ab8d1e	343.10248
57	0x43486044	200.37604
58	0x42ded0a9	111.40754
59	0x4202505b	32.578472
60	0x43d3e689	423.80106
61	0x42e1857b	112.760704
62	0x437e4f93	254.31084
63	0x437897be	248.59274

6.weight f4 [64]
0	0x3f81ec10	1.0150166
1	0x3f7ea5eb	0.9947192
2	0x3f72449a	0.9463593
3	0x3f787fc0	0.9706993
4	0x3f83b429	1.0289356
5	0x3f772fac	0.96557117
6	0x3f899c0d	1.0750748
7	0x3f8c741f	1.0972937
8	0x3f75ce14	0.96017575
9	0x3f88a6af	1.0675868
10	0x3f7260ae	0.9467877
11	0x3f7844fd	0.9698027
12	0x3f7283ce	0.9473237
13	0x3f614c79	0.88007313
14	0x3f7c83cf	0.98638624
15	0x3f725897	0.9466643
16	0x3f931640	1.1491165
17	0x3f7e2e1a	0.99289095
18	0x3f733f4f	0.95018476
19	0x3f700b41	0.9376717
20	0x3f61a3f4	0.881408
21	0x3f68c9c8	0.90932894
22	0x3f6dba61	0.92862517
23	0x3f80b142	1.0054095
24	0x3f86409e	1.048847
25	0x3f75a17a	0.9594952
26	0x3f88d2b5	1.0689303
27	0x3f6b4d55	0.91914874
28	0x3f85e8d3	1.0461677
29	0x3f824c00	1.0179443
30	0x3f68ce3d	0.90939695
31	0x3f7f3971	0.99697024
32	0x3f8b02de	1.086025
33	0x3f838d60	1.0277519
34	0x3f829431	1.0201474
35	0x3f87fe05	1.0624396
36	0x3f71fa81	0.94522864
37	0x3f7cb80c	0.98718333
38	0x3f81d303	1.0142521
39	0x3f6fab40	0.9362068
40	0x3f697338	0.91191435
41	0x3f86f2f1	1.054289
42	0x3f8a9274	1.0825944
43	0x3f76018f	0.9609613
44	0x3f72311d	0.9460619
45	0x3f82c926	1.0217636
46	0x3f7fd9b4	0.99941564
47	0x3f8b6b1a	1.089206
48	0x3f71fdbc	0.9452779
49	0x3f642b09	0.89128166
50	0x3f6ad6d0	0.9173403
51	0x3f8e432a	1.1114247
52	0x3f80ee11	1.0072652
53	0x3f8f03a9	1.1172992
54	0x3f7ac074	0.9794991
55	0x3f6e53e4	0.93096757
56	0x3f85e7b8	1.046134
57	0x3f777855	0.9666799
58	0x3f7dd3de	0.9915141
59	0x3f67af4b	0.9050185
60	0x3f89ea4e	1.0774629
61	0x3f6e6f20	0.93138313
62	0x3f854de6	1.0414398
63	0x3f66f445	0.90216476

6.bias f4 [64]
0	0x3c3759e8	0.011190869
1	0xbd0cf9ec	-0.03441803
2	0x3d32cd7d	0.043653
3	0x3db51bb0	0.088431716
4	0x3d6133a9	0.054980908
5	0x3d41fa8d	0.047358084
6	0x3d3cf19e	0.04612886
7	0x3cb103e8	0.021608308
8	0x3c1f46d9	0.009721481
9	0x3d24bcb2	0.040219016
10	0x3bc0d207	0.005884412
11	0x3d231f8c	0.039825007
12	0xbca01395	-0.019540587
13	0xbc36c01a	-0.011154199
14	0xbce4e422	-0.027940813
15	0xbc17f211	-0.009274022
16	0x3d775afb	0.0603895
17	0xbcb3104e	-0.02185836
18	0x3bffdbb7	0.0078081745
19	0x3d5cbdbf	0.053891893
20	0xbc37dede	-0.011222569
21	0xbd1b42e0	-0.037905574
22	0xbdd3b4ef	-0.10337245
23	0xbc863c57	-0.016386194
24	0x3dd39fa5	0.10333184
25	0xbcc7ff51	-0.024413737
26	0x3d238050	0.03991729
27	0xbd5ae072	-0.053436704
28	0x3da35832	0.07975806
29	0x3db7f883	0.08982947
30	0xbc94c42c	-0.018159948
31	0xbd694f9d	-0.05696069
32	0x3db70937	0.089373045
33	0x3dc550a8	0.096345246
34	0x3c1299c4	0.008947793
35	0x3d5b6001	0.053558353
36	0xbd63ef4f	-0.055648144
37	0x3ccf4abe	0.025304195
38	0x3d0e4006	0.034729026
39	0xbd05054e	-0.032475762
40	0xbc2caa7d	-0.010538694
41	0x3e1f9232	0.15583113
42	0x3e1789f5	0.1479872
43	0xbd4f97f2	-0.050682016
44	0xbd73e2e9	-0.05954257
45	0xbd4a67bc	-0.049415335
46	0xbd9519da	-0.072803214
47	0xbc3121e9	-0.0108113075
48	0xbcb8b5b3	-0.022547578
49	0x3cfee341	0.031114222
50	0xba9fda39	-0.0012195773
51	0x3ddf9f23	0.10919025
52	0x3c099f50	0.0083997995
53	0x3e2d38cf	0.16916202
54	0x3dd86615	0.105663456
55	0xbdf03023	-0.11727931
56	0x3d2c500a	0.04206852
57	0x3bf38818	0.007431995
58	0x3d0188e0	0.031624675
59	0xbcb83aea	-0.02248903
60	0x3e04581d	0.12924238
61	0x3d2a2b4c	0.041545197
62	0xbcc37d1f	-0.023863373
63	0xbd016a84	-0.03159572

6.running_mean f4 [64]
0	0x3f60fb78	0.8788371
1	0x400d5271	2.2081568
2	0x3e2a5e58	0.16637552
3	0x3ebb5f56	0.36596173
4	0x3eab113a	0.3341158
5	0x3f8bd4ab	1.0924276
6	0xbef3942a	-0.47573978
7	0x3fabb284	1.3413854
8	0x3ee2d8bf	0.4430599
9	0x3f164c89	0.58710533
10	0xbfc1a901	-1.5129701
11	0xbfd47222	-1.659733
12	0x3fbb848c	1.4649825
13	0x3f923b32	1.1424315
14	0xbf0a4759	-0.5401512
15	0xc00a8d44	-2.1648722
16	0xc05ebb40	-3.4801788
17	0xc021b90e	-2.5269198
18	0x3f7610ef	0.9611959
19	0xc008b045	-2.1357586
20	0x3ceb45d7	0.028719826
21	0x3ed7c8ca	0.42145377
22	0x3f24492c	0.6417415
23	0x3ec4fa49	0.38472202
24	0x3f427e71	0.75974184
25	0xbf0658be	-0.5247916
26	0x3f814c31	1.0101377
27	0xbf1e47a8	-0.6182809
28	0xbed26620	-0.4109354
29	0x3fd68d72	1.6761916
30	0x3f7b7100	0.982193
31	0x3fce0e1c	1.6098056
32	0x3f395189	0.7239004
33	0x3f77ae56	0.9675039
34	0xbfbb915f	-1.4653739
35	0x3d575286	0.052568935
36	0x3f3097a2	0.68981373
37	0xbfb12360	-1.383892
38	0x3fcd65ed	1.604673
39	0x3fdbdd7d	1.7176968
40	0x3f6015b2	0.87533104
41	0x3ee65e6b	0.4499391
42	0x3e332514	0.17494613
43	0x3db3a0e8	0.08770925
44	0x3ea594d9	0.32340124
45	0x3f7a3b53	0.9774677
46	0xbf6b98a4	-0.92029786
47	0x3d8de459	0.069283195
48	0xc00cd1c0	-2.2003021
49	0xbfc34694	-1.5255914
50	0x4050e795	3.2641346
51	0x3f0fe83a	0.56213725
52	0xbfdc031c	-1.7188449
53	0x3fcecab0	1.6155605
54	0xc034a67b	-2.8226612
55	0x3fc0f993	1.5076164
56	0x3f809011	1.0043966
57	0xbf788a70	-0.9708624
58	0xbfbc703e	-1.4721754
59	0xbf769304	-0.9631808
60	0x3f845b15	1.0340296
61	0x3fb8c60a	1.4435437
62	0x3dffd933	0.12492599
63	0xbee0085d	-0.4375638

6.running_var f4 [64]
0	0x403e74b2	2.9758725
1	0x3ff7f998	1.9373045
2	0x408f3a71	4.475884
3	0x40cd1b73	6.4096007
4	0x407a8a5a	3.9146943
5	0x408fa78c	4.4892025
6	0x408fa083	4.4883437
7	0x40db4f3e	6.853423
8	0x40357222	2.835091
9	0x40528985	3.2896435
10	0x40ac23b2	5.3793573
11	0x40854b7f	4.165466
12	0x409fda42	4.995393
13	0x40960417	4.6879992
14	0x4015ebdc	2.3425207
15	0x402bf037	2.6865366
16	0x3fdc1325	1.7193342
17	0x4084a1fb	4.144773
18	0x401c21c9	2.439562
19	0x40672f45	3.61226
20	0x3fcb26ea	1.5871251
21	0x401a5d0f	2.4119298
22	0x40bacaf8	5.8372765
23	0x40888972	4.266778
24	0x40e29f97	7.081981
25	0x41068dc8	8.409615
26	0x408b2f89	4.3495526
27	0x403faae8	2.9948063
28	0x403022a0	2.7521133
29	0x40970a69	4.720021
30	0x407b94b6	3.9309516
31	0x3ffd9f67	1.9814271
32	0x40022916	2.0337577
33	0x400d35d5	2.2064106
34	0x406f24c5	3.7366192
35	0x40658cdc	3.5867224
36	0x4078724f	3.8819768
37	0x40b682d2	5.7034693
38	0x4058e180	3.3887634
39	0x3fd44fc8	1.6586847
40	0x40824246	4.07059
41	0x40731b6b	3.7985485
42	0x40c6ceea	6.212758
43	0x40a8d16b	5.2755637
44	0x40a3bae6	5.1165648
45	0x400e5d56	2.2244468
46	0x40e1dbe1	7.0580907
47	0x4022d67a	2.5443406
48	0x40344e46	2.8172774
49	0x403d5ffd	2.9589837
50	0x40092722	2.1430135
51	0x4054467e	3.3168025
52	0x408a444d	4.3208375
53	0x40347aa0	2.8199844
54	0x4031a716	2.775823
55	0x404a69ea	3.1627145
56	0x401242be	2.2853236
57	0x40493605	3.143922
58	0x3f8d17a6	1.1022842
59	0x40b23b2b	5.5697227
60	0x409bc17c	4.8673687
61	0x4098d263	4.775682
62	0x402db018	2.713873
63	0x401f8298	2.4923458

10.weight f4 [64]
0	0x3f81b610	1.0133686
1	0x3f7d8e7b	0.9904553
2	0x3f811b80	1.0086517
3	0x3f67ee8c	0.9059837
4	0x3f86d2af	1.0533046
5	0x3f8f3829	1.1189014
6	0x3f7e388f	0.9930505
7	0x3f7da246	0.99075735
8	0x3f88f4b7	1.0699681
9	0x3f8563b0	1.0421047
10	0x3f89fd01	1.0780336
11	0x3f81c823	1.0139202
12	0x3f84aa68	1.0364504
13	0x3f712743	0.94200534
14	0x3f879649	1.0592738
15	0x3f8da769	1.1066715
16	0x3f7bfc91	0.9843226
17	0x3f7ffa1b	0.99991006
18	0x3f83a317	1.0284146
19	0x3f86ca6d	1.0530525
20	0x3f81e431	1.0147763
21	0x3f6f1060	0.9338436
22	0x3f704081	0.93848425
23	0x3f6f606e	0.93506515
24	0x3f74c662	0.9561521
25	0x3f89d90e	1.0769365
26	0x3f8483cd	1.0352722
27	0x3f743c16	0.95404184
28	0x3f83493c	1.0256724
29	0x3f6c72d8	0.9236274
30	0x3f87e4cb	1.0616697
31	0x3f7b2cb9	0.98115116
32	0x3f78ad5d	0.9713953
33	0x3f69244f	0.9107103
34	0x3f8d7a27	1.1052903
35	0x3f82a8fa	1.0207818
36	0x3f8b2f91	1.0873891
37	0x3f81bf69	1.0136539
38	0x3f8111be	1.008354
39	0x3f738134	0.95119023
40	0x3f7e01bf	0.99221414
41	0x3f81ea2d	1.014959
42	0x3f787470	0.9705267
43	0x3f820da5	1.0160414
44	0x3f81937e	1.0123136
45	0x3f81d1af	1.0142115
46	0x3f8aa4ed	1.0831581
47	0x3f81632a	1.0108387
48	0x3f642df5	0.89132625
49	0x3f8b752a	1.0895131
50	0x3f7ffd36	0.99995744
51	0x3f880c78	1.0628805
52	0x3f80fe52	1.0077612
53	0x3f886ba4	1.0657849
54	0x3f7363aa	0.9507395
55	0x3f77b41f	0.9675922
56	0x3f7d0a93	0.9884426
57	0x3f687d84	0.9081652
58	0x3f7f820a	0.998078
59	0x3f827069	1.0190555
60	0x3f6ea91d	0.93226796
61	0x3f84cec3	1.0375599
62	0x3f6c90df	0.92408556
63	0x3f6a1e84	0.91452813

10.bias f4 [64]
0	0xbdd06f0c	-0.101774305
1	0xbd13e55c	-0.036107406
2	0xbd261917	-0.04055127
3	0xbcd6e547	-0.026232375
4	0x3d49340f	0.049121913
5	0x3e29e228	0.16590178
6	0x3cb7026c	0.022340022
7	0x3d829cb0	0.06377542
8	0xbd5a0f55	-0.053237278
9	0x3d3f9501	0.04677296
10	0xbdd08664	-0.10181883
11	0xbbbae1b5	-0.005703176
12	0xbd95a736	-0.073072836
13	0xbd8a3eb6	-0.067502424
14	0x3d0a1e10	0.033720076
15	0x3d709769	0.058738146
16	0xbda6072e	-0.08106838
17	0xbd7deea5	-0.061995167
18	0x3d89a1ca	0.06720312
19	0x3e3e106a	0.18560949
20	0x3d958edc	0.07302639
21	0xbb98cc6c	-0.004663041
22	0xbd21fc57	-0.03954729
23	0xbd825eca	-0.06365736
24	0x3d4f7887	0.050652053
25	0x3d977e0e	0.0739709
26	0x3cae81fb	0.021302214
27	0x3d334cdd	0.043774474
28	0x3da0d655	0.078533806
29	0xbd74e74c	-0.059790894
30	0xbc8a8490	-0.016908914
31	0xbd4da3db	-0.050205093
32	0xbc411648	-0.011785097
33	0xbd35f706	-0.044425033
34	0xbd007669	-0.031362925
35	0xbcac57c3	-0.021037942
36	0x3de084b3	0.1096281
37	0xbd45896b	-0.048226755
38	0x3d0dd0d8	0.034622997
39	0xbd6ba8f7	-0.057534184
40	0x3cfb0a23	0.030644482
41	0x3d0a7438	0.03380224
42	0xbd60fb79	-0.054927323
43	0x3d23986d	0.039940286
44	0x3c92a785	0.017902145
45	0xbd1da3cc	-0.038486287
46	0x3dc37277	0.09543317
47	0x3cabc5d6	0.020968359
48	0xbe26b695	-0.16280587
49	0x3c3d3a55	0.011549552
50	0xbdb7b094	-0.089692265
51	0x3d519216	0.05116471
52	0x3c710e32	0.014712857
53	0x3d57c677	0.052679505
54	0x3d9ffb2a	0.078115776
55	0xbd85e906	-0.06538586
56	0x3bab9ef7	0.005237456
57	0xbdaaa49c	-0.08332178
58	0x3c556fb7	0.013027123
59	0x3d1405fd	0.036138523
60	0xbd8c6470	-0.068550944
61	0xbc7c0fbb	-0.01538461
62	0x3be0776b	0.006850173
63	0xbd5a4c4b	-0.053295415

10.running_mean f4 [64]
0	0x3efb3e8f	0.49071166
1	0x3f481053	0.7814991
2	0x3d8fda78	0.070240915
3	0xbf8df420	-1.1090126
4	0x3d9f4327	0.0777648
5	0x3f192e7c	0.59836555
6	0x3f0e0fea	0.5549303
7	0x3f924794	1.1428094
8	0x3fe5ade9	1.7943698
9	0x3fe0613f	1.7529677
10	0x3d7331fc	0.05937384
11	0x3f381446	0.71905935
12	0xc005c390	-2.0900612
13	0x3f3e638b	0.7437064
14	0xc009cd48	-2.1531544
15	0xbff3e6c9	-1.9054805
16	0x3f8a0de2	1.0785487
17	0x4015c6a4	2.340249
18	0xbdde41ac	-0.1085237
19	0x3f3e2a0a	0.74282897
20	0x3fd15a24	1.6355634
21	0xbda32b44	-0.07967237
22	0x3f38bcce	0.72163093
23	0x3e9c88c2	0.30573088
24	0xbf66581a	-0.8997818
25	0xc048234c	-3.1271544
26	0x3f538d38	0.8263736
27	0x401df15a	2.467856
28	0x3da9b1a1	0.08285833
29	0x3f65efad	0.8981884
30	0xc0499db9	-3.1502516
31	0xbfbe3bb4	-1.486197
32	0xc05387ad	-3.305156
33	0xbf82f9a2	-1.0232432
34	0x3f3c59b6	0.7357439
35	0x3fbf3935	1.4939333
36	0x3efe6558	0.49686694
37	0xbf5f6915	-0.8726972
38	0x3e19eeec	0.15032548
39	0x3fe457d5	1.7839304
40	0xbc552952	-0.01301034
41	0xbf7c8942	-0.9864694
42	0xc01771f2	-2.3663297
43	0x3f4232b8	0.7585864
44	0x401e151b	2.4700382
45	0x3d23fe68	0.040037543
46	0xbf9070bb	-1.1284403
47	0x3ea60b45	0.32430473
48	0xbe3f0f93	-0.18658285
49	0x3fa6a912	1.3020346
50	0xbfd2629d	-1.6436344
51	0x3fe6e367	1.8038148
52	0xbf5e2935	-0.86781627
53	0xbf2d7363	-0.6775419
54	0xc0487d8a	-3.1326623
55	0x3f1074ec	0.5642841
56	0xbefb302b	-0.49060187
57	0x3ef858f3	0.48505363
58	0x3f88229f	1.0635566
59	0xbec01b50	-0.37520838
60	0xbea570b5	-0.3231255
61	0xc00edcd9	-2.2322295
62	0xbfa37ff1	-1.277342
63	0xbf878e65	-1.059033

10.running_var f4 [64]
0	0x3fee7710	1.8630085
1	0x3fd49bd4	1.6610055
2	0x3f90da46	1.1316612
3	0x3ff90db5	1.9457308
4	0x3fcd0f5c	1.6020312
5	0x3fd9d01b	1.7016634
6	0x401cf622	2.4525228
7	0x3f9b9d13	1.215731
8	0x4029107c	2.6416311
9	0x3f85c489	1.0450603
10	0x401936b8	2.3939648
11	0x3ff8914e	1.9419343
12	0x40875386	4.2289457
13	0x4016ed47	2.3582323
14	0x3fc53734	1.5407472
15	0x401ae98b	2.4205043
16	0x3fb3a0c7	1.403344
17	0x401ecaec	2.4811354
18	0x3fb599df	1.4187583
19	0x3f9de84a	1.2336514
20	0x3fc31e2d	1.5243584
21	0x3fe979cd	1.8240296
22	0x3f16f816	0.589723
23	0x4022b52a	2.5423074
24	0x3fbd9e04	1.4813848
25	0x4008b293	2.1358993
26	0x3fdc2e6d	1.7201668
27	0x400072f4	2.0070162
28	0x400cdb3f	2.2008817
29	0x3fe4c99b	1.7874025
30	0x400ad791	2.1694071
31	0x3fa9c395	1.3262812
32	0x405267f7	3.2875955
33	0x40305cf2	2.755673
34	0x4006a406	2.1037612
35	0x3faa8b02	1.3323672
36	0x40259028	2.5869236
37	0x3f8a1022	1.0786173
38	0x4040256f	3.0022848
39	0x3ff0629f	1.8780097
40	0x409ac83c	4.8369427
41	0x3fbf0d60	1.4925957
42	0x400dd4b0	2.2161064
43	0x401fa538	2.4944592
44	0x403a30dc	2.9092321
45	0x4059931f	3.3996046
46	0x40387b35	2.88252
47	0x3ff6ea34	1.9290223
48	0x3fd774d4	1.6832528
49	0x402baa62	2.6822743
50	0x3f9dd5d7	1.2330884
51	0x3f9256b0	1.1432705
52	0x404febfd	3.2487786
53	0x4005372b	2.0814922
54	0x4059300d	3.3935578
55	0x3f2fbe81	0.6865006
56	0x401ac237	2.418104
57	0x40020d9e	2.0320811
58	0x3fd054de	1.62759
59	0x402d6add	2.7096474
60	0x3f91c0ce	1.1386964
61	0x3f87c2f0	1.0606365
62	0x402a0c28	2.656992
63	0x4008372c	2.1283674

14.weight f4 [64]
0	0x3f722f50	0.94603443
1	0x3f6c76a9	0.9236856
2	0x3f7d1bbf	0.9887046
3	0x3f85aa54	1.0442605
4	0x3f8505c1	1.0392381
5	0x3f9272c7	1.1441277
6	0x3f87f89c	1.0622745
7	0x3f74f5b1	0.95687395
8	0x3f789af1	0.9711142
9	0x3f6eb223	0.93240565
10	0x3f83fda6	1.0311782
11	0x3f8e5034	1.1118226
12	0x3f7a945c	0.9788263
13	0x3f7864a9	0.97028595
14	0x3f6e0f53	0.9299213
15	0x3f831e8c	1.0243697
16	0x3f84f8a9	1.0388385
17	0x3f8456a4	1.0338941
18	0x3f7f5176	0.99733675
19	0x3f859a41	1.04377
20	0x3f8547d0	1.041254
21	0x3f7aa48f	0.97907346
22	0x3f768dde	0.9631022
23	0x3f63ddf3	0.8901054
24	0x3f85974b	1.0436796
25	0x3f6dfa22	0.929598
26	0x3f83edbe	1.0306928
27	0x3f68ed4c	0.90987086
28	0x3f7a4f79	0.97777516
29	0x3f7e95fa	0.99447596
30	0x3f7d17e7	0.988646
31	0x3f88b45c	1.0680041
32	0x3f8044a6	1.002095
33	0x3f7e7711	0.9940043
34	0x3f7d9baf	0.9906568
35	0x3f804a45	1.0022665
36	0x3f846da6	1.0345962
37	0x3f7056b3	0.9388229
38	0x3f660712	0.8985454
39	0x3f823364	1.0171933
40	0x3f808b6b	1.0042547
41	0x3f6ca623	0.92441005
42	0x3f83290a	1.0246899
43	0x3f832fc3	1.0248951
44	0x3f870a93	1.0550102
45	0x3f659884	0.89685845
46	0x3f6bd2ba	0.9211842
47	0x3f667c84	0.90033746
48	0x3f840cc4	1.0316396
49	0x3f7facd2	0.9987308
50	0x3f890469	1.0704471
51	0x3f803a31	1.0017759
52	0x3f870e81	1.0551301
53	0x3f7daf0f	0.99095243
54	0x3f85c41a	1.045047
55	0x3f85de1c	1.0458407
56	0x3f7282c4	0.9473078
57	0x3f81e938	1.0149298
58	0x3f88527d	1.0650173
59	0x3f7f44d2	0.99714386
60	0x3f8a6f1c	1.0815158
61	0x3f7f6098	0.99756765
62	0x3f693b04	0.91105676
63	0x3f789dea	0.9711596

14.bias f4 [64]
0	0x3d8fb0cb	0.070161425
1	0xbd78cafe	-0.060740463
2	0xbd3560f0	-0.0442819
3	0x3d1b0d5a	0.03785453
4	0x3d46b6e1	0.04851425
5	0x3dd75e6b	0.10516056
6	0x3dd52e1a	0.10409184
7	0x3cc24c17	0.023717923
8	0xbd1a2432	-0.037632175
9	0xbd4a1f55	-0.049346287
10	0x3d1dcf1e	0.0385276
11	0x3cf6d67e	0.030131575
12	0x3c3cd770	0.011525974
13	0xbc16c2b3	-0.009201693
14	0xbd3bac3e	-0.04581856
15	0xbcb05c70	-0.021528453
16	0xbccd12a4	-0.025033303
17	0x3df447dd	0.11927769
18	0xbd3f0847	-0.046638753
19	0x3d4406b8	0.04785797
20	0x3dbb37e2	0.09141518
21	0xbcee75d0	-0.029108912
22	0x3d362044	0.044464365
23	0xbd38a34c	-0.045077607
24	0x3d406431	0.04697055
25	0xbd21376c	-0.039359495
26	0xbccb8574	-0.024843909
27	0xbd7bbbed	-0.061458517
28	0x3a13736c	0.0005624804
29	0x3d0b4063	0.03399695
30	0xbd2d9cc1	-0.04238582
31	0x3cb48c6c	0.022039615
32	0x3c9ee6d7	0.019397182
33	0x3d564a01	0.05231667
34	0x3d5ba8d1	0.053627793
35	0x3d3abdd2	0.045591183
36	0x3ce032f2	0.027368043
37	0xbcc814d6	-0.024423998
38	0xbe143ded	-0.14476748
39	0xbc85c7d8	-0.016330644
40	0xbc0c4050	-0.008560255
41	0xbd727d13	-0.05920131
42	0x3d7ea099	0.062164877
43	0x3cf2ba8b	0.029629966
44	0x3d4d032f	0.050051864
45	0xbdd7c2d3	-0.10535207
46	0x3d9300d1	0.0717789
47	0xbdce03af	-0.10059296
48	0x3c74c164	0.014938686
49	0xbce22d20	-0.027609408
50	0xbd31af62	-0.04338015
51	0x3daac684	0.08338645
52	0x3da5e5c1	0.08100463
53	0x3a6a10de	0.0008928905
54	0x3d368a77	0.044565644
55	0x3c28ecf3	0.010310399
56	0xbd564d01	-0.05231953
57	0x3d03e37e	0.032199375
58	0xbccac8a3	-0.024753874
59	0x3d3a9625	0.045553345
60	0x3e47f56f	0.19527219
61	0x3daca7c3	0.084304355
62	0xbe00a767	-0.12563859
63	0xbd568777	-0.052375283

14.running_mean f4 [64]
0	0xbfcaed33	-1.5853637
1	0xbf1327e2	-0.5748273
2	0x3f7bebde	0.9840678
3	0xbf76f7cd	-0.96471864
4	0x3e69c837	0.22830282
5	0xbea05725	-0.31316486
6	0xbfe9bd17	-1.8260831
7	0x3f10f167	0.5661835
8	0xbf84ed9e	-1.0385015
9	0xbdc37246	-0.0954328
10	0x3ec4abc5	0.384123
11	0xbfea7723	-1.8317608
12	0xbeafe038	-0.34350753
13	0xbeb61b45	-0.3556768
14	0x3cdefdc6	0.027220618
15	0x3ebd4f6d	0.3697466
16	0x3f8f07ae	1.1174219
17	0xc00d4e2d	-2.2078965
18	0x3f2cc96d	0.6749485
19	0x3e2195ff	0.15779875
20	0xbfa2243a	-1.2667305
21	0xbf51f51b	-0.82014626
22	0xbf16aa2f	-0.5885343
23	0x3f4e635f	0.8062038
24	0xbf103b95	-0.56340915
25	0x3f3ae797	0.7300963
26	0xbbd7ba29	-0.0065834713
27	0x3f911d9d	1.1337162
28	0x3eaac7ae	0.3335547
29	0xbff75ec1	-1.9325792
30	0xbf30b187	-0.69020885
31	0xbf817280	-1.0113068
32	0x3ee8d05a	0.4547146
33	0xbfacfa2b	-1.3513845
34	0xbcd32a21	-0.025776925
35	0x3fc39510	1.5279865
36	0xbe305b4b	-0.17222326
37	0xbfe55b25	-1.791844
38	0xbe2b0c83	-0.16703992
39	0xbed2854d	-0.41117325
40	0x3f8149b0	1.0100613
41	0x3fec3b0b	1.8455518
42	0x3e9f6c9c	0.3113755
43	0xbc9f1d66	-0.019423198
44	0xbd5db634	-0.05412884
45	0x3f9f07e3	1.2424282
46	0xbf5cfd82	-0.8632432
47	0xbf9c57d2	-1.2214301
48	0x3c011c5e	0.007880298
49	0xbcfc8326	-0.030824255
50	0xbf308387	-0.68950695
51	0xbf88cff4	-1.0688462
52	0x3f2be77f	0.6715011
53	0x3f3d371e	0.7391223
54	0xbe086956	-0.13321432
55	0xbf8c3212	-1.095278
56	0x3e826980	0.25471115
57	0xbd8f1c92	-0.06987871
58	0xbdd148f1	-0.102189906
59	0x40049890	2.0718117
60	0xbf2ff31c	-0.6873033
61	0xbff33280	-1.8999786
62	0xbf89922a	-1.0747731
63	0xbf0a903d	-0.5412634

14.running_var f4 [64]
0	0x40595985	3.3960888
1	0x3f7bc1ce	0.983426
2	0x40025125	2.0362027
3	0x402cd051	2.7002146
4	0x3fa6feb6	1.3046482
5	0x400ae4c1	2.170212
6	0x40118922	2.273995
7	0x3f90515f	1.1274832
8	0x3fb53747	1.4157494
9	0x3f893fb1	1.0722562
10	0x4007e84b	2.123553
11	0x40255bc0	2.583725
12	0x3fc8cd04	1.5687566
13	0x3fd021a5	1.6260267
14	0x404096cd	3.0092041
15	0x401e92c9	2.477709
16	0x4024717a	2.569426
17	0x3fcc8aac	1.5979819
18	0x3fde74e1	1.7379419
19	0x4006598b	2.0992153
20	0x4012b1fe	2.2921138
21	0x3fcea097	1.6142758
22	0x3fdd81cb	1.7305235
23	0x3fa68304	1.3008733
24	0x40137fd5	2.3046772
25	0x401de5bb	2.4671466
26	0x3f94d1e8	1.1626558
27	0x40210848	2.5161304
28	0x3faaa7cb	1.3332456
29	0x3f9f6586	1.2452857
30	0x3fc7c21d	1.5606114
31	0x3f8deebf	1.1088485
32	0x3f8240fd	1.0176083
33	0x403c5f54	2.9433184
34	0x400e25f4	2.2210665
35	0x3fff6cfd	1.9955136
36	0x3f918f3b	1.1371835
37	0x3fdfa1f3	1.7471298
38	0x3fc8b5dd	1.56805
39	0x3f954a9d	1.1663395
40	0x400975c2	2.1478124
41	0x402a9070	2.6650658
42	0x3f8cd596	1.1002681
43	0x3f9ed3fd	1.2408444
44	0x3fbb40da	1.4629166
45	0x40011123	2.016671
46	0x3faf00f2	1.3672163
47	0x3f8bb39a	1.0914185
48	0x3f3750ca	0.7160765
49	0x400c381d	2.190925
50	0x3fa9ea2f	1.3274592
51	0x3fe64d6a	1.7992375
52	0x3fe661b5	1.7998568
53	0x403ad8f2	2.9194913
54	0x40062caf	2.0964773
55	0x3fdf898b	1.746385
56	0x3fa4875f	1.2853812
57	0x3fb1920b	1.3872694
58	0x3ffecec9	1.9906856
59	0x4009a9e5	2.1509945
60	0x3f9e6e89	1.2377483
61	0x4023b461	2.5578845
62	0x3f8e8e36	1.1137149
63	0x3f733857	0.9500784

18.weight f4 [64]
0	0x3f68b342	0.90898526
1	0x3f79f445	0.9763835
2	0x3f8844fd	1.0646054
3	0x3f70f7c9	0.9412809
4	0x3f687cd6	0.90815485
5	0x3f7a6c1a	0.978212
6	0x3f706168	0.9389863
7	0x3f950c79	1.1644431
8	0x3f7c9672	0.9866706
9	0x3f7b9b9e	0.9828433
10	0x3f7a35fc	0.97738624
11	0x3f80d003	1.006348
12	0x3f8454e9	1.0338413
13	0x3f83da4a	1.0300992
14	0x3f82034a	1.0157254
15	0x3f7008aa	0.9376322
16	0x3f851fe4	1.0400357
17	0x3f83e4d5	1.0304209
18	0x3f858036	1.0429752
19	0x3f775e84	0.96628594
20	0x3f6f857e	0.9356307
21	0x3f807e57	1.0038556
22	0x3f858b85	1.0433203
23	0x3f77627a	0.9663464
24	0x3f6ef4c2	0.9334222
25	0x3f8774d8	1.0582533
26	0x3f846f5c	1.0346484
27	0x3f830421	1.0235635
28	0x3f7a356b	0.9773776
29	0x3f753cfc	0.9579618
30	0x3f86817b	1.0508264
31	0x3f8105bd	1.0079876
32	0x3f6ad618	0.9173293
33	0x3f7d3ae6	0.98917997
34	0x3f72aa52	0.9479114
35	0x3f8a0cba	1.0785134
36	0x3f89494d	1.0725495
37	0x3f6c0987	0.9220204
38	0x3f8a40d8	1.0801039
39	0x3f771e57	0.9653067
40	0x3f705961	0.9388638
41	0x3f89558b	1.0729231
42	0x3f886e1e	1.0658605
43	0x3f89887b	1.0744776
44	0x3f806f85	1.0034033
45	0x3f807092	1.0034354
46	0x3f7e8f24	0.99437165
47	0x3f6e121a	0.9299637
48	0x3f76fddb	0.964811
49	0x3f877a1c	1.058414
50	0x3f63451f	0.88777345
51	0x3f84518c	1.0337386
52	0x3f883704	1.064179
53	0x3f811fe1	1.0087854
54	0x3f76f7ee	0.9647206
55	0x3f7452bb	0.95438737
56	0x3f884b9c	1.0648074
57	0x3f85e944	1.0461812
58	0x3f84dc1e	1.0379674
59	0x3f7ff6b8	0.9998584
60	0x3f5ef9ed	0.87100106
61	0x3f831e2e	1.0243585
62	0x3f78d8a2	0.97205555
63	0x3f868678	1.0509787

18.bias f4 [64]
0	0xbd873c8e	-0.06603347
1	0xbc4908cb	-0.012270163
2	0x3e2311bb	0.15924732
3	0x3d87a83d	0.06623886
4	0xbd8a4f24	-0.06753376
5	0xbd8e4752	-0.06947197
6	0xbd8c88dd	-0.06862042
7	0x3e2829c9	0.1642219
8	0xbd00999e	-0.0313965
9	0xbcc7cd83	-0.024389988
10	0x3da3166d	0.07963262
11	0xbd0c7972	-0.034295507
12	0xbd6e2665	-0.058142085
13	0x3ccd4536	0.025057416
14	0x3d1529b0	0.03641671
15	0xbd8d56e0	-0.06901336
16	0x3d5ccf70	0.053908765
17	0x3d3d4acc	0.04621391
18	0x3d9add82	0.075617805
19	0xbcc9e3fa	-0.02464484
20	0xbc4968a2	-0.012293013
21	0x3d7a95e9	0.06117812
22	0x3dbd7c16	0.09252183
23	0xbd0972ab	-0.03355662
24	0xbd086600	-0.0333004
25	0xbb97a331	-0.004627608
26	0x3d34cd3a	0.04414103
27	0x3c203962	0.009779306
28	0x3c4507da	0.012025798
29	0x3c9dbc54	0.01925484
30	0xbc0d5089	-0.008625158
31	0xbd1cd966	-0.038293265
32	0xbd9e90b9	-0.077424474
33	0x3d922c80	0.07137394
34	0xbcdf91d0	-0.027291209
35	0x3dac718b	0.08420094
36	0xbc6e4f1f	-0.014545231
37	0xbe12576d	-0.14291163
38	0x3d4217ed	0.0473861
39	0xbd02fdce	-0.03198033
40	0xbd3f4d06	-0.046704315
41	0x3cb7dda2	0.02244455
42	0x3cfd557e	0.030924555
43	0xbc5f46a1	-0.013627679
44	0x3928462c	0.0001604787
45	0x3c64f5c4	0.013974611
46	0xbdaa2af8	-0.08308977
47	0xbd9eb8d1	-0.07750095
48	0xbd066b77	-0.03281733
49	0x3d9892b8	0.074498594
50	0xbdc13d1d	-0.094354846
51	0x3d1b1281	0.037859444
52	0x3cc44b2d	0.023961628
53	0xbca6b4ce	-0.020349886
54	0xbd5d1a2e	-0.053980045
55	0x3988f71a	0.00026124046
56	0xbc313d47	-0.010817832
57	0x3da6db09	0.081472464
58	0x3e070c8f	0.13188384
59	0x3c97831a	0.018495131
60	0xbd6f62d2	-0.05844385
61	0x3c0db900	0.0086500645
62	0x3c77b9ad	0.015119952
63	0xbd0d09bd	-0.034433115

18.running_mean f4 [64]
0	0x3f2a4ffa	0.66528285
1	0x3fbddf16	1.4833705
2	0x3f0985cf	0.537198
3	0x3f342325	0.70366126
4	0xbecf7e0f	-0.40525863
5	0xbe273ae6	-0.16331062
6	0x3f9d97a8	1.2311907
7	0x3e94be01	0.2905121
8	0xbf26ea22	-0.6520101
9	0xbf9046a6	-1.127156
10	0x3f93e46e	1.1554086
11	0x3fc9dd4d	1.5770661
12	0x3f8bc0d4	1.0918221
13	0x3f49d2d4	0.78837323
14	0xbea29db9	-0.31760958
15	0xbfc4f4b2	-1.5387175
16	0x3eb62e81	0.35582355
17	0x3eed39f7	0.46333286
18	0xbf6fd72d	-0.9368771
19	0xbdeef25a	-0.11667319
20	0xbfd96512	-1.6983969
21	0xbed93e6e	-0.42430443
22	0xbf114d05	-0.5675815
23	0xbf8b62a4	-1.0889478
24	0xbea089cd	-0.31355134
25	0xbea30c3f	-0.3184528
26	0x3cb7e829	0.02244957
27	0x3e926845	0.28595176
28	0xbf3cc091	-0.73731333
29	0x3f2b3deb	0.66891354
30	0xbf508665	-0.8145507
31	0xc0142111	-2.3145182
32	0xbf938f46	-1.1528099
33	0xbe0471c6	-0.12934026
34	0xbcb7c798	-0.02243404
35	0xbf7b39c7	-0.98135036
36	0x3e6ede66	0.23327026
37	0xbfe42b94	-1.7825799
38	0x3f1d55b9	0.6145893
39	0xbfe7eb71	-1.8118726
40	0x3f3a8dc7	0.72872585
41	0x3ece17a5	0.40252414
42	0x3f85ab3b	1.044288
43	0xbdb8e11d	-0.09027312
44	0xbecbba21	-0.39790443
45	0xbf8b6b62	-1.0892146
46	0x3e9acc56	0.3023402
47	0xbf6d51c9	-0.9270292
48	0xbf03c876	-0.51477754
49	0xbf96231c	-1.1729465
50	0xbf88e8b7	-1.0696019
51	0x3e94fd57	0.29099533
52	0x3f564f88	0.83715105
53	0x3f189ff6	0.5961908
54	0xbf5ca1e8	-0.8618455
55	0x3f564e6a	0.837134
56	0xbe09c262	-0.13453057
57	0xbf7ed4e7	-0.99543613
58	0xbfd2a519	-1.6456634
59	0xbfba7820	-1.4567909
60	0xbe2f8ac2	-0.17142776
61	0xbf03ce22	-0.5148641
62	0xbf4521e7	-0.77004856
63	0xbf8f52b8	-1.1197119

18.running_var f4 [64]
0	0x401d0aea	2.4537911
1	0x407d21c1	3.9551852
2	0x3fe6eb28	1.8040514
3	0x3f831d80	1.0243378
4	0x402a125c	2.6573706
5	0x40187a5d	2.3824685
6	0x4013359c	2.300147
7	0x3fe29824	1.770268
8	0x40653ccf	3.5818365
9	0x3ff4da28	1.9129076
10	0x401c9368	2.446497
11	0x3fc1e1a8	1.514699
12	0x3ffb6ae0	1.9641991
13	0x3fea4c1a	1.8304474
14	0x3fb736ab	1.4313558
15	0x3f98106a	1.1880009
16	0x3fc1e1f0	1.5147076
17	0x3fe5b8ee	1.7947061
18	0x3f936763	1.1515926
19	0x3faff7fd	1.3747555
20	0x3fe1d512	1.7643149
21	0x3fd5e77f	1.6711272
22	0x3fa46bea	1.2845433
23	0x3fb86e1b	1.4408602
24	0x3f813cb1	1.0096647
25	0x3ff27450	1.8941746
26	0x3fce48d7	1.6115979
27	0x40045c0f	2.0681188
28	0x3f8ea5e4	1.1144376
29	0x3f9d0992	1.2268546
30	0x402ad9d4	2.6695452
31	0x3fb54205	1.4160773
32	0x3fbfd8b2	1.4988005
33	0x403ecd84	2.9812937
34	0x3f938036	1.1523502
35	0x401a1e92	2.4081159
36	0x4008da8e	2.1383395
37	0x3fceedcf	1.6166323
38	0x3fc12bf8	1.5091543
39	0x3fb535c2	1.415703
40	0x401cb04c	2.4482603
41	0x40029ca5	2.0408108
42	0x40020660	2.031639
43	0x3f34f7ec	0.706908
44	0x3ff8823c	1.9414744
45	0x3f8080a7	1.0039262
46	0x3fabfc15	1.3436304
47	0x3f73345a	0.9500176
48	0x3fa5e4cf	1.2960452
49	0x3fadf376	1.3589923
50	0x3fde09bf	1.7346724
51	0x40374e92	2.8641706
52	0x401946f7	2.3949564
53	0x3ff74d50	1.9320469
54	0x3fbfffcd	1.4999939
55	0x409eb2ea	4.95934
56	0x40257b3f	2.5856473
57	0x3fcada83	1.5847934
58	0x3ff2743a	1.894172
59	0x3f9f244b	1.2432951
60	0x3fc49d78	1.5360556
61	0x401a726d	2.413234
62	0x40156f80	2.3349304
63	0x3ff62ae5	1.923184

22.weight f4 [64]
0	0x3f7252d9	0.94657665
1	0x3f882dc0	1.0638962
2	0x3f84ebf1	1.0384504
3	0x3f85ab53	1.0442909
4	0x3f836985	1.0266577
5	0x3f8925d3	1.0714668
6	0x3f8e6dd4	1.1127267
7	0x3f736087	0.95069164
8	0x3f6f9b79	0.9359661
9	0x3f816ecd	1.0111939
10	0x3f80557e	1.002609
11	0x3f7abed3	0.97947425
12	0x3f893833	1.0720276
13	0x3f83326e	1.0249765
14	0x3f7d13fb	0.9885861
15	0x3f7fc237	0.99905723
16	0x3f587516	0.8455366
17	0x3f7ac19d	0.9795168
18	0x3f82c4d0	1.0216312
19	0x3f887a2b	1.0662283
20	0x3f7412a4	0.95340943
21	0x3f85cf86	1.0453956
22	0x3f8824ef	1.0636271
23	0x3f6d832e	0.9277829
24	0x3f8651ce	1.0493715
25	0x3f7f0a48	0.9962506
26	0x3f8d3910	1.1033039
27	0x3f9045c1	1.1271287
28	0x3f8584db	1.0431169
29	0x3f6b1620	0.91830635
30	0x3f85e2c0	1.0459824
31	0x3f754b39	0.95817906
32	0x3f8d702e	1.104986
33	0x3f696bf0	0.91180325
34	0x3f776fc6	0.9665493
35	0x3f773077	0.96558326
36	0x3f741ab8	0.9535327
37	0x3f7d54fa	0.9895779
38	0x3f89b508	1.0758371
39	0x3f812098	1.0088072
40	0x3f78e352	0.97221863
41	0x3f839281	1.0279084
42	0x3f80dfc1	1.0068284
43	0x3f7547cb	0.9581267
44	0x3f6c1304	0.92216516
45	0x3f7bad2a	0.983111
46	0x3f78d7d9	0.9720436
47	0x3f797e6d	0.97458535
48	0x3f71e7a8	0.94494104
49	0x3f72856e	0.9473485
50	0x3f76f11c	0.96461654
51	0x3f6e7da4	0.9316046
52	0x3f7d84a8	0.9903054
53	0x3f88a226	1.0674484
54	0x3f7f2d60	0.9967861
55	0x3f7efdfd	0.99606305
56	0x3f80a404	1.0050054
57	0x3f88b607	1.068055
58	0x3f844176	1.0332477
59	0x3f812ef4	1.0092454
60	0x3f66a634	0.90097356
61	0x3f783547	0.96956295
62	0x3f792f77	0.9733805
63	0x3f83a1f7	1.0283803

22.bias f4 [64]
0	0x3d718832	0.058967777
1	0x3dd06a06	0.10176472
2	0x3d8f2d9b	0.069911204
3	0x3dc731e7	0.09726315
4	0x3d61dff6	0.055145226
5	0x3dd6c710	0.10487187
6	0xbd2a8bab	-0.041637104
7	0xbd41c7f3	-0.047309827
8	0xbd80eb03	-0.06294825
9	0x3cad54ad	0.02115854
10	0x3deb4bf1	0.11489094
11	0xbdeb4ef3	-0.11489668
12	0x3dc0fc70	0.09423149
13	0x3d89876d	0.067152835
14	0xbd8d54b0	-0.069009185
15	0x3d981d08	0.07427412
16	0xbde964cb	-0.11396178
17	0x3d57df0d	0.052702952
18	0x3d149624	0.036275998
19	0x3e05eeda	0.13079396
20	0xbc2a5d8e	-0.010398282
21	0x3e16b2e0	0.14716673
22	0xbccdc709	-0.025119321
23	0xbd1083f3	-0.035282087
24	0xbd659924	-0.05605425
25	0x3cbc1d3c	0.022963159
26	0xbd0392d6	-0.032122456
27	0x3dac6f8a	0.08419712
28	0x3b962cc8	0.004582975
29	0xbd5f8610	-0.05457121
30	0x3d42f174	0.04759355
31	0xbc7a86e7	-0.015290952
32	0x3dd0f1c9	0.10202367
33	0xbac12065	-0.0014734386
34	0x3c9c54ad	0.019083345
35	0x3ca8222a	0.020524103
36	0xbc69865c	-0.014253225
37	0x3d381129	0.04493824
38	0x3e028712	0.12746838
39	0xbc380abb	-0.011233027
40	0xbc96be94	-0.018401422
41	0x3ca4b14f	0.020104079
42	0x3d3f88ca	0.04676131
43	0xbd9a8a2d	-0.07545886
44	0x3c7c10d6	0.015384873
45	0xbb6bc067	-0.0035972835
46	0x3c29dad8	0.010367118
47	0xbdf88ffc	-0.12136838
48	0xbd263822	-0.040580876
49	0xbdda553a	-0.10660787
50	0xbd2b9894	-0.041893557
51	0xbcead816	-0.02866749
52	0x3c05766c	0.00814591
53	0x3d2f9f35	0.04287644
54	0x3d51ac77	0.051189866
55	0x3c760cf1	0.015017734
56	0xbc78ff99	-0.015197658
57	0x3d266ae5	0.040629286
58	0x3dcd07d4	0.10011259
59	0xbdb872c4	-0.09006265
60	0x3ae475e9	0.001743016
61	0x3da814d6	0.08207099
62	0xbe181d8c	-0.14855021
63	0x3cdb94ad	0.026804293

22.running_mean f4 [64]
0	0x3fef428d	1.8692185
1	0xbedc72d5	-0.4305636
2	0xc01637cf	-2.3471563
3	0xbf3ad81c	-0.72986007
4	0x3f42c153	0.7607624
5	0x3f566672	0.8375007
6	0x3fbcc91b	1.4748873
7	0xbf1d58d0	-0.6146364
8	0x3de19519	0.11014766
9	0xbf667549	-0.9002271
10	0xbe857726	-0.26067466
11	0x3f9eb20e	1.2398088
12	0xbf9ca31a	-1.2237275
13	0x3f7e8834	0.9942658
14	0x3f4396e3	0.7640211
15	0x404a31b3	3.1592834
16	0xbfa4a937	-1.286414
17	0xbedc6c59	-0.43051413
18	0xbf1798f1	-0.59217745
19	0xbecf47dc	-0.40484512
20	0xc000aef5	-2.0106785
21	0xbebaed53	-0.3650919
22	0x3fecb9a7	1.8494157
23	0x3f216497	0.6304411
24	0xbfa7f7a8	-1.3122454
25	0x3dcbe6b4	0.099561125
26	0xbf2e0ab8	-0.67985106
27	0xc0337fac	-2.8046675
28	0x3f86eb08	1.0540476
29	0x3f4fa134	0.8110535
30	0xc014ec73	-2.3269317
31	0x3f62eac4	0.88639474
32	0x3e2b7f71	0.16747834
33	0x3f89ff75	1.0781084
34	0x3eb27b0f	0.3485951
35	0x3d170292	0.036867686
36	0xbf1fec3b	-0.62469834
37	0xbfa9177c	-1.3210292
38	0xbebf0fc2	-0.3731671
39	0xbfb33904	-1.4001775
40	0xbfad022a	-1.3516285
41	0xbfb6d3b8	-1.4283361
42	0xc03be65d	-2.9359353
43	0xbd2f121b	-0.042741876
44	0xbe23ac24	-0.15983635
45	0xbfd4890c	-1.6604323
46	0xbea7be90	-0.32762575
47	0xbe1ee0a2	-0.15515378
48	0xc0273772	-2.612759
49	0xbf0254ec	-0.5091083
50	0xbff27614	-1.8942285
51	0x3edfb780	0.43694687
52	0xbffeb17a	-1.9897912
53	0x3fb8dc97	1.4442319
54	0xbf03be99	-0.51462704
55	0xbfc94cc5	-1.5726553
56	0xbe9dff25	-0.30858722
57	0xc00430de	-2.0654826
58	0xbfb765ad	-1.4327904
59	0x3edb53ee	0.4283747
60	0x3f433c49	0.7626386
61	0x3e13e7f9	0.1444396
62	0xbfa3fba7	-1.2811173
63	0xbfef7409	-1.8707286

22.running_var f4 [64]
0	0x405df18a	3.4678674
1	0x3fd0bcbe	1.63076
2	0x3fd2e84d	1.6477143
3	0x40a9d24f	5.3069224
4	0x3fe859c5	1.8152395
5	0x3fa28d67	1.2699403
6	0x40a3f0fa	5.123166
7	0x3fb340d8	1.4004164
8	0x40136cd0	2.3035164
9	0x400e0bee	2.2194781
10	0x408a23f1	4.3168874
11	0x400fafc9	2.245104
12	0x4006e1a4	2.107522
13	0x4065589e	3.5835338
14	0x40419f3f	3.0253446
15	0x4077ef64	3.8739862
16	0x400f093a	2.2349381
17	0x3fd8127f	1.6880645
18	0x40513070	3.2685814
19	0x405fd5bc	3.4974203
20	0x406dbf6e	3.714809
21	0x401ed717	2.481878
22	0x3f5f19d8	0.8714881
23	0x404ff08a	3.2490563
24	0x3f229224	0.6350424
25	0x400713ca	2.1105828
26	0x3fd4abc2	1.6614916
27	0x40b505b7	5.6569476
28	0x40ae0b01	5.4388433
29	0x40658c78	3.5866985
30	0x401ba5ba	2.4319901
31	0x3f8cdd5b	1.1005052
32	0x3fde71a5	1.7378432
33	0x4085b51b	4.1783576
34	0x4002af26	2.0419402
35	0x3fdc7fca	1.7226498
36	0x3f76cb8e	0.9640435
37	0x402e26f1	2.7211268
38	0x3fa601f6	1.2969348
39	0x3fa837bf	1.3142012
40	0x3fe7d94a	1.8113186
41	0x3f931112	1.1489584
42	0x3ff9f1f3	1.9526962
43	0x40076e91	2.1161234
44	0x401bb82b	2.4331157
45	0x408c87b7	4.3915668
46	0x40700ece	3.7509036
47	0x3f92e75e	1.1476858
48	0x40334923	2.801339
49	0x3fca2c6d	1.5794808
50	0x4039b5ae	2.9017138
51	0x401dad98	2.4637203
52	0x405ece04	3.4813242
53	0x405c9198	3.4463863
54	0x4014bd5c	2.3240576
55	0x402bcd5e	2.6844096
56	0x3fb9a968	1.4504824
57	0x3fe6c62d	1.8029228
58	0x4013d793	2.3100326
59	0x3ff4f46e	1.9137094
60	0x3fa05eb5	1.2528902
61	0x407ca277	3.947416
62	0x40049dda	2.0721345
63	0x4084145e	4.127486

26.weight f4 [64]
0	0x3f75923d	0.95926267
1	0x3f6f9983	0.93593615
2	0x3f73d211	0.9524241
3	0x3f58610b	0.84523076
4	0x3f813d2a	1.0096791
5	0x3f7b10c3	0.9807245
6	0x3f7f1292	0.9963771
7	0x3f8cef13	1.101046
8	0x3f6ba004	0.9204104
9	0x3f823220	1.0171547
10	0x3f75155e	0.9573573
11	0x3f762878	0.961555
12	0x3f825ebc	1.0185161
13	0x3f71bb7f	0.9442672
14	0x3f8620ef	1.04788
15	0x3f88a293	1.0674614
16	0x3f7830c7	0.9694943
17	0x3f6cad00	0.9245148
18	0x3f8bd411	1.0924093
19	0x3f853689	1.0407268
20	0x3f8ab3f9	1.0836173
21	0x3f83c460	1.0294304
22	0x3f8e15cd	1.1100403
23	0x3f84fcb9	1.0389625
24	0x3f7ef1e9	0.99587876
25	0x3f829fd9	1.0205032
26	0x3f82d6bb	1.022178
27	0x3f72d579	0.94856983
28	0x3f7763bc	0.9663656
29	0x3f752205	0.95755035
30	0x3f8cc631	1.0997983
31	0x3f83e2fe	1.0303648
32	0x3f789489	0.97101647
33	0x3f7e0828	0.99231195
34	0x3f853573	1.0406936
35	0x3f75c368	0.9600129
36	0x3f8e0ecc	1.1098266
37	0x3f93b1ef	1.1538676
38	0x3f8029ac	1.0012717
39	0x3f7a44fe	0.97761524
40	0x3f726890	0.946908
41	0x3f7e0009	0.99218804
42	0x3f7264cc	0.94685054
43	0x3f6c7901	0.9237214
44	0x3f6ba5e2	0.9204999
45	0x3f746db6	0.95479906
46	0x3f8134c5	1.0094229
47	0x3f790df9	0.97286946
48	0x3f7f7e42	0.9980203
49	0x3f8ca0f9	1.0986625
50	0x3f64d208	0.8938298
51	0x3f7f606c	0.99756503
52	0x3f89593f	1.0730361
53	0x3f7b31b5	0.9812272
54	0x3f782092	0.969247
55	0x3f82525a	1.0181382
56	0x3f87b5ad	1.0602318
57	0x3f8d1389	1.1021587
58	0x3f807277	1.0034932
59	0x3f80b731	1.0055906
60	0x3f83b749	1.0290309
61	0x3f606b44	0.87663674
62	0x3f6bd88a	0.9212729
63	0x3f8b1ca0	1.0868111

26.bias f4 [64]
0	0xbd75559e	-0.059896104
1	0xbd9f815c	-0.07788345
2	0x3c90144a	0.0175878
3	0x3c423d2b	0.011855404
4	0x3df30408	0.11866003
5	0xbc78d9d2	-0.015188651
6	0x3c3022e7	0.010750509
7	0x3df078be	0.1174178
8	0xbdae9feb	-0.08526596
9	0x3de41f58	0.11138791
10	0xbd5343d9	-0.051578376
11	0x3d0b32c0	0.033983946
12	0xbe062fc4	-0.13104159
13	0xbe0c377c	-0.1369304
14	0x3d6ef9ee	0.05834382
15	0x3ca81ecf	0.020522503
16	0x3d512aff	0.051066395
17	0xbcc1dfd7	-0.023666305
18	0x3e2e71f7	0.17035662
19	0xbc923dc2	-0.017851714
20	0x3d427437	0.047474112
21	0x3d484798	0.048896402
22	0x3e3a7205	0.18207557
23	0x3e0fde13	0.14049558
24	0xbbed5e2b	-0.0072438917
25	0xbcaa1e87	-0.02076651
26	0xbb7d6cb0	-0.003866952
27	0x3dab34d4	0.083596855
28	0x3b9afdcd	0.0047299624
29	0x3d646714	0.055762365
30	0x3db71c60	0.08940959
31	0x3bd464a7	0.0064817253
32	0xbd41afd2	-0.047286816
33	0xb925a525	-0.00015797147
34	0x3d80e0f3	0.06292906
35	0x3d75f78b	0.06005053
36	0x3d5d0411	0.053958956
37	0x3ded8f20	0.115995646
38	0x3d1f3ca3	0.038876187
39	0xbcc0a1e6	-0.0235147
40	0x3d4257d5	0.047447044
41	0xbe1d7b14	-0.15378982
42	0xbd4d3a86	-0.05010464
43	0x3e3824a9	0.17982735
44	0xbc0d97a8	-0.008642115
45	0xbe02aa8d	-0.12760372
46	0x3d069c08	0.032863647
47	0x3b6b952d	0.003594707
48	0x3ca326e2	0.019916002
49	0x3d8cd3fd	0.06876371
50	0xbd5568be	-0.052101843
51	0x3d3a6fa8	0.04551664
52	0x3d7bc153	0.061463665
53	0x3d61d1ab	0.055131596
54	0x3cf6cbf7	0.030126555
55	0x3df774b7	0.120828085
56	0x3c917fb6	0.017761093
57	0x3de7c954	0.11317697
58	0x3d95d82e	0.07316624
59	0xbcb0eb8e	-0.021596696
60	0x3d5ebeb9	0.054381106
61	0x3b142aae	0.0022608447
62	0xbcb69897	-0.022289557
63	0x3c1aa214	0.0094380565

26.running_mean f4 [64]
0	0xbda82496	-0.08210103
1	0xc0110373	-2.2658355
2	0xbf72f1fb	-0.9490048
3	0x3e4a07b6	0.19729504
4	0xbf4d6d65	-0.8024505
5	0xbfae886d	-1.3635384
6	0x3fee9a39	1.8640815
7	0xbfd48f0c	-1.6606154
8	0xc033ba6c	-2.8082533
9	0x3d81e8e0	0.063432455
10	0xbedb00d4	-0.4277407
11	0xbf6dcaaf	-0.92887396
12	0x3f9fe666	1.2492187
13	0x3fa2139f	1.2662238
14	0x3eadbe55	0.33934274
15	0xbed0c4dc	-0.40775192
16	0x3f9e725b	1.2378649
17	0xbf21349e	-0.6297091
18	0xbfc82142	-1.563515
19	0xbf676de1	-0.90402037
20	0xbf212b47	-0.6295666
21	0x3d5d17d3	0.0539778
22	0xc0479943	-3.1187294
23	0x3da38244	0.079838306
24	0x3f4e905a	0.80689013
25	0x3e2d162d	0.1690299
26	0xbf2c4810	-0.6729746
27	0x3fac06e2	1.34396
28	0xbff6c128	-1.9277697
29	0xbf07dc4f	-0.5307054
30	0xbe98ae16	-0.29820317
31	0xbf60bf17	-0.8779158
32	0x3f9bb794	1.2165399
33	0x3f7b925b	0.98270196
34	0xbfbe2908	-1.4856272
35	0xbc4d4fba	-0.012531215
36	0xc0213a59	-2.5191863
37	0x3eeb30e5	0.4593574
38	0x3f6a972b	0.91636914
39	0xc025db5b	-2.5915134
40	0xc0121760	-2.2826767
41	0xbf32dfd7	-0.698728
42	0x3d680897	0.056648817
43	0x3f71afce	0.9440888
44	0xbf6f7b83	-0.9354784
45	0xbf44ddae	-0.76900756
46	0xc010f994	-2.265233
47	0xbeceabbd	-0.403654
48	0xbe977e2b	-0.29588446
49	0xc034df1c	-2.8261175
50	0x3f96ed15	1.1791102
51	0xbfea34f7	-1.8297414
52	0xbe5c16d4	-0.21493083
53	0xbea4a555	-0.32157388
54	0x3e010668	0.126001
55	0x3f89612f	1.0732783
56	0x3e98f16a	0.29871684
57	0xbd15ac53	-0.036541294
58	0x3de24285	0.11047844
59	0xbe3ba550	-0.1832478
60	0xbcba34b9	-0.022730218
61	0x3ed49ec5	0.41527382
62	0x3e3fd95d	0.18735261
63	0xbc4ff1bb	-0.01269191

26.running_var f4 [64]
0	0x3fc630f9	1.5483695
1	0x40379bbc	2.8688803
2	0x401b71e9	2.4288275
3	0x4038ff69	2.890589
4	0x401202e7	2.2814271
5	0x400cb813	2.198735
6	0x4040e4c2	3.0139623
7	0x3fb85e43	1.4403766
8	0x4089430f	4.289436
9	0x3fe53962	1.7908137
10	0x3fcd519e	1.6040533
11	0x403537f8	2.831541
12	0x4045bdc4	3.0897074
13	0x404886bf	3.1332242
14	0x40487fd9	3.1328032
15	0x3fc5b1ee	1.5444925
16	0x3fa88bbb	1.3167642
17	0x3fd3b4a4	1.6539502
18	0x40403ede	3.003837
19	0x401b03ed	2.4221146
20	0x400f5f02	2.2401738
21	0x3f88a4e6	1.0675323
22	0x407804c2	3.8752904
23	0x3fa72217	1.3057278
24	0x404e1b1c	3.2204046
25	0x3f90a517	1.1300381
26	0x400d6f75	2.2099278
27	0x40126f19	2.2880309
28	0x404806f6	3.1254249
29	0x4025f1bc	2.5928793
30	0x3fad8865	1.3557249
31	0x3fc2e22f	1.5225276
32	0x400b314e	2.1748843
33	0x4011fe83	2.2811592
34	0x40a01c24	5.003435
35	0x3fdf93e9	1.7467014
36	0x402d1a21	2.7047198
37	0x40244f78	2.5673504
38	0x4041fc6c	3.0310316
39	0x4051c1bb	3.2774494
40	0x3f6ef3ec	0.93340945
41	0x3f64fc8e	0.8944787
42	0x3fe99a36	1.8250186
43	0x40431d7c	3.0486746
44	0x3faab52c	1.3336539
45	0x3fe8be26	1.8183029
46	0x4076f882	3.8589177
47	0x40034aa2	2.0514302
48	0x3fbf5a74	1.4949479
49	0x40930adc	4.5950756
50	0x4022ad46	2.5418258
51	0x405d8a9b	3.4615848
52	0x3fe61e7a	1.7978051
53	0x3fa566f4	1.2922044
54	0x3fc9d3db	1.5767778
55	0x405dcb3a	3.465529
56	0x403a9d8c	2.915866
57	0x4025848d	2.5862153
58	0x4032d658	2.7943325
59	0x3fb25320	1.3931618
60	0x4058fbb4	3.3903627
61	0x3fb7c221	1.4356118
62	0x3fd15e14	1.6356835
63	0x3ffacec1	1.9594346

31.weight f4 [128]
0	0x3f806647	1.0031213
1	0x3f840fe0	1.0317345
2	0x3f861220	1.0474281
3	0x3f943883	1.1579746
4	0x3f7d3d8b	0.9892203
5	0x3f7117f5	0.9417718
6	0x3f854bee	1.0413797
7	0x3f81777c	1.0114589
8	0x3f98ba74	1.1931901
9	0x3f84dc68	1.0379763
10	0x3f8d85bf	1.1056441
11	0x3f83a52c	1.0284781
12	0x3f7188aa	0.9434916
13	0x3f7a9dc9	0.9789701
14	0x3f858ca9	1.0433551
15	0x3f91d84c	1.1394134
16	0x3f66c5b3	0.90145415
17	0x3f857d39	1.042884
18	0x3f64d1e9	0.893828
19	0x3f7344fa	0.95027125
20	0x3f8beb1c	1.0931125
21	0x3f8d69a9	1.104787
22	0x3f7fb61e	0.99887264
23	0x3f876ebc	1.0580668
24	0x3f526cca	0.8219725
25	0x3f6a460d	0.9151314
26	0x3f6e2e91	0.93039805
27	0x3f695218	0.9114089
28	0x3f7e8388	0.9941945
29	0x3f8a21f8	1.0791616
30	0x3f736fd8	0.95092535
31	0x3f8a4ecd	1.0805298
32	0x3f85267b	1.0402368
33	0x3f77985e	0.9671687
34	0x3f86e3df	1.0538291
35	0x3f744265	0.9541381
36	0x3f685c26	0.9076561
37	0x3f82b501	1.0211488
38	0x3f846e68	1.0346193
39	0x3f82838e	1.0196397
40	0x3f812b5a	1.0091355
41	0x3f856758	1.0422163
42	0x3f7ddd28	0.9916558
43	0x3f839b97	1.0281857
44	0x3f70a2b7	0.93998283
45	0x3f83dccc	1.0301757
46	0x3f88506b	1.0649542
47	0x3f878dc4	1.0590138
48	0x3f7837d0	0.96960163
49	0x3f684760	0.9073391
50	0x3f82f227	1.0230149
51	0x3f71008e	0.9414147
52	0x3f6722ac	0.9028728
53	0x3f7fd2aa	0.9993082
54	0x3f83d9a7	1.0300797
55	0x3f766dde	0.96261394
56	0x3f804248	1.0020227
57	0x3f898cb1	1.0746061
58	0x3f72e27f	0.94876856
59	0x3f6c333a	0.92265666
60	0x3f8c88a1	1.0979196
61	0x3f76d7fb	0.9642331
62	0x3f878c2c	1.0589652
63	0x3f8ffe53	1.1249489
64	0x3f96a055	1.176768
65	0x3f795d03	0.9740755
66	0x3f822275	1.0166765
67	0x3f832d98	1.0248289
68	0x3f8463a1	1.0342904
69	0x3f6e3594	0.93050504
70	0x3f81052b	1.0079702
71	0x3f81f2ef	1.0152262
72	0x3f7ada4f	0.9798936
73	0x3f7871b1	0.9704848
74	0x3f7dde62	0.99167454
75	0x3f7939ac	0.97353625
76	0x3f7508e4	0.9571669
77	0x3f7d584a	0.98962843
78	0x3f879bd4	1.059443
79	0x3f8703cc	1.0548034
80	0x3f5e30ff	0.8679351
81	0x3f6c07aa	0.92199194
82	0x3f67bb65	0.90520316
83	0x3f7b3a42	0.9813577
84	0x3f81ab12	1.0130332
85	0x3f7c00ca	0.98438704
86	0x3f87de1a	1.0614655
87	0x3f800259	1.0000716
88	0x3f7f4c9b	0.99726266
89	0x3f885479	1.0650779
90	0x3f6ef7ae	0.9334668
91	0x3f6d6b65	0.92741996
92	0x3f70e8c1	0.94105154
93	0x3f8336b4	1.0251069
94	0x3f5b60a3	0.8569433
95	0x3f830e91	1.023882
96	0x3f81b9fd	1.0134884
97	0x3f88b13e	1.067909
98	0x3f7bdedb	0.98386925
99	0x3f76dfd3	0.9643528
100	0x3f82d7fd	1.0222164
101	0x3f78b127	0.97145313
102	0x3f7cc797	0.9874205
103	0x3f83a90d	1.0285965
104	0x3f98e3a5	1.1944472
105	0x3f7e7373	0.9939491
106	0x3f919465	1.1373411
107	0x3f62168c	0.88315654
108	0x3f8119ce	1.0086
109	0x3f8c107e	1.0942533
110	0x3f6c0f74	0.9221108
111	0x3f7943f7	0.9736933
112	0x3f819f7e	1.0126798
113	0x3f733507	0.9500279
114	0x3f7233f1	0.94610506
115	0x3f76743a	0.962711
116	0x3f865a28	1.0496264
117	0x3f835675	1.026076
118	0x3f64f8b1	0.8944197
119	0x3f89dbdd	1.0770222
120	0x3f74f7d1	0.9569064
121	0x3f8e3524	1.1109967
122	0x3f66e5e9	0.90194565
123	0x3f705afe	0.93888843
124	0x3f6ea2b3	0.9321701
125	0x3f81082b	1.0080618
126	0x3f8019d5	1.0007883
127	0x3f5f6fe6	0.8728012
