notebooks/Radio_27ML/27ml_rf/models/radio_27ml_export.onnx (onnx, 669250 bytes, 47 tensors)

BatchNormalization_0_param0 f4 [64]
00000000: 7be4 703f 3f2e 5c3f 8a93 8e3f c8d2 8f3f
00000010: 1f42 803f 47b5 8c3f 8c90 883f 6b21 803f
00000020: 3a35 7e3f e9c6 823f c919 773f 08e1 723f
00000030: d53f 823f 18e7 893f 38ea 833f b327 8d3f
00000040: 8ecb 7c3f fa20 943f 63fb 6f3f 0245 5a3f
00000050: 2a0e 7a3f a430 8e3f c844 623f bc78 8c3f
00000060: 443d 8e3f e908 893f 19e8 823f cb7d 943f
00000070: c502 803f 51af 763f 1d20 8a3f 25fe 7b3f
00000080: 8a14 813f 461d 613f 6456 883f 3abf 743f
00000090: 56e3 6a3f 1318 6c3f d778 823f 3075 743f
000000a0: 6957 743f b73e 6b3f 7ed2 733f 832d 813f
000000b0: 4271 723f 4121 8b3f c9f5 563f 60e8 613f
000000c0: b5df 903f f2a4 6b3f 6bb9 883f ad24 8c3f
000000d0: 315b 753f cb7f 833f 9c17 873f e5b5 593f
000000e0: 2210 913f 8394 893f 9498 863f 5a64 533f
000000f0: 2f95 7e3f 5e7b 6e3f f834 813f dda9 873f
0.94098634 0.86008066 1.1138775 1.12362 1.0020179 1.0992821 1.0669112 1.0010198
0.9929997 1.0216953 0.9652372 0.9487462 1.017573 1.0773649 1.0305853 1.102774
0.987481 1.1572564 0.9374296 0.8526155 0.9767786 1.1108594 0.883862 1.0974345
1.1112447 1.0705844 1.022708 1.1600889 1.0000845 0.9636126 1.079105 0.9843467
1.0084393 0.8793529 1.0651364 0.9560429 0.9175314 0.92224234 1.0193127 0.95491314
0.9544588 0.9189257 0.9524306 1.0092014 0.9470407 1.0869523 0.8396879 0.882452
1.131827 0.9204856 1.0681585 1.0948693 0.9584227 1.0273374 1.055408 0.85043174
1.1333048 1.0748447 1.0515313 0.82575 0.99446386 0.93156993 1.009429 1.0598713

BatchNormalization_0_param1 f4 [64]
00000000: f08c dabd 77d5 22be aead 1ebd 8920 0b3a
00000010: e3e9 83bd 1b72 2abb 3755 2fba d34c dcbd
00000020: 51e3 00be 592d a2bd 835d fdbd e387 29be
00000030: 89b1 25bd 04bc b9bd ed4f e9bd e139 40bd
00000040: 89d0 3bbd 3676 703b 479c fcbd 4bfa 28be
00000050: 5366 e3bd b0fe 03be 1c88 55be 4066 c73c
00000060: 57e1 4dbd e06a 8dbd d4cb fdbc a663 873d
00000070: 6c07 c1bd 5f05 18be 00a7 0bbe ca4d d9bd
00000080: e697 04be abe9 aabd edc2 a5bd 4634 2abe
00000090: 40f7 bfbd f94c 36be cbef 8abd e60e c3bd
000000a0: bb62 c2bd 927c 39be 0e2a 04be 0cd9 0abd
000000b0: 68f4 00be 2416 77bd 628c 1bbe cb3c eabd
000000c0: fd75 513d 35ad c1bd 6aaa adbd 0738 65bd
000000d0: e1d1 4cbd f75f 03be 6c27 a3bc b7c4 50be
000000e0: df88 4a3d c1cb a3bd e4eb 28bd 0126 23be
000000f0: 4e7c b9bd 0e9c 1ebd e886 94bd 8e60 a7bd
-0.10671413 -0.15901743 -0.038739853 0.00053072773 -0.06441095 -0.0026007954 -0.0006688418 -0.107568406
-0.12586714 -0.07918806 -0.123713516 -0.16555743 -0.040452514 -0.09069064 -0.11392198 -0.046930198
-0.04585317 0.0036691553 -0.12334495 -0.16501729 -0.11103501 -0.12890124 -0.20852703 0.024340749
-0.05026373 -0.069051504 -0.030980982 0.06610803 -0.09425244 -0.14845799 -0.13637924 -0.1061054
-0.1294857 -0.0834535 -0.0809382 -0.16621503 -0.09373331 -0.178028 -0.06784018 -0.09524326
-0.094914876 -0.18113926 -0.12906668 -0.0338984 -0.12593234 -0.06032385 -0.1519027 -0.114373766
0.051137913 -0.09456865 -0.084797695 -0.055961635 -0.050004844 -0.12829576 -0.019916259 -0.20387541
0.049446937 -0.07997847 -0.041240588 -0.15932466 -0.09056912 -0.038723044 -0.07252294 -0.08172713

BatchNormalization_0_param2 f4 [64]
00000000: fb85 4f3b 086a 013d bfbe 66bd b9f8 17bd
00000010: 63bc 333d 6881 0b3c 0c98 173d d94f 4cbd
00000020: 4acd 60bc 095e 0a3d a15b ddbb f506 043d
00000030: 1783 4d3d 0cb6 5fbd fdaa c3bb e70e 573d
00000040: 6133 c7bc 6de9 01bd 5357 ddbc 4c0c e2bc
00000050: 8c6d 153b 205e e6bc 9e24 be3c b8d8 403d
00000060: fa94 bbbb 08b9 71bd 397c 20bc b4cc 4cbd
00000070: 9330 bfbc 1fb2 0dbc ca05 843c a870 78bd
00000080: b2d2 03bd 07aa aabb 23ca 03bd fec0 9ebc
00000090: 55c5 10bd 3f39 7fbc 189c 0dbd 3741 053d
000000a0: deb6 1f3d 8ee4 a23c 38bc 953c 7d26 82bd
000000b0: 2de5 eebc 2576 10bd fd74 833c c6da cebc
000000c0: b958 07bd 8523 183c 5152 d6bc 4e55 2a3d
000000d0: 3a4a e93a 7aa1 f73c 2710 663d fb08 30bd
000000e0: feb0 813d 9568 76bc 852f 1fbd b148 003d
000000f0: 5702 b3bd a62b 15bd fdd0 90bd 18ca 5e3d
0.0031665552 0.03159526 -0.056334253 -0.037102435 0.04388083 0.00851474 0.037010238 -0.049880836
-0.01372082 0.033781085 -0.006755308 0.032233197 0.050173845 -0.054616973 -0.005971311 0.052504446
-0.024316492 -0.031716753 -0.027019178 -0.027593754 0.002280089 -0.028121054 0.02321082 0.04708168
-0.0057245465 -0.05901435 -0.009795242 -0.049999908 -0.023338592 -0.008648424 0.016116042 -0.060654312
-0.032183357 -0.005208257 -0.032175194 -0.019379135 -0.03534444 -0.015577613 -0.03457269 0.032532897
0.038992755 0.019884374 0.018278226 -0.06354997 -0.029162014 -0.03526892 0.016046995 -0.025250804
-0.033043597 0.009285812 -0.026162298 0.04158526 0.001779861 0.030228365 0.056167748 -0.042977314
0.06332587 -0.015039583 -0.038863678 0.031319324 -0.08740681 -0.03641858 -0.07071111 0.05439195

BatchNormalization_0_param3 f4 [64]
00000000: 245f f842 1ba4 7e42 0450 3743 9331 0c43
00000010: f75e 3e43 c069 6043 b6e1 d842 fe6d 2743
00000020: 2862 b242 8b59 5d43 ec4a 8342 a91b b842
00000030: 5210 5c43 a4ca 7043 fdc7 8442 a920 3143
00000040: 005f e442 f10d 5b43 a78d ad42 5b6d 8c42
00000050: 7593 e142 d49b 0743 8d3e 5f42 3864 6a43
00000060: 14fb fb42 9c28 6b43 cb46 c842 ca5d 2b43
00000070: 7911 cf42 bce9 e342 d778 8942 13ab 7043
00000080: 87ee 1743 1589 cd42 c8d5 dc42 0d83 2642
00000090: 2688 0043 da03 f142 bb6f 2243 7d32 c742
000000a0: a5a6 e142 192c 8d42 2d11 1343 7855 7943
000000b0: a478 cc42 fe57 8143 e63d c542 830d c942
000000c0: 2784 8e42 536f da42 5bac ae42 3ad3 dd42
000000d0: be59 4e42 7040 7b42 b9ba 6043 b6c4 2343
000000e0: ad4b 8543 3757 5e43 6129 f742 ca69 9242
000000f0: 7228 e743 a4ee 0943 5d11 9543 65bd 9d43
124.18582 63.66026 183.31256 140.19365 190.37096 224.41309 108.44084 167.42966
89.19171 221.34978 65.64633 92.05402 220.06375 240.79156 66.3906 177.12758
114.18555 219.05446 86.776665 70.213585 112.788 135.6087 55.811085 234.39148
125.99039 235.15863 100.13827 171.36636 103.53413 113.95651 68.736015 240.66826
151.93175 102.76774 110.41754 41.62798 128.53183 120.50752 162.43645 99.59861
112.82548 70.58613 147.0671 249.33386 102.23563 258.68744 98.620895 100.52639
71.25811 109.21743 87.33663 110.91255 51.58764 62.812927 224.72939 163.7684
266.59122 222.34068 123.58082 73.20662 462.31598 137.93219 298.13565 315.47964

BatchNormalization_1_param0 f4 [64]
00000000: 2e48 893f ce24 6e3f f1ee 863f 27f5 803f
00000010: a0ae 6f3f af90 743f 5079 863f f4dc 7f3f
00000020: e44a 6a3f 378d 803f 923e 803f 5f63 813f
00000030: d1ea 823f a8de 8d3f b73a 893f 5815 9c3f
00000040: 7098 8e3f 5a43 8b3f fb81 593f b11b 703f
00000050: fafc 6e3f b383 843f 3bcf 873f 83fb 853f
00000060: e460 863f 8f0d 8c3f 698c 843f 8276 5f3f
00000070: 8e68 863f fd93 613f a0b1 843f bb3f 823f
00000080: 9d9e 833f 0a86 763f c4fc 6d3f 0cd8 783f
00000090: c09b 863f 631f 673f cbbc 743f a41c 843f
000000a0: f057 803f 2830 863f a1a5 8c3f 932d 853f
000000b0: 4497 883f d3b2 853f 968f 8c3f 6b0a 7f3f
000000c0: 2ed5 7a3f 2e3e 813f b6a6 623f 24c2 8f3f
000000d0: a6a2 843f 7810 763f 1853 723f 46b7 7a3f
000000e0: 9e77 503f 2d26 883f f6f6 773f ef9e 763f
000000f0: eeb5 723f 688b 7f3f 289c 5e3f 8ad5 6b3f
1.0725152 0.9302491 1.0541669 1.0074815 0.9362583 0.9553327 1.0505772 0.9994652
0.91520524 1.0043095 1.0019095 1.0108451 1.022791 1.1083574 1.0721043 1.2194014
1.114027 1.0879929 0.8496396 0.93792254 0.9335476 1.0352691 1.0610117 1.046738
1.0498319 1.0941638 1.035535 0.87290204 1.0500658 0.8811644 1.0366707 1.0175699
1.028278 0.9629828 0.92963815 0.9720466 1.0516281 0.9028227 0.95600575 1.032124
1.0026836 1.0483446 1.0988046 1.0404533 1.0671163 1.0445198 1.0981319 0.9962527
0.97981536 1.0097101 0.8853563 1.1231122 1.0362136 0.9611888 0.9465804 0.97935903
0.8143252 1.063665 0.9686121 0.96336263 0.9480885 0.9982209 0.86957026 0.9212271

BatchNormalization_1_param1 f4 [64]
00000000: 87e5 223d 1559 843b 723d 1cbd 123c 083d
00000010: c350 99bd 3bd8 d4bd 9885 fd3d 726b 07bd
00000020: 8202 26bd 47db c2bd f84c 7dbc 00ac d1bd
00000030: 5d5b d8bc a83e 733d 56c0 fa3c 6a3d 1c3e
00000040: 9fcb ab3d 2a85 c23c f87f 35be adde 5f3c
00000050: 123b 53bd 6dda be3c 41db 193e 2375 303d
00000060: 6561 f2bc 8438 d4bc aaec 12bc 1684 2ebe
00000070: d6ac 363c b713 b0bb f120 da3c 368a 37bc
00000080: fb0a a93d c241 c43c 2cfa b4bd eb45 973d
00000090: 3df7 f6bd 87cf 7abd 7f34 b4bd 55aa 14bd
000000a0: c494 afbd 295c c5bc 7b3f a43c eb70 8a3a
000000b0: 0a0e 2f3c 0901 593d deed ad3d ea79 a93d
000000c0: 3fba b6bd e598 113e 6c1c dcbc 43a1 013d
000000d0: f100 32bc a608 a43d 2270 28bd 12ed afbd
000000e0: 1182 b5bd 6f81 df3c a0a4 9ebd 3f56 cbbd
000000f0: 0d2c d4bc 5296 483d b657 eabd 7dac c5bc
0.039769676 0.0040389397 -0.038144536 0.033260413 -0.07486107 -0.10392805 0.123789966 -0.033061452
-0.040529735 -0.0951448 -0.015460245 -0.102378845 -0.026410753 0.059385926 0.030609291 0.15257803
0.08388447 0.023745138 -0.17724597 0.01366393 -0.051570006 0.023297513 0.15025045 0.04308046
-0.029587457 -0.025905855 -0.008967558 -0.17042574 0.011149606 -0.005373444 0.026627036 -0.011202386
0.082540475 0.023957137 -0.08836779 0.07386383 -0.12058876 -0.06123307 -0.08799075 -0.036295254
-0.08573297 -0.024091797 0.020049801 0.0010562217 0.0106844995 0.052979503 0.08492635 0.082752064
-0.089222424 0.14218481 -0.026869021 0.03164793 -0.010864482 0.08009462 -0.041122563 -0.085901394
-0.08862699 0.027283398 -0.077462435 -0.099285595 -0.025899911 0.04897148 -0.11442511 -0.0241301

BatchNormalization_1_param2 f4 [64]
00000000: 4c8d 4140 f9a9 4f3e 3920 3a40 7cb3 b9bd
00000010: 57c5 ba3f 01ac 0a3f 67e6 1240 8082 293f
00000020: 283b a23f 6662 2a40 7830 1740 f6b4 3d40
00000030: 7c1b 4f40 2d90 4e40 11b6 1c40 a5b4 3340
00000040: 1b8f 95c0 c633 2140 3b3d 8c3f e16b 453e
00000050: 2098 3ebf 614b 3240 3147 47c0 761c ae3e
00000060: 2dea 1b40 6e9a 6d40 d581 083f 977a 4cbf
00000070: 2e26 3640 f7a4 673f 1090 213f 82e7 0a40
00000080: 6b10 3a40 bb03 3340 b359 6940 0f33 0140
00000090: e505 8b3f 0352 6f3f 4f36 7e3f 04c6 6940
000000a0: 2669 1140 a3ce 5840 18a8 d33f e60e 2f40
000000b0: 21fa 0440 d26c 5439 c3d2 8840 cb4a e03f
000000c0: 5f10 c73f d06e 69bf e02c 4540 5a09 4040
000000d0: 7d10 1c40 86d4 9dbf 591a cd3f 2fa0 4240
000000e0: 5539 54be 7df3 2440 51f9 0c40 6820 2c3f
000000f0: 9d5c 8e3e 570a 1e40 fdc4 1540 2b8f dc3f
3.024249 0.20279683 2.9082167 -0.09067437 1.4591473 0.5416871 2.2953126 0.6621475
1.2674303 2.6622558 2.3623333 2.96417 3.2360525 3.2275498 2.4486125 2.8079007
-4.673719 2.518785 1.0956186 0.19279434 -0.74450874 2.7858508 -3.1137202 0.3400609
2.436168 3.7125506 0.5332311 -0.7987456 2.8460803 0.9048609 0.63110447 2.17038
2.907252 2.7971027 3.6460998 2.0187414 1.0861174 0.93484515 0.9930162 3.652711
2.2720428 3.387612 1.6535673 2.7352843 2.0777667 0.00020258434 4.2757277 1.7522825
1.5551871 -0.9118471 3.080864 3.0005708 2.4385064 -1.2330482 1.6023666 3.0410268
-0.20724995 2.5773613 2.202717 0.6723695 0.27805033 2.469381 2.3401482 1.7231191

BatchNormalization_1_param3 f4 [64]
00000000: f386 ce40 70c7 3841 0988 bf40 b3e2 0340
00000010: 687d f340 e7fd 5b41 09c2 fa40 d1c3 d940
00000020: b724 3d41 b15c db40 2934 1441 c8c7 a741
00000030: 8e29 0c41 0b10 0f41 1a3c 1141 307e ef40
00000040: c6e6 9340 dd95 4041 96ca 0041 8b07 2841
00000050: 72fe 6b41 bc0f 7541 3b12 f440 c5f1 833f
00000060: 6c64 6641 4411 1441 4fe9 3141 96ac 8041
00000070: 078e 4140 2f14 8141 4527 3a41 2c7b c640
00000080: 479f 0b41 e715 6541 fe17 4d41 95d8 f740
00000090: 153a 5241 8c7c d640 fcc0 1341 c049 3540
000000a0: 8955 9a40 11be 0041 7749 c440 53b0 a940
000000b0: 712f 8841 e9b4 5841 7bf6 2241 84ee 1241
000000c0: 9ad5 8341 755b 2041 b729 3041 8453 0f41
000000d0: bd9a 0241 eef7 f440 6dd0 1e41 b5af 5441
000000e0: c0af 3c41 7e77 4341 6439 ed40 a645 4641
000000f0: 20cd 3d41 bc49 7841 73a6 f340 aea5 1141
6.4539733 11.548691 5.985356 2.0607116 7.6090584 13.749488 7.836186 6.8051534
11.821464 6.855065 9.262734 20.97255 8.760145 8.941417 9.077173 7.4841537
4.6219206 12.036588 8.049459 10.501842 14.74962 15.316341 7.6272254 1.0308157
14.399517 9.254215 11.11946 16.08427 3.0242937 16.134855 11.634587 6.2025356
8.726386 14.317847 12.818357 7.745188 13.13918 6.7027035 9.234615 2.8326263
4.8229413 8.046403 6.133968 5.302774 17.023165 13.5441675 10.185176 9.183231
16.479298 10.022328 11.010184 8.95789 8.162778 7.655265 9.925885 13.292897
11.792908 12.216673 7.4132557 12.392004 11.862579 15.518002 7.6140685 9.102949

BatchNormalization_2_param0 f4 [64]
00000000: 6138 8b3f 6f34 7e3f 50a3 753f 1145 8a3f
00000010: 051d 923f 2e42 623f bafd 7b3f b09c 7c3f
00000020: 4ba2 833f fc36 7d3f daf7 893f 6660 843f
00000030: 1ec6 643f e2c1 723f 9520 7b3f 1f02 683f
00000040: 973a 823f 523c 663f fb9d 8e3f 84f4 683f
00000050: f1a4 853f a282 7a3f 7ed1 813f 2714 8a3f
00000060: 04dd 7b3f 5c04 6f3f 677f 8e3f edfa 833f
00000070: 4852 743f 137c 8e3f acd7 773f 32bf 663f
00000080: e825 6b3f 6310 853f 3a8d 813f a35b 7d3f
00000090: eae5 8b3f 7f5e 6b3f 36d1 943f 568b 953f
000000a0: e364 803f 35b5 653f e18a 753f 7328 5b3f
000000b0: c9a5 843f 9213 883f d473 803f a82f 693f
000000c0: ca08 803f 0719 8c3f 7f57 833f 9419 7f3f
000000d0: 71d2 8a3f e701 763f ccc9 853f 4e0a 883f
000000e0: 7084 763f ade7 6b3f 5641 693f 67ad 7e3f
000000f0: 926c 803f 568d 833f a648 773f b495 643f
1.087658 0.9929876 0.9595232 1.0802327 1.1415106 0.8838223 0.9843403 0.98676586
1.0283903 0.98912024 1.0778763 1.0341918 0.893648 0.9482709 0.9809659 0.90628237
1.017413 0.8993579 1.1141962 0.909981 1.0440961 0.9785558 1.0142057 1.07874
0.9838412 0.93366027 1.113263 1.0310951 0.9543805 1.1131614 0.96813464 0.9013549
0.91854715 1.0395626 1.0121224 0.9896795 1.0929539 0.91941065 1.1626346 1.1683147
1.0030788 0.89729625 0.9591504 0.85608596 1.0363094 1.0630972 1.0035348 0.9108834
1.0002682 1.0945138 1.0261077 0.99648404 1.0845472 0.9609665 1.0452209 1.0628145
0.96295834 0.92150384 0.9111532 0.9948334 1.0033133 1.0277507 0.9659523 0.8929093

BatchNormalization_2_param1 f4 [64]
00000000: 11b6 263e 7fc7 ca3d 3f25 c1bd 81d6 0a3c
00000010: a088 183e b26e 9cbd ddda f9bc ebe5 7dbd
00000020: 933a da3d 3c20 ad3d 271d 16bd df4e 61bc
00000030: fdea b53d 272d e63b 5394 26bd bdd2 44bd
00000040: 572b a3bd 5950 efbd 2848 373d 0020 d3bd
00000050: e3e9 ddbc 8612 f0bd a71a 153d 7ee3 0f3d
00000060: 1439 3cbc a124 1ebd bf09 5dbc 1be2 8f3d
00000070: 1f13 4bbd 5f95 e23d 0785 973d e3ed 9fbd
00000080: 9685 95bd dd34 00bd 9f65 753b 35b5 473d
00000090: 679d 4a3d 356a fb3b 476f d63d f586 0e3e
000000a0: be48 3dbd 4a66 36bd fe71 80bb 6cb5 a5bd
000000b0: 9f2f bd3c cc17 363d 79c6 2e3d de8d 2abe
000000c0: 3429 adbc 45b5 e73d 8428 75bc 22e8 623c
000000d0: bf7e 2c3b 2b6d 11bd f37c 77bd d7c7 8c3d
000000e0: e40b 0e3e 3897 d13c ebfd 1fbe dd71 adbc
000000f0: 4126 d23c 9e2d 5cbd 739b dcbc 2cee dbbd
0.1628039 0.09901332 -0.09430932 0.008473993 0.14895868 -0.07638301 -0.03049987 -0.061986845
0.106557034 0.08453414 -0.036648896 -0.0137517145 0.08882711 0.0070244255 -0.040668797 -0.04805254
-0.07967251 -0.11685247 0.044746548 -0.10308838 -0.027089065 -0.11722283 0.03640237 0.035129063
-0.011488218 -0.03860915 -0.013491093 0.07025548 -0.049578782 0.110636465 0.0739842 -0.07809045
-0.0730087 -0.031300414 0.0037444604 0.048756797 0.049466517 0.007672573 0.10470443 0.1391867
-0.04621195 -0.044531144 -0.003919839 -0.08091244 0.023093997 0.04445629 0.042669747 -0.1665568
-0.021137811 0.11313871 -0.014963273 0.01384929 0.0026320664 -0.0355045 -0.060421895 0.06874054
0.13871723 0.025584802 -0.15624206 -0.021172458 0.025653007 -0.05375444 -0.026929593 -0.10738787

BatchNormalization_2_param2 f4 [64]
00000000: e7d4 8c3f 934a f1bc 34f9 aabf 2119 50c0
00000010: 0cff a23f 899b 9d3f 0366 5c3d 789b 0dbf
00000020: 3675 adbf 07f7 9a3e 5a04 4a40 5526 24bf
00000030: eae7 023f 8a7b 4dbf 9375 babd 166d f8bf
00000040: 4125 bf3f f392 4bc0 5bb4 76be db32 42c0
00000050: 229c f93f fc84 febe 1ed3 f0bf 4a89 8f3f
00000060: 5e89 223f ccbc 6fbf 528f 0040 e863 6a3e
00000070: a26f c5be 7381 163f 48ab 94bf f8fc 14c0
00000080: 3034 50bf e0f0 4d40 a71b 1ac0 942d 32bd
00000090: 9dab a7bf 04d6 1dbf a0ca 9c3f 2aa3 813f
000000a0: f6c2 64bf 32dd ebbe b2a0 c33e b1df 4cbf
000000b0: bb4a ba3f 278e 0ac0 a9bb dbbf 4f11 8f3f
000000c0: 652b 1dbf 8f1d 5a40 f4eb 063f fbcb 23c0
000000d0: 307c 08bf 4152 683e a2d8 4640 11fd 28bf
000000e0: feef ea3f 5999 b73f e426 eebe 574e 6fc0
000000f0: e1c3 6ac0 4e73 5dc0 a08b bd3e 03ce 37bf
1.1002473 -0.029454505 -1.3357301 -3.2515337 1.2734084 1.231309 0.053808223 -0.5531535
-1.3551395 0.30266592 3.1565156 -0.6412099 0.5113512 -0.8026663 -0.09104457 -1.940829
1.4933244 -3.180844 -0.24092238 -3.034354 1.9500773 -0.49710834 -1.8814428 1.1213772
0.63490856 -0.93647456 2.0087476 0.22889674 -0.38561732 0.58791274 -1.1614771 -2.32794
-0.8132963 3.2178268 -2.4079378 -0.043500498 -1.3099247 -0.61654687 1.2249336 1.0127919
-0.89359987 -0.46067196 0.38208538 -0.80028826 1.4554056 -2.1649263 -1.7166644 1.1177157
-0.6139434 3.408054 0.52703786 -2.559325 -0.53314495 0.22687627 3.1069722 -0.6601115
1.835449 1.4343673 -0.46514046 -3.7391565 -3.6682055 -3.4601626 0.37020588 -0.71798724

BatchNormalization_2_param3 f4 [64]
00000000: 6070 3b41 8bec 2f41 522f dc40 294e eb40
00000010: c982 e640 b471 0441 8d2c bc40 34af 9140
00000020: 0728 1641 5cbe 0b41 0b3a 8a40 023c db40
00000030: 85e6 cd40 03dd 1c41 d2fa 7e40 b1bd cf40
00000040: 4373 d440 8187 2541 0291 8140 7d21 8041
00000050: 9530 7941 83f7 0e41 b401 ba40 9b22 bb40
00000060: 9992 f640 6529 0b41 309c 8a40 7436 a540
00000070: 3b11 1b41 5c8c 7b40 11fa c540 43b6 0b41
00000080: 8310 4d40 b047 8a40 0161 b540 294d 3241
00000090: e043 0440 22f9 2641 a408 1440 9cef e340
000000a0: b3e4 2441 bb31 9c40 926a 2741 a182 0a41
000000b0: 2894 e740 9fc8 1a41 3402 6741 dcee 7541
000000c0: 42bd ac40 8311 cf40 ca15 bc40 0e11 d040
000000d0: 9c09 f13f 3d9d 0041 e9cc b740 14b2 a740
000000e0: 4c35 ed40 8f8f 4741 33fd 2441 9240 0041
000000f0: 1c9a 0f41 445d d140 8964 2840 becc 3541
11.714935 10.99525 6.8807764 7.353291 7.203465 8.27776 5.8804383 4.552637
9.384772 8.733974 4.3195853 6.851075 6.4343896 9.803958 3.9840589 6.4919057
6.63907 10.345582 4.048951 16.016352 15.574361 8.935428 5.812708 5.8479743
7.705395 8.697606 4.331566 5.162897 9.691707 3.9304419 6.1867757 8.7319975
3.2041328 4.321251 5.6680913 11.143838 2.0666428 10.435823 2.3130274 7.122999
10.305835 4.8810706 10.463518 8.656892 7.2368355 9.67398 14.438038 15.370815
5.3981028 6.4708877 5.87766 6.502082 1.8831058 8.038388 5.7437634 5.240488
7.412756 12.4725485 10.311816 8.015764 8.975124 6.542635 2.6311362 11.362486

BatchNormalization_3_param0 f4 [64]
00000000: 00df 793f 13e7 833f bd0d 823f 26d4 873f
00000010: 9fa7 893f e313 663f f052 5c3f 6230 8c3f
00000020: 4b7d 823f 68f1 753f c959 7e3f 61c9 833f
00000030: 7329 853f 71ab 703f 68a8 743f 680b 823f
00000040: 91f6 583f d720 893f 59e9 8c3f 79a6 6f3f
00000050: d3ff 733f 88d7 813f 2d42 6d3f cd87 6f3f
00000060: 72ef 713f ca57 7a3f ab63 8a3f f3c0 863f
00000070: cd3d 723f 3b6b 873f 74b5 5c3f 0b2a 6c3f
00000080: 86c3 823f f743 713f 3204 843f 64be 5e3f
00000090: 2d7d 7d3f 1482 673f 493e 7f3f 8a6e 6b3f
000000a0: 6e0f 6f3f d365 8d3f 63a8 813f 583a 523f
000000b0: 0061 633f 6f9f 733f c1a0 833f 4fdb 883f
000000c0: 7163 863f fe3c 833f 37b7 8f3f a42b 913f
000000d0: 7323 843f 8947 7f3f 19c6 723f b02f 853f
000000e0: ea23 6d3f 3a5f 843f 969f 823f 29fd 863f
000000f0: 4deb 863f 9b61 743f d02d 863f ab94 7b3f
0.97605896 1.0304893 1.0160443 1.0611618 1.0754279 0.89874095 0.8606405 1.0952265
1.0194486 0.9607148 0.9935575 1.0295831 1.0403274 0.940116 0.9556947 1.0159731
0.8475123 1.0713147 1.1008712 0.9361339 0.9531223 1.01439 0.926791 0.9356659
0.9450599 0.97790205 1.0811666 1.0527633 0.9462555 1.0579599 0.86214375 0.9225165
1.0215919 0.9424433 1.031378 0.87009263 0.9901913 0.9043286 0.99704415 0.91965544
0.9338292 1.1046699 1.0129513 0.82120275 0.88819885 0.9516515 1.0283433 1.0691928
1.0499097 1.0252988 1.1227788 1.1341443 1.0323318 0.9971853 0.94833523 1.0405178
0.92632926 1.0341561 1.0204952 1.0546008 1.0540558 0.95461434 1.0482731 0.98273724

BatchNormalization_3_param1 f4 [64]
00000000: 97b9 cfbc b07c 8e3d 4002 183d 5ef1 903c
00000010: e4af cd3c ca54 23be eb60 47be 9541 673d
00000020: f0de 00bd 1963 fabd 5059 7ebb ad3e a9bb
00000030: 5593 b13c 91c8 883a 2c59 bf3d 0a2f 923b
00000040: 9d53 eebc ba24 f33c 1ccd a63c 108d 20bd
00000050: 6c5c 293c df7b c03d 9996 febd 1383 c3bd
00000060: f91c 90bd d9cb f33d 1596 9dbc 6080 79bc
00000070: 66e6 c33c 31f5 513d e02a 91bd 2416 d1bd
00000080: 64f6 fb3d dbbb 9fbd b1bf 55bd 77c6 e7bd
00000090: ade6 23bd c78c fdbc 61f1 a43d 0e06 8abd
000000a0: 0266 f5bc cbf0 e5bc d0ff c73c ecfa 2dbe
000000b0: 7316 86bd b7d9 bebd 0baa 613d 880b b53d
000000c0: 1f66 a6bd 8f30 603d ae05 063e f86b b23d
000000d0: e652 fbbc 130c f9bc 3e49 61bd 2d69 423d
000000e0: c13c 263c 7f7c acbc cd0e 9e3d 5469 90bb
000000f0: 4f6a 8c3d 26b6 fb3c f9e8 1f3e 4119 ea3c
-0.02535705 0.06957376 0.03711152 0.017693218 0.025108285 -0.15950313 -0.19470565 0.05645903
-0.03146261 -0.12225933 -0.0038810559 -0.0051649422 0.021676699 0.001043575 0.0934318 0.004461174
-0.029092604 0.029680599 0.020361476 -0.039197028 0.0103369765 0.093986265 -0.12431068 -0.09546485
-0.07036776 0.11904115 -0.019236604 -0.015228361 0.023913573 0.051259223 -0.07088256 -0.10209301
0.12302855 -0.077995025 -0.052184764 -0.11317151 -0.04001491 -0.030950917 0.08053852 -0.06739436
-0.029955868 -0.02806892 0.024413973 -0.1699025 -0.065472506 -0.093188696 0.055093806 0.0884009
-0.08124947 0.05473381 0.13088104 0.08712 -0.030679177 -0.030401265 -0.05500149 0.047463585
0.010146321 -0.021055458 0.07717667 -0.0044070873 0.06856214 0.030726504 0.15616216 0.028576495

BatchNormalization_3_param2 f4 [64]
00000000: 3005 ffbf 377c a5bf 40e6 debf 6137 cdbe
00000010: d053 813f 3ec7 98bf 2cbf e2bf cbe0 95bf
00000020: 0bf9 adbf 523c 7b3f d4e0 e53e 9937 89bf
00000030: f5e4 0640 19ac 4bbe 9ca0 b2bf a590 20be
00000040: 14af 4fbf db7f 8cbf eed5 a2bf 862e 683f
00000050: b0d9 8dbf 6ca7 b1bf e610 d9bf 72ae d4bd
00000060: c088 eb3f 9b0f 47bf b9fa c93f 04d3 bf3f
00000070: 5582 80bf 6772 3ebf 2125 363f 4ba0 3fbf
00000080: 8359 ad3e 096b c6be 01e7 c5bf 2dc9 61c0
00000090: ae60 90bf 7866 b9bf fbf6 28c0 2646 c6bf
000000a0: d5fe be3e 23dd 3a40 45bd 88bf 7cb7 2cc0
000000b0: f7a4 d4bf 0c85 63c0 7f19 c5bf bd5a 2b3f
000000c0: 3576 40bf b5e6 0740 0944 5dbd 6d54 463f
000000d0: 95d2 efbf f1b5 a3bf 6fde eebf c1cc 403f
000000e0: 0a16 c63e f5de ff3e 2471 0940 4bad a23f
000000f0: cb75 cfbe cb41 8cbf ab59 37be 3b62 c13f
-1.9923458 -1.2928532 -1.7414017 -0.40081313 1.0103703 -1.1935804 -1.7714591 -1.1709226
-1.3591627 0.98138916 0.44898093 -1.0720092 2.1077244 -0.19889869 -1.3955264 -0.15680178
-0.81126523 -1.0976518 -1.2721536 0.9069599 -1.1082058 -1.3879218 -1.6958282 -0.10384835
1.8401108 -0.7775819 1.577964 1.4986272 -1.0039774 -0.74393314 0.71150404 -0.7485396
0.33857355 -0.38753536 -1.5461122 -3.5279038 -1.1279504 -1.4484396 -2.6400745 -1.5490158
0.37303796 2.919747 -1.068276 -2.698699 -1.6612843 -3.5549955 -1.5398406 0.6693533
-0.7518037 2.1234562 -0.05401996 0.77472574 -1.873614 -1.2789899 -1.8661631 0.7531243
0.3868869 0.4997479 2.1475306 1.2709135 -0.40519556 -1.0957578 -0.179053 1.5108103

BatchNormalization_3_param3 f4 [64]
00000000: de9c 9a40 289c 3e40 54b7 f940 9711 5a40
00000010: 7866 f33f 9ac3 a840 6cae bb40 4041 5a40
00000020: 3d8e 9e40 e419 5f40 1b13 7840 ec08 ae40
00000030: dbc6 3040 7a23 6a40 9fea 1940 9f67 2c40
00000040: 10c7 b240 6bec 6440 e92a 9140 6746 8240
00000050: 1957 5340 aeb1 1940 12b3 bc40 bec3 2440
00000060: 0e6c 9840 f8af 4440 5f39 ab40 69f5 6f40
00000070: 3d14 2c40 fdbe 4240 8a82 6b40 51d5 4640
00000080: b4a0 2440 1f87 8040 4f25 1f40 1294 3041
00000090: 21b8 2140 a433 9840 f618 4f40 d057 5f40
000000a0: 268b 9240 0ffa 3d40 957d a540 d2c3 ce40
000000b0: 5c8b 9a40 23f2 0041 64f6 0a40 1b1f 8040
000000c0: 8bd5 a340 09dc c540 37b3 8540 6e8c dc40
000000d0: 8448 bb40 bd3f 8140 34b6 8640 fb01 9940
000000e0: 8a1b 8640 e817 9040 26a3 9740 c704 3540
000000f0: 125a af3f 41cd 9140 b26f 8440 cb53 b340
4.831649 2.978281 7.803629 3.4073236 1.9015646 5.273877 5.8650417 3.4102325
4.954863 3.4859552 3.876166 5.438589 2.7621372 3.6584153 2.4049451 2.6938245
5.5867996 3.5769298 4.536488 4.071094 3.302191 2.4014697 5.896859 2.5744472
4.7631903 3.0732403 5.3507533 3.7493536 2.6887352 3.042907 3.6798425 3.1067698
2.5723085 4.0164943 2.4866521 11.03615 2.5268633 4.756304 3.2358985 3.4897346
4.579486 2.9683874 5.17158 6.461404 4.8295116 8.059115 2.1712885 4.003797
5.1198173 6.1831098 4.178127 6.8921423 5.852602 4.0390306 4.2097416 4.7814918
4.1908617 4.5029182 4.7386656 2.8284166 1.3699362 4.5563054 4.1386347 5.6039786

BatchNormalization_4_param0 f4 [64]
00000000: 179c 853f caaa 733f db25 763f 6d5c 573f
00000010: cb67 7a3f 34a4 843f a0d6 773f e33e 7a3f
00000020: 9e5c 7d3f fa7e 723f 0909 823f d139 833f
00000030: 6fc0 843f 1092 6f3f 97d8 8f3f 9f39 6d3f
00000040: 91ea 653f 7174 843f 98fe 7f3f 3344 803f
00000050: b76a 663f e8b0 7d3f 07d9 843f 75cc 883f
00000060: fceb 7c3f 2e4b 863f 9cbb 933f be7c 843f
00000070: b549 7e3f ab32 763f a6b6 8a3f 2b65 933f
00000080: 526f 683f f449 5d3f 2d67 7c3f fac4 843f
00000090: db00 833f bc59 7c3f 56c1 693f 350f 7e3f
000000a0: 61cc 883f d411 7b3f 597e 713f b42f 813f
000000b0: cf2f 863f 4071 833f 3216 743f 21a4 8a3f
000000c0: 5da2 7b3f a208 5a3f 9352 853f acf0 823f
000000d0: 7b26 843f e151 723f e825 6c3f 7eba 5f3f
000000e0: 7baa 7b3f 1925 753f f917 723f 2bdf 753f
000000f0: d824 6b3f 10c2 6d3f fadc 833f 684b 793f
1.043826 0.9518248 0.9615151 0.84125406 0.97814626 1.0362611 0.96811867 0.9775221
0.9896945 0.94725 1.0159007 1.0252019 1.0371226 0.9358225 1.1237973 0.9266605
0.89811045 1.0348035 0.99997854 1.0020813 0.90006584 0.9909806 1.0378731 1.0687395
0.98797584 1.0491693 1.1541629 1.0350568 0.9933122 0.96171063 1.083699 1.1515249
0.9079486 0.8644097 0.98594934 1.0372612 1.0234636 0.98574424 0.9131063 0.99241954
1.0687371 0.9807408 0.94333416 1.0092683 1.048334 1.0268936 0.9534637 1.0831338
0.9829462 0.8516942 1.0415825 1.0229697 1.0324243 0.9465619 0.9224534 0.8739394
0.9830701 0.9575973 0.9456783 0.9604365 0.91853094 0.9287424 1.0301812 0.97380686

BatchNormalization_4_param1 f4 [64]
00000000: c8d5 b83d cbb2 e03c fa0d 67bd bdde cebd
00000010: fccb 8abd c249 a93d 3784 533d ab3c fdbc
00000020: a778 7ebd a9ea 4d3c e098 dfbc 277d 043d
00000030: 4c5a ac3d 77a4 113d 27d6 883d 6b09 07bd
00000040: 3444 89bb 479b e83b a63e d83d 67f7 2fbd
00000050: 829b 8bbd a101 c7bd b791 08bc f944 c4bc
00000060: 0865 b4bc 7fb1 b13d 7028 703d e739 233e
00000070: 2e47 f93c 4534 7dbd d504 223d 5d71 173e
00000080: 7ff3 1e3c 2c08 12be 5d95 2ebd ace1 143d
00000090: 277d bb3d f84d 3a3d 658c 01be 8ada 72bd
000000a0: fee8 4e3d 18e0 8bbd 522f 68bd 030d 873d
000000b0: 0721 1f3e cd15 95bc 2005 50bc 468e 543d
000000c0: 4a0c 0b3d 9b7f 34bd d04f bd3c 9431 8d3d
000000d0: 5e5b da3b 7252 083d be2d afbc 958e 0cbe
000000e0: 3c86 05be 81d5 043d 53dd 91bd 2f81 cbbd
000000f0: ad01 a03c b599 05be f31c 103e 90dd 66bd
0.090251505 0.027429005 -0.056409813 -0.10101078 -0.06777188 0.08266021 0.05163976 -0.030912718
-0.06212678 0.012568154 -0.027294576 0.032345917 0.0841566 0.035557237 0.06681471 -0.032967966
-0.0041890386 0.0070985886 0.10558824 -0.04296055 -0.0681677 -0.097171076 -0.008335522 -0.02395867
-0.022020832 0.08676433 0.058632314 0.15940057 0.030429449 -0.061817426 0.03955539 0.14789338
0.009701609 -0.1426093 -0.042622913 0.03634803 0.0915473 0.045484513 -0.12651213 -0.059290446
0.050515167 -0.06829852 -0.056685753 0.06594279 0.15539943 -0.018198872 -0.012696534 0.051893495
0.033947267 -0.044067007 0.023109347 0.06894222 0.006663724 0.03328175 -0.021384116 -0.13726266
-0.13039488 0.032430176 -0.07122292 -0.09936749 0.01953205 -0.13046916 0.14073543 -0.056363642

BatchNormalization_4_param2 f4 [64]
00000000: aa19 64c0 f76d d13f e662 1940 5e12 5ac0
00000010: 1f7a 21c0 6c8a 29be a11d d8bf 0cbd 83bd
00000020: 6e36 913f bcf8 823f f216 1140 d6c7 fd3e
00000030: 9612 443d b23a 1840 2f41 2e40 4e6d 0fbe
00000040: 6bb8 d13f 00eb 1b40 91ae 2040 e34a 05bf
00000050: e0a3 3dc0 e755 74c0 8cf4 67bf 444f 0240
00000060: 0bb7 e93e 9fd6 0e40 8bae ea3f 59ba 67c0
00000070: 4cc9 0d40 dcd4 2640 e9bb dabf a783 0bc0
00000080: ae7b 5fbf cb8d 06c0 b54a d63e 826f 3340
00000090: 6cdb bcbf e6f5 d4bf 906c cabf 1389 abbf
000000a0: a573 323f bacc 84bf 7cbe d8bf 17f7 1c3f
000000b0: d321 6ac0 2b24 9f3f 7b0f 6dbe 0a8a 903f
000000c0: e484 cabd 8acd bebf cc23 f23f aff7 9d3f
000000d0: 227d 443f 81ea 86c0 3aaa adbf 81c6 8cbf
000000e0: 2f49 1140 620e 3040 9f03 f5bf a058 56c0
000000f0: cb7f 54c0 d084 543f 537a 26c0 8547 66bf
-3.5640664 1.6361684 2.3966613 -3.407371 -2.5230787 -0.1655671 -1.6884042 -0.06432542
1.1344736 1.0232158 2.2670255 0.49566525 0.047869287 2.3785825 2.7227285 -0.1400654
1.6384405 2.4362183 2.5106547 -0.52067393 -2.9631271 -3.817743 -0.90607524 2.036088
0.45647463 2.2318494 1.8334516 -3.6207488 2.2154112 2.606742 -1.7088596 -2.1799104
-0.87298095 -2.1024044 0.41853872 2.803681 -1.4754462 -1.6637542 -1.5814381 -1.3401207
0.6970771 -1.0374978 -1.6933131 0.6131453 -3.6583145 1.2432913 -0.23150437 1.1292126
-0.09888628 -1.4906476 1.8917174 1.2341212 0.7675344 -4.216126 -1.3567574 -1.0998079
2.2700918 2.7508779 -1.914173 -3.3491592 -3.3202999 0.83015156 -2.601216 -0.8995288

BatchNormalization_4_param3 f4 [64]
00000000: 6b67 5940 3b13 8540 6149 2b40 d53f b240
00000010: 64c0 a840 7f10 8e40 26e9 b840 7575 9540
00000020: a266 5b40 ee23 8b40 0731 5240 969e 2140
00000030: 354f 6240 a174 7840 47ca 7640 0744 4640
00000040: 4e64 4540 6fb4 2340 11f6 c83f 2bc2 8840
00000050: be3f 8d40 d876 1740 79b9 8a40 2284 6940
00000060: fc89 1040 b04e 7e40 e250 2840 5f2d 6e40
00000070: f28e 5140 0b88 7340 a814 3b40 e021 4140
00000080: 1854 2240 b429 8840 1266 0340 a9b3 8340
00000090: 45f7 2440 810f 3240 a571 b740 8bb6 2e40
000000a0: 73ef 3740 52ad 9040 839c 9740 21e1 2b40
000000b0: 94cb 9440 e1da e03f a789 8840 bafe 6e40
000000c0: 734d 8b40 f260 2340 025d a440 7204 d43f
000000d0: 511f 6740 5add be40 f519 d83f d459 8f40
000000e0: 25c3 4f40 7234 8d40 7fb9 8b3f c888 4640
000000f0: f34e 9240 ea5c 5640 78d2 2a40 7586 ba40
3.3969371 4.1585975 2.6763537 5.570292 5.273485 4.4395137 5.7784605 4.670588
3.4281392 4.348136 3.2842424 2.5253043 3.5360844 3.8821185 3.856096 3.097902
3.084247 2.5578878 1.5700094 4.273702 4.414031 2.3666286 4.3351407 3.6486897
2.258422 3.9735527 2.6299367 3.7215192 3.2743497 3.8051784 2.9231358 3.0176926
2.5363827 4.2550907 2.0531049 4.115681 2.5775921 2.7821963 5.7326226 2.7298915
2.8739898 4.5211573 4.7378554 2.6856158 4.649851 1.7566797 4.2668033 3.7342973
4.3532043 2.552792 5.1363535 1.6563857 3.6112864 5.9645205 1.6882921 4.4797153
3.2462857 4.412652 1.0915984 3.1020985 4.5721374 3.349421 2.669096 5.828913

BatchNormalization_5_param0 f4 [64]
00000000: d685 933f 39ca 743f cc32 633f edb7 733f
00000010: f9cf 823f 27c5 893f 89c8 673f ba76 683f
00000020: 04c3 6a3f a4f5 5e3f 1478 7c3f d636 853f
00000030: 3fc1 843f 5953 893f 9af3 843f 40c2 823f
00000040: 693e 6e3f 1720 703f 777e 653f 2e36 873f
00000050: 73c8 803f 42de 753f 19b9 663f 1ace 8e3f
00000060: c3f1 883f b8a6 873f 5ae6 8a3f 52be 833f
00000070: 8368 783f b87d 803f dc2a 5d3f b1e1 843f
00000080: 4f95 6b3f b3ac 873f 9550 713f faf4 833f
00000090: 5f05 843f ddb7 873f aa49 843f a17c 643f
000000a0: 5f67 793f 553e 8a3f d22d 8d3f 0a34 763f
000000b0: 436c 843f ccc9 873f c62c 803f 42f7 803f
000000c0: c8a4 763f ae78 6a3f 8ed5 863f d4f7 6c3f
000000d0: 2626 7e3f 7dda 713f 68eb 783f e4c5 7a3f
000000e0: 6931 7e3f 432c 753f be8a 863f 1e56 983f
000000f0: 497f 893f dab1 7a3f 2831 6f3f 6627 703f
1.1525218 0.9562107 0.88749385 0.95202523 1.0219718 1.0763291 0.9054037 0.9080616
0.9170382 0.8709357 0.98620725 1.040736 1.0371474 1.0728561 1.0386841 1.021553
0.9306398 0.93798965 0.89646095 1.0563409 1.0061172 0.96042264 0.90126187 1.1156647
1.069878 1.0597754 1.0851548 1.0292456 0.9703447 1.0038366 0.86393523 1.0381376
0.920247 1.0599579 0.94263583 1.0309136 1.0314139 1.0602986 1.033498 0.8925267
0.97423357 1.0800272 1.1029608 0.96173155 1.0345539 1.0608459 1.0013664 1.0075457
0.96345186 0.9159039 1.0533922 0.92565656 0.9927696 0.9447401 0.972342 0.9795821
0.99294144 0.95770663 1.0511091 1.1901281 1.0741969 0.9792763 0.9343438 0.9381012

BatchNormalization_5_param1 f4 [64]
00000000: 0b78 853d 4184 213c ab16 2a3c 1960 0dbd
00000010: 5825 a33d d562 0f3d f80b 15bd 5eec f0bc
00000020: b49d 01be 9edb f9bb 40e8 a43d 6e1c 043e
00000030: 5b35 febc 4faa 303e bbff 0b3e b032 153d
00000040: 5a66 213d f846 83bd ec01 d1bb aa01 b53d
00000050: 870d fe3d 72ca ab3d 3b02 1cbe 313b 653d
00000060: c22c bbbc fdab a63d 104d 583e 0ddd 853d
00000070: fa1d 31ba 6b8f c7bb ffb3 26bd d8aa 0c3e
00000080: 781b 01be 2c45 d63d 700e 9cbc 12b2 e93d
00000090: f8c3 7ebd bedf c53d 18ad 1c3e 0fcf 593c
000000a0: 63d7 ff3b 4769 4d3d 04e0 2f3e 321f 20bc
000000b0: 8068 c53d c8a2 c1bc 6fda 053d 9ac0 9b3d
000000c0: 0d7f 003d 51dd 09bc 8646 143e 23ba 13bd
000000d0: dd63 6b3d ec9b c2bc 71ad 65bc 25c7 1fbd
000000e0: 8334 0e3e 6140 853c ed63 7e3d 3a94 063e
000000f0: 4b1a 133e e7c9 ce3d 5cd2 6a3d 5a89 82bd
0.06517037 0.009858192 0.010381381 -0.034515474 0.07966107 0.035006363 -0.036388367 -0.029409584
-0.12657815 -0.0076250574 0.08052111 0.1290147 -0.031031301 0.17252468 0.13671772 0.036425292
0.03940425 -0.064100206 -0.006378403 0.08838208 0.12404924 0.08388223 -0.15235226 0.055964652
-0.02284849 0.08138273 0.21123147 0.06536303 -0.0006756481 -0.006090095 -0.040699 0.13737047
-0.12608135 0.10462412 -0.019049853 0.11410917 -0.06219861 0.09661816 0.15300405 0.0132939955
0.0078076585 0.05014923 0.17175299 -0.009773063 0.096390724 -0.02363719 0.032679018 0.07605095
0.031371165 -0.008414582 0.14480028 -0.036066186 0.057468284 -0.02375599 -0.014018402 -0.03900828
0.13887219 0.01626605 0.062107015 0.13142481 0.14365499 0.100971036 0.05732952 -0.06373854

BatchNormalization_5_param2 f4 [64]
00000000: 6160 eebf a43e df3f 48a6 65c0 6444 babe
00000010: f9f6 4240 8129 693f 9a78 1fc0 6268 53c0
00000020: 98a6 7b3f 18a8 9a3f ede2 3fc0 c72d 11c0
00000030: 0076 d6be fb91 4e40 3387 83bf a620 0440
00000040: 9314 2bc0 b94d 03c0 4b97 edbf 0eca d63e
00000050: eff2 2840 586c 56c0 fec4 10c0 0dc5 a53f
00000060: d80f 00be 7da9 733f 63c4 13bf 1555 0ac0
00000070: bac2 4b3f 7cad 64c0 cd94 9dbe 3382 13c0
00000080: d0e3 493f 832c 0a40 25ca ce3f f160 90bf
00000090: 7945 22bf f6ee 52bf 6527 95bf 9b8e 72bf
000000a0: 773d 3840 1087 29c0 8885 fbbf acc6 07c0
000000b0: 0c6a 12bf f3e4 4540 82c4 643f 4da2 233f
000000c0: b041 2ac0 6013 0240 3c2b 0fc0 282c 363e
000000d0: 62bb 66be 6914 ccbf b833 55bf 4b44 1e3f
000000e0: cffb 66c0 e58f d33f c078 9ebe afea 34c0
000000f0: 4acd 3140 7c46 0d40 b6d7 d1be 7fe4 1e3f
-1.8623163 1.7440991 -3.588274 -0.36380303 3.046324 0.91078955 -2.491736 -3.303246
0.98301077 1.2082548 -2.9982255 -2.268419 -0.41886902 3.22766 -1.0275635 2.0644927
-2.6731308 -2.0516188 -1.8561796 0.4195103 2.6398275 -3.3503628 -2.2620234 1.295076
-0.12506044 0.95180494 -0.5772154 -2.161443 0.79594004 -3.5730886 -0.30777588 -2.3048217
0.7886324 2.1589668 1.615544 -1.1279584 -0.63387257 -0.82395875 -1.1652647 -0.9474885
2.8787515 -2.6488686 -1.9650126 -2.121501 -0.57193065 3.092099 0.8936235 0.63919526
-2.6602592 2.0324326 -2.2370138 0.17790282 -0.22532418 -1.5943729 -0.8328204 0.61822957
-3.6091192 1.6528288 -0.309515 -2.826824 2.7781549 2.207427 -0.40984887 0.6206741

BatchNormalization_5_param3 f4 [64]
00000000: 7945 4540 d607 9140 914e e040 1419 a040
00000010: 1922 5841 4e11 c140 93d5 0a41 132f 0d41
00000020: 08de bb40 98a5 9d40 a072 2a41 b8aa e640
00000030: 0245 e63f efd9 7b41 93d2 eb40 7dcc 0741
00000040: e168 5140 44a8 d040 9205 de40 0ec3 8e40
00000050: bd5b db40 282d 0d41 fcad 1a41 88d9 c940
00000060: f5c9 bc40 a790 9540 cddb 2540 9676 f13f
00000070: 4677 9240 bd87 0341 862b bb40 138a ca40
00000080: 142f 0141 3e53 f640 a994 1f41 76f6 9740
00000090: e831 a040 461d 8740 f365 9d40 0ca8 8c40
000000a0: 3e0a fd40 1df6 2e40 42c0 6b40 4d84 b240
000000b0: fc88 0241 7792 1841 37c1 c540 b990 d840
000000c0: 33de f640 dc45 2441 7a98 9c40 c6a4 3c40
000000d0: 8da5 2f40 deb4 9840 8061 af40 8640 8b40
000000e0: 067f 6440 2050 dc40 6c9b c140 b2cd a040
000000f0: b32e 3841 5873 0141 f11c 6540 0a05 7240
3.0823653 4.5322065 7.0095906 5.0030613 13.508325 6.0333624 8.677142 8.823993
5.8708534 4.926464 10.652985 7.2083397 1.798981 15.740706 7.369455 8.487424
3.2720263 6.52054 6.93818 4.4613104 6.8549485 8.823524 9.667477 6.307804
5.899653 4.6739078 2.5915406 1.8864315 4.5770597 8.220639 5.849063 6.329355
8.073994 7.6976614 9.973794 4.7488356 5.006092 4.2223234 4.918695 4.3955135
7.9075003 2.7337716 3.6836095 5.57865 8.158443 9.535758 6.179836 6.7676663
7.714624 10.2670555 4.893613 2.947557 2.7444794 4.7720785 5.480652 4.3516264
3.570253 6.884781 6.0502224 5.0251093 11.511401 8.09066 3.5798914 3.7815576

BatchNormalization_6_param0 f4 [64]
00000000: 556f 753f dbd7 8a3f c96a 6c3f 7ffb 6d3f
00000010: 2e1f 883f b237 803f 7fc0 5d3f dd23 5a3f
00000020: 0853 803f 0bc8 813f 13c9 853f 876f 8d3f
00000030: 8851 703f a43d 823f e469 6c3f 88b1 853f
00000040: 33af 883f aae4 7a3f 51d5 853f b339 833f
00000050: ce52 8b3f 2bb3 833f 659d 8b3f 30d9 773f
00000060: 7be9 853f 5111 703f 6d5b 603f c021 723f
00000070: 4aa5 853f 79c8 7a3f b802 933f 17c7 983f
00000080: 2da1 803f 05fe 8e3f 659b 583f 1dfb 893f
00000090: 17bb 893f 9eae 673f 2227 7d3f 35fd 6f3f
000000a0: e073 7b3f 1921 7b3f 2f85 893f 6887 813f
000000b0: bc84 653f 4814 863f 479a 7a3f f86c 7a3f
000000c0: c107 5c3f 804b 753f c031 843f 23b5 943f
000000d0: 0b80 803f 399e 7e3f 31ed 8b3f 4864 633f
000000e0: af6d 7f3f e798 7c3f 14b2 663f 2fb1 843f
000000f0: b6f0 8b3f cffd 7f3f f03d 873f 8bdc 793f
0.95873004 1.0847124 0.9235044 0.9296188 1.0634515 1.0016997 0.8662185 0.85210973
1.0025339 1.0139173 1.0451988 1.104966 0.93874407 1.0175061 0.92349076 1.0444803
1.0678467 0.98005164 1.0455724 1.0251983 1.0884645 1.0289053 1.0907408 0.96815777
1.0461878 0.9377642 0.87639505 0.9458275 1.0441067 0.97962147 1.1485205 1.1935757
1.0049187 1.1171271 0.84612113 1.0779759 1.076022 0.9050082 0.98887837 0.9374574
0.98223686 0.9809738 1.074377 1.0119448 0.8965566 1.0474939 0.9789166 0.97822523
0.8594933 0.9581833 1.0327682 1.1617779 1.0039076 0.9946018 1.093176 0.8882489
0.9977674 0.9867081 0.90115476 1.0366572 1.0932834 0.99996656 1.0565777 0.97602147

BatchNormalization_6_param1 f4 [64]
00000000: fb8f de3c 3a53 ea3d e685 25bd e2c2 0d3d
00000010: 092d 5c3e cbef c53d 2e8b 02be 52a3 a9bd
00000020: 38f9 8fbc e1a4 bf3d 5c9d af3d 325d 29bc
00000030: 42b3 47bc 4586 1d3d d9a0 4d3c b73e e83d
00000040: afc6 fd3c e650 153e bf7b 44bc ae78 423e
00000050: b593 183e d543 e03c 9b31 cc3d ebf5 453d
00000060: 742f 493d 2b46 bb3c 1e0f 35bd bd96 e33c
00000070: ce69 60bd 2674 5e3c c348 123d 78bf 313e
00000080: 179d a13c 502e 733e 9fc5 b83c 3f0a e03d
00000090: ad52 733d b8db 193d f12c d03d 6d12 e3bd
000000a0: dd7c ac3b 1b85 6a3c cb75 883d 1f76 5c3d
000000b0: 588b c3bd 582a 103e c34e 7c3d da37 0abe
000000c0: feae 0fbe 261d 413d 171c 123e 7b74 683e
000000d0: b594 173d 7a95 7fbc 0068 e33d 86ab cebc
000000e0: d469 1a3e d667 f73d b8bb ceba 7ac0 653d
000000f0: 83ff e73d a76f 1f3e c4b2 a53d b371 fabc
0.027168265 0.114416555 -0.0404109 0.034609683 0.21501555 0.096648775 -0.12748405 -0.08283104
-0.017574891 0.0935762 0.08574936 -0.010337161 -0.0121887345 0.038458128 0.012550556 0.11340087
0.030978529 0.14581642 -0.011992394 0.18991348 0.14900096 0.027376095 0.09970399 0.04833023
0.04911752 0.022860607 -0.04420387 0.027781839 -0.054788403 0.013577497 0.035713922 0.17358196
0.019728227 0.23748136 0.02255517 0.10939454 0.059405018 0.037563056 0.10164822 -0.11087499
0.0052639083 0.014313961 0.06663092 0.053823587 -0.09548062 0.14078653 0.06159855 -0.13497868
-0.14031598 0.04714694 0.14268528 0.22700684 0.037007052 -0.015599603 0.11103821 -0.025228273
0.15079433 0.12080352 -0.0015772497 0.056091763 0.11328032 0.15569936 0.080907375 -0.030571794

BatchNormalization_6_param2 f4 [64]
00000000: b843 bf3e 8f2f 28c0 b7fd b9bf 1f7c 62c0
00000010: d0ed 07be c8f2 2440 a7f2 1440 cd54 f2bf
00000020: 9a80 d5bf 5076 38bf 06ee 2ec0 0871 86be
00000030: 146c 28c0 568e 2cc0 8f63 393f 4a53 27c0
00000040: 4539 d63f eb01 6ebf 7c9a 923f be6c 6ebf
00000050: 5cf2 debf eca6 1f3e f7aa 0ec0 12fc a63e
00000060: 8214 3b3f 8747 09c0 fcc5 f2bf b318 f5bd
00000070: 8784 4cbd 256f 0ac0 0257 afbf 723e debe
00000080: 1964 5f3e b4c8 46bf 5122 e9be 997d 023f
00000090: 9c64 54bf ca20 96bf 3f61 ff3f b49c 40c0
000000a0: 6369 a4bf 6947 cdbe 201a 013e 1bfc 9dbf
000000b0: 9749 05c0 2aa9 1640 1445 cdbf 32e8 813e
000000c0: 2d94 353e 5126 26bd 771e 30bf 7913 853f
000000d0: 7e66 61bf 564d 17bf 3bba af3f d8ef 943d
000000e0: 7137 0140 526f cebf 2f8b b8bf 1bb4 023f
000000f0: 7ffb 163d b113 21c0 1513 28c0 f7ae 4a3e
0.37356353 -2.6279027 -1.4530553 -3.5388258 -0.13274312 2.5773182 2.3273103 -1.8932129
-1.6679871 -0.7205553 -2.7332778 -0.2625811 -2.6315966 -2.6961875 0.7241754 -2.6144586
1.6736227 -0.92971677 1.1453395 -0.9313468 -1.7417712 0.1559102 -2.2291849 0.3261419
0.7307817 -2.1449907 -1.896667 -0.119676016 -0.049931075 -2.1630337 -1.3698428 -0.43407017
0.21815528 -0.7765 -0.45533994 0.50972897 -0.8296602 -1.1728756 1.9951552 -3.0095644
-1.2844661 -0.40093544 0.12607622 -1.2342561 -2.0826166 2.354075 -1.6036706 0.25372463
0.17732306 -0.040563885 -0.68796486 1.0396568 -0.88047016 -0.5910238 1.3728708 0.07272309
2.0190089 -1.6127722 -1.4417475 0.5105607 0.03686094 -2.5168269 -2.6261647 0.19793306

BatchNormalization_6_param3 f4 [64]
00000000: 4a29 7440 3f9b 7c40 da65 1641 2e82 0241
00000010: 655f c140 bf9f 3840 cb02 a640 58be ba40
00000020: 179e f540 e357 2241 f51d b240 7f28 2640
00000030: dafd d640 1a08 be40 f9d8 0841 162f f240
00000040: 24e0 6140 3aef c540 3697 ac40 1fa8 e840
00000050: 76b9 4d40 b4f5 1340 e278 5040 0c5b a240
00000060: 4b7c ad40 bf4e d140 0b0c bd40 f5d2 b540
00000070: e6f2 2b40 da6a f140 c653 fd40 dede 973f
00000080: 85a7 3240 1aea 3d40 7c1d d340 0217 1040
00000090: 5936 ca40 23c0 8a40 5ca9 0d41 fa81 cc40
000000a0: 3e87 8340 cdcf b840 e1e0 0541 d0cb e540
000000b0: 195c 0d40 3bca 1b40 751b fa40 36c1 8540
000000c0: 9dbd 8540 75b2 ae40 9623 5741 526c a740
000000d0: bb05 6540 5240 5140 4c73 3040 f3e3 bf40
000000e0: 2215 6240 0ecc f440 7294 b440 a060 7c40
000000f0: e24e 9d40 ae17 0641 ca1c 4d41 9f16 0a41
3.81502 3.9469755 9.399866 8.156782 6.042895 2.8847501 5.187841 5.8357353
7.675548 10.146457 5.566157 2.5962217 6.7184877 5.938489 8.552972 7.568248
3.5293055 6.1854525 5.3934584 7.2705226 3.2144446 2.3118715 3.257378 5.073614
5.4214225 6.5408626 5.90772 5.6820016 2.6867003 7.5442934 7.9164762 1.1864889
2.7914746 2.9674134 6.597349 2.2514043 6.319134 4.335954 8.8538475 6.3908663
4.110259 5.7753663 8.367402 7.1811295 2.2087462 2.4342182 7.8158517 4.1798353
4.179396 5.4592843 13.446188 5.2319727 3.5784748 3.2695508 2.7570372 5.996576
3.5325398 7.649909 5.643121 3.9433975 4.9158792 8.380781 12.819529 8.630523

BatchNormalization_7_param0 f4 [128]
00000000: b549 5d3f 915c 813f b219 783f 375f 873f
00000010: 75f0 803f 6727 7b3f c924 843f 63bc 843f
00000020: d80f 923f d897 733f ef10 6d3f 0492 733f
00000030: fb3b 833f cf40 713f ed8b 833f 4a1b 853f
00000040: 5f7b 823f cb9c 7b3f a39b 683f 7aa9 823f
00000050: c45b 723f 0006 7a3f ae8f 673f 8e30 753f
00000060: a28d 6a3f 188b 643f a3e5 8a3f 520a 863f
00000070: bbc4 8c3f 603c 7d3f 914b 803f e358 7c3f
00000080: 96ee 7b3f bec0 6b3f 05d0 753f 6cde 6b3f
00000090: b8a2 803f f8ec 673f 553a 953f 2e5c 883f
000000a0: f60e 7d3f 3bc3 7d3f d5d5 7d3f 471e 883f
000000b0: 6cf1 823f 79c6 583f a89d 8a3f 7181 753f
000000c0: 6e8d 893f 2690 833f 578a 813f 8271 893f
000000d0: c3eb 863f 6d6e 793f 3ba4 8d3f 3b19 833f
000000e0: c45a 7f3f 7f64 913f 907e 883f 07d6 893f
000000f0: 1df6 833f ece3 5e3f 9bd8 8e3f 2c55 8b3f
00000100: 5e7a 7f3f d037 843f b052 7a3f a7e1 553f
00000110: 740e 893f 13c3 7f3f c155 7b3f 9ba7 8b3f
00000120: 9e7c 843f 4875 823f 2e33 863f 9f3a 573f
00000130: 3678 873f 5baf 803f 67c0 783f c48c 993f
00000140: b973 833f efe6 953f 677c 883f 0442 843f
00000150: 3958 8e3f e01a 643f db6b 603f eb53 7c3f
00000160: c016 893f 5c3f 853f 1d02 893f 575f 853f
00000170: 8342 7d3f 86b7 793f ccea 7e3f 811b 893f
00000180: 2fe7 753f 99a2 883f 462f 983f 7938 893f
00000190: 323c 893f 0c39 5a3f c1ee 863f 2594 823f
000001a0: 332d 603f 0fbb 843f 0b22 6f3f 1e1f 8f3f
000001b0: 89cb 803f 27f3 713f 9445 733f 0ba8 773f
000001c0: 431d 873f fe00 803f 16b4 753f dd8d 893f
000001d0: ad2b 893f 6ba7 813f 73ce 813f 02c7 6d3f
000001e0: 4276 843f 384a 803f b3b2 953f d31d 833f
000001f0: 6d67 683f 2385 7d3f 303b 7c3f e916 843f
0.86440593 1.0106374 0.9691421 1.0575932 1.0073382 0.98107 1.0323726 1.0369991
1.1411085 0.9515357 0.92603964 0.9514468 1.025268 0.94239515 1.0277077 1.0398953
1.01939 0.9828612 0.9086248 1.020797 0.94671273 0.97665405 0.9045361 0.95777214
0.91622365 0.8927474 1.085133 1.04719 1.0997537 0.9892025 1.0023061 0.9857313
0.9841093 0.92090976 0.9602054 0.92136264 1.0049658 0.9059596 1.1658427 1.0653131
0.98850954 0.99126023 0.99154407 1.063424 1.0229926 0.84677845 1.0829363 0.95900637
1.0746286 1.0278366 1.0120343 1.0737765 1.0540699 0.9743412 1.1065744 1.0242075
0.9974787 1.1358794 1.0663624 1.0768441 1.0309483 0.8706653 1.1159853 1.0885367
0.9979609 1.0329533 0.9778242 0.83547443 1.0707536 0.99907035 0.98177725 1.0910524
1.035053 1.0192041 1.0484369 0.84073824 1.058356 1.0053514 0.9716858 1.1996083
1.0269691 1.17111 1.0662965 1.0332646 1.1120673 0.8910351 0.87664574 0.9856555
1.0710068 1.0409961 1.070377 1.041972 0.98929614 0.9754566 0.9957702 1.0711519
0.96055883 1.0674621 1.1889427 1.0720359 1.0721495 0.85243297 1.0541612 1.020146
0.8756897 1.0369586 0.9341132 1.1181371 1.0062114 0.94511646 0.9502804 0.9674079
1.0555805 1.0000303 0.95977914 1.0746418 1.0716454 1.0129217 1.0141128 0.92881787
1.034859 1.002265 1.169516 1.0243477 0.90782815 0.99031276 0.9852781 1.0319492

BatchNormalization_7_param1 f4 [128]
00000000: 327e e3bd e465 f03c a258 1b3d d8da 053e
00000010: 44db a6bd 096b 103d 9c4e 473d 07e3 a43d
00000020: 6750 533e 171e 5f3d 2c50 bebb 98a4 a43b
00000030: 3676 8fbd f452 80bd 29e3 473c 8f0b d33c
00000040: d693 35bd b6f8 23bd b1bd 92bd 85c6 003e
00000050: 79ea 9abd 23f6 6cbd 6d38 99bd 8f65 34be
00000060: 5f7d 3abc 4262 98bc cf53 c03d 4fb5 113e
00000070: 7519 bcbb a943 e03c 635f ccbb bd20 80bd
00000080: d791 3fbd a4f7 513c f2b8 b23c 4aa8 13bd
00000090: 962a 3a3e 6efa 06bc 35aa 733b bb1d e7bd
000000a0: 74f1 813d ccab 85bc 0bed c13c e7b9 933d
000000b0: 76b7 86bd 5b2a b6bd 0a74 8b3c a21b 0cbe
000000c0: b252 e83d 9ae3 203d 0fed 2bbd 4c3e f0bc
000000d0: 2caf d13d 9951 33bd 5900 06bd b64d bfbc
000000e0: 7df7 283d fddd 993d 5f4f 793d 29e1 273d
000000f0: aa32 d2bb cc72 b5bd 244a 033e 6254 e83d
00000100: a796 413e 4d9e 9cbc e484 873d 7fa5 8ebd
00000110: e152 493e 92e1 50bd a950 c73d 3f25 d73d
00000120: d51a f7bd 7821 b0bc 5ead dd3d 5c8f 23be
00000130: f070 2b3e 30a2 cd3c 32a8 05be 5859 2d3e
00000140: f9a2 ef3d 8d3f e83d 5ea6 693e 6889 2b3d
00000150: feba 5d3d 0752 32be b461 a3bd 506a 403d
00000160: 0d2f febd 4686 fdbc a7d8 793c 59e2 c23d
00000170: 6d30 2f3d de96 dfbc b667 023e c5c8 cbbd
00000180: 238d 153e 91d1 fb3d 3169 ce3d 5a16 e23d
00000190: 3f62 073e cd5f c73b 686b be3d ad84 e3bd
000001a0: 4bfd c9bd 9b1d 84bb df1c 283c 077e d83c
000001b0: d9f1 733b cba6 0e3c d993 b8bd 3899 9b3c
000001c0: 1666 58bd cb9a 983c 1208 21be de2b 3e3d
000001d0: 41d5 883d a692 593d 4426 32bb b8ee 943c
000001e0: 57eb 4d3b 2fca 00be 5a1e 713d f71c 94bd
000001f0: d51e 10bc 30a4 823d 1529 c6bd b062 c53d
-0.11108054 0.02934546 0.037926324 0.13071764 -0.0814729 0.035258327 0.048658952 0.080511145
0.2063614 0.054472055 -0.005807897 0.005024504 -0.07004969 -0.06265822 0.012200155 0.025762348
-0.04433044 -0.04003211 -0.07165087 0.12575729 -0.07564253 -0.05785192 -0.074814655 -0.17616867
-0.01138243 -0.01860154 0.09390985 0.1422932 -0.0057403394 0.027376013 -0.006236957 -0.06256244
-0.046769943 0.01281539 0.021816704 -0.036049165 0.18180308 -0.008238418 0.0037180309 -0.112849675
0.06344882 -0.01631727 0.023672601 0.072131924 -0.06577961 -0.088947974 0.017023105 -0.13682416
0.11343898 0.039279558 -0.041974124 -0.02932658 0.102384895 -0.04377899 -0.032715175 -0.023352485
0.04125165 0.07513044 0.06086671 0.040986214 -0.006414731 -0.088597864 0.12821251 0.1134422
0.18905126 -0.019118452 0.06617144 -0.069651596 0.19660522 -0.05099637 0.097321816 0.10505151
-0.12065665 -0.021500334 0.10824083 -0.15972656 0.16742301 0.025101751 -0.13052443 0.16928613
0.117010064 0.11340246 0.2281737 0.041879088 0.054133408 -0.17414103 -0.0797762 0.046976388
-0.12411318 -0.030947816 0.015249408 0.09515829 0.04277079 -0.027293619 0.12734875 -0.09950403
0.1460462 0.12295831 0.100786574 0.110394195 0.13221072 0.0060844184 0.0929783 -0.1110929
-0.09862765 -0.0040318496 0.01026079 0.026427282 0.003722301 0.008706759 -0.09012575 0.018993959
-0.05283173 0.018628499 -0.15725735 0.046428554 0.066813 0.05311837 -0.0027183453 0.018180236
0.003142079 -0.12577127 0.058866836 -0.07232087 -0.008796413 0.063789725 -0.096758045 0.09637964
