vanilla_env/ptorch.pth (torch, 669070 bytes, 56 tensors)

conv1.weight f4 [64, 2, 3]
00000000: 435e 39be 0c8f 9d3e 60b3 d5be 574d a1be
00000010: 1e85 9f3c 1b9b 993e a01e b03d 7284 653f
00000020: 694d f43c ddd1 053d e87d 76bc 9ab8 51bd
00000030: ac07 b6be 8dc2 e7be 7b9f 93bd c54b e7bd
00000040: 1df5 ac3e e9f9 d43c 5b31 21be 25dd d8bd
00000050: 48ff 6c3e 410a fb3e 46f5 37bd 5868 033f
00000060: 6ade 89be 2482 313e fbe9 d83d 97a1 aabe
00000070: 7672 12bf addf c2bd 0ea4 97be 35d3 193f
00000080: 66ae bbbe b42f aebd d7df 92be 17d0 b6bd
00000090: 96f7 2cbe e3d0 353f 501a c23d 35ae 273e
000000a0: f60e 1c3d 56b8 4cbe fcab f43d d958 d3be
000000b0: 24ef 93be fd23 66be fbfb ef3e a2f8 e13d
000000c0: 72e2 edbd 2be3 f2bd 829f 9e3e c997 a33e
000000d0: 26ad a73e 90f4 483d c59e 4c3e 0a6a b4be
000000e0: 3293 1c3e 0b1a 8fbe 42cc 04bf 2afb 4ebe
000000f0: 0891 223e 0a23 2b3e 619b 03be 114a e4bc
00000100: 1882 c53e 97dd 3dbe 869e 0bbd a0f7 263c
00000110: 5928 4a3e 2477 133f ac2b 8abe 8494 9c3e
00000120: 363d 243e e480 373f 40cf a33e 1999 913e
00000130: 30dd ce3d eb5d 8cbe 3517 02bd 41de 90be
00000140: 966d c4be d87b 983e 9a75 d33e 18d4 f9be
00000150: 0282 bc3c 6524 b93b a873 3ebd 3cda 02bf
00000160: 00af 543e cb6b f5be c260 04bd 3c96 993e
00000170: 8ad0 bc3e 28bb 253e 6d13 fabe 8df0 2ebe
00000180: 9da3 603e 4f6d eb3d 0d1e 9cbe 9753 003d
00000190: 81c2 e13e 5dd4 e23e 45bc 5abe 4d02 36be
000001a0: 9014 e2be 877e 0b3e 41fb adbe 00e1 97be
000001b0: 45a7 f4bd 643f ae3d 072f 70be a6f5 d23e
000001c0: 271c 88be c451 e13e 7a0b 1f3e 55d1 ffbe
000001d0: c41d 8ebd ebb0 983d 9401 503e 1342 9a3d
000001e0: 0b1a 2e3e aac9 27bc b5ee 65be d0c9 bcbd
000001f0: 991e 1dbf ad1e 89be 4d63 1cbe d254 c5be
00000200: d9f1 97be a881 28be 787b 45be 9724 0c3e
00000210: 73c3 99be 2e91 f43d 4011 573e 71d9 68be
00000220: 30e3 ae3d e1ad 4fbe 52aa fe3d 510b 9f3e
00000230: 2dde 913e a68e 353e 0c8b 163f 3d0a 7dbd
00000240: 1161 88be 0823 1fbe 3564 ac3e 3624 743c
00000250: 012c 04bf acbc 9abe 7541 e4be e1bf 27bf
00000260: 05b8 26be d998 873e b0fd 33bd 7151 9abe
00000270: 7a55 1e3e 0f36 08bf 4b1a 26be 80f1 c9bd
00000280: 65dd 073e be3b 4abe 662a a8be ad40 02bf
00000290: 1f84 3bbd 5cda a6bc e64d a4be f194 4b3e
000002a0: 33ab 9dbe 85b7 013d dd6e 933e bfec 29bd
000002b0: 3d1a 2d3f eb73 063e e3ed b2be d988 b63e
000002c0: 3eda b9bd 9a46 a9be 9f30 893e ecc1 c1be
000002d0: ced1 653e 7440 52be ae53 f13e f0eb ac3c
000002e0: dd01 9e3d 7666 af3d 6606 efbd 0937 5038
000002f0: b753 bebe 51d7 0c3e 5dc1 033f e293 6b3e
00000300: a33f 0fbf 826f 873d e3f3 02bf e3c5 44be
00000310: e009 10bd 4ea6 4e3e e445 1fbe 7ea0 94bb
00000320: 628b f43d 3b72 d0bc 7af7 48bf de4e d7bd
00000330: 341b 87be 2ee4 013f c260 94be 7c3b 013e
00000340: 3dfa 473e 058a 3c3d 60a8 963e 2949 1ebe
00000350: 1513 ab3e 91e1 2ebd 3347 0cbd 399b 6e3d
00000360: 66ca 99be 762e f1be 3ca6 fe3d 07d6 dfbe
00000370: 7a17 9ebc 9b43 a23e ebbb 243e e635 aebd
00000380: 8a04 8fbe d5f9 b23c 4145 1fbf 0cab e6bd
00000390: 456f e93c b4da 3cbd c94e 2d3c bf7c 243f
000003a0: a12f 753d aff9 213f 8bc4 a63e 573a 12bf
000003b0: d211 793e 85ee 4ebe 7daf bfbd bcc5 313e
000003c0: 98e0 fa3d 4d7d cf3e 9640 92be 0e12 0dbe
000003d0: 43e1 bb3e 765e a4be 2e01 8f3d 5271 4dbf
000003e0: 2586 08bd 1e40 80bd 3973 67bc b2ae ab3c
000003f0: 8263 b83e 9026 0cbe 678d 7bbe 800e 2cbe
-0.18102364 0.307732 -0.41738415 -0.31504318 0.019472655 0.3000115 0.08599591 0.8965522
0.029822068 0.032670844 -0.015044667 -0.05120144 -0.35552728 -0.45265618 -0.07208153 -0.11293749
0.33780757 0.025998073 -0.15741484 -0.10589055 0.23144257 0.4903126 -0.044911645 0.5133109
-0.269275 0.17334801 0.10591503 -0.33326408 -0.57205904 -0.09515319 -0.2961735 0.600879
-0.36656493 -0.085051924 -0.286864 -0.08926409 -0.16891322 0.7102186 0.09477675 0.16375048
0.038100205 -0.19992194 0.11946866 -0.41278723 -0.28893387 -0.22474666 0.46871933 0.11033751
-0.11615457 -0.11859735 0.3098107 0.3195174 0.3274929 0.049061358 0.19982441 -0.3523715
0.15290526 -0.27949557 -0.5187417 -0.20212999 0.15875638 0.16712585 -0.12852241 -0.027867349
0.38575816 -0.18541561 -0.034086727 0.010190874 0.19741954 0.5760367 -0.26986444 0.30582058
0.16038975 0.71681046 0.31994057 0.28437117 0.10100782 -0.27415404 -0.031760413 -0.28294566
-0.38364857 0.29781985 0.4130066 -0.48794627 0.023011211 0.0056500905 -0.046497017 -0.5111425
0.20769882 -0.47933802 -0.032318838 0.29997432 0.36877853 0.16184676 -0.48842946 -0.1708395
0.21937414 0.11495458 -0.30491677 0.031329717 0.44093707 0.44302645 -0.21360882 -0.17774315
-0.44156313 0.13622485 -0.33980754 -0.2966385 -0.11945967 0.085081846 -0.2345544 0.4120304
-0.2658398 0.44007695 0.15531722 -0.49964395 -0.06939271 0.074556194 0.20313102 0.07532134
0.17002122 -0.010240952 -0.22454341 -0.0921818 -0.61374813 -0.26781216 -0.15272255 -0.38541275
-0.29676703 -0.1645571 -0.19285381 0.13685833 -0.30031928 0.11941753 0.21002674 -0.22739197
0.08539426 -0.20281173 0.1243483 0.3106332 0.2848982 0.17730197 0.5880592 -0.061777342
-0.26636556 -0.15540707 0.33670202 0.0149012115 -0.51629645 -0.3022207 -0.4458119 -0.6552716
-0.16281135 0.264838 -0.043943107 -0.3014026 0.15462294 -0.53207487 -0.16220967 -0.098605156
0.13268049 -0.19749352 -0.32844847 -0.5087994 -0.045780297 -0.020367794 -0.32090682 0.19881035
-0.30794677 0.03166916 0.2879552 -0.041485544 0.6761816 0.13130157 -0.34947118 0.3565128
-0.090748295 -0.33061677 0.26794907 -0.37843263 0.22443315 -0.205324 0.47134155 0.021108598
0.07715199 0.08564465 -0.11671142 4.964232e-05 -0.37173244 0.13754012 0.51466924 0.23005632
-0.55956477 0.06613065 -0.5115339 -0.19216113 -0.035165668 0.20180628 -0.15554005 -0.0045357337
0.11940648 -0.025445094 -0.7850262 -0.105130896 -0.26387942 0.507388 -0.2898007 0.12620348
0.19529052 0.046030063 0.29425335 -0.15457596 0.33412996 -0.042695586 -0.03424759 0.0582535
-0.3003723 -0.4710576 0.124340504 -0.43717977 -0.019298304 0.31692204 0.1608731 -0.08506374
-0.2793315 0.021847645 -0.6221505 -0.11263093 0.02849544 -0.04610701 0.010577866 0.6425285
0.059859876 0.6327161 0.32571825 -0.5712027 0.24323204 -0.20208175 -0.093596436 0.17360586
0.12249869 0.40525284 -0.285649 -0.13776419 0.366953 -0.32103318 0.06982647 -0.8025104
-0.033331055 -0.062622294 -0.014126592 0.020957325 0.36013418 -0.13686585 -0.2456566 -0.16802406

conv1.bias f4 [64]
00000000: 34bb 153e db56 d93e d8a9 673e 5809 893e
00000010: 26b2 29be d4f8 483e 4df0 4c3d 7562 aebd
00000020: 5fd6 64be 2c55 65be 1fc7 9fbe d4d1 803e
00000030: a946 9e3e d3a8 66bd dda6 62be 58b7 a13e
00000040: fa27 803e 98a1 0e3d 8953 31be 0c89 be3e
00000050: 7a7b 353e bdb8 9bbe 3a90 bf3e bbdf a23e
00000060: 75f3 14be e0b2 733e 77a1 64be b535 96bd
00000070: a4ab b33e a78b 1d3c b4fa 8abe 629a 10be
00000080: c4f8 e7bd 0ac8 6bbd 2c66 5b3d 6a80 b43e
00000090: b0fe 1e3d 6587 79be a09a 693c 57a3 4e3e
000000a0: 5fa3 413e d9b8 bdbe 540a 67bd 3a5e 9dbe
000000b0: 635d 29be 6bcf 1d3e 5b94 95be 3173 263e
000000c0: 3b34 a53e 19dd 513c df3e 94be 58d6 1dbe
000000d0: 324c cc3d 6d6b 9fbe 4c45 443e 662f c4be
000000e0: 8973 c9be d558 cbbe d162 a1bd 7c84 803e
000000f0: 54f6 c1be 2850 aa3e f8d2 24be 3f61 fa3d
0.14622194 0.42449078 0.22623384 0.2676494 -0.16571864 0.1962617 0.050033856 -0.08514873
-0.22347401 -0.22395772 -0.31206605 0.25160086 0.30913284 -0.056313347 -0.22133966 0.31585193
0.250305 0.034822077 -0.17317022 0.37213933 0.17722884 -0.30414382 0.37414724 0.31811318
-0.14545996 0.23798704 -0.22327219 -0.073344626 0.3509189 0.009615815 -0.27144396 -0.14121392
-0.11326745 -0.05756382 0.053564236 0.35254222 0.038817108 -0.24368055 0.014258057 0.20179497
0.18909977 -0.3705509 -0.056406334 -0.30735952 -0.1653953 0.15411155 -0.2921475 0.1625488
0.3226641 0.012809061 -0.28954217 -0.15413797 0.099754706 -0.31136647 0.1916706 -0.38317412
-0.3934596 -0.3971621 -0.07880176 0.25101078 -0.37883246 0.3326428 -0.16096103 0.122255795

bn1.weight f4 [64]
00000000: ae3d 953f f833 9b3f 2c8d 683f a3e0 853f
00000010: b290 723f b150 7b3f 3adb 9f3f dc40 803f
00000020: 7b21 743f 4ec4 733f 28a9 6a3f 563e 6d3f
00000030: dfa8 823f ffd0 603f 1e0b ae3f fd0b 803f
00000040: 372d 813f 591f 5a3f 3163 7d3f 6561 4a3f
00000050: a8da 913f 7a14 813f b329 643f 67c5 7d3f
00000060: 474a 793f 8fc4 933f 7e66 5c3f d7d1 683f
00000070: 2379 783f 4ef9 7f3f 9bea 523f d75f 3f3f
00000080: d826 7a3f d5bb 843f 7fc3 8b3f 752f 873f
00000090: 183e 683f ee8f 5d3f e8d0 963f 0d60 963f
000000a0: 820e 8b3f 7d57 a23f 7849 843f cd29 4c3f
000000b0: c10d 933f cf73 833f cdc0 a03f feb8 773f
000000c0: 4120 853f dcc8 863f 5d22 843f 4d52 8b3f
000000d0: 37ad 8b3f 0640 6a3f c65d 833f f174 963f
000000e0: 7a4c 753f cf7d 743f 1789 883f 0ea7 843f
000000f0: 07e5 453f d141 5a3f a803 4a3f cc82 8c3f
1.1659448 1.2125235 0.9084041 1.0459179 0.9475204 0.9817 1.2488778 1.0019794
0.9536359 0.9522141 0.9166436 0.9267324 1.0207785 0.878189 1.3597143 1.0003659
1.0091923 0.8520408 0.9897948 0.7905486 1.1394854 1.0084374 0.8912613 0.9912934
0.97378963 1.154436 0.8609389 0.9094519 0.9705984 0.99989784 0.8238923 0.74755615
0.9771552 1.0369822 1.0919036 1.0561358 0.9071975 0.86547744 1.1782503 1.1748062
1.0863802 1.2682949 1.0334921 0.7975128 1.1488572 1.0269717 1.2558838 0.9676665
1.0400468 1.0530047 1.0322987 1.0884491 1.0912236 0.9150394 1.0262992 1.1754438
0.9581982 0.9550447 1.0666837 1.0363481 0.77302593 0.8525668 0.7891183 1.0977416

bn1.bias f4 [64]
00000000: eb42 06be 775b 16bd 1830 9cbe 8896 08be
00000010: 2d9f 30be e6cb 333e 65b5 913c 071b 3bbe
00000020: 456e 95be 5cd4 83bd 94ca ef3e dd2a 79be
00000030: 9de0 08be b179 2fbe bcf3 b1bd a45c 5bbe
00000040: 9445 90be 6377 87be 6713 2dbd fe40 4ebe
00000050: a37b d1bd 8ad9 1cbe 81f1 99be 5233 38be
00000060: 2d4b e5bd 5384 50be 3d77 9bbc 76a8 b6bd
00000070: 847e 37bc a9a9 dbbe 04dc 08bd b923 90be
00000080: ed10 e0bd 9284 0fbd 816a ea3e 4c8b cbbd
00000090: de6f 0fbd e38b 56bd 7183 94bd 0173 b83e
000000a0: 3a7a 3bbd 83af 8cbb 4336 25be 55e8 9abe
000000b0: 8e28 04bd 88be 643c 87e9 8bbd d0e9 173e
000000c0: 108d d9bd 82b3 943d 2a57 46be 469b 7fbe
000000d0: ddf6 bebc 6d67 3b3e 18f6 c3bd f6e4 0d3f
000000e0: ae8c 6cbd 6618 1cbe 444b 7b3d 4dcd 903e
000000f0: d247 a4be 160f 893e 370d a1be db41 8c3d
-0.13111465 -0.03670832 -0.30505443 -0.13338673 -0.1724822 0.1755825 0.017786691 -0.18272029
-0.2918569 -0.06436989 0.46834242 -0.24332757 -0.13366933 -0.17136265 -0.08689067 -0.21422058
-0.28178084 -0.26458272 -0.04225483 -0.2014198 -0.1022866 -0.1531736 -0.30067065 -0.17988327
-0.11195979 -0.20362978 -0.018977756 -0.0891885 -0.011199597 -0.42902878 -0.03341295 -0.28152254
-0.10940728 -0.03503854 0.4578438 -0.09938678 -0.035018794 -0.0523795 -0.07251633 0.3602524
-0.04577086 -0.0042933836 -0.1613398 -0.3025538 -0.03226524 0.013961442 -0.06831651 0.14835286
-0.10622609 0.07260801 -0.19369188 -0.24961576 -0.023311073 0.18301173 -0.09568423 0.5542749
-0.05775135 -0.15243682 0.061351076 0.28281632 -0.32086045 0.26769322 -0.31455395 0.068484984

bn1.running_mean f4 [64]
00000000: 7205 253e 98cd c13e af44 813e 21b9 503e
00000010: 1a40 cdbd c9f0 6c3e da83 9c3c ae36 a2bd
00000020: 9548 8cbe dd41 21be 7aa3 aabe 8ab3 4e3e
00000030: 7bb5 783e 6435 1abd 2cf5 2bbe fab5 a23e
00000040: ca87 3f3e 4fb4 dd3d 3626 4bbe 2390 bc3e
00000050: f795 7b3e b957 7fbe fbf5 ca3e af0a 713e
00000060: 27c6 b3bd 3b18 9c3e 1a96 3ebe bb71 aebc
00000070: c2ce 983e b5fb 383d a060 9dbe 969d 33be
00000080: 9f3b 80bd fbc5 a63b 5ff3 003d 8649 aa3e
00000090: 63b8 a23d ea7f 3ebe 04dd 9abd 2552 573e
000000a0: 1673 3c3e c46b a8be 68ef b9ba 3155 a6be
000000b0: aff9 6cbe 3690 543e b8cf 99be c790 1a3e
000000c0: a5a6 b93e b4f6 bd3c 6940 88be ab52 1cbe
000000d0: 656f 893d fd74 a2be ddf8 0f3e df7b c0be
000000e0: 53e2 edbe fc11 f9be 0a20 b1bd 7c8c 7e3e
000000f0: f875 e6be 16c4 af3e 61e2 06be 9a1f 623d
0.16115358 0.37852168 0.25247714 0.20383121 -0.10021992 0.23138727 0.01910584 -0.079205856
-0.27399126 -0.15747781 -0.33327848 0.20185676 0.2428798 -0.037648574 -0.16792744 0.31779462
0.18704143 0.10825407 -0.19838795 0.36828718 0.24568926 -0.24935807 0.39640793 0.23539232
-0.08778029 0.30487236 -0.18611947 -0.021294465 0.29845244 0.04516192 -0.30737782 -0.17540583
-0.06261372 0.005089519 0.031482097 0.3325922 0.07945325 -0.18603483 -0.07561687 0.2102743
0.18403277 -0.3289472 -0.0014185729 -0.3248687 -0.23142122 0.20758137 -0.3004129 0.1509429
0.36259952 0.023188926 -0.2661164 -0.1526591 0.067107 -0.3172988 0.14059778 -0.37594506
-0.46461734 -0.48646533 -0.08648689 0.24858278 -0.45011878 0.3432929 -0.13172294 0.05520592

bn1.running_var f4 [64]
00000000: ef4b 1443 ffaf 7043 a58c 0643 40aa 8343
00000010: d4d4 2043 3e91 7a43 65e7 2643 e823 fb42
00000020: ddb1 bf42 93b3 4a43 56ca 9442 ee7c 6b43
00000030: adcf 6f43 b666 2043 7809 7943 e6f0 fa42
00000040: 9906 0d43 c441 3643 da0e 4343 78bc af42
00000050: baf5 1a43 cb31 ed42 3bfb 9042 6229 4a43
00000060: 4ed0 0943 75e5 7643 af98 de42 7e64 2643
00000070: e7ba 1f43 e344 8a43 18e8 0e43 b4fe 1843
00000080: 2ab1 9043 3d4b 3d43 a96e 2b43 3716 ca42
00000090: 607e f142 2ea2 0b43 9761 c343 592d 3e43
000000a0: ee11 3243 a40d 4243 6546 3a43 c010 2d43
000000b0: 7a7e 1c43 b4f8 0d43 5508 0b43 4334 2c43
000000c0: dad5 5443 bb72 0d43 ac91 0b43 3cf4 b642
000000d0: 0b17 4b43 8b71 dc42 c3d1 6643 39fd 6843
000000e0: e8e6 7843 fe65 6343 ac3a 0543 d41b 0e43
000000f0: c5e4 9f43 6ab3 4143 a1a4 4143 1678 4d43
148.29662 240.68748 134.5494 263.33008 160.83136 250.56735 166.90388 125.57013
95.84739 202.70146 74.39519 235.488 239.81123 160.40121 249.03699 125.470505
141.02577 182.2569 195.05801 87.8681 154.95987 118.59725 72.490685 202.16165
137.81369 246.89632 111.29821 166.39255 159.73009 276.53818 142.90662 152.99493
289.3841 189.2939 171.43227 101.04339 120.746826 139.63351 390.76242 190.17714
178.07004 194.05328 186.27498 173.06543 156.49405 141.9715 139.03255 172.20415
212.83536 141.44817 139.56903 91.47702 203.09001 110.22176 230.81938 232.98915
248.90198 227.3984 133.22919 142.1087 319.78726 193.70084 193.64308 205.46909

conv2.weight f4 [64, 64, 3]
00000000: a5c2 7abe 866b 27be d38a 9c3c a624 2e3c
00000010: 0a96 c53d 7f1e e5ba 8609 143e d3e8 ce3d
00000020: f6a9 973d 4f5c 0f3e 9eac 51be 42ae 9fbd
00000030: d5d3 06be 5e87 cc3c 9628 edbb a518 3dbe
00000040: 0933 393c 2bfc 56be cf64 3fbb dc15 36bd
00000050: 8845 0bbe a411 df3d 4e04 543d 01f6 2e3e
00000060: 9a8a f53d 5c5a adbd 8ad0 93bd 4434 b3bd
00000070: f077 563d 73f4 533e 420a 59bd 6268 99bd
00000080: 992a eebd ab32 87be 46ad 83be 60af 5fbd
00000090: 949c 50bd 4119 26bb 5a0d 16bd a877 ff3d
000000a0: 5973 03bc c925 4d3b 4a0a e6bc b708 7bbd
000000b0: cdfa 3dbd ee43 1dbe 40ee f03c bd75 a0bd
000000c0: 23c0 0bbe 2d92 c2bd 85ca c33d a3e4 dc3d
000000d0: 203a 0bbe 3894 a93b 5593 493e ff5c fd3d
000000e0: 2344 273e 2dfa 4f3d c767 103d 1a07 243d
000000f0: ef58 413d 45b8 6e3d c085 253c 851e 9e3d
00000100: ce09 5c3d c278 843d e8b1 84bd 16da 8b3c
00000110: 1a50 08be c85f 00be 2564 c1bd 86c2 76be
00000120: 08a7 333d 59e4 c4bb 0b2c 45bd c133 663d
00000130: 710f 8b3d 35a9 303c ebab 673e ba3e 323e
00000140: d6cf 233e e11c 993d 5905 2f3e ab47 d83d
00000150: 89e5 01bb e6bd da3c 4d9a ecbd c0d8 74be
00000160: fd21 d5be 2c59 9fbe 7f2b a3bd f32c 71bd
00000170: da2d 60be 6987 3d3d c152 5fbd 1be4 4cbb
00000180: cc15 6e3d 61e9 293e 984d 1ebb d970 d83d
00000190: 9b1a 223d 6683 6c3d 5f05 6ebd 8a31 0fbe
000001a0: e869 87bc 64ac babc 1a66 ff3c 2b85 bebb
000001b0: 152d 0abd 5019 4cbd 1dfc 823d a490 043e
000001c0: addf 90bd 01d0 0b3e 2634 bc3d 6982 1cbb
000001d0: 3d1c b2bd b77c 083c 299e e9bb f8c8 663c
000001e0: 64b0 37be e65f 44be 40e7 8ebe 13b5 843d
000001f0: 9caa b63d 9a75 213d 07bf 14be 570b 1bbd
00000200: 6db5 db3b 0bc2 143d b08e bc3c ec06 583e
00000210: f567 263e a5bd 9dbd 07c9 d5bb f210 ce3d
00000220: 46a5 b6bb bd7e 8a3d efbf 1b3e 052d ed3d
00000230: b1bb fc3d 97de 133e 7022 383e a9fe 8fbd
00000240: 3ae2 9f3c f3bb 6b3c 9bb2 e83d 6301 e83d
00000250: 2d54 b43d 65e8 c63c 0853 b03d 177d e9bd
00000260: 9271 54be ef7b e0bd 229f b3bd 3139 d03c
00000270: 04f9 4abe dfe5 53be 6409 07be 5c7f 51be
00000280: 2995 94be 6781 1ebe 867d 05bd ff8f 13be
00000290: 89a5 26bb 71f2 d2bd ce06 15be 6835 1f3b
000002a0: 2d7e 76bc 4eb1 96bd 620c 45bd 96db 55bc
000002b0: b3be d6bd e582 023d 4bfe 733e 1bd3 7b3d
000002c0: bb68 5f3d 9efb 39bd 879f b03d 16fa c9bc
000002d0: d9c6 7a3d 4a52 d6bc 6199 263e 031a 9cbd
000002e0: 1149 64bd 4d29 fb3c 930d bb3d c080 16bd
000002f0: 8c82 913d 18d5 50be fb88 5abe 245a 34bd
00000300: 0c69 c03d c58d 393e 4477 5fbc bae3 183e
00000310: 2dc0 b93d 83b3 393e 457c 36be 3784 ea3d
00000320: 100d 17be 600c 893d 7eab 4b3d d6c4 c43d
00000330: ed66 7bbb e7c5 fcbb fcf2 93bd 1364 533d
00000340: de7a 653e baea 1ebd 37f3 213e 3b21 563e
00000350: d0aa 243d 3199 1e3e c772 063d e0c9 9cbd
00000360: 848e b13d b8a3 3d3e c04c ba3d 6a2a 873d
00000370: 1ef8 0b3d 472d d0bc 11d0 ac3d 6fa6 4ebd
00000380: 3bd8 f63d ec0f 033e d73d 3f3d 3805 cf3d
00000390: 0734 df3d b903 9eb8 6fa1 173e 957d b23d
000003a0: 0df9 58bb a5f8 abbd e668 e13d e32b 15bd
000003b0: cb4a e83c ab89 513d f0ac 9bbc 2f5d 65bd
000003c0: e19c 843e e275 b03d 5706 773e d1c5 ebbd
000003d0: 06eb 6e3d 1ad8 0bbd 5c32 663d 7fc9 abbd
000003e0: 1527 0cbc e48c ac3c 62ac 113e 0727 ffbb
000003f0: 3098 923d ee14 e23d cfbf 2ebe af2e 95bd
-0.24488313 -0.1634961 0.019109165 0.010628855 0.09647758 -0.0017480402 0.14456758 0.101030014
0.07405464 0.14000057 -0.20476004 -0.07796909 -0.13166745 0.024966892 -0.0072375042 -0.18466432
0.011303672 -0.20994632 -0.0029204374 -0.04445444 -0.13600743 0.108920366 0.051761918 0.1708603
0.11989327 -0.084645 -0.0721751 -0.08750203 0.052360475 0.20698719 -0.0529883 -0.074906126
-0.116292186 -0.26405844 -0.25718135 -0.05461061 -0.050930575 -0.0025344642 -0.036633827 0.124739945
-0.0080231065 0.003130304 -0.028081078 -0.061287608 -0.04638176 -0.15357944 0.029410481 -0.07834957
-0.13647513 -0.09500537 0.09560112 0.107857965 -0.13596392 0.0051751398 0.19685109 0.12371253
0.16334586 0.050775696 0.03525522 0.040045835 0.047203954 0.058281202 0.010102689 0.07720665
0.053720288 0.06468345 -0.064792454 0.017071765 -0.13311806 -0.12536538 -0.09442929 -0.24097642
0.043860465 -0.0060086665 -0.048137706 0.0562017 0.067900546 0.01078253 0.22624175 0.17406741
0.15997252 0.07476211 0.17091884 0.105605446 -0.0019820652 0.026701879 -0.11552868 -0.23910809
-0.41627494 -0.3112272 -0.079672806 -0.058880758 -0.21892491 0.046271715 -0.05452228 -0.003126389
0.058126256 0.16592933 -0.0024155136 0.10568399 0.039576154 0.0577425 -0.05811059 -0.13983741
-0.016529992 -0.02278728 0.031176616 -0.0058142147 -0.0337344 -0.049828827 0.06395743 0.12945801
-0.07073913 0.13653566 0.09189634 -0.0023881441 -0.08696792 0.008330516 -0.00712945 0.014086001
-0.17938381 -0.19177207 -0.27910805 0.0647985 0.0891926 0.039418794 -0.14525996 -0.03785261
0.0067049772 0.036317866 0.023017257 0.2109639 0.16250594 -0.077021874 -0.0065242085 0.10061826
-0.0055739013 0.06762455 0.15209936 0.115808524 0.12340487 0.1444038 0.17981887 -0.070309944
0.019517053 0.014388072 0.11362191 0.113283895 0.08805118 0.024280736 0.08609587 -0.11400812
-0.20746449 -0.109611385 -0.087705866 0.025417896 -0.19821554 -0.20693158 -0.13187176 -0.2045874
-0.2902005 -0.1547905 -0.03259041 -0.14410399 -0.0025428256 -0.10300148 -0.14553377 0.0024293307
-0.015044731 -0.07358037 -0.048107512 -0.013052842 -0.10485592 0.031863112 0.23827474 0.061480623
0.054543238 -0.045405976 0.086241774 -0.024655383 0.061224792 -0.026162285 0.16269447 -0.07622149
-0.055733744 0.030659342 0.091334485 -0.03674388 0.07104978 -0.20393789 -0.21341316 -0.044031277
0.09395036 0.18120487 -0.013639275 0.14930621 0.09069858 0.18134885 -0.17820843 0.11450999
-0.14751077 0.066918135 0.049724095 0.09607856 -0.003836091 -0.0077140215 -0.0722408 0.05160911
0.22410151 -0.03879807 0.15815435 0.20911114 0.040201962 0.15488125 0.032824304 -0.07655692
0.08669761 0.18519485 0.0909667 0.06599887 0.03417217 -0.025412215 0.08438123 -0.050451692
0.120529614 0.12799042 0.046689834 0.10108417 0.10898595 -7.5347205e-05 0.14807676 0.08715359
-0.003310743 -0.083970346 0.11006336 -0.036418807 0.028355977 0.05115668 -0.019003361 -0.05599707
0.2590094 0.08616234 0.24123512 -0.1151234 0.058329605 -0.034141637 0.05620037 -0.08388042
-0.00855424 0.021063276 0.14225915 -0.007786635 0.07157934 0.11039148 -0.17065357 -0.07284295

conv2.bias f4 [64]
00000000: ff38 c2bd bf61 793d cd97 52bd 6c41 cbbd
00000010: 9f97 dabc c6e7 39bc ae28 503c 2df9 d7b9
00000020: 4117 0d3d afe5 fcbc a5e4 4e3d 5bf2 403d
00000030: 75ce 503c 87ac 593d acd8 3b3c a6f9 973d
00000040: 1196 9a3c 6d64 fe3c 77df 29bc d452 fcbc
00000050: 27e7 473d c3e4 e0bd a794 d5bc cb3c 58bd
00000060: aea4 c6bd 0701 32bd 9637 533d 7146 12bd
00000070: 37ef db3d d9da 323b 1d4c 673d 6717 db3d
00000080: bf70 af3d 699c 58bd 6c5b 023e 60ad d53b
00000090: b27b f13d be73 ca3d 5ad8 5cbd 3ac9 a0bc
000000a0: e268 4cbb 26de 0ebc b971 913b c885 40bd
000000b0: dba7 fc3c 15c5 a3bc a765 d93d bf47 a4bd
000000c0: 74ad eb3c 65c8 973d 6590 60bd ae8b fbbd
000000d0: cf9f 4d3c a809 fd3c 897e 39bd a31d 4fbd
000000e0: c48a 15ba 49d6 cc3b d202 1cbb 318a 953a
000000f0: 25a1 0e3d d8a6 e6bb 58f1 99bd b5b4 083d
-0.094835274 0.060884234 -0.0514143 -0.099245876 -0.026683627 -0.011346763 0.012705011 -0.00041193646
0.034446005 -0.03087124 0.05051102 0.04710613 0.012744536 0.05314305 0.011465233 0.074206635
0.018870385 0.031053746 -0.01036822 -0.030801214 0.04880443 -0.10981133 -0.02607186 -0.05279235
-0.09699379 -0.04345801 0.051566683 -0.03571171 0.10738986 0.0027291088 0.05646907 0.10697823
0.085664265 -0.05288354 0.12730187 0.006520912 0.11791171 0.09885357 -0.053917266 -0.019627202
-0.0031190445 -0.0087199565 0.0044386056 -0.047002584 0.030841758 -0.019991437 0.10615092 -0.08021497
0.028769232 0.07411269 -0.054825205 -0.12282501 0.012550308 0.030888394 -0.04528669 -0.050565373
-0.00057045766 0.0062511307 -0.0023805392 0.0011408982 0.03482165 -0.0070389323 -0.07516736 0.03337546

bn2.weight f4 [64]
00000000: 0aad 673f 4907 5f3f fe8d 903f fa75 743f
00000010: 35f7 903f 2f2a 723f c619 413f 3894 6d3f
00000020: e8c4 7f3f 2616 8f3f 0a31 713f eed5 8b3f
00000030: 56d6 7c3f a3a3 873f e30d 843f 85e5 673f
00000040: 56f4 2c3f 6e14 e43f 4524 993f 8f2f 8e3f
00000050: 612b 5c3f 8367 813f 9e7b 693f 13c2 963f
00000060: bb12 813f 7fdb 5c3f a731 723f 0f05 813f
00000070: f580 743f 7b55 853f a855 773f bf44 533f
00000080: 7f4c 703f 93ed 533f a53f 833f 523d 783f
00000090: 16f9 8d3f 695d 7f3f 96b1 7a3f 4e6e 713f
000000a0: d072 8a3f daec 5e3f af5a 653f 2fd7 573f
000000b0: ff70 453f 3769 973f 969d 823f 0dcb 9c3f
000000c0: db98 613f 9af0 793f 17fd 573f ba28 5e3f
000000d0: 80a7 713f cf26 763f 3bb6 813f 3d45 5d3f
000000e0: ad03 893f 55eb b33f 8186 953f 436e 803f
000000f0: 0d93 583f f9bb 963f 4a4c 843f 6474 613f
0.9049841 0.8712049 1.1293333 0.9549252 1.1325442 0.9459562 0.7542995 0.9280429
0.9990983 1.1178634 0.9421545 1.0924661 0.9876455 1.0596813 1.0316738 0.90584594
0.6756033 1.7818735 1.1964194 1.1108264 0.8600369 1.0109714 0.9120425 1.1777977
1.0083841 0.86272424 0.94607013 1.0079669 0.9550927 1.0416712 0.96615076 0.82526773
0.93866724 0.82784384 1.0253798 0.9696857 1.109164 0.9975191 0.97927225 0.94308937
1.0816288 0.87080157 0.895915 0.8431272 0.77125543 1.1828984 1.0204341 1.2249466
0.88123864 0.97632754 0.8437056 0.86780894 0.9439621 0.9615297 1.0133737 0.86433774
1.0704247 1.4056193 1.1681672 1.0033649 0.8459938 1.1776115 1.0335782 0.88068223

bn2.bias f4 [64]
00000000: 3de6 87be d92d 8f3d 129c 4b3e 548b c23c
00000010: ca89 5fbb c175 08be ef09 d5be 63b0 67bd
00000020: af32 cb3c 4d80 1bbd 9658 b3be 2ce7 4cbe
00000030: 5cb2 61bc 8fb7 02be 42f8 8dbe 4d8e 19be
00000040: b8f1 c5be 7963 bc3d d39d 193e 2582 7ebc
00000050: 1e16 26be 5950 033e 6f96 11be fd93 14bd
00000060: 47a5 c4be 88fd 663e 6be5 a4be 5006 69bd
00000070: 077b d13d ecc3 84be aa68 a63d fa4e f63c
00000080: bc5e 42be 6bcf b6be 814b a0bc ff55 5ebe
00000090: f7cf 86be 5ba9 f8bd 6b6c 00bd 5e80 ef3d
000000a0: 8db5 22be a456 f3bd 969d 0e3e c2a9 bfbe
000000b0: 0c81 1bbe f0dc 64be 587d 92bd 1304 173e
000000c0: 5c42 21be 94ec 31be d10d 32bd 9b9f a63d
000000d0: 8b7c 83be 5751 1f3d 549b 2d3e 596d eabd
000000e0: 2b13 8e3d 3661 00bf 6b22 353d f78e f93d
000000f0: 3a4f c3bd 04a6 40be 8b7c 5b3e f218 863d
-0.26542845 0.069911666 0.19883755 0.023748077 -0.0034109228 -0.1332617 -0.4160914 -0.0565647
0.024804441 -0.037964154 -0.35028523 -0.2001006 -0.013775434 -0.12765335 -0.27728468 -0.1499569
-0.3866098 0.091986604 0.15001611 -0.015533959 -0.16219375 0.12823619 -0.14217542 -0.036273945
-0.38407347 0.22557652 -0.32206282 -0.056890786 0.10228544 -0.25930727 0.08125432 0.030066956
-0.18981451 -0.35705122 -0.019567253 -0.21712492 -0.2633054 -0.12141677 -0.031353395 0.11694406
-0.15889569 -0.1188176 0.13927302 -0.37434202 -0.15185946 -0.22349906 -0.07152814 0.14747648
-0.1574797 -0.17375404 -0.043470208 0.08135911 -0.25680956 0.03889593 0.16953784 -0.11446638
0.0693725 -0.5014833 0.044222277 0.121854715 -0.09536596 -0.1881333 0.21434228 0.06547727

bn2.running_mean f4 [64]
00000000: b161 0bc0 e29d bd40 d0fc 8040 dac4 2dc0
00000010: a25a 3fc0 f240 b2c0 dc1b a33f d29f bc3f
00000020: 9df1 b640 3394 2cc0 8527 24c0 aa78 89c0
00000030: a6aa 82c0 5dd5 86bf b5bf ce3e c601 94c0
00000040: fc0f 32c0 8bd1 8fc0 7723 4d40 9497 bdc0
00000050: 2645 98c0 7ea7 f440 a6ba 9fbe ade6 edc0
00000060: fe55 dfbf 5a39 1641 41df 06c0 9ff5 3d40
00000070: 422c 3841 4eba 943f 3861 783f 1c7b 7040
00000080: 7518 cbbf ca5e d7bf 458f 873f c3af 03c0
00000090: f390 49c0 38bb 3b40 cd38 ce40 90a0 a740
000000a0: a331 9dc0 5075 9b40 38ba c340 b0ad 893f
000000b0: 7c09 5bc0 600f 9340 5f0c fa3d e1e7 b340
000000c0: dfa4 18c0 d917 6ac0 7c15 913f ffaa 9a3f
000000d0: 8128 b23d 1fe8 3040 8c6f 5d3f 8184 10c0
000000e0: 2656 f340 9fde c2c0 140d 3ac0 6f41 ac40
000000f0: 12bf 6e3f 8431 16bf eeca b840 88d7 2740
-2.1778376 5.925523 4.030861 -2.7151399 -2.9899068 -5.570428 1.2742877 1.4736273
5.716994 -2.6965454 -2.564912 -4.2959795 -4.083331 -1.0533863 0.40380636 -4.6252165
-2.7822256 -4.494329 3.2052896 -5.924753 -4.758441 7.645446 -0.3119709 -7.4344087
-1.7448118 9.389002 -2.1073763 2.9681165 11.510805 1.1619356 0.97023344 3.757514
-1.5866839 -1.6825802 1.0590597 -2.0576026 -3.149472 2.933302 6.4444337 5.23835
-4.912309 4.8580704 6.116482 1.075613 -3.4224539 4.595627 0.12209391 5.6220555
-2.385063 -3.6577055 1.1334682 1.2083434 0.08699132 2.7641675 0.8649833 -2.2580874
7.604266 -6.0896754 -2.9070482 5.3829875 0.932603 -0.58669305 5.7747717 2.62253

bn2.running_var f4 [64]
00000000: 2590 1941 0774 0e41 a661 4941 e4e4 7141
00000010: b008 3341 ce52 2041 a479 0a41 e65f 6340
00000020: c68d 9f41 b980 bf40 fde8 1841 876e 2041
00000030: 9615 b040 7c24 2541 b55a e640 e2e1 7141
00000040: dd51 8f40 1f05 6d41 51ca 0341 3305 2e41
00000050: 06f2 0741 9d3b 6c41 2a0e 1541 a0a6 6241
00000060: e07f 0d41 770a 6641 a84a d240 e5ee e740
00000070: 33a5 9741 2d49 1241 e5f5 3941 64c0 b540
00000080: 3f42 2c41 3982 2141 6cd5 1b41 05e9 3641
00000090: afb1 0c41 c278 0041 6605 8241 8df5 3241
000000a0: a332 ba41 e8f0 2b41 0474 2241 c4c4 db40
000000b0: 6425 0241 b829 8441 9bc6 2d41 ac3c 7441
000000c0: c751 1841 20cf 2c41 7e18 1d41 c29b 3c41
000000d0: e754 1e40 0fd2 1141 7b6f 3841 903d 0141
000000e0: 5cac 0b41 2851 5a41 437a de40 677b 7141
000000f0: fa24 0741 afff 8541 00dd 5441 206c 4b41
9.597692 8.903327 12.58634 15.1183815 11.189621 10.020216 8.654697 3.5527282
19.944225 5.984463 9.556882 10.026984 5.502635 10.321407 7.1985726 15.117647
4.478743 14.81375 8.236894 10.876269 8.496588 14.764554 9.315958 14.16568
8.8437195 14.377555 6.5716133 7.247912 18.955664 9.142865 11.622533 5.679735
10.766173 10.094293 9.739605 11.43189 8.79338 8.029482 16.252636 11.184949
23.274725 10.746315 10.153324 6.8677692 8.134129 16.52037 10.860988 15.264812
9.519965 10.800568 9.81848 11.788027 2.473932 9.113784 11.527217 8.07753
8.72958 13.644814 6.9524245 15.092628 8.4465275 16.749846 13.303955 12.713898

conv3.weight f4 [64, 64, 3]
00000000: d0cc c8bc c0de 2ebe ca44 a4bb d2b6 e9bc
00000010: 8fe7 133e 464c 1a3e cec9 9ebd 1ddb 69bd
00000020: 529f ecbc 4f50 123e cf9f 2d3e ffc5 cb3d
00000030: 5ffe 11bd 234b d43d b42c 1d3d 07cd 713e
00000040: ff82 77bd 4b10 ac3d 59e2 13be 4946 e9bd
00000050: 0bb4 033c 608c 613b a2f3 553e f2a6 cd3c
00000060: 8e72 9dbd 1cb3 d03c 5465 2ebd 478c a93d
00000070: 2184 353e e304 a53d fd6c 35be 4e62 b0bc
00000080: 993a 82bd 2baa 253e d1a5 4a3e b20e 133e
00000090: aca2 173e 64ae b33c e4b7 153e 07ea afbd
000000a0: f923 49bd a728 ecbd d1ff 223e c780 ca3d
000000b0: 6c74 a2bc f556 b63d a602 873d c730 8dbc
000000c0: 77cb 9b3c 4e85 0f3e c4e2 cf3d b8be 603e
000000d0: 722b 24be 1992 00bf e2bc ff3d 01bc a33d
000000e0: 2137 10be b4d8 c83d f9fd 1dbe 49b5 2dbe
000000f0: c99c 803e 015e f33d bea7 eb3d b469 b3bd
00000100: 9476 2ebe ccb8 99bc 088a 113d 7dc9 0ebe
00000110: ac37 d8bc 2070 283d 2d2f e03d a6b5 883c
00000120: d48b 99bd cee8 a9bd ca71 70bd 77b7 e6bc
00000130: 30dd a83d 8395 c1bc 5b7b 503b b4af 053d
00000140: 9735 1d3e d2b0 ccbc 4118 6c3d 3175 31bc
00000150: 7338 25be b257 87bd 4b1b a4bc a328 c6bd
00000160: b80d ba3d 6b4a 893d dda5 1f3e aa30 3d3e
00000170: 3b25 413e fcef 603d 8935 8a3d f055 d13d
00000180: 4334 aa3c 779c 233e 20dc 663e 8e96 2abe
00000190: 7b6e 66bd 1d53 a6bd 2964 f7bd 6686 3fbd
000001a0: 1571 a5be e73c 913d 0069 6b3c 38a3 583e
000001b0: 5bd7 bf3d c6fc adbd e3a1 d93d 9e73 06be
000001c0: 909a 7b3d 3f9d d5bc 8fca 48be e005 42be
000001d0: 9f22 7ebe c509 29be 7843 18bd 2836 ee3d
000001e0: 8c5a 813d 92c4 f13d 69a3 3dbc fcea 0bbd
000001f0: cd28 9abd 68b6 9bbd 75d9 b3bd 5f6b 4bbd
00000200: ff81 133b 2803 bdbd 063e 103d c95e 51bd
00000210: 1217 90bd e2d2 c3bb 62eb dd3d 05e8 9bbc
00000220: a4b8 4a3c 9574 a4bd 0295 42be ed9c 86bd
00000230: 1c7f bfbc d40e 23be f713 43be 0a07 3cbe
00000240: 45de d63c 12f8 3c3e 44b7 c53d 92c7 f0bd
00000250: 51f1 ffbd f009 cdbd 93c4 f83d 4ff7 c63e
00000260: eb69 083e 4097 8ebd f745 2e3d fe41 e6bd
00000270: f516 8d3c 7dd4 633e 6704 92bd d6fc bbbc
00000280: 7257 72bd 1ae2 13be 52a0 c8bd b4c3 3bbe
00000290: 9421 76be 59bd 50bc 2078 0dbe 5026 a7bd
000002a0: 80ca 31bd 3771 ddbd aa62 fbbd f0b8 8f3d
000002b0: e0f0 213e f98d d8bd 84ed fb3c 8c38 023e
000002c0: 4132 6bbc 565a e3bd ed1d 903d b6e0 2abe
000002d0: 3a05 35be e1bf ecbc 6bb4 163c bf70 22be
000002e0: 59e4 1d3c 92b9 0abe 2d6d 97bd ce8f fbbd
000002f0: 3511 5f3c 335c 0dbe c2d0 9ebe efee 3cbe
00000300: e92e c73d 6bf6 c03d 1448 843a 3f11 0dbe
00000310: 912d d5bd 6275 81bd 5e96 413d 04df b8bc
00000320: d07d 32be 59dd 9f3d 8e6b f13d e443 63bd
00000330: e715 f13d 53b8 85bd b00d f83c 052e 493d
00000340: a7d9 28bc 6c58 44bd 9885 adbd 9c98 0ebe
00000350: cd31 08be f593 9cbd 2676 a03d 87dc 3a3d
00000360: fc77 1fbc 9de7 a7bc d02c 7bbe e871 a5bd
00000370: 93fd 60be 3a92 cbbc 2856 663d 4da4 bc3d
00000380: c15a a03d c688 be3d 88a8 b6bd 8ab0 be3d
00000390: 7d2b 163d 92e5 053e e432 123d 3f32 513d
000003a0: 33eb 633e d333 2b3e 5f90 c83c 6baf d73d
000003b0: b4de 02bd ee69 58be 3230 adbd 9ff9 9dbd
000003c0: 4c52 cbbd f31a ac3d 98a2 67bd 7a8a 413e
000003d0: 87bf 08bf 2475 87bd 900c 27be 0391 5bbd
000003e0: 3a63 123e c38f 50bb 2e20 8abe 1588 733d
000003f0: 9cdb 30bd 72a4 a2bd 6c0e a639 5e6e 07bd
-0.024511725 -0.1707716 -0.005013083 -0.028529558 0.14443801 0.15068159 -0.07753335 -0.05709373
-0.028884564 0.14288448 0.16955493 0.09949874 -0.035642978 0.10365894 0.03837271 0.23613368
-0.060427662 0.08401545 -0.14441814 -0.11390359 0.008038531 0.0034415945 0.2089372 0.02510402
-0.07687865 0.025476031 -0.042577103 0.08278709 0.17726184 0.08057573 -0.17717357 -0.02153125
-0.06358833 0.16178195 0.19789816 0.14361075 0.14808148 0.021933742 0.1462093 -0.08589559
-0.04910657 -0.11531191 0.15917899 0.098878436 -0.019830905 0.089033045 0.06592302 -0.017235173
0.019017918 0.14015695 0.10150674 0.21947753 -0.16032198 -0.5022293 0.124871984 0.07994843
-0.1408353 0.09806958 -0.15428914 -0.16963686 0.25119618 0.11883164 0.11506604 -0.08760396
-0.17037421 -0.018764876 0.035532027 -0.13944049 -0.026393734 0.041122556 0.10946498 0.01668818
-0.07497373 -0.08296357 -0.058702268 -0.028163655 0.08245313 -0.023630863 0.0031811807 0.032638267
0.15352474 -0.024986658 0.057640318 -0.010831163 -0.16134815 -0.066085234 -0.020032546 -0.096757196
0.09084648 0.06703647 0.15590616 0.18475595 0.18861859 0.054916367 0.06748492 0.102214694
0.020776873 0.15977655 0.22544909 -0.16658995 -0.056257706 -0.08121321 -0.12079651 -0.04675903
-0.32312837 0.07091694 0.014368296 0.21156013 0.09367248 -0.08495478 0.106265806 -0.13130042
0.0614267 -0.026075957 -0.1960852 -0.18947554 -0.24817894 -0.16507633 -0.03717372 0.11631423
0.063160986 0.11805071 -0.011574605 -0.034159645 -0.075273134 -0.076031506 -0.08781711 -0.049662944
0.0022507904 -0.09229118 0.0352154 -0.051115785 -0.0703565 -0.005976067 0.10835911 -0.019031534
0.012373123 -0.08030049 -0.19002154 -0.065729 -0.02337604 -0.15923625 -0.19050585 -0.1836206
0.026229033 0.18454006 0.09654096 -0.11756815 -0.12497199 -0.10011661 0.121468686 0.38860556
0.13321654 -0.069624424 0.042547192 -0.11243056 0.01722286 0.22249027 -0.07129746 -0.02294771
-0.059165426 -0.1444172 -0.09796204 -0.18336374 -0.24036247 -0.0127404565 -0.13815355 -0.081616044
-0.04340601 -0.1081261 -0.12274678 0.07017696 0.15814543 -0.10573954 0.030752905 0.12716883
-0.014355243 -0.111012146 0.07036958 -0.16687283 -0.17677775 -0.028900089 0.009198288 -0.15863322
0.009636962 -0.13547352 -0.073938705 -0.12283288 0.013614942 -0.13804702 -0.31018645 -0.18450521
0.09725744 0.094220005 0.0010092282 -0.1377611 -0.10409082 -0.06321217 0.047262542 -0.02256728
-0.17430806 0.078058906 0.117880926 -0.055484667 0.11771756 -0.06529298 0.030279964 0.049116153
-0.010305799 -0.04793589 -0.084727466 -0.13925403 -0.13300247 -0.07645408 0.07835035 0.045620468
-0.009733196 -0.020496184 -0.24528813 -0.080783665 -0.21971731 -0.02485 0.05623451 0.092110254
0.0782981 0.09303431 -0.089188635 0.09311016 0.036662567 0.13075855 0.035693064 0.05107331
0.2225769 0.16718988 0.024482904 0.10531505 -0.031950668 -0.21134159 -0.08456458 -0.07713627
-0.09927806 0.08403578 -0.056551546 0.18900481 -0.5341725 -0.0661414 -0.16313386 -0.05360509
0.14295664 -0.003182397 -0.26977676 0.05945595 -0.043178186 -0.07941522 0.00031672732 -0.03306424

conv3.bias f4 [64]
00000000: 46cb e4bb a528 35bd 642e f23c a4b3 183d
00000010: eb70 083d 7fac a8bc 9252 433d 7b14 623c
00000020: af1b 72bd 5b88 9abd 9399 a33d 69af e2bd
00000030: 5646 c83d 1199 ecbd 2bc5 2c3d 4f18 9abd
00000040: a94c 863d 14b7 343d c6ff 8d3d 11c0 6a3c
00000050: 3851 d03d d4ce 5dbd 3624 bf3d 0069 58bc
00000060: 7b50 8fbd dc27 143d b7ef c63c 82de c1bb
00000070: e6bc 523c a24c 103c 4467 783d 7f23 9e3c
00000080: 4842 c63c bc3e 963d 0743 e93b 146a a03b
00000090: 4171 ddbb 502a 6fbb 5316 933d 258b f43b
000000a0: d5fc bdbc adc1 87bd 1f27 cbbd c3fa c03c
000000b0: 1e11 9a3c d65f b83b 86ab 0ebc d60f 0f3d
000000c0: 6e73 a0bc 0cf9 b4bc 8681 10bd 1b43 813c
000000d0: 4777 223d a400 52bd 9fe5 cbbb 760b abbd
000000e0: ffa9 68bd ecb0 e3bc 98d4 8cbc d86b 9ebd
000000f0: 3b32 343d 5b31 4e3b 8008 9ebd e2e8 2b3d
-0.00698224 -0.044228215 0.029563136 0.037280694 0.033310812 -0.020590065 0.047686167 0.013798828
-0.059108432 -0.07545539 0.07988276 -0.11068613 0.097790405 -0.115526326 0.04218022 -0.07524168
0.065575905 0.04411991 0.069335505 0.014328019 0.10171741 -0.054152325 0.093330786 -0.013208628
-0.06997772 0.036170825 0.024284227 -0.0059164176 0.01286242 0.008807333 0.060645357 0.019304035
0.024201527 0.073361844 0.007118586 0.004895458 -0.0067578857 -0.0036493726 0.071819924 0.0074628764
-0.023191849 -0.066287376 -0.09919571 0.023557073 0.01880699 0.005626659 -0.008707887 0.03492721
-0.019586291 -0.022091411 -0.035279773 0.015779069 0.039664533 -0.051270142 -0.0062224413 -0.083517954
-0.056802746 -0.027794324 -0.017191216 -0.07735413 0.043993216 0.0031462524 -0.07716465 0.04197014

bn3.weight f4 [64]
00000000: 3ae2 673f b8ba 6a3f 98c9 8e3f c91e 933f
00000010: 1ff3 753f 1c50 873f 69b9 823f 3e44 8b3f
00000020: 84cd 8b3f 9d49 6c3f ed04 813f 20de 563f
00000030: eefe 733f c41f 803f ee22 843f a095 773f
00000040: 60cd 673f 4e91 553f c232 bc3f c7be 743f
00000050: e875 6d3f fa2b 8e3f 9292 983f d880 7b3f
00000060: bfa7 8c3f ea3a 5f3f 1f0e 7b3f 1b18 4f3f
00000070: 625b 693f 9bbe b23f 5f52 6b3f 7133 5c3f
00000080: 6744 653f a26d 913f e263 673f 18e7 963f
00000090: a29a 923f 2bc7 763f 4d41 873f 535c 653f
000000a0: 0280 473f 2b1b 5f3f 6a15 703f 5689 733f
000000b0: 115e a33f 8698 773f a72e b53f 9524 993f
000000c0: 327f 703f 25d8 4a3f 1c73 893f 745b 5c3f
000000d0: 5ced 703f ab4a 593f d83c 8c3f 39a3 593f
000000e0: 5069 803f 185b 663f 401c 653f 4985 973f
000000f0: 9670 6f3f d8d7 943f 9719 773f 0a32 863f
0.9057957 0.9169116 1.1155272 1.149377 0.960741 1.0571322 1.0212833 1.0880201
1.0922093 0.92299825 1.0079628 0.83932686 0.95310867 1.0009694 1.032316 0.96712685
0.9054775 0.8342484 1.470299 0.95603603 0.92758036 1.110717 1.191973 0.98243475
1.0988692 0.8719927 0.9806842 0.8089616 0.91155064 1.3964418 0.91922563 0.86015993
0.895575 1.1361582 0.90386784 1.1789274 1.145344 0.96397656 1.0566803 0.89594
0.779297 0.8715083 0.93782675 0.95131433 1.2763082 0.9671711 1.4154862 1.1964289
0.93944085 0.7923606 1.0738254 0.86077046 0.9411218 0.8487956 1.0956068 0.85014683
1.0032139 0.8998275 0.8949623 1.183755 0.9353117 1.162837 0.9652342 1.0484021

bn3.bias f4 [64]
00000000: d695 23be 56be 8ebe 2e21 653b 6019 e1be
00000010: 53cc 30be 33e2 dfbe 7427 c8be 2f82 13be
00000020: af5b b63d f347 85be 74dd 10be 4520 9a3d
00000030: 2785 c7bd 9d94 85bd 69d1 6a3b 9a80 eebd
00000040: 1029 45be 5791 3abe 7384 81be f180 41be
00000050: 2d59 bcbe c5ba 11be f498 4cbe 4277 0e3b
00000060: 0a35 0cbe a5b9 5e3d 0052 fcbe d781 febd
00000070: 19f2 a1be 632e cf3d bdb5 e1bd da61 2b3d
00000080: 6f76 9d3d f350 97bd e19c 2bbe fbae 6fbe
00000090: f9f4 d13b 5fbf b9bc 5d99 b2be 4391 56be
000000a0: 7eec 6e3c cc4f f5bd 4bb2 d23c f0b0 44be
000000b0: 52aa 53be 1016 7cbc e5da 0abe 82c5 d1be
000000c0: aaa1 86be 66eb 19be bd3c 15bf 275b 893d
000000d0: 86e2 ecbe f944 97bc 6190 13bd 1056 063e
000000e0: 8367 00be f4c2 02be e74f 16be 2a21 e0be
000000f0: f63d 50be c395 e1bb 8856 1bbd e0c5 86bd
-0.15975127 -0.2787959 0.0034962404 -0.43964672 -0.17265444 -0.43727264 -0.390926 -0.1440513
0.08904206 -0.26031455 -0.14146978 0.07525686 -0.09742194 -0.06522486 0.0035830385 -0.116456226
-0.19253945 -0.18219505 -0.25296363 -0.18896843 -0.36786786 -0.14231403 -0.19980222 0.0021738564
-0.13692108 0.054376263 -0.4928131 -0.12427109 -0.31630018 0.101162694 -0.11020992 0.041841365
0.07688605 -0.07388487 -0.16759063 -0.23406594 0.006407377 -0.02267426 -0.34882632 -0.2095385
0.014582751 -0.11978111 0.025719782 -0.19208121 -0.20670441 -0.0153861195 -0.13560064 -0.40971
-0.26295215 -0.15031204 -0.58295804 0.06706839 -0.46266574 -0.018465506 -0.036026362 0.13118768
-0.12539487 -0.12769681 -0.14678918 -0.43775302 -0.20336136 -0.006884308 -0.03792432 -0.065807104

bn3.running_mean f4 [64]
00000000: b7da a3bf 7591 b6be 02e7 d7be 83eb e6bf
00000010: bbd3 8e40 9625 2abf 21aa 9bbf ca4c 53bf
00000020: 2bfb 6fc0 c0ee 72bc e52e 25bf 1c11 9ebf
00000030: 34b0 86bf 1595 1b3f 93cd 7140 7e6d 8fbf
00000040: 25f2 37c0 2c54 6bbf 167b 00c1 de2a 0bbe
00000050: 0d6c 08c0 0c69 ddbf 3a34 46c0 d31a 30c0
00000060: df9c 52c0 dfd2 3a3f a6fc 1a3f f0d0 763e
00000070: 70af 9b3f 46f4 bd40 e9d3 6940 3678 ab3f
00000080: b5cd cebf 3b43 30c0 7f63 2240 3ce4 85c0
00000090: f7db 5940 4f6a d340 def7 10be 1a7c a2c0
000000a0: 8e98 8e3f db13 923f aefc 873f c4de 903f
000000b0: 6b19 c5be 4fcb 6cbf 5156 d4bf 5b76 97c0
000000c0: 5bd0 36be dbeb fbbf c7ad 37c0 9ab6 0e40
000000d0: 8587 45c0 003e 973f 20ee f83a a5ab 0f40
000000e0: 78bd c63f 087d 11bf 1d44 59bf c00b 28bd
000000f0: 8ad1 8dbf b689 5fc0 e943 353f ca9f 3f40
-1.2801121 -0.3565785 -0.42168432 -1.8040622 4.463346 -0.664636 -1.2161294 -0.82539046
-3.749705 -0.01482743 -0.6452468 -1.2348971 -1.0522523 0.60774356 3.7781723 -1.1205289
-2.8741543 -0.9192531 -8.03005 -0.13590571 -2.131595 -1.7297683 -3.0969377 -2.7516372
-3.2908247 0.72978014 0.6054176 0.24103141 1.2162914 5.9360685 3.653559 1.339606
-1.6156527 -2.7541034 2.5373228 -4.1841106 3.4040506 6.606727 -0.14157054 -5.077649
1.1140306 1.141231 1.0623987 1.1317983 -0.38495955 -0.92497724 -1.6588842 -4.7331977
-0.17852919 -1.9681352 -2.8699815 2.229895 -3.0863965 1.1815796 0.0018991865 2.2448514
1.5526571 -0.5683141 -0.8486956 -0.04102683 -1.1079571 -3.4927802 0.7080675 2.9941278

bn3.running_var f4 [64]
00000000: 8e9e 4341 6382 0241 b30b 9540 624c ce40
00000010: 1d83 f640 8ffa dc40 c665 1941 d2aa e240
00000020: 2be1 4740 a090 9840 faac 0341 059f 6e40
00000030: f6a5 4241 cd4c 3f41 fcc7 9f41 1313 df40
00000040: 1b63 0f41 9990 fa40 ad8e d741 78c1 e740
00000050: 45dd 6140 e1d7 0841 2ab6 2f41 cd0a 3041
00000060: 9d7c 7641 ef96 3641 edf2 0241 eb4e de40
00000070: 684a 6340 ae01 cd41 4c33 0741 af42 6841
00000080: cc0b 4b41 af8d ed40 ed74 1f41 2cb4 2641
00000090: 95e2 8841 4910 9641 b175 b940 7a0c 1a41
000000a0: 543a a940 186d b740 0da6 cb40 7bac 2d41
000000b0: 8541 ad41 459d e640 ae64 b441 9baf 9940
000000c0: 3318 2041 805e 1241 c1a1 f440 5920 2d41
000000d0: 9c7a 1741 e8e7 dd40 d8c2 3041 a769 8840
000000e0: dbad 1f41 b1a2 0b41 b3ba 5c41 0897 d140
000000f0: d8fc 7040 4c8c a941 122f ea40 bed1 3941
12.22621 8.156833 4.657678 6.446824 7.703505 6.905586 9.587347 7.083352
3.1231182 4.7676544 8.229731 3.7284558 12.165518 11.95625 19.972649 6.9710784
8.961696 7.830151 26.944666 7.242367 3.5291302 8.552705 10.981974 11.002637
15.405423 11.411849 8.184308 6.9471335 3.5514164 25.62582 8.450024 14.51628
12.69038 7.4235454 9.966046 10.418987 17.110636 18.757952 5.7956166 9.628046
5.28837 5.732067 6.36402 10.8546095 21.656992 7.206698 22.54916 4.802686
10.005908 9.148071 7.6447453 10.820397 9.467434 6.934559 11.047569 4.262897
9.979945 8.72722 13.795581 6.5496864 3.7654324 21.193504 7.318246 11.613707

conv4.weight f4 [64, 64, 3]
00000000: 77a6 dabc 16d9 7cbd 5d71 d13d 22f7 69bb
00000010: 01ad 9ebd 667a 443e 297e 703d 8a13 ebbd
00000020: 90fc 45ba 49ff b0be 856a e3ba 6206 073e
00000030: e983 2abd 8d97 08be 825a 6b3d 3f5c 8c3d
00000040: 8312 7abc c9da e6bd a55c 2c3e c968 2b3d
00000050: ff77 3e3e e512 ddbd 4298 60be f349 66be
00000060: bfc8 893e a927 a83d de90 4a3c 1b6c 12be
00000070: 6b18 153e b9a3 80be 2c7e 96be a620 31be
00000080: 139f 1dbe 6b52 1fbe 9abd 36bd abe1 14be
00000090: 7397 4dbe 16e6 0abd 2ec7 8ebe 40cc 83bd
000000a0: 1f99 9fbd 00cd e9bd 85bc a3bd a14b 99be
000000b0: 7512 3dbe 3a39 88bd 4d41 0fbe 7a1b 4bbd
000000c0: f15e 4cbe 6d89 56be 16f2 85bd 15a7 dabe
000000d0: c090 1bbd 95d0 7abe c4c3 523d 028d 16bc
000000e0: 38f4 83be 8e56 d0bd 9ca0 8abd 68d3 4ebc
000000f0: 76dc 043e eb4e 803e 333b cd3e 8333 39be
00000100: 910a a8be f584 4abe 57e4 8cbe 7e01 54bd
00000110: ac3e adba 2074 813d 8a3a 073e 8c6d 69bd
00000120: 0124 603d 0590 193e 74a3 1239 46a2 c4bd
00000130: 3049 dcbd f9a7 37bd 294b a93d 7bca 6f3d
00000140: 80d3 5b3e 7a83 f23c e6d8 3abd f94d 833d
00000150: 2ed4 10be cb2c 28bd 6770 85bd 1f64 febd
00000160: 93ec 09be 275b b63d 97a0 343d 31f9 0a3e
00000170: a9ca 22be 5d4a 98bd a2a8 debd e89a ef3b
00000180: c686 86be 2c7b ce3b 4c2a 8fbc 5ac1 61be
00000190: 7049 89bd 9a5c b1bd 92b1 053e adc0 613d
000001a0: 9766 f63d e28a 14be ff82 b2be a408 bfbe
000001b0: 7338 ac3d b0ac 07bd bbb0 b23c 2c96 573a
000001c0: 2edb 07bd 0f57 bfbd a2b4 95be 0e43 3dbe
000001d0: 2152 34be aea5 75be 4d0b 0fbe 56b1 cdbe
000001e0: 1199 56be 3097 a6bd 171c eebd 73b9 983e
000001f0: 1554 ce3d 9c67 c23e f2a6 81bc 7d6c 053c
00000200: 21eb c03d 9759 0fbe f3aa fcbd 0cc1 0dbe
00000210: 36dd 25bc 0bfe 3cbd 09b7 b0bb ea05 ce3d
00000220: 1d34 803d cb8a e83d 5487 16be 4992 1c3d
00000230: c895 fa3b cf35 8ebe 3834 ce3d 38ed 1fbd
00000240: c89d 6ebe ecee dbbc bb8c b63c 1698 e33d
00000250: e34b d0bc e002 2e3e 62e8 65bd 2c52 073d
00000260: 20af 133e 58b1 ebbd b8a9 5d3e 7e6f 763e
00000270: 049a ca3c ab48 efbd ef3e bfbd 1e3b 60be
00000280: 7683 993c 032c 28be f63f 09be 893a 5fbc
00000290: eaea 853e 9bd3 39bd 9677 b03d 84c4 8ebe
000002a0: a9d1 f93d 9143 8d3c 67b3 b5bc 1a22 7b3d
000002b0: dc9b 1abe 6639 97bc dbd2 973d 8e60 25be
000002c0: 7ae7 e7bb 5036 40be 8c8b 933d dca3 ee3b
000002d0: 36c5 7c3d f311 653d 7353 1abd 9c18 083e
000002e0: 4313 283e 9cc7 70be eb92 0e3e 5c74 fa3d
000002f0: 0747 9dbd 048f 38be 07d0 87be 4728 80bd
00000300: 99f4 4fbe d3bd 063d 6169 f33c 3130 ff3d
00000310: 9c2c ed3d ba26 cdbd b593 ffbc 8841 833d
00000320: 9303 043e adcc 26be 7b07 eabd 43ec 063d
00000330: 1220 03be 93b4 8fbd a60f fa3c d1e4 693c
00000340: 3565 31be 7495 973d 474e 073d 7796 b8bc
00000350: 63f8 bd3d a7bd 26bd 5297 16be f790 ac3d
00000360: b148 db3d 646d 293e 638f 193e 37f2 103e
00000370: 723e 29be 9496 0cbe 5e75 163e b646 a93d
00000380: bc4b 75bd f634 a63b 05ea 223e d258 ce3c
00000390: 7017 883e 2cb3 0e3e fb8e 14be 8fa6 9e3c
000003a0: c5d9 21be 26b0 69be 362d f73e 382c ba3d
000003b0: 391c 503e 0bd3 d2bd ba9e 12be e992 97bd
000003c0: 93e1 c8bd 195f 49be 4677 39be c1b1 1bbe
000003d0: 44ec 093b e0d8 7dbd 7fa5 8bbb b694 13be
000003e0: 1d6d 24be 2098 1e3d a18d 493c 3cc2 083d
000003f0: 6d25 d7bd 324b dabc b3b2 603e f552 9e3c
-0.026690705 -0.061730467 0.102267005 -0.003570028 -0.077478416 0.19187316 0.058714066 -0.11478336
-0.00075525884 -0.34569767 -0.0017350471 0.13186029 -0.041629706 -0.13339062 0.05745936 0.06853532
-0.015263203 -0.11272199 0.16832216 0.041847978 0.18600462 -0.107946195 -0.21933082 -0.22489147
0.2691097 0.082106896 0.012363641 -0.14299051 0.14560096 -0.2512491 -0.29393137 -0.1729761
-0.15392713 -0.15558784 -0.044614412 -0.1453921 -0.20077305 -0.033910833 -0.27886337 -0.06435442
-0.077928774 -0.11416054 -0.079949416 -0.29940513 -0.18464072 -0.0665154 -0.13989754 -0.04958675
-0.19958092 -0.20950861 -0.06540315 -0.42705598 -0.03797984 -0.2449363 0.051456228 -0.009188892
-0.25772262 -0.10172759 -0.06768915 -0.012623645 0.12974724 0.2506021 0.40084228 -0.18086056
-0.32820562 -0.19777282 -0.2751796 -0.051759236 -0.001321753 0.06320977 0.13205925 -0.056989238
0.054721836 0.14996345 0.00013984536 -0.09601264 -0.10756147 -0.044837926 0.08266289 0.05854271
0.214674 0.029603709 -0.045617007 0.064113565 -0.1414344 -0.041058343 -0.0651558 -0.1242144
-0.13469152 0.08904105 0.044098463 0.13571621 -0.15897621 -0.07436059 -0.10872008 0.0073121674
-0.262747 0.0063013043 -0.017476223 -0.22046414 -0.0670346 -0.086602405 0.13056019 0.05511539
0.12031286 -0.14506105 -0.34865567 -0.3731128 0.08409204 -0.033123672 0.021812787 0.00082239765
-0.03316801 -0.09342777 -0.29239374 -0.1848261 -0.17609455 -0.23988983 -0.13969155 -0.4017436
-0.20956828 -0.081343055 -0.116264515 0.29828987 0.10074631 0.37969673 -0.015826676 0.008143541
0.09419847 -0.1399902 -0.123372935 -0.13843173 -0.010123542 -0.04614071 -0.0053929132 0.10059722
0.0625994 0.11354598 -0.14700061 0.038225446 0.00764725 -0.27775428 0.10068554 -0.03904459
-0.23302376 -0.026847325 0.022283902 0.111129925 -0.02542681 0.16993284 -0.05612982 0.03303735
0.14422274 -0.11508435 0.21646774 0.24065968 0.024731643 -0.11683782 -0.093381755 -0.21897551
0.018739443 -0.16423039 -0.13403305 -0.013624796 0.26155788 -0.04536782 0.08616559 -0.27884305
0.121981926 0.017244132 -0.022180272 0.06131182 -0.15098518 -0.018459987 0.07413264 -0.16150114
-0.0070771547 -0.18770719 0.07204351 0.007282717 0.061711513 0.05592532 -0.03767724 0.13290638
0.16413598 -0.23513645 0.13923232 0.12229225 -0.07679563 -0.18023306 -0.265259 -0.06257682
-0.2030815 0.032895874 0.029713335 0.12460364 0.11580774 -0.10017152 -0.031198362 0.064089835
0.12891988 -0.16289015 -0.11427208 0.03294016 -0.12805203 -0.07016864 0.03052504 0.0142757455
-0.17323764 0.07401553 0.033033635 -0.022532685 0.09275892 -0.04070821 -0.14706162 0.08426087
0.10707224 0.16545635 0.14996104 0.14154898 -0.16527727 -0.13729316 0.1469321 0.0826544
-0.05988668 0.0050722314 0.15909584 0.025188837 0.2658038 0.13935536 -0.14507668 0.01936653
-0.15805729 -0.22821102 0.4827668 0.09090465 0.20323266 -0.102941595 -0.14318362 -0.07401068
-0.0980865 -0.19665183 -0.18111905 -0.15204526 0.0021045366 -0.061974406 -0.004261672 -0.14412197
-0.16057248 0.038719296 0.012301833 0.03338836 -0.10505185 -0.026647184 0.21943168 0.019326666

conv4.bias f4 [64]
00000000: 7b3b 963c d898 093c 6e30 373c 5ff8 b93c
00000010: 6f45 11bd d095 32bd 551d 733d c602 a4bd
00000020: 4832 76bd 85c8 34bc de6f 5c3d 9af3 e63c
00000030: a4cc 633d dcca 00bd 3ec4 90bd f918 8cba
00000040: e136 9a3d 21a6 0b3d 7af2 083d 8e9e 9f3c
00000050: da20 c53c 86ed 113c 5881 34bd 12cf b93b
00000060: 4ec7 95bb 8282 593c 1915 ab3b 4e96 993d
00000070: e87d ae3b 7a8a cbbd 53cc 443d 3f9a 103e
00000080: 49bc 32bd 9578 da3d bc1c 8dbb 93b5 863d
00000090: 5df5 15bd efe4 1e3d 8e8c d23d 0f58 0c3d
000000a0: 01fb 5abd 5453 77bd 87ec e6b9 fbcd ef3c
000000b0: ea2b 2abc 5649 a13c da72 6abd 6b8e d53d
000000c0: 5074 b93d 8bbc 8d3d 29c6 35bc d954 823d
000000d0: 21bc cabc db74 9e3d 9bd4 39bd 6c96 13bd
000000e0: d7e1 e53c f9f7 673d d9bc 313d 9429 07bd
000000f0: 0ff6 4b3b 8b01 b83c 57a0 953d 7261 b03c
0.01833891 0.008398257 0.01118098 0.02270144 -0.035466608 -0.043599904 0.059354145 -0.080083415
-0.060106546 -0.011034136 0.053817622 0.02819233 0.055615082 -0.03144346 -0.0706868 -0.0010688595
0.075299986 0.03409398 0.03343437 0.019484784 0.024063516 0.008906728 -0.044068664 0.0056704367
-0.004570878 0.013275744 0.005221021 0.074993715 0.005325068 -0.09938522 0.04804642 0.1412134
-0.043636594 0.106675304 -0.004306404 0.06577601 -0.03661095 0.038792547 0.10280715 0.034263667
-0.053462032 -0.060382202 -0.00044045245 0.029273024 -0.0103864465 0.01968829 -0.057238437 0.10427555
0.09055388 0.06920727 -0.011094608 0.0636384 -0.02474791 0.07737132 -0.045368772 -0.036032125
0.02806179 0.05663297 0.04339299 -0.032998636 0.0031122004 0.022461673 0.07305973 0.02153084
