notebooks/Radio_27ML/27ml_rf/27ml_rf_quantized.pth (torch, 719808 bytes, 47 tensors)

1.weight f4 [64, 2, 3]
0	0xbe0159be	-0.1263189
1	0x3d8e97b3	0.06962528
2	0xbea0e672	-0.31425816
3	0xbf00d393	-0.50322837
4	0xbea2c0b5	-0.3178765
5	0xbdb7e265	-0.08978728
6	0x3e2c1b3b	0.16807263
7	0x3f102b41	0.56316
8	0x3e072b0f	0.1320002
9	0xbe0bf8e3	-0.13669161
10	0xbe7fac3a	-0.24968043
11	0xbd16d042	-0.036819704
12	0xbef4dda7	-0.47825357
13	0xbeb5bef5	-0.3549725
14	0xbe9efb35	-0.3105103
15	0xbd36e60b	-0.04465298
16	0x3ead00aa	0.3378957
17	0x3ea6c8c4	0.32575047
18	0xbe504531	-0.20338894
19	0xbe90e0ef	-0.2829661
20	0x3db596e4	0.08866671
21	0x3f1a057b	0.6016461
22	0x3e028426	0.12745723
23	0x3ede583e	0.43426698
24	0xbd741ba4	-0.059596673
25	0x3e62a05f	0.22131489
26	0x3ebe0289	0.3711131
27	0xbf102770	-0.56310177
28	0xbea75e11	-0.32688954
29	0xbe8189da	-0.25300485
30	0xbe8d32e0	-0.27577877
31	0x3e50c1b9	0.203864
32	0xbe6ddb0b	-0.2322809
33	0xbeb71fd7	-0.3576648
34	0xbee8626d	-0.45387593
35	0xbf09785b	-0.5369927
36	0xbe819739	-0.25310686
37	0x3f073d57	0.5282797
38	0x3e95a011	0.29223683
39	0x3e816602	0.25273138
40	0x3da4997d	0.08037088
41	0xbddc763d	-0.1076474
42	0x3dfb161f	0.12260079
43	0xbf2dc781	-0.67882544
44	0xbf001162	-0.50026524
45	0xbe3ffae4	-0.18748051
46	0x3e5c6ce2	0.2152591
47	0x3e5c675a	0.215238
48	0xbd5d95ad	-0.05409782
49	0x3e405baa	0.18784967
50	0x3eb05787	0.34441778
51	0x3ebedfe1	0.3728018
52	0x3ec41f5e	0.3830518
53	0x3e1173b6	0.14204296
54	0x3e35bc7e	0.17747685
55	0xbe0671bb	-0.13129322
56	0x3e252587	0.16127597
57	0xbee627c3	-0.4495221
58	0xbef29ab4	-0.47383654
59	0xbee876c6	-0.45403117
60	0x3e97b3db	0.29629406
61	0x3e8042e7	0.25051042
62	0xbdebc64a	-0.1151243
63	0x3e93fb54	0.28902686
64	0x3ebe09f2	0.37116963
65	0x3dd90122	0.10595919
66	0x3d2e447c	0.04254578
67	0x3dac858c	0.084239095
68	0x3ed29425	0.4112865
69	0x3e8df187	0.27723333
70	0xbee0a3e3	-0.43875036
71	0xbec63c8b	-0.38718066
72	0x3e8f75d4	0.28019583
73	0x3f0496af	0.51792425
74	0x3f24cc47	0.643742
75	0x3e68a91a	0.22720757
76	0xbc48bda0	-0.012252241
77	0xbea4f943	-0.32221422
78	0xbdcad4c8	-0.09903866
79	0xbee19cca	-0.44064933
80	0xbefa5703	-0.4889451
81	0x3f04d3b9	0.51885563
82	0x3eb811dd	0.3595113
83	0xbea022f4	-0.31276667
84	0xbe08a11a	-0.13342705
85	0xbe6a6c7a	-0.22892943
86	0xbe9ba732	-0.30400997
87	0xbebaec89	-0.36508587
88	0x3d28228d	0.041048575
89	0xbea28031	-0.31738427
90	0x3e52a02a	0.2056891
91	0x3e8b37a4	0.27190888
92	0x3eb66c7d	0.35629645
93	0x3cd801c9	0.026368039
94	0xbf06dac0	-0.52677536
95	0xbef53a2d	-0.47895947
96	0x3ec9cad2	0.39412552
97	0x3e760a0f	0.24027275
98	0xbdfd0b6b	-0.123556934
99	0xbe819011	-0.25305226
100	0x3eab5d9e	0.33469862
101	0x3f0cf73b	0.55064744
102	0xbe8f01b9	-0.27931002
103	0xbed517ae	-0.4161963
104	0xbedd68bf	-0.43243977
105	0xbd380c65	-0.044933695
106	0xbec25b87	-0.37960455
107	0xbe45a9c4	-0.19303042
108	0x3d460056	0.048340164
109	0x3e746696	0.23867258
110	0xbdd72a2e	-0.10506092
111	0x3eb3298a	0.3499263
112	0xbc3651fe	-0.011127947
113	0x3f371161	0.71510893
114	0x3e3b76b3	0.18306999
115	0xbf0f39d3	-0.5594761
116	0xbe5fedf5	-0.21868117
117	0xbd9a1c6a	-0.07524951
118	0x3e8d8ac8	0.27644944
119	0x3e568592	0.2094939
120	0xbd62b9e3	-0.055353057
121	0xbe0cc822	-0.1374822
122	0xbe3cbea1	-0.18432094
123	0x3dcb0464	0.09912947
124	0xbf01deb8	-0.50730467
125	0xbee52278	-0.4475286
126	0xbea9b1c1	-0.33143428
127	0xbeb10d77	-0.34580585
128	0xbed2e35d	-0.4118909
129	0xbeaa5aa6	-0.33272284
130	0xbe072314	-0.13196975
131	0xbabec045	-0.001455315
132	0xbe9173bd	-0.28408614
133	0x3d85c368	0.065314114
134	0x3f00527d	0.5012587
135	0x3db4febd	0.0883765
136	0xbd9bd75b	-0.07609435
137	0x3d09a9d5	0.03360923
138	0x3e884fc5	0.2662336
139	0x3eae16bb	0.34001717
140	0x3ee480f0	0.44629622
141	0x3e8cd1e7	0.27503893
142	0x3f0b0271	0.543006
143	0xbd51e943	-0.051247846
144	0xbebff828	-0.37494016
145	0xbeb6b3f6	-0.35684174
146	0x3dbf1744	0.093306094
147	0xbe99d445	-0.3004476
148	0xbeac7ff6	-0.33691376
149	0xbefe4f5e	-0.49669927
150	0xbee0adbb	-0.43882546
151	0xbf3518b7	-0.70740837
152	0xbe6ef3a5	-0.2333513
153	0x3e0d0166	0.13770065
154	0x3e435d37	0.19078527
155	0xbec0bdbb	-0.37644753
156	0x3e3b3d29	0.1828505
157	0xbe33a730	-0.17544246
158	0xbe2a8cb5	-0.16655238
159	0xbea8cc12	-0.32968193
160	0xbe8bf856	-0.27337903
161	0xbebfb1ca	-0.3744033
162	0xbf1b91dc	-0.6076944
163	0xbf1998fc	-0.5999906
164	0xbe0713df	-0.13191174
165	0xbcb7b2d4	-0.02242414
166	0xbe24f19b	-0.1610779
167	0x3dcc2618	0.09968203
168	0xbe9c87e7	-0.30572435
169	0x3e24bdc1	0.1608801
170	0x3ea53a22	0.32270914
171	0xbe1d05a6	-0.15334186
172	0x3f0ccd46	0.5500072
173	0x3ec834e3	0.3910285
174	0xbec3a3ad	-0.38210812
175	0x3e9ba446	0.30398768
176	0xbbc960af	-0.006145559
177	0xbdc7668e	-0.09736358
178	0x3edf1fcf	0.43578956
179	0xbed3cbf0	-0.4136653
180	0x3e551066	0.20807037
181	0x3ab31452	0.0013662672
182	0x3ed815b2	0.42204052
183	0x3e53cb1a	0.20682946
184	0x3ea8dcc2	0.32980925
185	0x3e65ee25	0.22454126
186	0xbe2f5300	-0.17121506
187	0x3af76207	0.0018873819
188	0xbe46a175	-0.19397528
189	0x3dd981b5	0.10620443
190	0x3f328c72	0.6974555
191	0x3ef6f62d	0.48234692
192	0xbeb66e8e	-0.35631222
193	0xbe84a307	-0.2590563
194	0xbf04d92d	-0.51893884
195	0xbe0d035c	-0.13770813
196	0xbe75954f	-0.23982738
197	0x3e817433	0.25283965
198	0xbea510e0	-0.32239437
199	0xbe59d727	-0.2127348
200	0xbc3c01f9	-0.01147508
201	0x3e378d50	0.17925
202	0xbefa9281	-0.489399
203	0xbeb1426c	-0.34620988
204	0xbe045183	-0.12921719
205	0x3e206d9d	0.15666814
206	0x3b508e4d	0.00318231
207	0x3f0aa4e6	0.54157865
208	0x3ee77786	0.45208377
209	0x3e3b06be	0.1826429
210	0xbe91330a	-0.28359252
211	0xbe2f7a3d	-0.17136474
212	0xbdc5c064	-0.09655836
213	0xbe12eb1d	-0.14347501
214	0xbe0b7099	-0.13617171
215	0xbd23bc9e	-0.0399748
216	0xbea48d28	-0.32138944
217	0xbe3d6d18	-0.18498647
218	0x3ecfcc3d	0.4058551
219	0xbed24467	-0.41067812
220	0xbe2659a8	-0.16245139
221	0x3eebbcd3	0.460425
222	0xbc9de413	-0.019273793
223	0xbe26c5ca	-0.16286388
224	0xbed861f8	-0.42262244
225	0x3dc58396	0.09644239
226	0xbecface6	-0.405616
227	0xbe91b558	-0.28458667
228	0x3e27467b	0.1633548
229	0x3d8ca967	0.068682484
230	0x3daf09d6	0.08546798
231	0x3e9ea716	0.3098685
232	0x3e92d8f5	0.2868115
233	0x3f29f1e2	0.6638471
234	0x3d650350	0.055911362
235	0xbe0e3d18	-0.13890493
236	0x3e507e51	0.20360686
237	0xbf180a98	-0.59391165
238	0xbeec4125	-0.4614345
239	0xbdb68fb3	-0.08914127
240	0x3ec91039	0.3927019
241	0x3ed49330	0.41518545
242	0x3d46466d	0.048407007
243	0xbe403d28	-0.1877333
244	0x3e02f6c0	0.1278944
245	0xbec6b9fd	-0.38813773
246	0x3e53eaa9	0.20694984
247	0xbeb6ab80	-0.3567772
248	0xbe07de0c	-0.13268298
249	0xbdec6ade	-0.11543821
250	0xbeccd0b8	-0.4000299
251	0xbe2d222d	-0.16907568
252	0x3e55fb2a	0.20896593
253	0x3bfb6b9c	0.00767274
254	0xbde3d602	-0.11124803
255	0xbed47eb0	-0.41502905

2.weight f4 [64]
0	0x3f8054c4	1.0025868
1	0x3f8c04dd	1.0938984
2	0x3f96d58f	1.1783923
3	0x3f7c1240	0.9846535
4	0x3fa096e3	1.2546047
5	0x3f904546	1.127114
6	0x3f6b68de	0.9195689
7	0x3f694b5c	0.91130614
8	0x3f7d2e8a	0.9889914
9	0x3f8df71e	1.1091039
10	0x3f870248	1.0547571
11	0x3f6d5f8b	0.9272391
12	0x3f90045e	1.1251333
13	0x3f76a6fd	0.96348554
14	0x3f85ea0e	1.0462053
15	0x3f90fcec	1.1327186
16	0x3f74cb22	0.95622456
17	0x3f7f4aee	0.9972371
18	0x3f50e381	0.81597143
19	0x3f63209c	0.8872163
20	0x3f6ba4b3	0.92048186
21	0x3f946a20	1.1594887
22	0x3f74288b	0.95374364
23	0x3f977c16	1.1834743
24	0x3f7cdf3a	0.98778117
25	0x3f831119	1.0239593
26	0x3f8b9ee8	1.0907869
27	0x3f8866dd	1.0656391
28	0x3f6276a0	0.8846226
29	0x3f8e1585	1.1100317
30	0x3f913e3a	1.1347115
31	0x3f85b207	1.0444955
32	0x3f8c4722	1.0959208
33	0x3f741830	0.9534941
34	0x3f890f2e	1.0707757
35	0x3f82d25c	1.0220447
36	0x3f85dc82	1.0457919
37	0x3f6fe204	0.9370425
38	0x3f9b8783	1.215073
39	0x3f760dff	0.96115106
40	0x3f8a93a4	1.0826306
41	0x3f5e2b45	0.86784774
42	0x3f54a2f6	0.8306116
43	0x3f9045f9	1.1271354
44	0x3f8c738d	1.0972763
45	0x3f916be9	1.1361057
46	0x3f506a65	0.81412345
47	0x3f74d712	0.9564067
48	0x3f666fce	0.9001435
49	0x3f68640f	0.9077768
50	0x3f652141	0.89503866
51	0x3f8c5b77	1.0965413
52	0x3f6783bf	0.90435404
53	0x3f6a451f	0.9151172
54	0x3f8d71c0	1.1050339
55	0x3f72c4dc	0.94831634
56	0x3f873b20	1.0564919
57	0x3f8fbf76	1.1230304
58	0x3f74e343	0.95659274
59	0x3f5e0050	0.86719227
60	0x3f8e80e3	1.1133083
61	0x3f595a8b	0.8490378
62	0x3f753295	0.9578031
63	0x3f9a8924	1.2073102

2.bias f4 [64]
0	0xbddd6809	-0.10810859
1	0xbde779a1	-0.11302496
2	0x3c30167b	0.010747547
3	0xbe2eedc3	-0.17082886
4	0x3d9b7f9e	0.075927004
5	0xbd5765ec	-0.052587435
6	0xbe9159cd	-0.28388825
7	0xbdfb640c	-0.12274942
8	0xbdb4df8c	-0.08831701
9	0xbe1cb51d	-0.15303464
10	0x3e0f8bd4	0.14018184
11	0xbd14b333	-0.03630371
12	0x3e9b5886	0.30340976
13	0xbe6d321a	-0.23163643
14	0xbe6af5d0	-0.22945333
15	0xbd2f8b22	-0.042857297
16	0xbe2410b1	-0.16021992
17	0xbe5131f2	-0.20429209
18	0xbe9e34c2	-0.30899626
19	0xbe8bbb89	-0.27291515
20	0xbe93f20f	-0.28895614
21	0x3df36c1d	0.11885855
22	0xbe53911b	-0.20660822
23	0x3ea64e2a	0.3248151
24	0x3dcd19b2	0.100146666
25	0x3cbcb032	0.023033235
26	0x3e05458c	0.13014811
27	0x3d8aab58	0.067709625
28	0x3d6d47aa	0.057929672
29	0x3e81bc25	0.25338855
30	0x3e86717b	0.26258454
31	0xbd256097	-0.04037532
32	0x3dddfee6	0.10839634
33	0xbc3eca31	-0.011644886
34	0xbd6c55e6	-0.057699107
35	0xbe8fe97e	-0.28107828
36	0xbe078655	-0.13234837
37	0xbe8eb634	-0.27873385
38	0xbc5c1a0e	-0.013433946
39	0xbe624131	-0.22095181
40	0xbd600379	-0.05469081
41	0xbee00e38	-0.43760848
42	0xbd0924ff	-0.033482548
43	0x3eab33f2	0.3343807
44	0xbda97765	-0.08274726
45	0x3d55179a	0.05202446
46	0xbea6a1f0	-0.32545424
47	0xbe881ab4	-0.26582873
48	0xbd73c5c1	-0.059514765
49	0xbe11b168	-0.14227831
50	0x3c74ad1b	0.01493385
51	0xbe65d255	-0.22443517
52	0xbeee27f0	-0.46514845
53	0xbe6df2fc	-0.23237222
54	0x3e4428c3	0.19156174
55	0xbd6483db	-0.05578981
56	0x3e663660	0.2248168
57	0x3dacf52a	0.08445199
58	0xbe156972	-0.14591005
59	0xbef5052b	-0.47855505
60	0x3e38309c	0.17987293
61	0x3dca0bcf	0.098655336
62	0xbeb224e8	-0.34793782
63	0x3e82397c	0.25434482

2.running_mean f4 [64]
0	0xbd2440eb	-0.040100973
1	0x3d1ea907	0.038735416
2	0xbd4b4110	-0.049622595
3	0x3b29be9d	0.0025900968
4	0x3ba216c8	0.0049465634
5	0xbd3c1ad4	-0.045924023
6	0x3d14354b	0.036183637
7	0xbd5a65f2	-0.05331988
8	0x3d3907e5	0.045173544
9	0xbc933a59	-0.017972158
10	0x3d250a68	0.040293127
11	0x3c912f4f	0.017722754
12	0x3da05ca7	0.07830172
13	0xbd35e392	-0.04440648
14	0xbd4c0f86	-0.04981949
15	0x3ccbc52f	0.024874298
16	0x3d27685c	0.04087101
17	0xbd9c2dfb	-0.076259576
18	0x3d048313	0.032351565
19	0xbcc098fd	-0.02351045
20	0xbd206e19	-0.039167497
21	0xbd903377	-0.07041066
22	0x3c89e668	0.0168335
23	0x3d9739a8	0.07384044
24	0xbd775614	-0.060384825
25	0xbd9f53b5	-0.07779638
26	0xbcf8d300	-0.03037405
27	0xbd9c1c43	-0.07622578
28	0x3cd40a89	0.02588393
29	0xbbaff20b	-0.00536943
30	0x3d50e773	0.051001977
31	0x3be50367	0.006988931
32	0xbd868e50	-0.06570113
33	0xbd357cc5	-0.044308443
34	0x3cd74839	0.026279556
35	0xbd19c27d	-0.037538994
36	0xbbdc8738	-0.0067299865
37	0xbd3bc2f1	-0.045840207
38	0x3d34b64f	0.044119176
39	0xbc9342e2	-0.017976228
40	0x3d19e188	0.0375686
41	0xbcf67c7e	-0.03008866
42	0xbc8ab698	-0.01693277
43	0xbd2418ae	-0.0400626
44	0x3c685b79	0.014181965
45	0xbd9fc4cc	-0.07801208
46	0xbb3bfe4c	-0.0028685508
47	0x3d666587	0.056249168
48	0x3b82a733	0.003987217
49	0xbbb1764c	-0.0054157134
50	0xbd48adbd	-0.048993815
51	0x3cb5b02a	0.022178728
52	0x3d5ee5e3	0.054418456
53	0x3d058b0d	0.032603312
54	0x3da09920	0.07841706
55	0xbca94bc2	-0.020666007
56	0x3da8ed4e	0.08248387
57	0x3d99cc02	0.075096145
58	0xbc714861	-0.014726729
59	0x3c7b4212	0.015335577
60	0xbcae5379	-0.021280037
61	0xbb7906ad	-0.0037998364
62	0xbd88c2a6	-0.06677751
63	0x3d9c5a9e	0.07634471

2.running_var f4 [64]
0	0x43632db6	227.17856
1	0x43607adb	224.4799
2	0x43be0baa	380.09113
3	0x43ae68b4	348.818
4	0x43bcc18d	377.51212
5	0x43dd103c	442.12683
6	0x42fd5d5a	126.68233
7	0x439ae34e	309.77582
8	0x436edbde	238.85886
9	0x43d81e1a	432.23517
10	0x433f84b1	191.51833
11	0x433365be	179.39743
12	0x43f2955d	485.1669
13	0x43bc5120	376.6338
14	0x43459424	197.57867
15	0x43c28d37	389.10324
16	0x43552ab0	213.16675
17	0x43bc9baf	377.21628
18	0x43900af6	288.08563
19	0x431b2979	155.162
20	0x435d8fed	221.56221
21	0x439dcf9b	315.62192
22	0x426ade5c	58.717148
23	0x43c49f3b	393.244
24	0x43cab4f8	405.41382
25	0x43eada9c	469.7079
26	0x435f6140	223.37988
27	0x43cfe3b1	415.77884
28	0x4344330e	196.19943
29	0x42869589	67.29206
30	0x4362db73	226.85722
31	0x43d0079b	416.05942
32	0x439548f5	298.56998
33	0x434a4a32	202.28983
34	0x43a11b23	322.212
35	0x42b784a2	91.75905
36	0x42adb036	86.84416
37	0x43370a84	183.04108
38	0x43c38d78	391.10522
39	0x439f71fe	318.89056
40	0x4363761f	227.46141
41	0x430c8a92	140.54129
42	0x438d0f5d	282.12003
43	0x43d3a4ef	423.28854
44	0x4394ddd2	297.73297
45	0x43cf2bfc	414.34363
46	0x4305822e	133.50851
47	0x4386be18	269.4851
48	0x430b9166	139.56796
49	0x42fe4717	127.13885
50	0x432f8094	175.50226
51	0x4368cd73	232.80254
52	0x4356870b	214.52751
53	0x42e7d3d1	115.913704
54	0x4403d7bc	527.37085
55	0x42f7fed4	123.99771
56	0x4420cad7	643.1694
57	0x43cd3ad9	410.45975
58	0x43895c85	274.7228
59	0x43440bf2	196.04666
60	0x440cbc14	562.9387
61	0x42918577	72.76067
62	0x440b3b28	556.9243
63	0x43d8181a	432.1883

5.weight f4 [64, 64, 3]
0	0x3e3d25d4	0.18471462
1	0x3c0706cd	0.0082413675
2	0x3d88d8e2	0.06681992
3	0x3d484f61	0.048903827
4	0x3ce4a74b	0.027911803
5	0x3d5d6a79	0.05405662
6	0xbd989d55	-0.07451884
7	0xbe7f263c	-0.24916929
8	0xbe64e767	-0.22353898
9	0xbea26ed5	-0.31725183
10	0xbe33d570	-0.17561889
11	0xbda63c32	-0.0811695
12	0xbc10476b	-0.00880609
13	0x3d09a54a	0.033604898
14	0xbca23f3a	-0.01980554
15	0x3d127104	0.03575231
16	0x3df717a7	0.12065058
17	0x3e335dfd	0.17516322
18	0x3db9a7f5	0.090652384
19	0x3e55633c	0.20838636
20	0xbd8bcda4	-0.06826332
21	0x3e171d0b	0.14757173
22	0xbd9a5542	-0.07535793
23	0xbd149537	-0.036275115
24	0xbdfd7f09	-0.12377746
25	0xbdaf67b4	-0.08564702
26	0xbe2db37e	-0.16963002
27	0xbcf2e10b	-0.029648324
28	0x3c9f0237	0.019410236
29	0x3dc896a5	0.09794358
30	0xbe5c9f70	-0.21545196
31	0xbd206c67	-0.03916588
32	0xbe55ac08	-0.20866406
33	0xbe565834	-0.20932084
34	0x3e29063d	0.16506286
35	0x3eb02920	0.34406376
36	0xbdf421f6	-0.1192054
37	0xbd03960b	-0.032125514
38	0x3daa17e1	0.08305336
39	0xbd99be05	-0.075069465
40	0xbddd67ea	-0.10810836
41	0xbe590e6d	-0.21196909
42	0x3e902f0f	0.28160903
43	0xbc5182b1	-0.012787507
44	0x3bae4cbd	0.0053192065
45	0xbdd33d98	-0.103144825
46	0xbc10552f	-0.008809372
47	0x3e0c9e03	0.13732152
48	0x3e403372	0.18769625
49	0xbd97e888	-0.07417399
50	0xbe08bc72	-0.13353136
51	0xbdd88915	-0.10573021
52	0xbbae71f3	-0.0053236424
53	0x3cecd0be	0.02890813
54	0xbd73578d	-0.059409667
55	0xbdde4fcc	-0.10855064
56	0xbe369fc4	-0.17834383
57	0x3e717aeb	0.23582046
58	0xbe1d2280	-0.15345192
59	0xbda3cd79	-0.07998175
60	0xbdd1c2e9	-0.10242254
61	0x3d6c1f60	0.05764711
62	0x3df9eb73	0.122031115
63	0x3e8e99a1	0.27851585
64	0xbd21ccf4	-0.0395021
65	0xbdc7b0de	-0.097505316
66	0x3e124c58	0.14286935
67	0x3def4383	0.11682799
68	0x3c632388	0.013863452
69	0xbd1567f5	-0.036476094
70	0xbd14a29d	-0.036287893
71	0xbdf001f9	-0.11719126
72	0xbcab451d	-0.02090698
73	0x3dd38c5b	0.10329505
74	0x3e3b2050	0.18274045
75	0xbda4f45e	-0.08054422
76	0xbda8200e	-0.08209239
77	0xbc1c6dd0	-0.009547666
78	0x3e079a7d	0.13242526
79	0xbe191b84	-0.14951903
80	0x3d9676c0	0.073468685
81	0xbc3598f2	-0.011083828
82	0x3d313a8d	0.04326873
83	0xbd037602	-0.032094963
84	0xbdb8ed27	-0.09029608
85	0xbe3d07a3	-0.18459944
86	0xbdf4f9b4	-0.119616896
87	0x3e6d4e60	0.23174429
88	0x3e147ba8	0.14500296
89	0x3dc216f2	0.09477033
90	0xbd56368c	-0.052298114
91	0xbe78c0af	-0.24292253
92	0xbe6ad22e	-0.2293174
93	0xbeaaf3bb	-0.33389077
94	0xbe7ade11	-0.24498774
95	0xbe34c91d	-0.17654844
96	0xbd90b064	-0.07064894
97	0xbd9bc12d	-0.07605205
98	0xbe028121	-0.12744571
99	0xbcee17f7	-0.029064162
100	0x3dbda261	0.09259487
101	0x3e521b43	0.20518212
102	0xbe76fdc0	-0.24120235
103	0xbe25ccf3	-0.16191463
104	0xbe186aef	-0.14884542
105	0x3d4a8841	0.049446348
106	0x3db769b3	0.089557074
107	0xbd442d8e	-0.047895007
108	0x3dfddfaf	0.1239618
109	0x3ea5be51	0.32371762
110	0x3d49085d	0.04908024
111	0x3d56e3b9	0.052463267
112	0xbdc06f98	-0.09396285
113	0x3e336c76	0.17521843
114	0xbebfbab6	-0.37447137
115	0xbe06a5d8	-0.13149202
116	0xbea6ff90	-0.32616854
117	0x3d493735	0.049124915
118	0x3d066a32	0.03281612
119	0xbc8b0ede	-0.016974863
120	0x3dce16d5	0.100629486
121	0xbd03a92e	-0.032143764
122	0x3e811ed5	0.25218835
123	0x3e0d8d04	0.13823324
124	0xbd4ede49	-0.050504956
125	0x3d83ca09	0.064350195
126	0x3d10c1b9	0.035341
127	0xbcf4d42b	-0.029886326
128	0x3d92149d	0.07132838
129	0xbebbd148	-0.36683106
130	0xbe56882f	-0.20950387
131	0xbe763540	-0.24043751
132	0xbe832fa4	-0.25622284
133	0xbe865bcb	-0.26241907
134	0xbe2ab592	-0.16670826
135	0xbd9d7e62	-0.07690121
136	0x3d30efb7	0.04319736
137	0x3ce264e5	0.027636
138	0x3e22a534	0.15883332
139	0xbdf7f7d6	-0.12107818
140	0x3e0ca5ab	0.13735072
141	0xbdd3740b	-0.10324868
142	0x3e0c54dc	0.13704246
143	0xbdf35fae	-0.11883484
144	0xbe6e0ab8	-0.23246276
145	0xbe73a524	-0.23793465
146	0xbde966ef	-0.11396586
147	0x3d34aad6	0.044108234
148	0xbde92e04	-0.1138573
149	0xbda24518	-0.07923335
150	0xbdcd02f3	-0.10010328
151	0x3b995c38	0.004680183
152	0x3cd941cc	0.026520632
153	0xbe135a6f	-0.14389966
154	0xbd5a643d	-0.05331825
155	0x3c0c43db	0.0085611
156	0xbdde9758	-0.1086871
157	0xbd59733d	-0.053088415
158	0xbcd721b0	-0.02626118
159	0xbbfa731c	-0.0076431166
160	0xbdb525ea	-0.08845122
161	0x3e0c4a18	0.1370014
162	0xbd9ed552	-0.07755531
163	0x3d1223a3	0.035678517
164	0x3c1638da	0.009168828
165	0xbcafc1e3	-0.021454757
166	0x3a2d49ac	0.0006610404
167	0xbcb67aa9	-0.022275286
168	0xbc6254ae	-0.0138141345
169	0xbcf3b8cc	-0.029751204
170	0x3d01c0f7	0.031678166
171	0xbdb73a85	-0.089467086
172	0x3d27e96b	0.04099409
173	0xbe577469	-0.210405
174	0xbe37e716	-0.17959246
175	0xbe02c7cf	-0.12771533
176	0xbe43bcc7	-0.19114982
177	0xbe261712	-0.16219738
178	0xbe1f0ace	-0.15531465
179	0x3c2eaf63	0.010661933
180	0xbf02d042	-0.51099026
181	0xbe7143a2	-0.23560956
182	0xbeb85b95	-0.36007372
183	0x3ed30709	0.41216305
184	0xbcaa2dfe	-0.020773884
185	0x3dfc3afd	0.123159386
186	0x391d1eff	0.00014984234
187	0xbd8a898b	-0.067645155
188	0xbdf84b7b	-0.12123772
189	0xbd890a8c	-0.06691465
190	0xbb4b6e49	-0.0031041077
191	0x3c584367	0.013199664
192	0xbe78d9d8	-0.24301851
193	0xbe454b49	-0.19267
194	0xbc80649e	-0.015672978
195	0xbdc54afa	-0.09633441
196	0xbe16cc07	-0.14726268
197	0xbdcb01ee	-0.099124774
198	0xbc8846ed	-0.016635383
199	0x3e20955d	0.15681978
200	0xbde2b807	-0.11070257
201	0xbcf311ec	-0.029671632
202	0x3e15dc6c	0.14634866
203	0x3d9ebee8	0.07751256
204	0xbea6636d	-0.3249773
205	0xbe74cc7d	-0.23906131
206	0xbee81df7	-0.4533536
207	0xbeccd45a	-0.4000576
208	0xbe58d1c7	-0.21173774
209	0xbe30e426	-0.17274532
210	0x3db07954	0.086168915
211	0x3df3080b	0.118667684
212	0xbbf6c324	-0.007530587
213	0x3e3c3bde	0.18382213
214	0x3e0d900b	0.1382448
215	0x3d638ae8	0.055552393
216	0xbdc7c375	-0.09754077
217	0x3dfccc1d	0.12343619
218	0x3d61af16	0.055098616
219	0xbdf83f34	-0.1212143
220	0xbe3c3d3f	-0.18382739
221	0xbec2e384	-0.38064206
222	0xbc67a871	-0.014139281
223	0x3cb86edf	0.022513805
224	0x3e212d09	0.15739836
225	0xbdd60195	-0.104495205
226	0xbe1ba63e	-0.15200135
227	0xbe12ab82	-0.14323238
228	0xbe4beb14	-0.19913894
229	0xbe0cfeb0	-0.1376903
230	0x3c8af834	0.016964056
231	0x3da1c6e5	0.07899264
232	0x3dcd7f00	0.10033989
233	0x3e8677a5	0.26263157
234	0xbdfa46ea	-0.12220557
235	0xbe2982a6	-0.16553745
236	0xbced6c9d	-0.028982455
237	0xbe0c3c3c	-0.13694853
238	0xbe817533	-0.25284728
239	0xbeba1888	-0.3634684
240	0x3e159a8c	0.14609736
241	0x3ded1017	0.115753345
242	0x3e86c8e3	0.2632514
243	0xbe74ea99	-0.23917617
244	0xbe1d6006	-0.15368661
245	0x3d1c1654	0.03810723
246	0x3dd0041c	0.10157034
247	0x3c931b3c	0.017957322
248	0x3e0270f2	0.12738398
249	0x3e072ae7	0.1319996
250	0x3d2f9264	0.04286422
251	0x3cb602da	0.022218157
252	0xbe0983b8	-0.13429153
253	0xbe6d375f	-0.23165654
254	0xbdedeef4	-0.11617842
255	0xbe109e97	-0.14122997

6.weight f4 [64]
0	0x3f76ccc3	0.9640619
1	0x3f5cf62b	0.8631312
2	0x3f9d2df7	1.2279652
3	0x3f4a360a	0.7898871
4	0x3f59acda	0.85029376
5	0x3f824b26	1.0179183
6	0x3f4e82d6	0.8066839
7	0x3f7b504b	0.9816939
8	0x3f9f6105	1.2451483
9	0x3f701441	0.93780905
10	0x3f776eb1	0.96653277
11	0x3f6ea270	0.9321661
12	0x3f542d8a	0.8288199
13	0x3f7feeba	0.9997364
14	0x3f5c5d5d	0.8607996
15	0x3f6a5e13	0.91549796
16	0x3fb29b16	1.3953578
17	0x3f5b7102	0.8571931
18	0x3f577207	0.84158367
19	0x3f81eb66	1.0149963
20	0x3f8c254d	1.0948883
21	0x3f5dad19	0.8659225
22	0x3f826cff	1.0189513
23	0x3fb594be	1.4186018
24	0x3f826f61	1.019024
25	0x3f868d0b	1.0511793
26	0x3f46ad3a	0.7760807
27	0x3f668816	0.900514
28	0x3f4a4bab	0.7902171
29	0x3f7f2eb3	0.9968063
30	0x3f95c0a2	1.1699412
31	0x3f84abf7	1.036498
32	0x3f7db780	0.99108124
33	0x3f9736a2	1.1813548
34	0x3f7db0c4	0.9909785
35	0x3f7fe6ae	0.99961364
36	0x3f5d471d	0.86436635
37	0x3f6b1c86	0.918404
38	0x3f7477d8	0.9549537
39	0x3f6c2205	0.9223941
40	0x3fb3dd16	1.4051845
41	0x3fabb41b	1.3414339
42	0x3f7a5333	0.977832
43	0x3f6ca230	0.9243498
44	0x3f6c130c	0.92216563
45	0x3f6d75cc	0.9275787
46	0x3f731384	0.94951653
47	0x3f4247ce	0.75890815
48	0x3f83bf71	1.0292798
49	0x3f8555db	1.0416826
50	0x3f4be338	0.79643583
51	0x3f9b3880	1.2126617
52	0x3f731b30	0.9496336
53	0x3f9f6d52	1.2455237
54	0x3f3b3003	0.73120135
55	0x3f8146e8	1.0099764
56	0x3f597284	0.8494036
57	0x3f753d2c	0.95796466
58	0x3f58bab5	0.8465989
59	0x3f916031	1.135748
60	0x3f3c8473	0.736396
61	0x3f7dcba4	0.99138856
62	0x3f52a521	0.82283217
63	0x3f903a33	1.1267761

6.bias f4 [64]
0	0xbe8ff981	-0.28120044
1	0xbe92ed9d	-0.2869691
2	0xbee52ec7	-0.4476225
3	0xbe865114	-0.26233733
4	0xbf040301	-0.51567084
5	0xbe115142	-0.14191154
6	0xbe9d7864	-0.30755913
7	0xbea8cb32	-0.32967526
8	0xbebaef29	-0.3651059
9	0xbe786317	-0.2425655
10	0xbe8f360c	-0.27970922
11	0xbeda460b	-0.42631564
12	0xbe060f6c	-0.1309182
13	0xbf04a02b	-0.51806897
14	0xbe6ee866	-0.2333084
15	0xbe5035cf	-0.20333026
16	0x3f6c277c	0.9224775
17	0x3c520cc4	0.012820426
18	0xbdc7b668	-0.09751588
19	0xbe7de0d6	-0.247928
20	0xbeee56c1	-0.46550563
21	0xbed48cb4	-0.41513598
22	0xbe6cc37a	-0.23121443
23	0x3f2e95e0	0.6819744
24	0xbea7119c	-0.32630622
25	0xbeaf2524	-0.34208024
26	0xbea869d4	-0.3289324
27	0xbe18681a	-0.14883462
28	0xbeab2fbf	-0.33434865
29	0xbe75aad1	-0.23990943
30	0xbf0c42a2	-0.54789174
31	0xbea06087	-0.31323645
32	0xbdd3ed58	-0.10348004
33	0xbe3bd2e8	-0.18342173
34	0xbea8c6e5	-0.32964244
35	0xbd539c11	-0.05166251
36	0xbeb8577e	-0.3600425
37	0xbea2ee0f	-0.3182225
38	0xbe544bb1	-0.20731999
39	0xbe93f885	-0.28900543
40	0xbf051c5e	-0.5199641
41	0xbf6e892e	-0.9317807
42	0xbe13e4b8	-0.14442718
43	0xbe5bae63	-0.21453242
44	0xbe7c5470	-0.24641585
45	0xbe89e44a	-0.26931983
46	0xbeeaf711	-0.45891622
47	0xbe8d62fe	-0.27614588
48	0x3e12c766	0.14333877
49	0xbf08b6a1	-0.5340367
50	0xbe81d235	-0.25355688
51	0xbeea7ec8	-0.4579985
52	0xbea7c141	-0.3276463
53	0x3eb2fab2	0.3495689
54	0xbe88adb4	-0.26695025
55	0xbe8d2d7e	-0.2757377
56	0xbef97488	-0.4872172
57	0xbdfef01e	-0.124481425
58	0xbeb76798	-0.35821223
59	0xbe542b2c	-0.20719594
60	0x3cfc355e	0.030787166
61	0xbee60177	-0.44922993
62	0xbf01950d	-0.5061806
63	0xbead3788	-0.3383143

6.running_mean f4 [64]
0	0xc061b611	-3.5267375
1	0xc02ef2bc	-2.7335653
2	0x40b1ccc1	5.5562444
3	0xc0281a9d	-2.6266243
4	0xc031cc23	-2.7780845
5	0x411782d3	9.4694395
6	0xc0116f48	-2.272417
7	0x410186e7	8.095435
8	0xc1038bcc	-8.22163
9	0xbfb9abad	-1.4505516
10	0x40e710af	7.2207866
11	0xc07ab1ac	-3.9170942
12	0x40998e66	4.7986326
13	0x3f6de246	0.9292339
14	0x3f99d3a8	1.2017717
15	0x40b468fc	5.6378155
16	0xc13442dc	-11.266323
17	0x410a02ed	8.625714
18	0xc0481119	-3.1260436
19	0xc0832cb1	-4.0992055
20	0xc03bb47c	-2.932891
21	0xc03422d8	-2.8146267
22	0x40db8544	6.860018
23	0xc15d0c75	-13.815541
24	0xc042014a	-3.0313287
25	0x407e3ec4	3.972581
26	0x40a38606	5.1101103
27	0xbfc09457	-1.504527
28	0xc09d62df	-4.918319
29	0xc0822a31	-4.0676503
30	0xc05b1134	-3.422925
31	0x40ede568	7.4342537
32	0xbfbd4b38	-1.478858
33	0xc09a0ca0	-4.814041
34	0x40f61c85	7.6909814
35	0x411494e7	9.286353
36	0xc028c5fc	-2.637084
37	0xc077d4f5	-3.8723729
38	0xc032d62d	-2.7943223
39	0xc02b5426	-2.677011
40	0x3f7cf418	0.9880996
41	0x3f85a691	1.0441457
42	0xbf44cca4	-0.76874757
43	0xc0737951	-3.8042796
44	0x40e9c906	7.305789
45	0xc0aae3c5	-5.340304
46	0xc0818686	-4.0476713
47	0x4003b456	2.0578818
48	0x41416eba	12.089533
49	0xc0d87cff	-6.7652583
50	0xbf81a3e6	-1.0128143
51	0xc0eea093	-7.4571013
52	0xc02f932e	-2.7433581
53	0xc12d99fd	-10.850095
54	0xc06b329c	-3.674964
55	0xc08b0b76	-4.345149
56	0xc03b1ab4	-2.9235048
57	0xc08e29e4	-4.4426136
58	0xbf64d0e1	-0.89381224
59	0xc0ea3966	-7.3195066
60	0xbfa3ad6c	-1.2787299
61	0x40979349	4.736729
62	0xc0972e2b	-4.7243857
63	0xc0898217	-4.29713

6.running_var f4 [64]
0	0x41fed3af	31.853361
1	0x422b8eaf	42.88934
2	0x419443c3	18.533087
3	0x420c7aa6	35.119774
4	0x415fa58c	13.977917
5	0x41d6ed87	26.86598
6	0x41f78ce0	30.943787
7	0x42015c81	32.340336
8	0x41e1a46b	28.205282
9	0x41e977da	29.183521
10	0x41c126d7	24.143965
11	0x41ae9f01	21.827639
12	0x413c991b	11.787379
13	0x40f30dca	7.595433
14	0x42183d38	38.059784
15	0x41939b80	18.450928
16	0x41a7a010	20.953156
17	0x41a0b8de	20.090267
18	0x42186ff2	38.10932
19	0x41771eca	15.445017
20	0x419e5400	19.791016
21	0x40d5b7bd	6.678679
22	0x41b9a163	23.203802
23	0x41d7b569	26.96358
24	0x41c08c0c	24.068382
25	0x4155cdee	13.362776
26	0x41bded91	23.741
27	0x4220d004	40.20314
28	0x41e5e93e	28.738888
29	0x4227532b	41.83122
30	0x417917ec	15.56834
31	0x41b06866	22.050976
32	0x41d9a548	27.205704
33	0x42564709	53.56937
34	0x41c9b663	25.214056
35	0x41c6bccb	24.842184
36	0x41d46051	26.54703
37	0x425a2d14	54.54402
38	0x422a550c	42.583054
39	0x421b3aa7	38.807278
40	0x419696b1	18.82358
41	0x41870d0f	16.881376
42	0x42400bb3	48.011425
43	0x4205d87a	33.461403
44	0x41b1e5e9	22.23726
45	0x42117841	36.367435
46	0x41dc8ba7	27.56819
47	0x41bdd7ee	23.730434
48	0x41abf83e	21.496212
49	0x41b847a5	23.034983
50	0x42016279	32.346165
51	0x41e2c0d5	28.344156
52	0x41e82889	29.019793
53	0x41d3ded8	26.48381
54	0x42121bc0	36.5271
55	0x424fab46	51.91726
56	0x418bb463	17.46308
57	0x41db0ff7	27.382795
58	0x41e840ce	29.031643
59	0x41f6e263	30.86054
60	0x41fa2587	31.268324
61	0x41d09e27	26.077223
62	0x41ce7e0e	25.81155
63	0x425d3c18	55.308685

9.weight f4 [64, 64, 3]
0	0x3d418119	0.047242258
1	0xbdafb613	-0.0857965
2	0x3e47fce7	0.19530068
3	0xbca0802e	-0.01959237
4	0x3db132ce	0.08652268
5	0x3d1c5124	0.03816332
6	0x3e743743	0.23849206
7	0x3e92163c	0.28532588
8	0xbe2949f6	-0.1653212
9	0xbe7a85ac	-0.24465054
10	0x3df467af	0.119338386
11	0x3dbdc776	0.0926656
12	0xbbfdf489	-0.007750098
13	0xbdf18c2a	-0.11794312
14	0xbe0ef959	-0.13962306
15	0x3dab40dc	0.0836198
16	0xbe1edb3d	-0.1551332
17	0xbc9ae847	-0.018909587
18	0xbe3c433c	-0.18385023
19	0x3c39a54f	0.011330917
20	0x3e0bcb29	0.13651718
21	0x3e5d877e	0.21633717
22	0xbe737cb1	-0.23778035
23	0xbea7c17f	-0.32764813
24	0x3e62c3ad	0.22144957
25	0xbd85fec0	-0.0654273
26	0xbcb2c11a	-0.021820594
27	0xbd17663a	-0.036962725
28	0xbcaf7fb1	-0.021423193
29	0x3c591c46	0.01325137
30	0x3c4dbebd	0.012557683
31	0x3c9da294	0.019242562
32	0xbe421255	-0.18952306
33	0xbdcbeb7c	-0.099570245
34	0x3d61a04b	0.055084508
35	0x3ea21b0c	0.3166126
36	0x3dcaf395	0.09909741
37	0xbe8ef038	-0.27917647
38	0xbed033c8	-0.40664506
39	0x3da757a2	0.081710115
40	0x3dd7a43f	0.10529374
41	0xbed09ac3	-0.40743074
42	0xbdb1e21a	-0.086857036
43	0x3dc32af6	0.095296785
44	0x3e53690d	0.20645542
45	0xbe4c33e3	-0.19941668
46	0x3e69cfc7	0.22833167
47	0x3e6dbdb4	0.23216897
48	0x3d9a8a64	0.07545927
49	0xbeaba7f3	-0.33526573
50	0xbf4e3a4f	-0.8055772
51	0x3b046217	0.0020200068
52	0x3d00f746	0.03148582
53	0x3d1d28d5	0.03836902
54	0x3c17c09e	0.009262232
55	0x3d17030e	0.036868148
56	0x3e76398c	0.2404539
57	0xbe52d89b	-0.20590441
58	0x3bbdd62a	0.0057933526
59	0xbb1a23f2	-0.002351996
60	0xbf0a59e3	-0.54043406
61	0x3e1f69e4	0.15567738
62	0xbd98b258	-0.07455891
63	0xbd8c7c1a	-0.06859608
64	0x3e6be265	0.23035581
65	0xbe81482f	-0.25250384
66	0x3e364cb8	0.17802703
67	0xbdae60ac	-0.085145324
68	0x3e18c857	0.14920174
69	0xbd07f856	-0.033195816
70	0xbe827a9e	-0.25484174
71	0xbf71423a	-0.9424168
72	0xbd8d3178	-0.06894201
73	0x3df0451f	0.11731934
74	0xbded7a1c	-0.11595556
75	0x3ea2d6a7	0.31804392
76	0xbe5a3bb9	-0.21311845
77	0xbaa113e7	-0.0012289257
78	0xbd0c5daf	-0.03426903
79	0x3e86046a	0.26175243
80	0x3e1395a6	0.14412555
81	0x3b85c28f	0.004082031
82	0x3d9a5721	0.0753615
83	0xbdf110c8	-0.11770779
84	0xbe739ca3	-0.23790221
85	0xbda2b99f	-0.07945561
86	0x3d5830f1	0.05278105
87	0xbe56e719	-0.20986594
88	0xbde13ee6	-0.10998325
89	0x3dac4461	0.0841148
90	0x3e984584	0.29740536
91	0x3d1aea34	0.03782101
92	0xbe22c457	-0.1589521
93	0xbe6a8f6c	-0.22906274
94	0x3ec0d5ff	0.37663266
95	0x3de8296b	0.11336025
96	0x3dba399e	0.09093021
97	0x3c50ba6f	0.012739762
98	0x3d9940eb	0.07483085
99	0xbde17e78	-0.1101045
100	0xbbe8c3c9	-0.0071034175
101	0x3e0c8edd	0.13726373
102	0x3e5fbe2d	0.2184989
103	0xbe13ade4	-0.14421803
104	0xbe1d82d2	-0.15381935
105	0xbe510017	-0.2041019
106	0x3d9b6c9d	0.07589076
107	0x3d20c876	0.039253674
108	0xbe0b3ca0	-0.13597345
109	0x3e1ed2f5	0.15510161
110	0x3e791452	0.24324158
111	0xbe9c037c	-0.30471408
112	0x3e3dc18f	0.18530868
113	0x3e7b6f3f	0.24554156
114	0xbd8d88fc	-0.06910893
115	0xbe713b77	-0.2355784
116	0x3d61891b	0.055062395
117	0xbe9339f0	-0.2875514
118	0x3e5e70d5	0.2172273
119	0x3e48331f	0.19550751
120	0xbd5e0e83	-0.05421306
121	0x3efe2e59	0.49644735
122	0xbe8b81cf	-0.27247474
123	0xbece5094	-0.4029585
124	0xbd6f9c61	-0.058498744
125	0xbe0fbd87	-0.14037143
126	0xbe7e34ce	-0.24824831
127	0x3db9fe4b	0.09081706
128	0x3e467e27	0.19384061
129	0xbdfd4f90	-0.12368691
130	0x3df33345	0.11875013
131	0x3d0e963b	0.03481124
132	0xbe0bce46	-0.13652906
133	0x3e826955	0.25470987
134	0x3e070909	0.1318704
135	0xbda74dab	-0.08169111
136	0xbdbc041d	-0.09180472
137	0x3e6fe83a	0.23428431
138	0xbdd17662	-0.10227658
139	0xbdac8b76	-0.084250376
140	0x3c99a3e2	0.018754903
141	0xbe5e5e65	-0.21715696
142	0x3ea3132d	0.31850567
143	0x3e5be455	0.2147382
144	0x3e115ca1	0.14195491
145	0xbeafc491	-0.34329656
146	0xbec7daad	-0.39034024
147	0x3ddac747	0.106825404
148	0x3e035471	0.1282518
149	0xbe763aaa	-0.24045816
150	0xbdbdc3d8	-0.0926587
151	0x3e59eb59	0.21281184
152	0x3e74f50c	0.23921603
153	0x3e10d510	0.14143777
154	0xbe802b7a	-0.2503317
155	0xbd4e1bd6	-0.050319515
156	0xbe4bd404	-0.19905096
157	0x3ca6c1b6	0.02035604
158	0x3caf616b	0.021408757
159	0xbe48004a	-0.1953136
160	0xbda12e56	-0.07870166
161	0xbee61f7b	-0.44945893
162	0xbd1dcec9	-0.038527284
163	0x3e53735f	0.2064948
164	0x3de3ee83	0.11129477
165	0xbe44e086	-0.19226274
166	0x3be108a6	0.006867486
167	0x3d5931e8	0.05302611
168	0xbe81b008	-0.25329614
169	0x3dc361b7	0.09540122
170	0x3e59a270	0.21253371
171	0xbdf461c2	-0.11932708
172	0x3e24ea83	0.16105084
173	0xbd9958a8	-0.07487613
174	0xbe247734	-0.16061097
175	0x3e9888c5	0.29791847
176	0x3de4eba1	0.11177755
177	0x3d3c6ab3	0.046000194
178	0xbea0c07f	-0.31396863
179	0x3e898929	0.26862457
180	0x3d874984	0.06605819
181	0x3d414013	0.047180247
182	0xbe2c60af	-0.16833757
183	0x3dd82bb3	0.1055521
184	0xbe1d369b	-0.15352862
185	0x3e19052c	0.14943379
186	0xbd0ff231	-0.03514308
187	0xbd4718b6	-0.04860755
188	0x3e0b46bf	0.13601206
189	0xbc182a88	-0.009287484
190	0xbdd0343a	-0.101662114
191	0xbd8d152f	-0.06888806
192	0xbe298e25	-0.1655813
193	0x3e424276	0.18970665
194	0xbc47ba0f	-0.012190356
195	0xbebe73d0	-0.37197733
196	0x3dc89e15	0.09795777
197	0xbdbebd67	-0.093134694
198	0x3f03b28b	0.5144431
199	0x3c965a69	0.018353658
200	0xbe002291	-0.12513186
201	0xbe944c46	-0.28964442
202	0x3db64a54	0.08900896
203	0x3bb7e842	0.005612404
204	0x3d2245a3	0.039617192
205	0x3da61e27	0.0811122
206	0x3dc637a7	0.096785836
207	0x3d6fd7f2	0.05855555
208	0xbd87bbff	-0.06627654
209	0x3bd21ffe	0.006412505
210	0xbead8e8d	-0.3389782
211	0xbdba2fee	-0.09091173
212	0xbc2637e8	-0.010145165
213	0x3df40c61	0.119164236
214	0xbe5db01d	-0.21649213
215	0x3dcbcf0d	0.09951601
216	0x3c3f3ec4	0.011672679
217	0x3da40af0	0.08009899
218	0x3eed26d5	0.4631869
219	0xbeb95a75	-0.36201826
220	0xbcd0f2d1	-0.025506409
221	0x3d34b835	0.044120986
222	0xbe9e7070	-0.30945158
223	0xbe23c54f	-0.15993236
224	0xbca92ac3	-0.020650273
225	0x3d15c383	0.036563408
226	0x3e115cdc	0.1419558
227	0xbda15721	-0.07877947
228	0x3da5e89b	0.081010066
229	0xbd53bca2	-0.051693566
230	0xbd64d1bb	-0.055864077
231	0x3d9df217	0.077121906
232	0xbdea6ccb	-0.11446532
233	0x3e4a6b62	0.19767526
234	0xbdfa58eb	-0.12223991
235	0x3d33d49d	0.043903936
236	0x3c34ae5f	0.011027901
237	0x3c2cfeae	0.010558767
238	0x3e7fcea3	0.2498117
239	0xbd834079	-0.064087816
240	0x3cdf56ca	0.027263064
241	0xbe0516a6	-0.12996921
242	0xbe132b37	-0.14371954
243	0xbe2d0f89	-0.16900457
244	0x3db72947	0.0894342
245	0x3cc22a0c	0.02370169
246	0xbef8bc65	-0.48581234
247	0x3dfd11b5	0.12356893
248	0x3c93c532	0.018038366
249	0xbe13d35c	-0.14436096
250	0xbc5dab34	-0.013529588
251	0x3dda88d0	0.10670626
252	0xbe3b6417	-0.182999
253	0x3da1b68d	0.07896147
254	0xbdaab287	-0.08334833
255	0xbe0f9651	-0.14022185

10.weight f4 [64]
0	0x3f67ca97	0.905435
1	0x3f31abc3	0.6940271
2	0x3f6ea8d4	0.9322636
3	0x3f571877	0.84021705
4	0x3f891e29	1.0712329
5	0x3f92c1c2	1.146538
6	0x3facc8b2	1.3498747
7	0x3fd50c75	1.6644427
8	0x3f5b02a8	0.8555093
9	0x3f38f6ab	0.72251385
10	0x3fab746a	1.3394902
11	0x3fa20372	1.2657301
12	0x3f666ac7	0.9000668
13	0x3f74b196	0.95583475
14	0x3f7339ad	0.9500988
15	0x3f8003ff	1.000122
16	0x3f73de30	0.95260906
17	0x3f7f0073	0.9961006
18	0x3f5b8b26	0.857592
19	0x3f74f6b3	0.95688933
20	0x3f789968	0.9710908
21	0x3f5d9282	0.8655168
22	0x3f6adfe6	0.9174789
23	0x3f3505de	0.7071208
24	0x3f709a35	0.939853
25	0x3f408667	0.7520508
26	0x3f44f8a8	0.7694192
27	0x3f3b6c4f	0.7321214
28	0x3f6ad34e	0.91728675
29	0x3f5bbc59	0.8583427
30	0x3f8987c4	1.0744557
31	0x3f73d430	0.9524565
32	0x3f681d57	0.9066977
33	0x3f567447	0.83771175
34	0x3fa68e70	1.3012218
35	0x3f6b2d90	0.918664
36	0x3f73e620	0.9527302
37	0x3f8dddb8	1.1083288
38	0x3f93c5a5	1.1544691
39	0x3f7b6d2a	0.98213446
40	0x3f55a54e	0.8345536
41	0x3f808156	1.003947
42	0x3fa89189	1.3169414
43	0x3f42ae5e	0.76047313
44	0x3f58b81c	0.8465593
45	0x3f586fe1	0.84545714
46	0x3f72f4a3	0.94904536
47	0x3f41538f	0.75518125
48	0x3f6c9a6d	0.92423135
49	0x3f911059	1.1333114
50	0x3f67f321	0.9060536
51	0x3f41fb60	0.7577419
52	0x3f62ce1a	0.88595736
53	0x3f9508e9	1.1643344
54	0x3f77e184	0.96828485
55	0x3f5110a0	0.8166599
56	0x3f613855	0.8797658
57	0x3f632203	0.8872377
58	0x3f501f2b	0.8129756
59	0x3f68ac5b	0.90887994
60	0x3f659dca	0.8969389
61	0x3f5e8689	0.86924034
62	0x3f82e9ef	1.0227641
63	0x3f355b39	0.7084232

10.bias f4 [64]
0	0xbed4e212	-0.41578728
1	0xbee74274	-0.45167887
2	0xbe9b9c54	-0.30392706
3	0xbe432021	-0.19055225
4	0xbe647d9f	-0.22313546
5	0xbf2bb9c0	-0.67080307
6	0x3d867943	0.065660976
7	0xbf2a0a8a	-0.6642233
8	0xbea6372c	-0.32463968
9	0xbf00eb15	-0.50358707
10	0xbee07fbe	-0.4384746
11	0xbec6da94	-0.38838637
12	0xbe8fde75	-0.2809941
13	0xbf16a36d	-0.5884312
14	0xbe5f2535	-0.21791537
15	0xbf02bfd3	-0.5107395
16	0xbf12a3a1	-0.5728093
17	0xbed63bcd	-0.418425
18	0xbe4f29b1	-0.20230748
19	0xbecedcf0	-0.40402937
20	0xbf34e828	-0.7066674
21	0xbeeb5724	-0.4596492
22	0xbe9aae28	-0.30210996
23	0xbe713582	-0.23555568
24	0xbf0ac996	-0.54213846
25	0xbee9e379	-0.4568136
26	0xbf26a8eb	-0.651015
27	0xbe828312	-0.25490624
28	0xbf185f43	-0.5952036
29	0xbe85b4b9	-0.26114443
30	0xbf1caf61	-0.61205107
31	0xbec42fc9	-0.38317707
32	0xbe849183	-0.25892267
33	0xbedb50ef	-0.42835185
34	0xbd84bfb1	-0.06481875
35	0xbe597ac6	-0.2123824
36	0xbf06ab50	-0.5260515
37	0xbf0be8ec	-0.54652286
38	0xbf4635fa	-0.7742611
39	0xbef1bea7	-0.4721577
40	0xbe87366a	-0.26408702
41	0xbf0dd628	-0.554049
42	0x3d88cf8a	0.0668021
43	0xbeeb87cc	-0.46002042
44	0xbea8e100	-0.3298416
45	0xbf170b5e	-0.5900172
46	0xbeedf25a	-0.46473962
47	0xbf009af0	-0.50236416
48	0xbf427c81	-0.7597123
49	0xbea5aa9c	-0.32356727
50	0xbe0bc2c9	-0.13648523
51	0xbf164832	-0.5870391
52	0xbe1f151c	-0.15535396
53	0xbf4f4083	-0.8095781
54	0xbe3476d3	-0.17623453
55	0xbcf23643	-0.02956689
56	0xbe6bdb42	-0.23032859
57	0xbd47673d	-0.04868244
58	0xbea7a471	-0.32742646
59	0xbebcf7de	-0.36907858
60	0xbe858896	-0.2608077
61	0xbea8edd7	-0.32993957
62	0xbee09126	-0.4386074
63	0xbe87a514	-0.26493132

10.running_mean f4 [64]
0	0xc06a9c1a	-3.6657777
1	0xc0295184	-2.6456003
2	0x3f5ce62a	0.862887
3	0xc04c2e95	-3.1903431
4	0x3ee1fd69	0.4413865
5	0x3facedb3	1.351004
6	0xbfc471e7	-1.534726
7	0xc0df291e	-6.973769
8	0xbf9aef6a	-1.2104313
9	0xbf5d1519	-0.8636032
10	0x40919809	4.549809
11	0x3d3bfa9c	0.045893297
12	0x3fbac252	1.4590552
13	0xbf708a92	-0.9396144
14	0xbfde70e2	-1.7378199
15	0x3fe45539	1.7838508
16	0xbfc8faea	-1.5701573
17	0xbfeeca7d	-1.8655545
18	0xbe23e8c0	-0.16006756
19	0x3fa41a7b	1.2820581
20	0xc0514f8f	-3.2704809
21	0xc07eaba3	-3.9792259
22	0xbedebc73	-0.4350315
23	0x3ef3640e	0.47537273
24	0x3f27c6e0	0.65537834
25	0x3da3f19e	0.08005069
26	0xbf7947a1	-0.9737492
27	0xbf0a9215	-0.54129153
28	0xc03e8dda	-2.977408
29	0x3fcbd8e9	1.5925571
30	0xc046a2b6	-3.103681
31	0xbfe20013	-1.7656273
32	0xc02f706f	-2.7412374
33	0xbf51f8ba	-0.8202015
34	0xc049e44f	-3.1545599
35	0xbf06c91a	-0.52650607
36	0xbf92318a	-1.1421368
37	0xbf0fe64a	-0.5621077
38	0xc02b33d4	-2.6750383
39	0xbf154db5	-0.58321697
40	0xc089d98e	-4.307807
41	0x401877ec	2.3823195
42	0xc0dc9554	-6.8932285
43	0xbd6043c9	-0.054752145
44	0x405a96af	3.415447
45	0xc01a113f	-2.4073026
46	0xbd68d126	-0.056840084
47	0xbf06db6a	-0.5267855
48	0xc052c402	-3.2932134
49	0x3fa1e404	1.264771
50	0xbdbd1b92	-0.09233774
51	0xc030274c	-2.7523985
52	0x3f5764a9	0.8413797
53	0xbf1049d5	-0.5636266
54	0x3f9fd576	1.2487018
55	0xbee1dea6	-0.4411518
56	0xbf689276	-0.9084848
57	0x40200e6c	2.5008802
58	0xbdaec7c6	-0.085341975
59	0xbf1e8d30	-0.61934185
60	0xc02b98b7	-2.681196
61	0x3eda8c9d	0.42685404
62	0x4002b06c	2.042018
63	0xbf395490	-0.7239466

10.running_var f4 [64]
0	0x412b6e60	10.714447
1	0x40a917f8	5.284176
2	0x4129d03f	10.613341
3	0x417aa01b	15.664088
4	0x414f0809	12.939462
5	0x413b3608	11.700691
6	0x410676d2	8.404009
7	0x41b37c5d	22.435724
8	0x413be179	11.742547
9	0x40d34f3a	6.603421
10	0x41ca3573	25.276098
11	0x411426a5	9.259435
12	0x4102388f	8.138808
13	0x415c5051	13.7696085
14	0x417bf691	15.747697
15	0x416d0e8c	14.8160515
16	0x40e0a9a7	7.0207095
17	0x413a4870	11.642685
18	0x41824249	16.282366
19	0x41061ad3	8.381549
20	0x411d6f9a	9.839746
21	0x4179dd54	15.616535
22	0x4126023e	10.375547
23	0x41219819	10.099633
24	0x40ec462c	7.383566
25	0x40fd68ff	7.919067
26	0x409bf950	4.8741837
27	0x419ef547	19.869764
28	0x4125a09f	10.351714
29	0x41247a86	10.279913
30	0x41598dc0	13.597107
31	0x4114872d	9.283002
32	0x4161da4c	14.115795
33	0x415bd32d	13.739057
34	0x418bf8dd	17.496515
35	0x410a587d	8.646604
36	0x412686fa	10.407953
37	0x413b123f	11.691955
38	0x41033e94	8.202778
39	0x410e1a70	8.881454
40	0x4106e471	8.430772
41	0x418f5e24	17.920967
42	0x416c4478	14.766716
43	0x413807bd	11.501889
44	0x41a8ccf5	21.100077
45	0x4154fb3d	13.311337
46	0x4115eacd	9.369824
47	0x410d2450	8.821365
48	0x40b1b6ad	5.5535493
49	0x41fdc681	31.721926
50	0x414775cb	12.466258
51	0x4099d495	4.8072
52	0x4123f2dd	10.246793
53	0x4102eba9	8.182534
54	0x4128e7a2	10.556551
55	0x41003aa4	8.014317
56	0x40ea5ec2	7.324067
57	0x414d937d	12.848508
58	0x40f57e38	7.6716576
59	0x413b6ed4	11.714558
60	0x41146b17	9.276145
61	0x414a3e5c	12.640224
62	0x41a10795	20.128702
63	0x40e0cfc6	7.025363

13.weight f4 [64, 64, 3]
0	0x3e56c906	0.20975122
1	0xbee35d0a	-0.4440692
2	0xbe7257d1	-0.23666312
3	0x3e12846b	0.14308326
4	0x3d5f2a28	0.054483563
5	0xbea82b5c	-0.3284558
6	0xbe04d7c0	-0.12972927
7	0x3d6e1b4d	0.058131505
8	0x3e3a6953	0.1820424
9	0x3d8c87ae	0.06861816
10	0xbe3b02cb	-0.18262784
11	0xbf0ccb78	-0.5499797
12	0x3d0a2084	0.033722416
13	0xbe264b9d	-0.16239782
14	0xbe2ce958	-0.16885889
15	0xbdecc956	-0.11561839
16	0xbecabb4f	-0.3959603
17	0x3c9d10a8	0.019172981
18	0xbc584448	-0.013199873
19	0xbe0228ef	-0.12710927
20	0xbe7bf580	-0.2460537
21	0xbe1b374a	-0.1515781
22	0xbd3270da	-0.043564655
23	0x3e2344ae	0.15944168
24	0x3dd9c6d1	0.10633624
25	0xbe71820c	-0.23584765
26	0xbe420d71	-0.1895044
27	0x3e1e386c	0.1545121
28	0x3d0f0974	0.034921125
29	0x3c4a9f32	0.012367057
30	0x3ec46d02	0.38364416
31	0xbd801ede	-0.062558874
32	0xbec72a07	-0.38899252
33	0x3d25f876	0.040520154
34	0xbe4203d0	-0.18946767
35	0xbe632b18	-0.22184408
36	0x3e069a6b	0.13144843
37	0x3d892977	0.06697362
38	0x3d81d9b9	0.063403554
39	0xbd9fc0d9	-0.07800455
40	0xbcf51f0b	-0.029922029
41	0xbe8ec581	-0.2788506
42	0xbe455052	-0.19268921
43	0xbe530db2	-0.20610693
44	0x3d3b41c6	0.045717023
45	0x3dd88c25	0.105736054
46	0xbac1b0d8	-0.0014777435
47	0xbeb29752	-0.34881073
48	0x3ddd7499	0.10813255
49	0xbe59fc22	-0.21287587
50	0xbedfdf66	-0.43725127
51	0x3d68e531	0.0568592
52	0x3e46a52a	0.19398943
53	0x3dadcac6	0.084859416
54	0x3d60feff	0.054930683
55	0xbee8d9ad	-0.45478573
56	0xbefb6edc	-0.49108016
57	0xbe6726c0	-0.22573376
58	0xbd44bc55	-0.04803117
59	0xbedcc4f3	-0.4311901
60	0xbd1e8dca	-0.03870944
61	0xbe6ca11c	-0.23108333
62	0x3d89aa98	0.06721991
63	0xbea9f5b0	-0.33195257
64	0xbe41da4b	-0.18930928
65	0x3da6403b	0.0811772
66	0x3dd15efa	0.102231935
67	0x3d448f2a	0.047988094
68	0x3e002b44	0.12516505
69	0xbcc68032	-0.02423105
70	0xbe75c5ff	-0.24001311
71	0xbe26c1c9	-0.1628486
72	0xbe7101b2	-0.23535803
73	0xbf0100a2	-0.5039159
74	0xbe733e9c	-0.23754352
75	0xbd854c98	-0.0650875
76	0xbdf7359f	-0.12070774
77	0xbdb81b42	-0.08989574
78	0x3e1e2791	0.15444781
79	0xbe5ebd82	-0.21751979
80	0xbeed5893	-0.4635664
81	0xbe98a384	-0.29812253
82	0xbe1b9779	-0.15194501
83	0xbd4fa8c1	-0.050698046
84	0xbe25af47	-0.16180144
85	0xbe8b7cff	-0.27243802
86	0xbf10cf6d	-0.56566507
87	0xbe562e4b	-0.20916097
88	0x3d33d67f	0.04390573
89	0xbe059459	-0.13044871
90	0x3e5b7c12	0.21434048
91	0x3dfa8b86	0.12233643
92	0x3d3a2adc	0.04545103
93	0x3e126909	0.1429788
94	0xbdddbc13	-0.10826888
95	0xbde24380	-0.11048031
96	0xbcb27b3e	-0.021787282
97	0xbcdb17cf	-0.026744751
98	0xbe4e860e	-0.20168325
99	0xbe003c74	-0.12523061
100	0xbb5557b1	-0.003255349
101	0xbe24341b	-0.16035502
102	0xbdc2142c	-0.09476504
103	0xbe116a24	-0.14200646
104	0xbe1fdc9d	-0.15611501
105	0x3e294246	0.16529188
106	0xbd62643e	-0.05527138
107	0x3d83a06e	0.06427084
108	0x3ecbe8ae	0.39825958
109	0x3e464958	0.19363916
110	0xbddbdcba	-0.107354596
111	0xbde3c617	-0.11121767
112	0xbd933dd9	-0.07189531
113	0xbe7a79bc	-0.244605
114	0xbcfd56c0	-0.030925155
115	0x3e4f3e50	0.20238614
116	0x3de751cd	0.11294899
117	0xbe063a1c	-0.13108104
118	0xbe8e88cc	-0.27838743
119	0xbe8e82c5	-0.27834144
120	0x3e2f7cdc	0.17137474
121	0x3d2ba54b	0.041905683
122	0xbde83f4c	-0.11340198
123	0x3d17e407	0.0370827
124	0x3b0c5adb	0.0021416459
125	0x3d54ead9	0.05198178
126	0xbc29c028	-0.010360755
127	0xbd3e7169	-0.046494875
128	0x3c7e0265	0.015503501
129	0xbd09299e	-0.033486955
130	0xbdab0a0b	-0.08351525
131	0x3dd23438	0.10263866
132	0x3ecfe4f5	0.40604368
133	0xbda843c7	-0.082160525
134	0xbe5df173	-0.21674137
135	0xbca48322	-0.02008206
136	0xbe67cddf	-0.22637127
137	0xbd835ca4	-0.06414154
138	0x3d527fdb	0.051391464
139	0x3cdf7ea9	0.027282076
140	0xba338eed	-0.00068496057
141	0xbe8afb2f	-0.27144763
142	0xbdd6e5d6	-0.104930565
143	0xbf11f71a	-0.5701767
144	0x3e117263	0.14203791
145	0x3d2e344c	0.042530343
146	0x3d566f86	0.05235245
147	0x3daa30df	0.08310103
148	0xbc8fe765	-0.017566392
149	0x3d73b78e	0.059501223
150	0x3d38d35b	0.04512344
151	0x3e0ec125	0.13940866
152	0xbb094785	-0.002094717
153	0x3d0d877a	0.03455303
154	0xbde909a1	-0.1137879
155	0xbdcf31b0	-0.10116899
156	0x3dfcdefc	0.123472184
157	0xbc9bad56	-0.019003551
158	0xbe04323b	-0.12909786
159	0xbd5f4f8d	-0.054519225
160	0xbe5ed5f8	-0.2176131
161	0xbd0c3221	-0.034227494
162	0xbe42db89	-0.19029059
163	0x3e1df760	0.15426397
164	0x3e726421	0.23671009
165	0x3dba75e4	0.09104517
166	0x3e5ccb63	0.21561961
167	0x3eb8321c	0.3597573
168	0xbcd7aff1	-0.026329013
169	0xbe4569b5	-0.19278605
170	0x3dad8e66	0.08474426
171	0x3d96c1a3	0.07361152
172	0x3e032f1d	0.12810941
173	0x3d5d94dc	0.05409704
174	0x3a4037a4	0.000733251
175	0xbe86e938	-0.26349807
176	0xbece663d	-0.40312377
177	0xbed955af	-0.42448184
178	0xbf046c72	-0.51727974
179	0xbe09db18	-0.13462484
180	0x3dc31ec9	0.09527356
181	0xbe0d99bd	-0.13828178
182	0xbdf82439	-0.12116284
183	0x3dd10268	0.10205537
184	0xbcf657a4	-0.030071087
185	0xbe16bce6	-0.14720497
186	0xbd3021f8	-0.043001145
187	0xbee67769	-0.45012978
188	0x3a8bea34	0.0010674656
189	0xbdf8b8e4	-0.1214464
190	0x3cd07028	0.025444105
191	0x3cfbdaee	0.030744042
192	0xbec73f57	-0.38915512
193	0x3c2c4abd	0.010515866
194	0x3e4e49ea	0.20145383
195	0xbc2a0b49	-0.010378667
196	0xbd5f6663	-0.054541003
197	0x3decb274	0.11557475
198	0xbe4a8ce1	-0.19780304
199	0xbdd3cc5c	-0.10341713
200	0x3c018618	0.007905506
201	0x3d5bef54	0.053695038
202	0xbe4ab82c	-0.19796818
203	0x3e118e37	0.14214407
204	0xbe1f3854	-0.15548831
205	0xbe4afa75	-0.19822104
206	0x3e904ec8	0.28185105
207	0xbe0ed9c0	-0.13950253
208	0x3d0cb421	0.03435147
209	0x3e31dce2	0.17369416
210	0xbef236b3	-0.47307357
211	0x3ec5abc3	0.38607606
212	0x3ead23d1	0.33816388
213	0xbe7edf67	-0.24889909
214	0x3e0b6101	0.13611223
215	0x3e5f57a3	0.21810775
216	0xbe88078f	-0.26568267
217	0x3cd84e7c	0.026404612
218	0x3db99735	0.090620436
219	0xbdaef911	-0.085435994
220	0xbc3c2350	-0.0114830285
221	0x3dd83965	0.10557822
222	0xbfd83e5c	-1.689403
223	0xbf15abbf	-0.5846519
224	0x3f934634	1.1505799
225	0x3d82c149	0.063845225
226	0xbdccb83f	-0.0999608
227	0x3de42ca2	0.111413255
228	0x39b889ad	0.0003519779
229	0xbe336605	-0.17519386
230	0x3ddfdeaf	0.109311454
231	0x3e1ff13d	0.15619369
232	0x3d7288a9	0.05921236
233	0xbd4c2eca	-0.04984931
234	0x3dee6a3c	0.11641356
235	0xbd941fc8	-0.07232624
236	0x3d2b1de1	0.04177654
237	0xbe69ccf8	-0.22832096
238	0xbe534a3f	-0.20633791
239	0x3e3dc66b	0.18532722
240	0x3c4d2e46	0.0125232395
241	0xbd1b626a	-0.03793565
242	0x3e695e20	0.22789812
243	0x3dc5b078	0.09652799
244	0x3d591dca	0.053006925
245	0xbdbf7a26	-0.0934947
246	0xbdb58037	-0.08862346
247	0xbd778c83	-0.060436737
248	0x3d7f2614	0.062292174
249	0xbd868353	-0.06568017
250	0x3d5e6032	0.054290958
251	0x3e6f0d09	0.23344816
252	0xbe00a3e3	-0.12562518
253	0xbc270426	-0.01019386
254	0x3d412598	0.047154993
255	0x3dcd68c2	0.100297466

14.weight f4 [64]
0	0x3f88ca42	1.0686724
1	0x3fb84000	1.4394531
2	0x3f392f8a	0.72338164
3	0x3f4d1cb8	0.80121946
4	0x3f18a957	0.5963339
5	0x3f766813	0.96252555
6	0x3f8828d7	1.0637463
7	0x3f63ca7d	0.8898085
8	0x3f4ad34a	0.7922865
9	0x3f66b7da	0.90124285
10	0x3f590245	0.8476909
11	0x3f685961	0.9076138
12	0x3f95649e	1.1671331
13	0x3f4331f0	0.76248074
14	0x3f5eb88b	0.8700034
15	0x3f6adc7d	0.9174269
16	0x3f8b6624	1.0890546
17	0x3f53d400	0.8274536
18	0x3f967b82	1.1756442
19	0x3f5a4624	0.85263276
20	0x3f582ea5	0.84446174
21	0x3f4a345e	0.78986156
22	0x3f3dcf34	0.7414429
23	0x3fbd53bb	1.4791178
24	0x3f715b9f	0.9428043
25	0x3f8d9728	1.1061754
26	0x3f857465	1.0426146
27	0x3f616b30	0.8805418
28	0x3f8eba8e	1.1150682
29	0x3f72cef4	0.94847035
30	0x3f891693	1.0710014
31	0x3f57507a	0.8410717
32	0x3f8552ab	1.0415853
33	0x3f6f8475	0.9356149
34	0x3f98f40d	1.1949478
35	0x3f874034	1.0566468
36	0x3f7ce69e	0.98789394
37	0x3f4f3456	0.80939233
38	0x3f8bde29	1.0927173
39	0x3f54f391	0.8318415
40	0x3f7f2d50	0.99678516
41	0x3f8b71cc	1.0894103
42	0x3f90447d	1.1270901
43	0x3f8685bc	1.0509562
44	0x3f3c8438	0.7363925
45	0x3f8f526f	1.1197032
46	0x3f4920a0	0.78565407
47	0x3f58c325	0.84672767
48	0x3f84221b	1.0322908
49	0x3f8aedac	1.0853782
50	0x3faccd96	1.350024
51	0x3f5b010c	0.8554847
52	0x3f737f27	0.95115894
53	0x3f63cb4f	0.889821
54	0x3f661897	0.8988127
55	0x3f86276b	1.048078
56	0x3f7ec00c	0.9951179
57	0x3f4ddc39	0.8041416
58	0x3f688f2b	0.90843457
59	0x3f76b975	0.96376735
60	0x3f92ff72	1.1484206
61	0x3f541f29	0.82860047
62	0x3fc67f15	1.5507532
63	0x3f64abda	0.89324725

14.bias f4 [64]
0	0xbda4337a	-0.08017631
1	0xbedaa5fd	-0.42704764
2	0xbefd6691	-0.49492314
3	0xbe9c24cc	-0.30496824
4	0xbb9d5e15	-0.004802475
5	0xbeef8b98	-0.4678619
6	0x3d4eed8c	0.05051951
7	0xbe01500e	-0.12628195
8	0xbf0e9c95	-0.55707675
9	0xb8fa59d1	-0.000119376586
10	0xbeb00c7c	-0.34384525
11	0xbe7889fd	-0.24271388
12	0xbd989492	-0.074502125
13	0xbe889036	-0.26672524
14	0x3d1c111a	0.038102247
15	0xbf274d91	-0.6535273
16	0xbef8ff2a	-0.48632175
17	0xbeec6fab	-0.46178946
18	0xbf868627	-1.050969
19	0xbe2cf005	-0.16888435
20	0xbed28422	-0.41116434
21	0xbe3c543c	-0.18391508
22	0xbe2cf24c	-0.16889304
23	0xbe11c933	-0.14236908
24	0xbe069a4e	-0.131448
25	0xbebb4dc1	-0.3658276
26	0xbe3a479f	-0.18191384
27	0xbdbb8b81	-0.09157468
28	0xbe2d993f	-0.1695299
29	0xbe6f3bf6	-0.23362717
30	0xbf5aee1a	-0.85519564
31	0x3d9b2593	0.07575526
32	0xbeb295cf	-0.3487992
33	0xbea6b8c1	-0.3256283
34	0xbe26101e	-0.16217086
35	0xbe50a4cf	-0.2037537
36	0xbe8caca3	-0.2747546
37	0xbf2631bc	-0.6491964
38	0xbf514bc0	-0.8175621
39	0xbee18718	-0.4404838
40	0xbef40410	-0.4765935
41	0xbea4aef6	-0.32164735
42	0xbd9ea1a3	-0.077456735
43	0x3c8ceffe	0.017204281
44	0xbddb7dbf	-0.107173435
45	0xbd7e661b	-0.062109094
46	0xbe6cc6e3	-0.23122744
47	0xbe1211fd	-0.14264674
48	0xbe972fd3	-0.29528674
49	0xbe8d6253	-0.27614078
50	0xbe97b246	-0.296282
51	0xbe975197	-0.29554436
52	0xbe95acc5	-0.29233375
53	0xbebe6413	-0.37185726
54	0x3cd341d1	0.02578822
55	0xbd4352a1	-0.047686223
56	0xbe936ab8	-0.28792357
57	0xbdb497c2	-0.08818008
58	0xbe893051	-0.26794675
59	0xbe8aad31	-0.2708526
60	0xbef33c8e	-0.47507137
61	0xbddb7540	-0.10715723
62	0xbe85e21d	-0.26149073
63	0xbe9fab85	-0.31185547
