notebooks/Radio_27ML/27ml_rf/27ml_rf_pytorch_only.pth (torch, 672905 bytes, 56 tensors)

0.weight f4 [64, 2, 3]
0	0xbe5d8710	-0.21633554
1	0xbdb14eb0	-0.086575866
2	0xbf0bb318	-0.5457015
3	0xbf20f066	-0.6286682
4	0xbf0b9d84	-0.54537225
5	0xbe1c599f	-0.15268563
6	0x3eab670b	0.33477053
7	0x3f37e95c	0.71840453
8	0xbd552511	-0.052037302
9	0xbdb460f0	-0.08807552
10	0xbeaa459c	-0.33256233
11	0xbe9f8549	-0.31156376
12	0xbf1ae2ad	-0.6050213
13	0xbed01130	-0.40638113
14	0xbe797d88	-0.24364293
15	0x3ccca3ba	0.024980415
16	0x3ef24f5f	0.4732618
17	0x3f0281c0	0.5097923
18	0xbeb6a29c	-0.35670936
19	0xbf281a79	-0.65665394
20	0x3e10fb38	0.14158332
21	0x3ed82cb4	0.42221606
22	0x3ea11a1e	0.31465238
23	0x3e9384e4	0.28812325
24	0xbd289cd2	-0.04116518
25	0x3eb896b9	0.36052492
26	0x3f2bf29c	0.6716707
27	0xbf1887ed	-0.59582406
28	0xbeb362e4	-0.35036385
29	0xbd58405b	-0.05279575
30	0xbe85ea00	-0.2615509
31	0x3e3ae1cf	0.18250202
32	0xbe82f7e2	-0.25579745
33	0xbf81e235	-1.0147158
34	0xbf672900	-0.90296936
35	0xbf0bb118	-0.545671
36	0xbe88eb7f	-0.2674217
37	0x3f5e0225	0.8672202
38	0x3f2170a2	0.6306249
39	0x3e1fc4e5	0.15602453
40	0xbdf7df94	-0.12103191
41	0xbe95bc26	-0.29245108
42	0x3d366bcb	0.044536393
43	0xbf42f483	-0.76154345
44	0xbf6d6122	-0.9272634
45	0x3c030c03	0.007998469
46	0x3e94ead9	0.29085425
47	0x3dee95aa	0.1164964
48	0x3ebf24fa	0.37332898
49	0xbbe51bf3	-0.006991857
50	0x3ebb9a2e	0.36641067
51	0x3f4a9b18	0.79142904
52	0x3f0cff3d	0.5507696
53	0x3d48a961	0.048989657
54	0x3edf3e77	0.43602344
55	0xbd4bb264	-0.049730673
56	0x3dae518b	0.08511647
57	0xbf215b53	-0.63029975
58	0xbf42badf	-0.7606639
59	0xbf11d294	-0.5696194
60	0x3ec440b9	0.3833063
61	0x3ed5cf9b	0.41759953
62	0xbe405409	-0.18782057
63	0x3ed72ab2	0.4202476
64	0x3ef66c77	0.48129627
65	0x3e506b2b	0.20353381
66	0x3efe764c	0.49699628
67	0x3eb77d1e	0.35837644
68	0x3f56963f	0.8382301
69	0x3ecfd744	0.40593922
70	0xbe0701db	-0.13184302
71	0xbcbcc3ab	-0.02304252
72	0x3f144d21	0.5793019
73	0x3f893fe6	1.0722625
74	0x3f843c84	1.0330968
75	0x3e534a08	0.2063371
76	0x3e3700df	0.17871426
77	0xbe25e6f1	-0.16201378
78	0xbe07e6ed	-0.13271685
79	0xbe83aed3	-0.25719318
80	0xbf423db2	-0.7587539
81	0x3f1cb1aa	0.61208594
82	0x3f076b67	0.5289826
83	0xbe7a179e	-0.24423072
84	0xbe250443	-0.16114907
85	0xbe907013	-0.28210506
86	0xbe71272e	-0.23550102
87	0xbf036b93	-0.5133602
88	0xbe78017c	-0.24219316
89	0xbf35bb23	-0.7098867
90	0x3e7112f0	0.2354238
91	0x3e91afe3	0.28454503
92	0x3f132729	0.5748163
93	0x3c8aa3a3	0.016923731
94	0xbf223f57	-0.633779
95	0xbf01f75d	-0.5076807
96	0x3eba4758	0.36382556
97	0xbb121ed8	-0.0022296216
98	0xbf12c46b	-0.5733096
99	0xbf18f01a	-0.59741366
100	0x3e33b64b	0.17550008
101	0x3f1a538b	0.60283726
102	0xbef7c556	-0.48392743
103	0xbeea3335	-0.45742193
104	0xbef1aa98	-0.47200465
105	0xbe5a97f2	-0.21347025
106	0xbefdec38	-0.49594283
107	0xbeda4907	-0.4263384
108	0xbda6d866	-0.081467435
109	0xbd614f47	-0.055007245
110	0xbe70c399	-0.23512115
111	0x3f25ca60	0.64761925
112	0xbcf696ce	-0.030101206
113	0x3f68dba6	0.90960157
114	0x3f2cf497	0.67560714
115	0xbeff2d2b	-0.49839148
116	0xbec2e9a1	-0.3806887
117	0xbd799735	-0.060935218
118	0x3c439a12	0.011938589
119	0x3e77b095	0.24188454
120	0x3d9bdff1	0.07611073
121	0xbe49f4b8	-0.19722259
122	0xbe89b6d5	-0.26897302
123	0x3d23ff3a	0.040038325
124	0xbf608fce	-0.8771943
125	0xbf410e28	-0.75412226
126	0xbeb39536	-0.35074776
127	0xbeda0b09	-0.42586544
128	0xbe9e469d	-0.3091325
129	0xbef5efef	-0.48034617
130	0xbee0bb2b	-0.43892798
131	0xbdbfab3e	-0.09358834
132	0xbf093e68	-0.5361085
133	0xbd918ded	-0.07107148
134	0x3ecc95f7	0.39958164
135	0xbdf40d66	-0.11916618
136	0xbe234ce4	-0.159473
137	0xbe0044e5	-0.12526281
138	0x3e613f50	0.21996808
139	0x3f036cad	0.513377
140	0x3f0a4c01	0.5402222
141	0x3e8e83f3	0.27835044
142	0x3f26c32f	0.65141577
143	0x3e7ff993	0.24997549
144	0xbf0c3bbb	-0.5477864
145	0xbf148306	-0.58012426
146	0x3ceb6dcf	0.028738884
147	0xbe6276db	-0.22115652
148	0xbefd56b4	-0.49480212
149	0xbed17179	-0.40906885
150	0xbf4d2946	-0.80141103
151	0xbf6a32e2	-0.9148389
152	0xbddd6092	-0.10809435
153	0x3ed04706	0.40679187
154	0x3ec2de3b	0.38060173
155	0xbe74d2cc	-0.23908538
156	0x3e56f709	0.20992674
157	0xbe4a0e2f	-0.19731973
158	0xbdf02745	-0.1172624
159	0xbf85326c	-1.0406013
160	0xbe61b987	-0.2204343
161	0xbef1e023	-0.47241315
162	0xbf5e03c4	-0.86724496
163	0xbf97a454	-1.1847024
164	0xbebc425d	-0.3676938
165	0xbdee2a9f	-0.11629223
166	0xbe74343d	-0.23848052
167	0xbb108fa5	-0.0022058275
168	0xbf0d4015	-0.55175906
169	0x3e3578ba	0.17721835
170	0x3efbec0f	0.49203536
171	0xbf33b943	-0.7020456
172	0x3f0b1161	0.54323393
173	0x3ea24348	0.31691957
174	0xbefc1e11	-0.4924169
175	0x3ebb9c72	0.36642796
176	0x3dc2ecbe	0.09517811
177	0xbf0e90d2	-0.5568973
178	0x3de9e4b5	0.114205755
179	0xbf14d40f	-0.58136076
180	0x3e71beae	0.23607895
181	0xbd694f09	-0.05696014
182	0x3e58a101	0.21155168
183	0x3e61f9bf	0.22067927
184	0x3f38c619	0.72177273
185	0x3f458215	0.77151614
186	0x3d741b99	0.05959663
187	0xbe5c70cb	-0.21527402
188	0xbed577ed	-0.4169306
189	0x3f2fa957	0.6861777
190	0x3f4f3cd6	0.80952203
191	0x3ef62c88	0.4808085
192	0xbf08d5ce	-0.5345124
193	0xbea5bccc	-0.32370603
194	0xbebbe9d0	-0.36701822
195	0xbeb1a472	-0.34695774
196	0xbf1cda3b	-0.61270493
197	0x3e133295	0.14374764
198	0xbec8375d	-0.3910474
199	0xbdaa1824	-0.08305386
200	0xbd7036be	-0.058645956
201	0x3e80c3cb	0.25149378
202	0xbf0801cc	-0.5312774
203	0xbf3d5c41	-0.73968893
204	0xbe7c52bf	-0.2464094
205	0x3eaf4f49	0.34240177
206	0x3e1d87b7	0.15383802
207	0x3f3e51f9	0.7434383
208	0x3f32f501	0.69905096
209	0x3e0ca558	0.13734949
210	0x3e7ec410	0.2487948
211	0x3e7625b0	0.24037814
212	0x3e27a9eb	0.16373412
213	0xbf09e509	-0.53865105
214	0xbdd80dc2	-0.10549499
215	0x3de8e0db	0.11371013
216	0xbecddefb	-0.40209183
217	0xbefc4983	-0.49274835
218	0x3f1a73e9	0.60333115
219	0xbf1a4b3b	-0.6027104
220	0xbec8937d	-0.39175025
221	0x3f1db4e3	0.61604136
222	0x3ec54df6	0.38536042
223	0xbef1be69	-0.47215584
224	0xbf544816	-0.82922494
225	0x3ea45b5f	0.3210096
226	0xbe4a9dff	-0.19786833
227	0xbe12e5e8	-0.14345515
228	0xbe54fff6	-0.20800766
229	0xbc0dacb9	-0.008647137
230	0x3e5f1c55	0.21788152
231	0x3eb13d1e	0.3461694
232	0x3f01d5dd	0.50716954
233	0x3f88a134	1.0674195
234	0x3e9bd031	0.30432275
235	0xbcbc617f	-0.022995709
236	0x3ea01d8f	0.3127255
237	0xbf58687d	-0.84534436
238	0xbf1ce8e1	-0.61292845
239	0xbce1b367	-0.027551366
240	0x3ef6cc7d	0.48202887
241	0x3f0e92fd	0.55693036
242	0xbe0238a2	-0.12716916
243	0xbd810600	-0.062999725
244	0xbd85815a	-0.065188125
245	0xbf2e4a79	-0.68082386
246	0x3ee21ce2	0.4416266
247	0x3d6983dc	0.057010517
248	0x3f0821e3	0.5317671
249	0xbf0883a6	-0.5332588
250	0xbea46e52	-0.32115418
251	0xbe22f4ca	-0.15913692
252	0x3f08d3ce	0.5344819
253	0x3ee40a54	0.4453913
254	0xbefadd79	-0.48997095
255	0xbede1879	-0.43378046

0.bias f4 [64]
0	0x3e040daa	0.12895837
1	0x3ec69c28	0.38791013
2	0x3e4e9933	0.20175628
3	0x3e8d5c0b	0.27609286
4	0xbe0ecb06	-0.13944635
5	0x3e3d4e94	0.18487006
6	0x3d5d985c	0.05410038
7	0xbdd1cdd8	-0.1024434
8	0xbe5dad54	-0.2164815
9	0xbe7064cd	-0.23475952
10	0xbea952be	-0.3307094
11	0x3e8e1966	0.27753752
12	0x3e903da9	0.28172043
13	0xbd5f1d72	-0.05447144
14	0xbe716dfb	-0.2357711
15	0x3e9c2c33	0.3050247
16	0x3e86681d	0.26251307
17	0x3c70d3b8	0.014698915
18	0xbe37cba8	-0.17948782
19	0x3ec08bf5	0.3760678
20	0x3e3aa90d	0.1822855
21	0xbe97fa66	-0.29683226
22	0x3ed2261d	0.41044703
23	0x3e93824e	0.28810352
24	0xbe116b05	-0.14200981
25	0x3e6d370c	0.2316553
26	0xbe7008b4	-0.2344082
27	0xbd7d7b68	-0.061885267
28	0x3eb57a2a	0.35444766
29	0x3cceb44d	0.025232458
30	0xbe8e9a63	-0.27852163
31	0xbe118a06	-0.14212808
32	0xbdd634e2	-0.10459305
33	0xbdc2ec41	-0.09517718
34	0x3d0a13f7	0.033710446
35	0x3ed293c8	0.41128373
36	0x3d17bda9	0.03704611
37	0xbe83a978	-0.25715232
38	0x3cf2b95c	0.029629402
39	0x3e36dc90	0.17857575
40	0x3e4cef43	0.20013146
41	0xbebef78f	-0.37298247
42	0xbd811532	-0.06302871
43	0xbe955ecb	-0.29173884
44	0xbe3d6f78	-0.18499553
45	0x3e1588f9	0.14603032
46	0xbe8f2a52	-0.27961975
47	0x3e261043	0.16217141
48	0x3eb0d5e0	0.34538174
49	0x3d07e3ce	0.033176236
50	0xbe837b32	-0.25679928
51	0xbe342a5d	-0.17594285
52	0x3d8da51a	0.06916256
53	0xbe9d2b80	-0.3069725
54	0x3e4ea46f	0.20179914
55	0xbeb84bf9	-0.35995463
56	0xbec5ee4f	-0.38658378
57	0xbec82494	-0.39090407
58	0xbd82fb77	-0.06395619
59	0x3e92e571	0.28690675
60	0xbec4d252	-0.38441712
61	0x3ea4f8b8	0.32221007
62	0xbe1d92dd	-0.15388055
63	0x3e06c35e	0.13160464

1.weight f4 [64]
0	0x3f896072	1.0732558
1	0x3f744d7b	0.95430726
2	0x3f96e943	1.1789936
3	0x3f83a768	1.0285463
4	0x3f6a97cf	0.9163789
5	0x3f9d8c6a	1.2308476
6	0x3f6500d9	0.8945442
7	0x3f771829	0.9652124
8	0x3f92db45	1.1473166
9	0x3f91c7bb	1.1389078
10	0x3f6a7e38	0.91598845
11	0x3f8cb2dc	1.0992084
12	0x3fa1b7b7	1.263419
13	0x3f5a4da0	0.85274696
14	0x3f8144b3	1.009909
15	0x3f727011	0.9470225
16	0x3f86ff06	1.0546577
17	0x3f9275c9	1.1442195
18	0x3f665dd5	0.89986926
19	0x3f4c7fc0	0.7988243
20	0x3f7948b8	0.97376585
21	0x3f8bc942	1.0920794
22	0x3eb61bac	0.35567987
23	0x3f9cda65	1.2254149
24	0x3f820f40	1.0160904
25	0x3f96059d	1.1720463
26	0x3f5815f8	0.8440852
27	0x3f907534	1.1285768
28	0x3f9ef961	1.2419854
29	0x3f4d31ff	0.80154413
30	0x3fa3d3fe	1.279907
31	0x3fa3c326	1.279393
32	0x3f83fb73	1.0311111
33	0x3f4cbba3	0.7997381
34	0x3f99c147	1.2012109
35	0x3f4f55a3	0.80990046
36	0x3f8a891b	1.0823091
37	0x3f60f13b	0.8786809
38	0x3f85626f	1.0420665
39	0x3f807898	1.0036802
40	0x3f7dee79	0.99192005
41	0x3f8cd85e	1.100353
42	0x3fa4201f	1.2822303
43	0x3f927c94	1.1444268
44	0x3f8692e1	1.0513574
45	0x3f8b4e85	1.0883337
46	0x3fb75101	1.4321595
47	0x3f844049	1.0332118
48	0x3f929616	1.1452053
49	0x3f3d0c25	0.73846656
50	0x3f5f670e	0.87266624
51	0x3f88758b	1.0660871
52	0x3f9103dd	1.1329304
53	0x3f9498bd	1.1609112
54	0x3f9523ff	1.165161
55	0x3fa1db52	1.2645056
56	0x3fa48dba	1.2855752
57	0x3fa7f80d	1.3122574
58	0x3f62857d	0.88484937
59	0x3f759e4c	0.95944667
60	0x3f901c37	1.125861
61	0x3f1ba1d9	0.60793835
62	0x3f903c0b	1.1268324
63	0x3fa8d7cf	1.319086

1.bias f4 [64]
0	0x3dbc2af2	0.09187879
1	0xbdfac4ed	-0.12244592
2	0xbf35471f	-0.7081165
3	0xbf3cfd25	-0.7382377
4	0x3d0c9490	0.034321368
5	0xbe75969a	-0.23983231
6	0x3eb57c97	0.35446617
7	0x3eb206fd	0.34770957
8	0x3e9fd5bb	0.3121775
9	0xbe487ac7	-0.19578086
10	0x3eaa444b	0.33255228
11	0xbe152c56	-0.14567694
12	0xbf5df177	-0.8669657
13	0x3ba81d3e	0.005130439
14	0xbf3971bc	-0.7243917
15	0xbe4a44e5	-0.19752844
16	0xbe9298a6	-0.28632087
17	0xbec1a57e	-0.37821573
18	0xbf273770	-0.65318966
19	0xbe5f43fb	-0.21803276
20	0xbd91723e	-0.07101868
21	0xbf4704b2	-0.7774154
22	0xbbe5b74b	-0.0070103756
23	0x3e05636e	0.1302621
24	0x3e7c4131	0.24634244
25	0xbef8273c	-0.48467433
26	0x3ec4ea90	0.38460207
27	0xbeacf5ab	-0.3378118
28	0xbe5345f6	-0.20632157
29	0xbf1243b8	-0.5713458
30	0xbf0e214e	-0.5551957
31	0xbee0ba8b	-0.4389232
32	0x3c8b75f0	0.01702401
33	0x394d3a0c	0.00019571948
34	0xbf2069fd	-0.62661725
35	0xbe27329e	-0.16327903
36	0xbedc22c0	-0.42995262
37	0xbf196b8d	-0.59929734
38	0x3e343c70	0.1760118
39	0xbea60160	-0.32422924
40	0x3e4f944d	0.20271416
41	0xbf3c0f54	-0.7346089
42	0xbf14f88f	-0.5819177
43	0x3e86f81f	0.26361176
44	0x3e792fd3	0.2433465
45	0xbe124ba0	-0.14286661
46	0xbebfa1a9	-0.37428024
47	0xbf20a7eb	-0.6275622
48	0xbed563a9	-0.41677597
49	0xbed39121	-0.41321662
50	0xbf0a6776	-0.5406412
51	0x3ea9c2bc	0.33156383
52	0xbf693c9f	-0.91108125
53	0xbf080dc0	-0.5314598
54	0x3ef8986e	0.48553795
55	0xbe12fc37	-0.14354025
56	0xbecca67f	-0.39970776
57	0xbf1e9f66	-0.6196197
58	0xbe218588	-0.15773594
59	0xbdfe5835	-0.12419168
60	0xbf0edd74	-0.5580666
61	0x3e6e3d92	0.23265675
62	0x3e8efdeb	0.279281
63	0x3e8cad79	0.274761

1.running_mean f4 [64]
0	0x3e844b28	0.2583859
1	0x3eb6ec90	0.35727358
2	0x3e6fab67	0.23405229
3	0x3e8fe72f	0.28106067
4	0xbe1f069c	-0.15529865
5	0x3eadac9c	0.33920753
6	0xbc8be27b	-0.017075768
7	0xbc42a753	-0.0118807135
8	0xbeaed661	-0.34147933
9	0xbe27bd78	-0.1638087
10	0xbedd664c	-0.4324211
11	0x3e166000	0.14685059
12	0x3dac16f4	0.084028155
13	0xbcc5beba	-0.024138797
14	0xbde31d57	-0.110895805
15	0x3e9430b0	0.28943396
16	0x3e88b38a	0.26699477
17	0x3e30ae3c	0.17253965
18	0xbe740561	-0.23830177
19	0x3ec25ae9	0.37959984
20	0x3e965d28	0.29367948
21	0xbe2be36c	-0.16785973
22	0x3ee49857	0.44647476
23	0x3e0c75c8	0.13716805
24	0xbbca1b90	-0.0061678365
25	0x3ea90cee	0.33017677
26	0xbe0aa9d0	-0.13541341
27	0x3dfe8cdd	0.12429211
28	0x3ead191c	0.3380822
29	0x3da5b601	0.08091355
30	0xbecbebe7	-0.39828417
31	0xbe56b893	-0.20968847
32	0x3cbfd753	0.023418104
33	0xbb9290ce	-0.0044728285
34	0xbd8d76a3	-0.06907394
35	0x3ec945e3	0.39311132
36	0x3da0f5e4	0.078594
37	0xbe4530da	-0.19256917
38	0xbd98b8d1	-0.07457126
39	0x3e5cc5d6	0.21559843
40	0x3e382418	0.17982519
41	0xbec7e683	-0.39043054
42	0xbd999738	-0.07499546
43	0xbe9a20b2	-0.3010307
44	0xbe94653f	-0.28983495
45	0x3e9c1e81	0.30492023
46	0xbe9192e2	-0.28432375
47	0x3d659c05	0.056056995
48	0x3ef06dfa	0.46958905
49	0x3dd36414	0.10321823
50	0xbe17dd71	-0.14830567
51	0xbe1e715c	-0.1547293
52	0x3dfee808	0.124466
53	0xbebb5c18	-0.365937
54	0x3d14ef6a	0.036361136
55	0xbeb259a3	-0.34834012
56	0xbf156e1f	-0.58371156
57	0xbf09c93d	-0.5382269
58	0xbdc0fb15	-0.0942289
59	0x3e9463a3	0.28982267
60	0xbe9b81f0	-0.30372572
61	0x3ed89f2e	0.42308944
62	0xbdad76a1	-0.08469892
63	0xbc8fb0fa	-0.017540444

1.running_var f4 [64]
0	0x440d1279	564.28864
1	0x43b9cabd	371.5839
2	0x4412dbc3	587.4338
3	0x43d8b20f	433.39108
4	0x43f9c5a0	499.54395
5	0x44af333a	1401.6008
6	0x43db268e	438.3012
7	0x443084f0	706.07715
8	0x44138e7f	590.2265
9	0x44614f9c	901.2439
10	0x43c5fdc2	395.98248
11	0x442612c1	664.293
12	0x44c9c561	1614.1681
13	0x440c063c	560.0974
14	0x4412ab67	586.67816
15	0x4410bc02	578.9376
16	0x4317c512	151.7698
17	0x4437dc4a	735.442
18	0x4415285b	596.63055
19	0x42edca36	118.89494
20	0x4424764e	657.8485
21	0x43f68ffd	493.1249
22	0x42cb5b9a	101.67891
23	0x442a9478	682.3198
24	0x44137f72	589.99133
25	0x44610399	900.0562
26	0x442edb26	699.4242
27	0x44aa4e80	1362.4531
28	0x432e6ee4	174.43317
29	0x4399c539	307.5408
30	0x44305536	705.3314
31	0x44735705	973.3597
32	0x43ffacd0	511.3501
33	0x43baccfc	373.60144
34	0x4416fa0d	603.90704
35	0x433b09fb	187.03899
36	0x436f11d2	239.06961
37	0x4397cd78	303.60522
38	0x44547c73	849.9445
39	0x441a903e	618.2538
40	0x43bc1659	376.1746
41	0x43f23e76	484.48798
42	0x436a7eed	234.4958
43	0x44512547	836.58246
44	0x448cc074	1126.0142
45	0x445b3d57	876.95844
46	0x4341f93e	193.9736
47	0x43c18cba	387.09943
48	0x443c42b2	753.0421
49	0x43eb9bae	471.21625
50	0x43ea02fb	468.0233
51	0x4403cd96	527.2123
52	0x442f64c3	701.5744
53	0x43eb661c	470.79773
54	0x449f65fb	1275.1869
55	0x4343dd33	195.86406
56	0x44d2994f	1684.7909
57	0x442bb501	686.8282
58	0x43c1df59	387.7449
59	0x4311d369	145.82582
60	0x44751793	980.36835
61	0x43d4f9ff	425.9531
62	0x441c8b88	626.1802
63	0x4435a892	726.6339

4.weight f4 [64, 64, 3]
0	0x3f00f8ce	0.50379646
1	0xbea12a1c	-0.3147744
2	0x3e4838eb	0.19552962
3	0xba0487fe	-0.0005055665
4	0xbe477751	-0.1947911
5	0x3ce2a5c8	0.027666941
6	0xbd6a05f7	-0.057134595
7	0xbd399120	-0.045304418
8	0xbe518f3c	-0.20464796
9	0xbce40598	-0.027834699
10	0xbd254705	-0.040350933
11	0xbe553f6d	-0.20824976
12	0x3e28022c	0.16407079
13	0xbddd2eca	-0.1079994
14	0x3d8baf8e	0.06820594
15	0x3ebf7801	0.37396243
16	0xbd23853d	-0.039921988
17	0x3e22001b	0.15820353
18	0xbe4f98a4	-0.20273072
19	0xbef4429c	-0.4770707
20	0xbe7d0678	-0.24709499
21	0xbac41c0d	-0.0014961973
22	0x3c35648d	0.011071336
23	0x3e20d564	0.15706402
24	0xbeaaf367	-0.33388826
25	0xbe9081b0	-0.28223944
26	0xbec65e74	-0.38743937
27	0x3e209fc4	0.15685946
28	0xbdb54f0b	-0.08852967
29	0x3e65bd8d	0.22435589
30	0xbf3b53e7	-0.731749
31	0xbe91b5e0	-0.28459072
32	0xbeea0ed4	-0.45714438
33	0xbed2786e	-0.41107506
34	0xbec2a745	-0.38018242
35	0xbe3007a4	-0.17190415
36	0xbe522954	-0.20523578
37	0xbe0db191	-0.13837267
38	0xbe0e2cbe	-0.13884255
39	0xbe6b3f44	-0.22973353
40	0x3b80f63f	0.003935605
41	0x3e514623	0.20436911
42	0x3d20859b	0.039189916
43	0xbe45e69f	-0.19326256
44	0xbdfea0c7	-0.124330096
45	0xbd72298e	-0.05912166
46	0xbe140bbe	-0.14457604
47	0x3e0bb7f2	0.13644388
48	0x3e3b4757	0.18288933
49	0xbda3333c	-0.079687566
50	0xbe8de3fc	-0.27713
51	0x3e72a072	0.23694018
52	0xbe3987a6	-0.18118152
53	0x3e1ffa62	0.15622857
54	0x3dd9278e	0.106032476
55	0x3d59ba79	0.05315635
56	0xbd880d96	-0.06643216
57	0xbe6e5741	-0.23275472
58	0xbd84b824	-0.064804345
59	0xbc6d4fe2	-0.014484378
60	0x3a14ab4a	0.0005671276
61	0x3d127306	0.035754226
62	0x3e85e0d1	0.26148084
63	0x3de3fe91	0.11132539
64	0xbea29c25	-0.31759754
65	0xbe153ba4	-0.14573532
66	0x3c56c05e	0.013107387
67	0xbd88ade6	-0.066737935
68	0xbe956815	-0.2918097
69	0xbeca438b	-0.39504656
70	0xbea9e3dc	-0.33181655
71	0xbf27481b	-0.653444
72	0x3ef2f62b	0.47453436
73	0xbd926cdd	-0.0714967
74	0x3d500dfe	0.050794594
75	0xbdba5269	-0.0909775
76	0xbe4ce68f	-0.20009826
77	0xbe288d40	-0.16460133
78	0x3ee53f56	0.44774884
79	0xbd91c1da	-0.071170524
80	0x3e3375ba	0.17525378
81	0x3df21650	0.11820662
82	0xbd55c414	-0.052188948
83	0x3dafc0b9	0.08581681
84	0x3c077cdf	0.008269518
85	0xbd8d071e	-0.06886123
86	0xbf3a366f	-0.7273931
87	0x3e4fb952	0.20285538
88	0xbea6ac75	-0.3255345
89	0xbdfd2cda	-0.123620704
90	0xbdb83d75	-0.08996097
91	0xbd5de89c	-0.05417691
92	0xbf0f2b3c	-0.55925345
93	0xbe1b86c3	-0.15188126
94	0xbd33f85b	-0.043938022
95	0xbeaa417b	-0.33253083
96	0x3ee98ae4	0.45613778
97	0xbc8a8160	-0.016907394
98	0xbdb7acc6	-0.08968501
99	0xbcaec817	-0.021335645
100	0xbe53a812	-0.20669582
101	0x3d6f056c	0.05835478
102	0xbe50cc38	-0.20390403
103	0xbbc50ad1	-0.0060132523
104	0x3d1591c3	0.036515962
105	0x3d2ee6de	0.04270064
106	0xbd1486a6	-0.036261223
107	0xbd44a75b	-0.048011165
108	0x3e1cad39	0.15300454
109	0xbc7ea217	-0.015541575
110	0xbea78b1e	-0.32723325
111	0xbe83e218	-0.25758433
112	0xbde388bd	-0.11110065
113	0x3e2203f6	0.15821823
114	0xbe8344ed	-0.25638524
115	0xbe22e469	-0.15907444
116	0xbf457cbe	-0.77143466
117	0x3eb12b5f	0.34603402
118	0xbe240842	-0.16018775
119	0x3d3b8c8e	0.04578834
120	0xbd13e8cd	-0.036110688
121	0xbe9645c9	-0.29350117
122	0x3ebc7fc5	0.3681623
123	0x3d268317	0.04065236
124	0xbe673b33	-0.22581176
125	0xbe76b14d	-0.24091072
126	0x3e7aa91e	0.24478576
127	0xbe2599dc	-0.16171974
128	0xbe977ccf	-0.2958741
129	0xbe907637	-0.2821519
130	0xbc21ee7d	-0.00988352
131	0xbed7a9d6	-0.42121762
132	0xbea6aa45	-0.3255178
133	0xbe47f575	-0.19527228
134	0xbf09e4b3	-0.5386459
135	0x3e0cd9da	0.13754979
136	0x3cb0c6ae	0.021579113
137	0x3dee0205	0.11621479
138	0xbf2d1138	-0.676044
139	0xbe9624cc	-0.2932495
140	0x3de0f19e	0.10983585
141	0xbd11e0f9	-0.03561494
142	0x3d306368	0.04306355
143	0xbe2acb5d	-0.1667914
144	0xbd9fc873	-0.078019045
145	0xbde8017e	-0.113284096
146	0x3ccb43a1	0.024812521
147	0x3ea0bb85	0.31393066
148	0xbe695b85	-0.22788818
149	0x3dd2c338	0.10291141
150	0xbb4d8f86	-0.0031366064
151	0xbe11e889	-0.14248861
152	0xbc19a53f	-0.009377777
153	0x3e935893	0.28778514
154	0xbdccf361	-0.10007358
155	0x3e6b5ab2	0.22983816
156	0xbe6c8e36	-0.23101124
157	0xbe5646f7	-0.20925508
158	0xbe837905	-0.25678268
159	0xbd07eb41	-0.03318334
160	0xbea27e1f	-0.31736848
161	0xbde5ec04	-0.11226657
162	0xbf2dd66e	-0.6790532
163	0xbf0a91f9	-0.54128987
164	0xbee3f9a5	-0.445264
165	0xbe7cd51e	-0.24690673
166	0x3d6378f8	0.055535287
167	0xbeb2ba95	-0.34907976
168	0xbe95679a	-0.29180604
169	0xbe91b61f	-0.2845926
170	0xbd9fa2e6	-0.07794742
171	0xbd8f8e1e	-0.070095286
172	0xbe177623	-0.1479116
173	0xbe13b174	-0.14423162
174	0xbdb257c9	-0.0870815
175	0xbdc856cc	-0.0978218
176	0xbe6dbc10	-0.23216271
177	0xbf084e22	-0.5324422
178	0xbdc0cf42	-0.09414531
179	0xbdcfd997	-0.10148924
180	0xbe46140a	-0.19343582
181	0xbdd44a84	-0.10365775
182	0xbe13ac41	-0.14421178
183	0xbce09ad2	-0.027417574
184	0xbd8afd7c	-0.067866296
185	0x3c63a139	0.013893419
186	0x3e934622	0.28764445
187	0xbd3d56e8	-0.04622546
188	0xbdeeb4e2	-0.116555944
189	0xbec47c2d	-0.3837599
190	0xbef3acb4	-0.475927
191	0xbf8ab717	-1.0837125
192	0x3c9ef586	0.019404184
193	0xbe603481	-0.21895029
194	0x3e98d8d5	0.2985293
195	0x3e8b70a6	0.2723438
196	0x3e46948f	0.19392608
197	0xbe622114	-0.22082931
198	0x3c169e65	0.009193038
199	0xbeaeeb21	-0.34163764
200	0xbdecfb3a	-0.11571355
201	0x3e0bb79a	0.13644257
202	0xbe3359e2	-0.17514756
203	0xbe99429f	-0.2993364
204	0x3e97ad00	0.29624176
205	0x3dd7296b	0.10505947
206	0xbf011d55	-0.5043538
207	0x3e40581b	0.1878361
208	0xbe081323	-0.1328855
209	0x3d3186a9	0.043341313
210	0x3dfb8f82	0.12283231
211	0x3dfa7bb8	0.12230629
212	0xbf7aff9d	-0.98046285
213	0xbe319440	-0.17341709
214	0xbe053437	-0.130082
215	0x3f26d5a7	0.6516976
216	0x3eb21df1	0.34788468
217	0x3e513787	0.20431338
218	0xbeba098f	-0.36335418
219	0x3ea58a48	0.32332063
220	0xbd993a39	-0.07481808
221	0x3d3493ae	0.04408615
222	0x3d97afb7	0.07406562
223	0x3eb5665a	0.3542965
224	0xbd607566	-0.05479946
225	0x3ec09d77	0.37620136
226	0x3ea0cccd	0.3140625
227	0xbf444a8d	-0.76676255
228	0x3f178da1	0.59200484
229	0x3e4b213c	0.19836897
230	0xbf4c35f9	-0.79769856
231	0x3dcd9861	0.100388296
232	0x3d12e5b5	0.035863597
233	0x3eceb24e	0.4037041
234	0x3e453894	0.19259864
235	0xbe3e1aa3	-0.18564849
236	0xbc4392d6	-0.011936864
237	0x3e965414	0.29361022
238	0x3e2f48db	0.17117636
239	0xbef46879	-0.47735956
240	0xbf01a1a2	-0.5063726
241	0xbe0b4579	-0.1360072
242	0x3e3ae877	0.18252741
243	0x3cef2fab	0.029197535
244	0xbe8936ad	-0.26799527
245	0x3e9a9879	0.30194452
246	0x3d97aaa4	0.07405594
247	0xbe854695	-0.26030412
248	0x3c396198	0.011314772
249	0xbe876b32	-0.2644897
250	0xbe085453	-0.13313417
251	0x3ec1b6b6	0.3783471
252	0xbc1ada1e	-0.009451417
253	0xbc071caf	-0.008246585
254	0x3e4452fa	0.19172278
255	0x3e3475ee	0.17623112

4.bias f4 [64]
0	0xbdee1264	-0.116246015
1	0x3e12ade2	0.14324144
2	0xbd804b89	-0.06264407
3	0xbd9bd9f8	-0.076099336
4	0x3ded9548	0.11600739
5	0xbca5f9e6	-0.020260762
6	0xbc1dbe34	-0.0096278675
7	0xbca4e5b7	-0.020129068
8	0x3d2dc427	0.042423394
9	0xba3640da	-0.00069524127
10	0x3dc4ffdc	0.09619114
11	0x3dce0286	0.10059075
12	0x3cbb9b29	0.022901135
13	0x3da12681	0.07868672
14	0x3bca2b15	0.0061696866
15	0xbd7aaff1	-0.061202947
16	0x3dbb9892	0.0915996
17	0x39b5cb8c	0.00034674664
18	0xbdaf12e2	-0.085485235
19	0xbbd8fc2d	-0.0066218586
20	0x3d68ba01	0.056818012
21	0xbc2c52f8	-0.010517828
22	0xbdd617b3	-0.10453739
23	0xbcd5a7f9	-0.026081072
24	0x3bb1b3a7	0.0054230276
25	0xbdd2639c	-0.10272905
26	0x3be9cc98	0.007134985
27	0xba2585c9	-0.0006314186
28	0x3db09e5a	0.08623953
29	0x3ca72282	0.020402197
30	0x3daae6f2	0.083448306
31	0x3d3bc533	0.04584236
32	0xbc95e3c7	-0.01829709
33	0x3c7d5ebc	0.015464481
34	0x3da05bba	0.078299955
35	0x3d46aa59	0.0485023
36	0x3dd606d3	0.1045052
37	0x3d1b9de5	0.037992377
38	0xbd8ced36	-0.06881182
39	0x3c9c3508	0.019068256
40	0x3d953248	0.07284981
41	0xbd8c224f	-0.06842481
42	0xbc1ec46e	-0.009690387
43	0xbe000cbf	-0.12504862
44	0x3d884793	0.06654277
45	0x3ce0f13e	0.027458783
46	0x3dd9e02b	0.1063846
47	0xbd08d243	-0.033403646
48	0x3c0063d1	0.007836298
49	0x3d515c15	0.051113207
50	0xba5b42ee	-0.00083641603
51	0xbdb81251	-0.089878686
52	0xbd6a7a42	-0.0572455
53	0x3b9010fb	0.0043965555
54	0xbdb54cfa	-0.08852573
55	0xbc700c4f	-0.014651372
56	0xbd6b71a1	-0.05748141
57	0x3b563d32	0.0032690284
58	0x3d8f6cf9	0.07003207
59	0xbbe35a1c	-0.006938232
60	0x3cd56e30	0.026053518
61	0xbc90007b	-0.017578354
62	0xbde24034	-0.11047402
63	0x3d1b2130	0.037873447

5.weight f4 [64]
0	0x3f8262b7	1.0186375
1	0x3fb64aea	1.4241612
2	0x3f725aed	0.9466999
3	0x3f82fc51	1.0233251
4	0x3f950c02	1.164429
5	0x3f80a5d9	1.0050613
6	0x3f60cec4	0.878155
7	0x3f916d7d	1.1361538
8	0x3f7ec48c	0.99518657
9	0x3f6b4a52	0.9191028
10	0x3f52c1e5	0.8232711
11	0x3f5abcba	0.85444224
12	0x3f60f601	0.8787537
13	0x3fc91825	1.5710493
14	0x3f950cc6	1.1644523
15	0x3fbb158e	1.4615953
16	0x3fa0c464	1.2559934
17	0x3f9068d2	1.1281989
18	0x3f256017	0.64599746
19	0x3f5f91fd	0.87332135
20	0x3f8250e8	1.0180941
21	0x3f847ceb	1.0350622
22	0x3f9d1ba8	1.2274065
23	0x3f7d4051	0.98926264
24	0x3f69510f	0.9113931
25	0x3f403631	0.7508269
26	0x3f73a348	0.9517102
27	0x3fbf7dcb	1.4960264
28	0x3f9892bb	1.1919779
29	0x3f970958	1.1799726
30	0x3f7075cc	0.93929744
31	0x3f6c4f98	0.9230895
32	0x3fabc3fe	1.3419187
33	0x3f897afe	1.0740659
34	0x3f62a5b8	0.88534117
35	0x3f7b36fa	0.9813076
36	0x3f519008	0.818604
37	0x3f8658d4	1.0495858
38	0x3fa0610d	1.2529618
39	0x3f8c8de0	1.0980797
40	0x3f926eb0	1.1440029
41	0x3f995c0b	1.1981214
42	0x3f818bcd	1.0120789
43	0x3f7101df	0.9414348
44	0x3f7d10d6	0.98853815
45	0x3fab462e	1.3380792
46	0x3f957c55	1.1678568
47	0x3f953f16	1.1659877
48	0x3f4e3829	0.80554444
49	0x3f7e65fa	0.99374354
50	0x3fc16419	1.5108672
51	0x3f60c01e	0.8779315
52	0x3f8138af	1.0095423
53	0x3f42dcc0	0.7611809
54	0x3f8667e3	1.0500454
55	0x3fabd840	1.3425369
56	0x3f88c476	1.0684955
57	0x3f45f926	0.77333295
58	0x3fbc056f	1.4689158
59	0x3fc4581b	1.5339388
60	0x3f554c25	0.8331931
61	0x3f42d88a	0.7611166
62	0x3f6fee42	0.9372293
63	0x3f6e6746	0.9312633

5.bias f4 [64]
0	0xbebf4f22	-0.3736506
1	0xbf48282d	-0.78186303
2	0xbd35e58b	-0.044408362
3	0xbec04a44	-0.3755666
4	0x3d51552b	0.051106613
5	0xbeacbda3	-0.3373843
6	0xbeea0de9	-0.45713738
7	0xbed18608	-0.4092257
8	0xbe191f18	-0.14953268
9	0xbe4abefb	-0.19799416
10	0xbe2fac04	-0.17155463
11	0xbe419505	-0.18904503
12	0xbf11f24c	-0.5701034
13	0xbe2633c8	-0.1623069
14	0xbeb14756	-0.34624738
15	0x3f7472d2	0.954877
16	0xbd09d1f9	-0.03364751
17	0xbeb3fa36	-0.35151833
18	0xbe8e20b0	-0.27759314
19	0xbee4b1fb	-0.44667038
20	0xbe477cd1	-0.19481207
21	0xbeabbfc3	-0.3354474
22	0xbec6472c	-0.38726175
23	0xbea27062	-0.31726366
24	0xbe9773f1	-0.29580644
25	0xbef6c224	-0.48194993
26	0xbe5d7abb	-0.21628849
27	0x3f85f7ef	1.0466288
28	0xbeddf66a	-0.43352062
29	0xbf02a891	-0.5103846
30	0xbc98ee52	-0.018668327
31	0xbe92777c	-0.28606784
32	0xbf3c8449	-0.7363935
33	0xbea98b8f	-0.33114287
34	0xbe3df705	-0.18551262
35	0xbed83abb	-0.42232308
36	0xbec6f192	-0.3885618
37	0xbf07bf14	-0.5302594
38	0xbe9afd83	-0.3027154
39	0xbd72f6b3	-0.059317302
40	0xbe683300	-0.22675705
41	0xbdcb2e3a	-0.099209264
42	0xbeeaa50e	-0.45829052
43	0xbe8d32cd	-0.2757782
44	0xbe973306	-0.29531115
45	0xbf34b5b4	-0.70589757
46	0xbe0f1e08	-0.139763
47	0xbf04774e	-0.51744545
48	0xbe9b9cc1	-0.3039303
49	0xbe46c613	-0.19411497
50	0x3f864bf5	1.049193
51	0xbe8da1da	-0.27662545
52	0xbe0bdbab	-0.13658015
53	0x3ddda1c8	0.10821873
54	0xbef5b618	-0.4799049
55	0x3e2a57ea	0.16635099
56	0xbf09cc8a	-0.53827727
57	0xbe99fea5	-0.3007709
58	0xbf8b4799	-1.0881225
59	0xbf8952cc	-1.0728393
60	0xbd0bed65	-0.034161944
61	0xbe25dfaf	-0.1619861
62	0xbe7edda7	-0.24889241
63	0xbe903fbb	-0.28173622

5.running_mean f4 [64]
0	0xc12bb693	-10.732074
1	0x3f1105f2	0.56649697
2	0x411ca8b4	9.791187
3	0xc0d9fd72	-6.812188
4	0x412965bc	10.5873375
5	0xc1066046	-8.398504
6	0x412621f5	10.38329
7	0xc107991f	-8.474883
8	0xc10a0226	-8.6255245
9	0x4120bd35	10.046193
10	0xbf05c775	-0.5225747
11	0xc0ee60c5	-7.4493127
12	0xc0d53518	-6.662731
13	0x40fb29b0	7.848839
14	0x410dc099	8.859521
15	0xc1a70e47	-20.881971
16	0xc15e39e2	-13.889132
17	0xc17407db	-15.251918
18	0xc0f9f0f7	-7.8106647
19	0xc1014433	-8.07915
20	0xc103ba8a	-8.233042
21	0xc0fa98bd	-7.831145
22	0xc10f41d8	-8.953575
23	0xc158fea7	-13.562171
24	0xc11f3d8b	-9.952525
25	0xbf92d455	-1.1471049
26	0xc101754e	-8.091139
27	0xc187b60f	-16.963896
28	0x41245156	10.269857
29	0xc08f30a0	-4.4746857
30	0x412efcd2	10.936724
31	0xc0d4cb32	-6.649804
32	0xc027077e	-2.6098323
33	0xc0cb8845	-6.3603845
34	0xc0ae7f5b	-5.4530463
35	0xc0f251d9	-7.572491
36	0xc0a99240	-5.299103
37	0xc047360b	-3.1126735
38	0x41c24bb9	24.286974
39	0x41534191	13.203507
40	0xc11288b3	-9.158374
41	0xc15294ba	-13.16131
42	0x41275675	10.458608
43	0xc1007285	-8.027959
44	0xc0e92f22	-7.2870035
45	0x4060fa93	3.5152938
46	0xc1624c60	-14.143646
47	0x413c378a	11.763559
48	0xc105f19d	-8.371488
49	0xc0fc820e	-7.890876
50	0xc18b0eeb	-17.382284
51	0xc0cda62f	-6.426536
52	0x4136b80e	11.419935
53	0xc0a152a7	-5.0413394
54	0xc05c1d87	-3.4393022
55	0xc1740ea8	-15.253578
56	0x4080d559	4.0260434
57	0xc0b4d6e1	-5.6512303
58	0x3f1616f2	0.5862876
59	0xbedffa77	-0.43745777
60	0xc035dfb3	-2.8417785
61	0x3fe92ad7	1.8216199
62	0xc08616f5	-4.1903024
63	0xc0b583ad	-5.6723237

5.running_var f4 [64]
0	0x4298126f	76.036
1	0x41eb44c5	29.408579
2	0x42489ad4	50.1512
3	0x42727707	60.616238
4	0x42209aab	40.151043
5	0x42ed4a1d	118.64475
6	0x4298e084	76.43851
7	0x43062183	134.1309
8	0x42f97314	124.72476
9	0x42b79a18	91.800964
10	0x428d384c	70.609955
11	0x4298f61b	76.480675
12	0x42419c56	48.40267
13	0x4217b4b7	37.92648
14	0x42a04b42	80.14699
15	0x429d6084	78.68851
16	0x42b591b4	90.78458
17	0x42942957	74.08074
18	0x42c9a280	100.81738
19	0x42d34536	105.63518
20	0x4322037c	162.01361
21	0x42e2c3bf	113.38232
22	0x424f447c	51.81688
23	0x429eeec9	79.46638
24	0x42d6c316	107.38103
25	0x424684cc	49.629684
26	0x42d68285	107.25492
27	0x4270ed00	60.231445
28	0x42570ddc	53.763535
29	0x42251dee	41.27923
30	0x42432000	48.78125
31	0x42f5c5c4	122.88626
32	0x42078b0e	33.885796
33	0x428302b1	65.50526
34	0x429716ff	75.544914
35	0x42e0e3b2	112.44472
36	0x42bb30d3	93.59536
37	0x420a4d49	34.575474
38	0x4292b76d	73.35825
39	0x42a99d42	84.807144
40	0x432789f9	167.53896
41	0x42b5032d	90.5062
42	0x42af96c5	87.79447
43	0x43121ace	146.1047
44	0x431a8867	154.53282
45	0x41d5d948	26.731094
46	0x42e049c7	112.1441
47	0x426678a4	57.617813
48	0x42f2f898	121.485535
49	0x42c32642	97.57472
50	0x42691f69	58.280674
51	0x427b0036	62.750206
52	0x42856fb4	66.71817
53	0x42c8bb3d	100.3657
54	0x4213f9a2	36.993782
55	0x4258db7f	54.21435
56	0x41ed416a	29.65694
57	0x428b5006	69.656296
58	0x4228657a	42.0991
59	0x420e4567	35.567776
60	0x42c9cc9e	100.89964
61	0x42463dec	49.56047
62	0x42b88a21	92.26978
63	0x42b59abc	90.802216

8.weight f4 [64, 64, 3]
0	0xbe208130	-0.15674281
1	0x3e4a1bf2	0.19737223
2	0xbd99d05d	-0.07510445
3	0x3f76daae	0.9642743
4	0x3e2b6b99	0.16740264
5	0x3fb8b0f2	1.4429
6	0xbeda57c8	-0.42645097
7	0xbe6291fd	-0.22126003
8	0xbef3330c	-0.47499883
9	0x3eb03545	0.3441564
10	0x3e8a56b2	0.27019268
11	0x3f3d9276	0.74051607
12	0xbc05199f	-0.008123784
13	0xbf043a0a	-0.5165106
14	0x3ef1212c	0.4709562
15	0x3e9f123d	0.31068602
16	0x3d2f65df	0.04282176
17	0x3d86ff15	0.06591622
18	0xbe63bc32	-0.2223976
19	0x3e327af4	0.17429715
20	0xbeab341e	-0.334382
21	0x3e7d9afe	0.24766156
22	0x3d49b88a	0.049248256
23	0x3e98ca27	0.2984173
24	0x3e062211	0.13098933
25	0x3eaa9589	0.3331721
26	0x3dfee3b7	0.12445777
27	0xbde24451	-0.110481866
28	0x3b2f7949	0.0026775172
29	0xbf0c8f75	-0.549064
30	0xbe4dcb26	-0.20097026
31	0x3e7ca2e5	0.24671514
32	0xbdf6f8cd	-0.12059174
33	0xbe8b3492	-0.27188545
34	0xbd80de00	-0.06292343
35	0x3d12ee1e	0.035871617
36	0x3c567bec	0.013091069
37	0x3e2fec50	0.1717999
38	0x3e94e1fc	0.29078662
39	0xbf0d4593	-0.55184287
40	0x3f9c57df	1.2214316
41	0xbf89b34c	-1.0757842
42	0xbe442b20	-0.19157076
43	0x3ca23852	0.019802246
44	0xbea9438b	-0.33059344
45	0x3e19e4f7	0.1502875
46	0xbf774ebd	-0.9660452
47	0xbcb32331	-0.021867367
48	0xbf10b88e	-0.5653161
49	0xbe2a292f	-0.16617273
50	0xbf6aa769	-0.916617
51	0xbedc1428	-0.42984128
52	0xbeb4b2ff	-0.35292813
53	0xbed040a8	-0.4067433
54	0x3ebde55d	0.37089053
55	0x3eb9737a	0.36220914
56	0x3da392d1	0.079869874
57	0xbe17c15a	-0.14819852
58	0x3e134802	0.14382938
59	0xbd5a97ef	-0.05336755
60	0x3e980bc4	0.29696476
61	0xbc77fafe	-0.015135525
62	0x3d37c7da	0.044868328
63	0xbe28bfad	-0.16479369
64	0x3e59435d	0.21217103
65	0xbe1d5ce9	-0.15367474
66	0xbe062bed	-0.13102694
67	0xbd113c25	-0.03545775
68	0xbdc5b40b	-0.09653481
69	0x3ddf0293	0.10889163
70	0x3d4b1c08	0.04958728
71	0x3e47c5af	0.19509004
72	0x3d9f8b52	0.07790245
73	0x3e9f8d97	0.31162712
74	0x3d2d7095	0.042343695
75	0x3e37d660	0.17952871
76	0x3eeb614c	0.4597267
77	0x3e88d9e2	0.2672873
78	0x3cb6e6ae	0.022326794
79	0xbbb7e86e	-0.0056124246
80	0xbd86bb7c	-0.065787286
81	0x3f767164	0.9626677
82	0xbf4099f7	-0.7523493
83	0x3efbbeb5	0.49168935
84	0xbec53988	-0.38520455
85	0x3ecb2263	0.39674672
86	0xbe53eb49	-0.20695223
87	0xbeb2e694	-0.34941542
88	0x3effc8a9	0.4995778
89	0x3deee66f	0.116650455
90	0x3d2317d1	0.039817635
91	0xbe3a8b40	-0.18217182
92	0x3d11fd5b	0.03564201
93	0x3ea2ace4	0.3177253
94	0x3e6998af	0.2281215
95	0xbcff3c21	-0.031156601
96	0x3f497725	0.78697425
97	0xbdbeca3c	-0.09315917
98	0x3fbf3b00	1.493988
99	0xbecdbc3e	-0.4018268
100	0x3ea5e436	0.32400674
101	0xbedf6126	-0.43628806
102	0xbe372610	-0.17885613
103	0x3ec0e989	0.37678173
104	0xbe0ccada	-0.13749257
105	0x3d44b8a7	0.04802766
106	0x3e83bb72	0.25728947
107	0x3d90f171	0.07077301
108	0x3e1b3d59	0.15160121
109	0x3e880ecc	0.2657379
110	0x3e0becc1	0.13664533
111	0x3e333c8a	0.17503563
112	0x3f1742fd	0.5908659
113	0x3ee6d115	0.45081392
114	0xbf8cdec5	-1.1005484
115	0xbf8848cf	-1.064722
116	0xbf82c409	-1.0216075
117	0xbe894ff6	-0.26818818
118	0xbdb7afb5	-0.0896906
119	0xbf3118d9	-0.6917854
120	0xbe748e3e	-0.23882386
121	0x3e814165	0.25245205
122	0x3b2732e1	0.0025512504
123	0xbf0d437e	-0.5518111
124	0xbea8f1cd	-0.3299698
125	0xbed23612	-0.41056877
126	0xbe4282c8	-0.18995202
127	0x3e85a091	0.26099065
128	0xbea4298c	-0.32062948
129	0x3e798f23	0.24371009
130	0x3f0c52cd	0.54813844
131	0x3e34a438	0.1764077
132	0x3dacee3a	0.084438756
133	0x3e617a00	0.22019196
134	0x3da713ea	0.08158095
135	0x3f0745c7	0.52840847
136	0xbebad30c	-0.3648914
137	0x3f6f9f5a	0.93602526
138	0xbe92c2b1	-0.28664163
139	0xbe1be665	-0.15224607
140	0xbebffc97	-0.37497398
141	0xbef47ce4	-0.47751534
142	0x3e281df5	0.16417678
143	0xbf02c446	-0.5108074
144	0x3d17e5ff	0.037084576
145	0x3f081c93	0.531686
146	0xbda5f5cd	-0.081035234
147	0xbe601817	-0.2188419
148	0x3e2de298	0.1698097
149	0x3ca1bb5c	0.01974266
150	0x3d90448b	0.070443235
151	0xba75cab5	-0.0009376214
152	0xbecc474e	-0.3989815
153	0x3d6da55c	0.058019027
154	0x3e758fbf	0.23980616
155	0x3e28bee8	0.16479075
156	0xbee9bfc2	-0.45654112
157	0xbd450ea0	-0.04810965
158	0xbeedc4fb	-0.46439347
159	0x3e291fff	0.16516112
160	0x3d890662	0.066906705
161	0x3e60c3be	0.2194967
162	0x3f262f17	0.64915603
163	0x3f348137	0.70509666
164	0x3f2afd14	0.66792417
165	0x3f4044d5	0.7510503
166	0xbeb8d912	-0.36103112
167	0x3f4e6d56	0.80635583
168	0xbda84bee	-0.082176074
169	0x3f17d837	0.5931429
170	0xbf2faf22	-0.68626606
171	0xbd8b4348	-0.06799942
172	0x3e902ad9	0.2815769
173	0xbd3ba491	-0.04581124
174	0x3f5a58f3	0.85291976
175	0x3f25d839	0.64783055
176	0x3fa16a36	1.2610538
177	0x3f1951b3	0.5989029
178	0x3f38c6d1	0.7217837
179	0x3f43753e	0.7635077
180	0xbb9c644b	-0.004772698
181	0x3ea89dca	0.32932884
182	0x3df68ef8	0.12038988
183	0x3e0974b8	0.13423431
184	0xbdc9aee4	-0.09847811
185	0x3e4ba7d1	0.19888236
186	0x3e0ac201	0.13550569
187	0x3e4e90ef	0.20172475
188	0x3d8c7507	0.06858259
189	0xbe5d7372	-0.2162607
190	0x3d41058d	0.047124434
191	0xbd8cc45a	-0.068733886
192	0xbc666cee	-0.014064057
193	0xbdbd6058	-0.09246892
194	0x3e429bd3	0.19004755
195	0xbdd0d70b	-0.10197266
196	0x3e2d41d8	0.16919649
197	0xbe85920c	-0.26087987
198	0x3e4d0b72	0.20023897
199	0xbdd809ba	-0.1054873
200	0xbe425097	-0.18976055
201	0xbea5d0d4	-0.32385886
202	0xbde7ef84	-0.11324981
203	0xbdc17e93	-0.0944797
204	0xbde83c3f	-0.11339616
205	0x3dac678d	0.08418188
206	0x3e3ded58	0.1854757
207	0x3d8f46bc	0.069959134
208	0x3ea4b6df	0.3217077
209	0x3e9e2ece	0.30895084
210	0x3df29a48	0.11845833
211	0xbb67e980	-0.003538698
212	0x3e28c2d4	0.16480571
213	0x3e94fe99	0.29100493
214	0x3d146478	0.036228627
215	0x3e0deda1	0.1386018
216	0x3d5f20d5	0.05447467
217	0x3e2f1aba	0.17100039
218	0x3e164f92	0.14678791
219	0x3d3f72c6	0.046740316
220	0x3dfc4b15	0.12319008
221	0x3ec0bbd6	0.37643307
222	0xbde5dcfe	-0.112237915
223	0xbdbdc92c	-0.09266886
224	0x3e3ef240	0.18647099
225	0x3e3ce0e5	0.18445165
226	0xbd0a4789	-0.033759627
227	0x3d93c301	0.072149284
228	0x3d38ab5f	0.045085307
229	0x3c79d76b	0.015249114
230	0x3d147ab3	0.036249828
231	0x3ca2c514	0.019869365
232	0x3dcd18dc	0.10014507
233	0x3db514db	0.088418685
234	0x3f0bafc4	0.5456507
235	0x3e4b88f1	0.19876458
236	0xbc17c5d3	-0.009263474
237	0xbc987042	-0.018608216
238	0xbf3ae364	-0.7300322
239	0xbf0916bf	-0.5355033
240	0xbe1d2d8f	-0.1534941
241	0x3e307d49	0.17235292
242	0xbeafd7ed	-0.34344426
243	0x3e698b9e	0.22807166
244	0xbdf1174a	-0.1177202
245	0x3d27a04c	0.040924355
246	0x3d889685	0.06669334
247	0x3e83a741	0.25713542
248	0x3e93ee31	0.28892663
249	0x3dd9c4f1	0.10633267
250	0xbd2a64aa	-0.041599907
251	0x3d12da5f	0.035852786
252	0xbcd1875e	-0.025577243
253	0x3e8b52e3	0.27211675
254	0x3edb1725	0.42791095
255	0xbd51690b	-0.051125567

8.bias f4 [64]
0	0x39697849	0.00022265421
1	0x3ca20edc	0.019782476
2	0xbb6a20ce	-0.003572512
3	0xbd0185d6	-0.031621777
4	0xbd136124	-0.035981312
5	0xbd27dbd0	-0.040981114
6	0xbae9bc41	-0.0017832593
7	0x3b56c9df	0.0032774133
8	0xbde750cb	-0.11294707
9	0xbd99aca5	-0.075036325
10	0x3d99eab1	0.07515467
11	0xbd0ff62e	-0.035146885
12	0x3c2f24ff	0.010689973
13	0x39d9286e	0.00041419588
14	0x3dc38c83	0.09548285
15	0xbd874a91	-0.06606019
16	0x3da39eb6	0.07989256
17	0xbc086685	-0.008325224
18	0x3cc69d57	0.024244947
19	0x3c8916a3	0.016734427
20	0x3d697186	0.05699303
21	0xbd9949f6	-0.0748481
22	0x3cdbe0b4	0.026840545
23	0x3b8b0b03	0.004243256
24	0xbc8efb1a	-0.017453719
25	0x3d6bbf2d	0.057555366
26	0x3dc0670b	0.09394654
27	0x3d6da71c	0.058020696
28	0xbcb2996f	-0.021801678
29	0x3caaef2c	0.020866
30	0xb98f9c08	-0.00027391338
31	0x3df2ad4e	0.118494615
32	0xbb6ea166	-0.003641212
33	0x3c9e094b	0.01929154
34	0x3ca3ab82	0.019979242
35	0x3dd946c4	0.106092006
36	0x3c3094c4	0.010777656
37	0xbd8ab468	-0.06772691
38	0x3d29d1e2	0.041459925
39	0x3dbf3f74	0.093382746
40	0xbe027121	-0.12738468
41	0xbde6bb4c	-0.11266193
42	0xbdfaae93	-0.12240329
43	0x3c8174ff	0.015802858
44	0xbda10a81	-0.078633316
45	0x3d2453df	0.04011905
46	0x3d879426	0.06620054
47	0x3cd8819b	0.026428988
48	0xbc85a70f	-0.016315011
49	0xbd64aeeb	-0.055830877
50	0xbb601d4f	-0.0034197157
51	0x3c8c0c40	0.017095685
52	0xbd38c13d	-0.04510616
53	0xbdb1d9fd	-0.08684156
54	0x3d4ff33c	0.050769076
55	0xbca22930	-0.01979503
56	0xbe1fee38	-0.15618217
57	0xbb8d254d	-0.004307425
58	0xbbbb2336	-0.0057109846
59	0xbdbb0564	-0.091318876
60	0x3dcb0bdf	0.099143736
61	0xbd6a545f	-0.05720937
62	0xbdaea3ba	-0.08527322
63	0x3d945a3b	0.072437726

9.weight f4 [64]
0	0x3fa10282	1.257889
1	0x3f326d33	0.69697875
2	0x3f8a104c	1.0786223
3	0x3fc697f6	1.5515125
4	0x3f52fd0b	0.8241736
5	0x3f93863d	1.1525341
6	0x3f7a9be5	0.97894126
7	0x3f9901d6	1.1953685
8	0x3f6f1eb0	0.934062
9	0x3f183da9	0.59469086
10	0x3f85af1a	1.0444062
11	0x3f3615d7	0.71127075
12	0x3f764da9	0.9621225
13	0x3f258412	0.6465465
14	0x3f28309f	0.6569919
15	0x3f526111	0.8217936
16	0x3f76f7df	0.9647197
17	0x3f72389d	0.94617635
18	0x3f8b3c0e	1.0877702
19	0x3f9fe8ac	1.2492881
20	0x3f8d4aa7	1.1038407
21	0x3f38734f	0.72050947
22	0x3f5f1f86	0.87157476
23	0x3f8dfad8	1.1092176
24	0x3f66f8cc	0.90223384
25	0x3f334fef	0.70043844
26	0x3fb00121	1.3750345
27	0x3feb72e2	1.8394434
28	0x3f852a48	1.0403528
29	0x3f67d68e	0.9056176
30	0x3f524c65	0.8214782
31	0x3faa2b67	1.3294495
32	0x3f1cb5af	0.6121473
33	0x3f6ed446	0.93292654
34	0x3f2495f1	0.6429129
35	0x3f82d275	1.0220476
36	0x3f2317d2	0.6370822
37	0x3f54d99e	0.8314456
38	0x3f800dd1	1.0004216
39	0x3faeab3c	1.3646007
40	0x3f98645a	1.1905625
41	0x3f8d1dad	1.1024681
42	0x3f4467e3	0.7672102
43	0x3f83312b	1.024938
44	0x3f507a31	0.8143645
45	0x3f97b7ab	1.1852926
46	0x3f99cabb	1.2014993
47	0x3f41d695	0.7571805
48	0x3f28c43d	0.65924436
49	0x3f9f894d	1.2463776
50	0x3f549ddf	0.8305339
51	0x3f5f799b	0.8729493
52	0x3f9158b8	1.13552
53	0x3f972ca2	1.1810496
54	0x3f5b501d	0.8566912
55	0x3f4815a1	0.78158003
56	0x3facbc81	1.3495027
57	0x3f6467cc	0.8922088
58	0x3f506240	0.8139992
59	0x3f72fa33	0.94913024
60	0x3fbce091	1.4756032
61	0x3f8e55dc	1.1119952
62	0x3f645266	0.8918823
63	0x3f73787d	0.95105726

9.bias f4 [64]
0	0xbf9c1d1a	-1.2196381
1	0xbebcbc2c	-0.36862314
2	0xbf54ac45	-0.8307536
3	0x3ba3c660	0.0049980134
4	0xbf171c8a	-0.5902792
5	0xbf952162	-1.1650813
6	0xbf646a19	-0.8922439
7	0xbf0842e2	-0.53227055
8	0xbee44705	-0.44585434
9	0xbe8286aa	-0.25493366
10	0xbf359e9e	-0.70945156
11	0xbe3f9618	-0.187096
12	0xbf0d35a5	-0.5515998
13	0xbe8868c8	-0.26642442
14	0xbe81000d	-0.2519535
15	0xbf1e21db	-0.6177041
16	0xbf052cae	-0.520213
17	0xbf2ebd7e	-0.6825789
18	0xbf7b9473	-0.9827339
19	0xbf25ff0a	-0.64842284
20	0xbf2ad20f	-0.66726774
21	0xbe8b2538	-0.27176833
22	0xbf1e464d	-0.6182602
23	0xbefc25bd	-0.49247542
24	0xbe899099	-0.26868132
25	0xbed8ab97	-0.42318413
26	0xbf73fc75	-0.95307094
27	0xbda2dd9a	-0.079524234
28	0xbf07e5d6	-0.53085077
29	0xbf7838ae	-0.96961486
30	0xbe73a64c	-0.23793906
31	0xbf680265	-0.90628654
32	0xbdf5a576	-0.1199445
33	0xbef06721	-0.4695368
34	0xbbed92d3	-0.007250169
35	0xbf09e343	-0.538624
36	0xbdfc16a6	-0.12309007
37	0xbec6f001	-0.38854983
38	0xbf349833	-0.7054474
39	0xbf31d918	-0.69471884
40	0xbf049f84	-0.518059
41	0xbf43ae52	-0.76437867
42	0xbea993e5	-0.33120647
43	0xbf723d39	-0.9462467
44	0xbf0d4efd	-0.5519865
45	0xbf271305	-0.65263397
46	0xbf0ac249	-0.54202706
47	0xbee865da	-0.45390207
48	0xbe933fdd	-0.2875966
49	0xbef1e2c1	-0.47243312
50	0xbee54c24	-0.44784653
51	0xbf0d7cc5	-0.5526851
52	0xbf25b126	-0.6472343
53	0xbf40a325	-0.7524894
54	0xbee40fe5	-0.44543377
55	0xbf32ed09	-0.69892937
56	0xbe4f3610	-0.20235467
57	0xbefc38e9	-0.4926217
58	0xbeb5711c	-0.35437858
59	0xbed5d8d3	-0.41766986
60	0xbed7406e	-0.42041343
61	0xbf063db5	-0.5243791
62	0xbed8c3b2	-0.42336804
63	0xbeede7d3	-0.4646593

9.running_mean f4 [64]
0	0x3fd47dc6	1.6600883
1	0xc0a7b83d	-5.24124
2	0x4008eebb	2.139571
3	0xc173ce7e	-15.237913
4	0x3fa2a7d2	1.2707465
5	0x40f965d9	7.7936826
6	0xbf9e07a1	-1.2346078
7	0xc05c87b7	-3.4457834
8	0xbfca153c	-1.578773
9	0xbef9be67	-0.48778078
10	0xc0253d04	-2.581849
11	0xc0024fd3	-2.036122
12	0xc0093a02	-2.1441655
13	0xbf28f762	-0.66002476
14	0xc0e0fa73	-7.0305724
15	0xc104f1da	-8.309046
16	0x3f592f4a	0.8483778
17	0xbfdfbd2c	-1.7479606
18	0xc03b47ba	-2.9262528
19	0x3edab06f	0.42712733
20	0xc0578072	-3.3672147
21	0xc09fc526	-4.992816
22	0xc0a6a962	-5.2081766
23	0xc11f016d	-9.937848
24	0x4035fb68	2.8434696
25	0xbf24b7d1	-0.6434298
26	0x3da3e37c	0.080023736
27	0xc15e1fd8	-13.882774
28	0xc0054981	-2.0826113
29	0xc0445a22	-3.0680013
30	0xc0cded6c	-6.435232
31	0xc04ea203	-3.2286384
32	0xc09d84ad	-4.922446
33	0xc0bded43	-5.9352126
34	0xc0a76ddb	-5.23216
35	0xbf152d86	-0.5827259
36	0xc090dc82	-4.5269175
37	0xc008e7e0	-2.1391525
38	0xbf8560f7	-1.0420216
39	0xc0b670e2	-5.7012796
40	0x40bdb5ac	5.9284267
41	0xc121b91e	-10.107695
42	0x3f9a61f7	1.2061146
43	0x400ef646	2.2337813
44	0xc0651c03	-3.5798347
45	0xc09ac60e	-4.8366766
46	0x3f7d857e	0.9903182
47	0xc0a848be	-5.2588797
48	0xbfa32915	-1.2746912
49	0x3f6db701	0.92857367
50	0xc0493abe	-3.1442103
51	0x3f579065	0.84204704
52	0xc0143d96	-2.316259
53	0x3fad0bc4	1.3519216
54	0xc0ff0fe3	-7.9706893
55	0xc0cfe380	-6.496521
56	0xc0aa00ea	-5.3126116
57	0xbfa43164	-1.2827573
58	0xc109034b	-8.563304
59	0xc0b1ef1b	-5.5604377
60	0x403ad71b	2.919379
61	0xc014a257	-2.3224084
62	0xbfd62bb5	-1.6732088
63	0xc0afae96	-5.4900618

9.running_var f4 [64]
0	0x41e3b2b9	28.462267
1	0x42433adf	48.80749
2	0x426491f0	57.142517
3	0x42640901	57.008793
4	0x41a1b787	20.214613
5	0x4261d378	56.456512
6	0x421c4e15	39.076252
7	0x422f57c8	43.835724
8	0x421a4a75	38.572712
9	0x41cbd25d	25.477716
10	0x4284b176	66.3466
11	0x41ce12b8	25.75914
12	0x426020a6	56.031883
13	0x41a638b0	20.77768
14	0x41825710	16.292511
15	0x419a8225	19.313547
16	0x4210d7f6	36.2109
17	0x423fd5ec	47.958908
18	0x422804d8	42.00473
19	0x421f0164	39.751358
20	0x428c4743	70.13918
21	0x418a37ed	17.277308
22	0x41e8d5e8	29.104446
23	0x41d708c6	26.879284
24	0x4211e463	36.473034
25	0x42113146	36.29812
26	0x424b6b57	50.854824
27	0x42565056	53.578453
28	0x4222ef7a	40.733864
29	0x414073e1	12.028291
30	0x420b4ecc	34.82695
31	0x4237074d	45.75713
32	0x41dcbd1f	27.592344
33	0x4184954d	16.5729
34	0x41eef946	29.871716
35	0x425efea4	55.748672
36	0x4211fdcc	36.49785
37	0x4210598e	36.087456
38	0x41e3a29d	28.454401
39	0x423e57bf	47.58569
40	0x420206fd	32.506824
41	0x41b265ae	22.299648
42	0x42174f2e	37.827324
43	0x418f6574	17.924538
44	0x41b4a47e	22.580318
45	0x4277fc32	61.996284
46	0x4253bfa9	52.93717
47	0x419b6ece	19.429104
48	0x42146e7c	37.107895
49	0x421434c2	37.05152
50	0x41e0535f	28.040709
51	0x4205bc5c	33.433945
52	0x427ad05b	62.703472
53	0x42300e2b	44.013836
54	0x418912b2	17.134129
55	0x4180c2fb	16.095205
56	0x423270b3	44.610058
57	0x423f2e40	47.795166
58	0x423f4287	47.81497
59	0x426707a2	57.757454
60	0x423ab2ae	46.67449
61	0x42143f00	37.061523
62	0x42088e1a	34.13877
63	0x4242db08	48.713898
