notebooks/Radio_27ML/27ml_rf/27ml_rf_quantized.pth (torch, 719808 bytes, 47 tensors)

1.weight f4 [64, 2, 3]
0	0xbda3fe4a	-0.08007486
1	0x3dd319b0	0.10307634
2	0xbec2937d	-0.3800315
3	0xbeae6cb5	-0.34067312
4	0xbe8c015e	-0.27344793
5	0x3ba861d6	0.005138616
6	0x3c8ae92f	0.016956894
7	0x3eaee334	0.34157717
8	0x3db08c11	0.086204655
9	0x3c2adec3	0.010429087
10	0xbe257fa1	-0.16161968
11	0xbdf51886	-0.11967568
12	0xbe9c874d	-0.30571976
13	0xbe84452b	-0.2583402
14	0xbe515f21	-0.20446445
15	0x3cf5d36b	0.030008039
16	0x3e4f0b81	0.20219232
17	0x3e92ad39	0.28647783
18	0xbe61d111	-0.22052409
19	0xbdf4275a	-0.11921568
20	0x3d8de4b1	0.06928385
21	0x3ed522ac	0.41628015
22	0xbd932c70	-0.0718621
23	0x3ec22e3a	0.37925893
24	0xbdb3a97a	-0.087725595
25	0x3da11c21	0.07866693
26	0x3e9e724e	0.30946583
27	0xbee76bd4	-0.45199454
28	0xbe839591	-0.25700048
29	0xbe0746cd	-0.13210602
30	0xbe895d2f	-0.26828906
31	0x3e86bc71	0.26315644
32	0xbeced787	-0.4039881
33	0xbe815e51	-0.2526727
34	0xbe541527	-0.20711194
35	0xbec8e458	-0.39236712
36	0xbdd43191	-0.103610165
37	0x3ee2db20	0.44307804
38	0x3e8fa504	0.28055584
39	0x3daa8294	0.08325687
40	0xbdaf60d8	-0.08563393
41	0xbe43c4e4	-0.19118077
42	0xbd9d3417	-0.07675951
43	0xbeb52668	-0.35380864
44	0xbea5b69b	-0.3236588
45	0xbe5155aa	-0.20442834
46	0x3e816568	0.2527268
47	0x3ea74f30	0.32677603
48	0xbe221303	-0.15827565
49	0xbd5aa521	-0.053380135
50	0x3ea8ffec	0.33007753
51	0x3eb63505	0.35587326
52	0x3e49f62e	0.19722816
53	0x3c239f25	0.0099866735
54	0x3e66fa77	0.22556482
55	0xbe85af50	-0.26110315
56	0x3ce0bf64	0.027435012
57	0xbeb36f7e	-0.35046
58	0xbea12387	-0.31472418
59	0xbe9f84c4	-0.3115598
60	0x3e84c349	0.2593024
61	0x3e62cbbc	0.22148031
62	0xbe9494b9	-0.29019716
63	0x3e1b2130	0.15149379
64	0x3e751b71	0.2393625
65	0x3ce2fed5	0.027709404
66	0x3d4ab019	0.049484346
67	0x3e27cb44	0.16386133
68	0x3e8a99dc	0.2707051
69	0x3eacab04	0.33724225
70	0xbeafe1e3	-0.34352025
71	0xbe945330	-0.28969717
72	0x3e8ad399	0.2711456
73	0x3eb16cb4	0.34653246
74	0x3eb8ebae	0.3611731
75	0x3e9698e9	0.29413536
76	0x3d64f45e	0.05589711
77	0xbeb3e3bc	-0.35134685
78	0xbd96bf44	-0.073607
79	0xbebe43d6	-0.3716113
80	0xbedec4eb	-0.4350961
81	0x3ebe731a	0.3719719
82	0x3e9b874a	0.30376655
83	0xbebdfb69	-0.37105873
84	0xbcde211b	-0.027115395
85	0xbe1c22ff	-0.15247725
86	0xbe461053	-0.19342165
87	0xbe41a62e	-0.18911049
88	0x3d9aa0a9	0.07550175
89	0xbe8188a2	-0.25299555
90	0x3e09f152	0.13470963
91	0x3e49052c	0.19630879
92	0x3ec7aa30	0.3899703
93	0x3e1e5592	0.1546233
94	0xbec5c445	-0.38626304
95	0xbe56e309	-0.20985045
96	0x3e03bef8	0.12865818
97	0x3d949c30	0.07256353
98	0xbea8c52c	-0.3296293
99	0xbe43db5f	-0.19126652
100	0x3ed2860d	0.41117898
101	0x3ec4a1aa	0.3840459
102	0xbe8ef8b4	-0.2792412
103	0xbde3f6e4	-0.11131075
104	0xbef3b010	-0.47595263
105	0x3c66e9b4	0.014093805
106	0xbe1c890f	-0.15286659
107	0xbe90e69e	-0.28300947
108	0xbd4bf1e5	-0.049791235
109	0x3d4f01ac	0.050538704
110	0xbe572d61	-0.21013404
111	0x3eadcb3d	0.3394412
112	0xbe0fbf6f	-0.1403787
113	0x3eb582e1	0.35451415
114	0x3e24923e	0.16071412
115	0xbed0182a	-0.40643436
116	0xbdac4b0b	-0.08412751
117	0x3bf17753	0.007368961
118	0x3e38ecc1	0.18059064
119	0x3e569123	0.20953803
120	0x3d6a01f3	0.057130765
121	0xbe35d308	-0.17756283
122	0xbe50c6f7	-0.20388399
123	0x3e46fd0f	0.19432472
124	0xbeda2390	-0.42605257
125	0xbe92f5bd	-0.28703108
126	0xbe87e418	-0.2654121
127	0xbe47e6a7	-0.1952158
128	0xbe8610eb	-0.26184782
129	0xbe88b88b	-0.26703295
130	0xbe06ffe5	-0.13183554
131	0x3df2ea0b	0.118610464
132	0xbe103c5c	-0.14085525
133	0x3dfcf34e	0.12351094
134	0x3ed9544c	0.42447126
135	0xbd2c632e	-0.042086773
136	0xbd42cb09	-0.04755691
137	0xbda6cde7	-0.081447415
138	0x3e05bfbe	0.13061425
139	0x3edf8dc8	0.43662858
140	0x3ee71d70	0.45139647
141	0x3db3a0f0	0.08770931
142	0x3e4a7fbd	0.19775291
143	0xbe0c35e4	-0.13692433
144	0xbed7d763	-0.42156515
145	0xbe522bb5	-0.20524485
146	0x3e31ab26	0.17350444
147	0x3d8d6222	0.06903483
148	0xbe77c81a	-0.24197426
149	0xbe9b6cb0	-0.3035636
150	0xbed2f0e9	-0.41199425
151	0xbea12dfe	-0.31480402
152	0xbe10c485	-0.14137466
153	0x3e9ea9db	0.30988964
154	0x3ebad8d3	0.3649355
155	0xbe8f5638	-0.27995467
156	0x3e4c0196	0.1992248
157	0xbed34b65	-0.4126846
158	0xbe8d4d84	-0.27598202
159	0xbe38f787	-0.18063174
160	0xbe050370	-0.12989593
161	0xbdaaef19	-0.083463855
162	0xbebc228a	-0.367451
163	0xbed906cc	-0.42387998
164	0xbd8d6760	-0.06904483
165	0x3d9f2e18	0.077724636
166	0xbdd96db1	-0.10616625
167	0x3e32b44d	0.17451592
168	0xbec0893c	-0.37604702
169	0xbd67bb88	-0.056575328
170	0x3e8f6557	0.28007004
171	0xbde66d21	-0.112512834
172	0x3ef5825b	0.47951016
173	0x3e33327c	0.17499727
174	0xbedbfb26	-0.4296505
175	0x3e367c15	0.17820771
176	0xbe4b9936	-0.19882664
177	0xbe7e29db	-0.24820654
178	0x3e88db39	0.26729754
179	0xbec7d6bb	-0.39031014
180	0x3e034f43	0.12823205
181	0xbd22c5d1	-0.039739434
182	0x3ebeb992	0.37250954
183	0x3c61bb9c	0.01377764
184	0x3df472cc	0.11935958
185	0x3e046fd0	0.12933278
186	0xbe1f4143	-0.15552239
187	0xbde26cd7	-0.11055916
188	0xbeb9feb1	-0.36327127
189	0x3e9ecd4f	0.31016013
190	0x3e76f5ce	0.24117205
191	0x3e8f8317	0.280297
192	0xbee90266	-0.45509642
193	0x3b8ec5a0	0.004357055
194	0xbea1d1b4	-0.31605303
195	0xbe3d5829	-0.18490662
196	0xbe27015b	-0.16309111
197	0x3df5f2d9	0.1200921
198	0xbe8ad429	-0.2711499
199	0xbd2c15a4	-0.042012826
200	0xbdb96dd9	-0.09054155
201	0x3e875d57	0.264384
202	0xbed46111	-0.41480306
203	0xbe81fdef	-0.25389048
204	0xbe92f10a	-0.28699523
205	0x3e59703f	0.21234225
206	0xbe2a557f	-0.16634177
207	0x3eb2d9ab	0.34931692
208	0x3e61f655	0.22066624
209	0x3d51feea	0.051268496
210	0xbe3150e7	-0.17316018
211	0xbe145c19	-0.14488257
212	0xbe0b6a1a	-0.13614693
213	0xbdc02225	-0.093815126
214	0xbd35ddec	-0.044401094
215	0x3da68f5d	0.08132813
216	0xbebb9181	-0.36634448
217	0xbea021a9	-0.3127568
218	0x3e6b747f	0.22993658
219	0xbdfc464b	-0.12318095
220	0x3daafe2f	0.08349263
221	0x3f0f0e0e	0.5588082
222	0x3d4b4c69	0.049633417
223	0xbe1c00bd	-0.15234657
224	0xbee92833	-0.45538482
225	0x3e15c799	0.14626922
226	0xbea01e62	-0.3127318
227	0xbe479a41	-0.19492437
228	0xbdedd6f6	-0.11613266
229	0xbc91c741	-0.017795207
230	0x3cc41853	0.02393738
231	0x3eb31b86	0.34981936
232	0x3df0c86d	0.11756978
233	0x3ec1b886	0.37836093
234	0x3ec486bd	0.38384047
235	0xbe48bd8b	-0.19603555
236	0x3e83d7cc	0.25750577
237	0xbe9f4543	-0.3110753
238	0xbe4b24ba	-0.19838229
239	0x3deea611	0.116527684
240	0x3e89d94b	0.26923594
241	0x3ea9c544	0.33158314
242	0x3c16f60c	0.009213936
243	0xbc4e2a1b	-0.012583281
244	0x3df3a378	0.118964136
245	0xbecc7f61	-0.39940932
246	0x3e8ec5a6	0.2788517
247	0xbe83ed28	-0.25766873
248	0x3d6e86f0	0.058234155
249	0xbdd88fb5	-0.10574285
250	0xbea058ce	-0.31317753
251	0xbda5f5a9	-0.081034966
252	0x3e76de41	0.2410822
253	0xbe026769	-0.1273476
254	0xbe8559a1	-0.26044944
255	0xbe43c3a7	-0.19117604

2.weight f4 [64]
0	0x3f70e47b	0.94098634
1	0x3f5c2e3f	0.86008066
2	0x3f8e938a	1.1138775
3	0x3f8fd2c8	1.12362
4	0x3f80421f	1.0020179
5	0x3f8cb547	1.0992821
6	0x3f88908c	1.0669112
7	0x3f80216b	1.0010198
8	0x3f7e353a	0.9929997
9	0x3f82c6e9	1.0216953
10	0x3f7719c9	0.9652372
11	0x3f72e108	0.9487462
12	0x3f823fd5	1.017573
13	0x3f89e718	1.0773649
14	0x3f83ea38	1.0305853
15	0x3f8d27b3	1.102774
16	0x3f7ccb8e	0.987481
17	0x3f9420fa	1.1572564
18	0x3f6ffb63	0.9374296
19	0x3f5a4502	0.8526155
20	0x3f7a0e2a	0.9767786
21	0x3f8e30a4	1.1108594
22	0x3f6244c8	0.883862
23	0x3f8c78bc	1.0974345
24	0x3f8e3d44	1.1112447
25	0x3f8908e9	1.0705844
26	0x3f82e819	1.022708
27	0x3f947dcb	1.1600889
28	0x3f8002c5	1.0000845
29	0x3f76af51	0.9636126
30	0x3f8a201d	1.079105
31	0x3f7bfe25	0.9843467
32	0x3f81148a	1.0084393
33	0x3f611d46	0.8793529
34	0x3f885664	1.0651364
35	0x3f74bf3a	0.9560429
36	0x3f6ae356	0.9175314
37	0x3f6c1813	0.92224234
38	0x3f8278d7	1.0193127
39	0x3f747530	0.95491314
40	0x3f745769	0.9544588
41	0x3f6b3eb7	0.9189257
42	0x3f73d27e	0.9524306
43	0x3f812d83	1.0092014
44	0x3f727142	0.9470407
45	0x3f8b2141	1.0869523
46	0x3f56f5c9	0.8396879
47	0x3f61e860	0.882452
48	0x3f90dfb5	1.131827
49	0x3f6ba4f2	0.9204856
50	0x3f88b96b	1.0681585
51	0x3f8c24ad	1.0948693
52	0x3f755b31	0.9584227
53	0x3f837fcb	1.0273374
54	0x3f87179c	1.055408
55	0x3f59b5e5	0.85043174
56	0x3f911022	1.1333048
57	0x3f899483	1.0748447
58	0x3f869894	1.0515313
59	0x3f53645a	0.82575
60	0x3f7e952f	0.99446386
61	0x3f6e7b5e	0.93156993
62	0x3f8134f8	1.009429
63	0x3f87a9dd	1.0598713

2.bias f4 [64]
0	0xbdda8cf0	-0.10671413
1	0xbe22d577	-0.15901743
2	0xbd1eadae	-0.038739853
3	0x3a0b2089	0.00053072773
4	0xbd83e9e3	-0.06441095
5	0xbb2a721b	-0.0026007954
6	0xba2f5537	-0.0006688418
7	0xbddc4cd3	-0.107568406
8	0xbe00e351	-0.12586714
9	0xbda22d59	-0.07918806
10	0xbdfd5d83	-0.123713516
11	0xbe2987e3	-0.16555743
12	0xbd25b189	-0.040452514
13	0xbdb9bc04	-0.09069064
14	0xbde94fed	-0.11392198
15	0xbd4039e1	-0.046930198
16	0xbd3bd089	-0.04585317
17	0x3b707636	0.0036691553
18	0xbdfc9c47	-0.12334495
19	0xbe28fa4b	-0.16501729
20	0xbde36653	-0.11103501
21	0xbe03feb0	-0.12890124
22	0xbe55881c	-0.20852703
23	0x3cc76640	0.024340749
24	0xbd4de157	-0.05026373
25	0xbd8d6ae0	-0.069051504
26	0xbcfdcbd4	-0.030980982
27	0x3d8763a6	0.06610803
28	0xbdc1076c	-0.09425244
29	0xbe18055f	-0.14845799
30	0xbe0ba700	-0.13637924
31	0xbdd94dca	-0.1061054
32	0xbe0497e6	-0.1294857
33	0xbdaae9ab	-0.0834535
34	0xbda5c2ed	-0.0809382
35	0xbe2a3446	-0.16621503
36	0xbdbff740	-0.09373331
37	0xbe364cf9	-0.178028
38	0xbd8aefcb	-0.06784018
39	0xbdc30ee6	-0.09524326
40	0xbdc262bb	-0.094914876
41	0xbe397c92	-0.18113926
42	0xbe042a0e	-0.12906668
43	0xbd0ad90c	-0.0338984
44	0xbe00f468	-0.12593234
45	0xbd771624	-0.06032385
46	0xbe1b8c62	-0.1519027
47	0xbdea3ccb	-0.114373766
48	0x3d5175fd	0.051137913
49	0xbdc1ad35	-0.09456865
50	0xbdadaa6a	-0.084797695
51	0xbd653807	-0.055961635
52	0xbd4cd1e1	-0.050004844
53	0xbe035ff7	-0.12829576
54	0xbca3276c	-0.019916259
55	0xbe50c4b7	-0.20387541
56	0x3d4a88df	0.049446937
57	0xbda3cbc1	-0.07997847
58	0xbd28ebe4	-0.041240588
59	0xbe232601	-0.15932466
60	0xbdb97c4e	-0.09056912
61	0xbd1e9c0e	-0.038723044
62	0xbd9486e8	-0.07252294
63	0xbda7608e	-0.08172713

2.running_mean f4 [64]
0	0x3b4f85fb	0.0031665552
1	0x3d016a08	0.03159526
2	0xbd66bebf	-0.056334253
3	0xbd17f8b9	-0.037102435
4	0x3d33bc63	0.04388083
5	0x3c0b8168	0.00851474
6	0x3d17980c	0.037010238
7	0xbd4c4fd9	-0.049880836
8	0xbc60cd4a	-0.01372082
9	0x3d0a5e09	0.033781085
10	0xbbdd5ba1	-0.006755308
11	0x3d0406f5	0.032233197
12	0x3d4d8317	0.050173845
13	0xbd5fb60c	-0.054616973
14	0xbbc3aafd	-0.005971311
15	0x3d570ee7	0.052504446
16	0xbcc73361	-0.024316492
17	0xbd01e96d	-0.031716753
18	0xbcdd5753	-0.027019178
19	0xbce20c4c	-0.027593754
20	0x3b156d8c	0.002280089
21	0xbce65e20	-0.028121054
22	0x3cbe249e	0.02321082
23	0x3d40d8b8	0.04708168
24	0xbbbb94fa	-0.0057245465
25	0xbd71b908	-0.05901435
26	0xbc207c39	-0.009795242
27	0xbd4cccb4	-0.049999908
28	0xbcbf3093	-0.023338592
29	0xbc0db21f	-0.008648424
30	0x3c8405ca	0.016116042
31	0xbd7870a8	-0.060654312
32	0xbd03d2b2	-0.032183357
33	0xbbaaaa07	-0.005208257
34	0xbd03ca23	-0.032175194
35	0xbc9ec0fe	-0.019379135
36	0xbd10c555	-0.03534444
37	0xbc7f393f	-0.015577613
38	0xbd0d9c18	-0.03457269
39	0x3d054137	0.032532897
40	0x3d1fb6de	0.038992755
41	0x3ca2e48e	0.019884374
42	0x3c95bc38	0.018278226
43	0xbd82267d	-0.06354997
44	0xbceee52d	-0.029162014
45	0xbd107625	-0.03526892
46	0x3c8374fd	0.016046995
47	0xbccedac6	-0.025250804
48	0xbd0758b9	-0.033043597
49	0x3c182385	0.009285812
50	0xbcd65251	-0.026162298
51	0x3d2a554e	0.04158526
52	0x3ae94a3a	0.001779861
53	0x3cf7a17a	0.030228365
54	0x3d661027	0.056167748
55	0xbd3008fb	-0.042977314
56	0x3d81b0fe	0.06332587
57	0xbc766895	-0.015039583
58	0xbd1f2f85	-0.038863678
59	0x3d0048b1	0.031319324
60	0xbdb30257	-0.08740681
61	0xbd152ba6	-0.03641858
62	0xbd90d0fd	-0.07071111
63	0x3d5eca18	0.05439195

2.running_var f4 [64]
0	0x42f85f24	124.18582
1	0x427ea41b	63.66026
2	0x43375004	183.31256
3	0x430c3193	140.19365
4	0x433e5ef7	190.37096
5	0x436069c0	224.41309
6	0x42d8e1b6	108.44084
7	0x43276dfe	167.42966
8	0x42b26228	89.19171
9	0x435d598b	221.34978
10	0x42834aec	65.64633
11	0x42b81ba9	92.05402
12	0x435c1052	220.06375
13	0x4370caa4	240.79156
14	0x4284c7fd	66.3906
15	0x433120a9	177.12758
16	0x42e45f00	114.18555
17	0x435b0df1	219.05446
18	0x42ad8da7	86.776665
19	0x428c6d5b	70.213585
20	0x42e19375	112.788
21	0x43079bd4	135.6087
22	0x425f3e8d	55.811085
23	0x436a6438	234.39148
24	0x42fbfb14	125.99039
25	0x436b289c	235.15863
26	0x42c846cb	100.13827
27	0x432b5dca	171.36636
28	0x42cf1179	103.53413
29	0x42e3e9bc	113.95651
30	0x428978d7	68.736015
31	0x4370ab13	240.66826
32	0x4317ee87	151.93175
33	0x42cd8915	102.76774
34	0x42dcd5c8	110.41754
35	0x4226830d	41.62798
36	0x43008826	128.53183
37	0x42f103da	120.50752
38	0x43226fbb	162.43645
39	0x42c7327d	99.59861
40	0x42e1a6a5	112.82548
41	0x428d2c19	70.58613
42	0x4313112d	147.0671
43	0x43795578	249.33386
44	0x42cc78a4	102.23563
45	0x438157fe	258.68744
46	0x42c53de6	98.620895
47	0x42c90d83	100.52639
48	0x428e8427	71.25811
49	0x42da6f53	109.21743
50	0x42aeac5b	87.33663
51	0x42ddd33a	110.91255
52	0x424e59be	51.58764
53	0x427b4070	62.812927
54	0x4360bab9	224.72939
55	0x4323c4b6	163.7684
56	0x43854bad	266.59122
57	0x435e5737	222.34068
58	0x42f72961	123.58082
59	0x429269ca	73.20662
60	0x43e72872	462.31598
61	0x4309eea4	137.93219
62	0x4395115d	298.13565
63	0x439dbd65	315.47964

5.weight f4 [64, 64, 3]
0	0x3e2ea271	0.17054154
1	0x3e812429	0.252229
2	0x3e069ee1	0.13146545
3	0x3df149be	0.11781643
4	0x3d5d5246	0.05403354
5	0x3ddf5257	0.10904377
6	0xbca5e82d	-0.020252312
7	0xbd3f8d6c	-0.04676573
8	0xbd09c9f3	-0.03363986
9	0xbdbf55be	-0.09342526
10	0xbd843317	-0.06455057
11	0x3d059a95	0.032618124
12	0x3e24c901	0.16092302
13	0x3e1e9bf1	0.15489174
14	0x3d948de7	0.07253628
15	0x3e5db7e3	0.21652178
16	0x3e6e8bbe	0.23295495
17	0x3deaa6b5	0.11457578
18	0x3b5cc48a	0.0033686482
19	0x3e118040	0.1420908
20	0xba52b795	-0.000803822
21	0xbd7bf785	-0.06151535
22	0x3d69a8d6	0.05704578
23	0x3d0f127e	0.034929745
24	0xbd670e3d	-0.056410063
25	0x3d1c18ad	0.03810947
26	0xbd39f981	-0.04540396
27	0x3e0a4738	0.1350373
28	0x3e4c4462	0.19947961
29	0x3e15da23	0.14633994
30	0x3da164ab	0.07880529
31	0x3d3fe95c	0.04685341
32	0x3d47a16d	0.048737932
33	0x3ce8114f	0.028328566
34	0x3c272006	0.010200506
35	0x3db489d1	0.08815349
36	0x3cc7d0f5	0.02439163
37	0xbcf29f8a	-0.02961709
38	0x3c8ca6cf	0.017169384
39	0x3d7eddef	0.06222337
40	0xbcbb76c8	-0.022883788
41	0xbd59d178	-0.05317828
42	0x3d9c4c0c	0.07631692
43	0x3da0800a	0.078369215
44	0x3d152c15	0.036418993
45	0x3df58ad2	0.119893685
46	0x3d59a8a1	0.053139333
47	0x3de38488	0.11109263
48	0x3df7922c	0.12088427
49	0xbd9d2feb	-0.07675155
50	0xbd856ccb	-0.06514891
51	0x3d09262b	0.033483665
52	0x3d57527f	0.05256891
53	0x3d8e15fe	0.069377884
54	0xbce6fcb8	-0.028196678
55	0xbdf1a5fb	-0.117992364
56	0xbdb7d599	-0.089762874
57	0xbdc28dd6	-0.09499709
58	0x3c517747	0.012784786
59	0x3cefa7c3	0.0292548
60	0x3dbb72ee	0.091527805
61	0x3e12d81d	0.14340253
62	0x3dba9041	0.091095455
63	0x3d46a84a	0.048500337
64	0x3c9b0971	0.0189254
65	0x3c9d4c0f	0.019201307
66	0x3d9a9e77	0.07549756
67	0x3e16bebe	0.147212
68	0x3cc3ad3a	0.023886312
69	0x3bae4595	0.0053183534
70	0xbd0de3ad	-0.034640957
71	0x3dd6ca4e	0.10487805
72	0x3dc2168b	0.09476956
73	0x3e430283	0.19043927
74	0x3c9d507d	0.019203419
75	0x3d09c6f6	0.03363701
76	0xbd9ddc22	-0.077080026
77	0xbc05c543	-0.008164707
78	0x3de30060	0.11084056
79	0xbc980466	-0.018556785
80	0x3de2720d	0.1105691
81	0x3d422d64	0.04740657
82	0x3c0912a8	0.008366264
83	0x3d5a743f	0.053333517
84	0xbdfc2a57	-0.12312763
85	0xbc16a9dc	-0.009195771
86	0x3d8a2a7c	0.067463845
87	0x3dd53aae	0.10411583
88	0x3e23bd3a	0.15990153
89	0x3cf24d27	0.029577805
90	0xbda0ef09	-0.07858092
91	0xbd3c09ca	-0.045907773
92	0xbc1347e8	-0.008989312
93	0xbc3d25a8	-0.0115446225
94	0xbda8e65e	-0.08247064
95	0x3c55ffa6	0.01306144
96	0xbc22318b	-0.009899507
97	0xbc1b29a5	-0.009470378
98	0x3aa71d06	0.0012749739
99	0x3db77a9c	0.08958933
100	0x3cb24f85	0.021766433
101	0x3e11366b	0.14180915
102	0x3d656362	0.056002982
103	0xbcc0e111	-0.02354482
104	0x3c44779a	0.011991406
105	0xbc39dbf4	-0.011343945
106	0xbc53e40b	-0.012932788
107	0x3dc227a6	0.094802186
108	0xbbf09346	-0.007341775
109	0xbdbb5a34	-0.09148064
110	0x3df999c2	0.1218753
111	0x3df9c157	0.1219508
112	0xbd6f0c01	-0.058361057
113	0x3d427e78	0.04748389
114	0x3cc12d2d	0.023581112
115	0x3db1c7d4	0.08680692
116	0xbd9997bb	-0.074996434
117	0x3de2836b	0.11060222
118	0x3dd1c139	0.102419324
119	0x3e064f15	0.13116105
120	0x3e130c82	0.1436024
121	0x3c82ed87	0.015982402
122	0x3c87178f	0.016490726
123	0x3df7d0cb	0.12100371
124	0x3d11f363	0.035632502
125	0x3e09b4be	0.13447854
126	0x3de703fe	0.11280058
127	0x3def2b83	0.11678221
128	0x3dd9c85b	0.10633918
129	0xbd9ee05a	-0.077576354
130	0xbbeee55e	-0.0072905263
131	0x3c79ae59	0.015239322
132	0xbd77df45	-0.06051566
133	0x3d64697a	0.055764653
134	0x3cf11a68	0.029431537
135	0x3d2165d1	0.03940374
136	0x3d5aa2ea	0.053378023
137	0x3d6f75db	0.058462005
138	0x3c79d016	0.015247365
139	0xbd70da2f	-0.058801826
140	0x3d2a219b	0.041535955
141	0xb9738700	-0.00023224577
142	0x3d00ceda	0.03144727
143	0xbdb303f8	-0.08740991
144	0x3d03dfda	0.032195903
145	0xbd8c355a	-0.068461135
146	0x3dbacb62	0.091208234
147	0x3dedff32	0.1162094
148	0x3dda33dc	0.10654423
149	0x3deb0923	0.11476352
150	0x3c4047ac	0.011735838
151	0x3d52ac93	0.05143411
152	0x3d032853	0.032020878
153	0x3d162661	0.036657695
154	0x3daf569f	0.085614435
155	0x3dd14989	0.10219104
156	0xbdc9751a	-0.098367885
157	0xbcf110be	-0.029426929
158	0x3cd98e1a	0.026557017
159	0x3d2185aa	0.039434113
160	0x3db6de66	0.08929138
161	0x3e28d0d4	0.16485912
162	0xbc206792	-0.009790318
163	0x3d6a39ed	0.05718415
164	0x3ce8bcbe	0.028410312
165	0x3c6a78e9	0.014311054
166	0xbdc6dca0	-0.0971005
167	0x3bd73e4c	0.0065687057
168	0x3dfb7d73	0.12279787
169	0x3c4ca7d7	0.012491188
170	0x3d8faef2	0.0701579
171	0x3dafc570	0.0858258
172	0x3cbd0d1c	0.02307754
173	0xbc7ae791	-0.015313999
174	0xbd019efd	-0.031645764
175	0xbd2a5bb9	-0.04159138
176	0xbdd718ae	-0.10502754
177	0x3c64d7fa	0.013967508
178	0xbc46812e	-0.01211576
179	0x3dbe9ac2	0.093068615
180	0xbdcc28b7	-0.09968703
181	0x3d0de4a6	0.034641884
182	0xbce3697a	-0.027760256
183	0xbd4d3f98	-0.050109476
184	0x3ca73497	0.020410819
185	0x3dd2c9a0	0.10292363
186	0x3d36b375	0.044604737
187	0x3cac9d81	0.021071197
188	0xbc925963	-0.017864889
189	0xbcda82d4	-0.026673712
190	0x3d163730	0.036673725
191	0x3dee6174	0.116396815
192	0xbdca63b2	-0.098822966
193	0xbe094dba	-0.13408557
194	0xbd1e243d	-0.03860878
195	0x3e3acbed	0.18241854
196	0x3e03fab1	0.128886
197	0x3da27110	0.07931721
198	0xbd8940f2	-0.067018405
199	0xbcf97d8e	-0.030455377
200	0xbe037483	-0.12837414
201	0xbd338a4a	-0.043833055
202	0xbbb513ef	-0.005526058
203	0x3ba01885	0.0048857355
204	0x3dcd61cd	0.1002842
205	0x3d99ff3b	0.075193845
206	0x3d80e95c	0.0629451
207	0xbdb92b17	-0.09041422
208	0xbdf35e4f	-0.11883222
209	0x3d88d7bd	0.06681774
210	0x3dfe38c2	0.124131694
211	0x3e2004a6	0.15626773
212	0x3d55baf6	0.052180253
213	0x3d026d91	0.031842772
214	0x3dcb9015	0.09939591
215	0x3bd932b1	0.0066283573
216	0xbccae25b	-0.024766138
217	0x3c62074e	0.013795687
218	0xbcb8549f	-0.022501288
219	0x3da72b61	0.08162571
220	0xbc9b4c11	-0.01895717
221	0xbca15f0c	-0.019698642
222	0x3bef3632	0.0073001618
223	0x3cefd0c8	0.02927436
224	0xbcee0341	-0.029054286
225	0x3d1d9d14	0.03847988
226	0x3d188fe6	0.037246607
227	0xbb9ce70f	-0.0047882865
228	0x3e31b744	0.17355067
229	0x3dda1e28	0.10650283
230	0x3e0b6354	0.1361211
231	0xbc34744e	-0.011014057
232	0xbbc6a010	-0.0060615614
233	0xbc7afae2	-0.015318604
234	0xbcbcda9c	-0.02305346
235	0x3d52fb9d	0.05150949
236	0xbdf13c99	-0.11779136
237	0x3e575e9e	0.21032187
238	0x3e0e7a9f	0.13913964
239	0x3cf81ece	0.030288126
240	0xbdc0fae8	-0.094228566
241	0xbd3169cd	-0.04331379
242	0x3d11e8ed	0.035622526
243	0xbe08b68b	-0.13350885
244	0xbe454de2	-0.19267991
245	0x3b055f59	0.002035102
246	0x3d1a4f73	0.037673425
247	0x3d566dd5	0.052350838
248	0xbb031568	-0.0020001773
249	0xbd871f62	-0.06597783
250	0x3da8db20	0.0824492
251	0xbd965723	-0.07340839
252	0xbd947283	-0.07248404
253	0xbd910789	-0.07081515
254	0xbd884433	-0.06653633
255	0xbded4fd5	-0.115874924

6.weight f4 [64]
0	0x3f89482e	1.0725152
1	0x3f6e24ce	0.9302491
2	0x3f86eef1	1.0541669
3	0x3f80f527	1.0074815
4	0x3f6faea0	0.9362583
5	0x3f7490af	0.9553327
6	0x3f867950	1.0505772
7	0x3f7fdcf4	0.9994652
8	0x3f6a4ae4	0.91520524
9	0x3f808d37	1.0043095
10	0x3f803e92	1.0019095
11	0x3f81635f	1.0108451
12	0x3f82ead1	1.022791
13	0x3f8ddea8	1.1083574
14	0x3f893ab7	1.0721043
15	0x3f9c1558	1.2194014
16	0x3f8e9870	1.114027
17	0x3f8b435a	1.0879929
18	0x3f5981fb	0.8496396
19	0x3f701bb1	0.93792254
20	0x3f6efcfa	0.9335476
21	0x3f8483b3	1.0352691
22	0x3f87cf3b	1.0610117
23	0x3f85fb83	1.046738
24	0x3f8660e4	1.0498319
25	0x3f8c0d8f	1.0941638
26	0x3f848c69	1.035535
27	0x3f5f7682	0.87290204
28	0x3f86688e	1.0500658
29	0x3f6193fd	0.8811644
30	0x3f84b1a0	1.0366707
31	0x3f823fbb	1.0175699
32	0x3f839e9d	1.028278
33	0x3f76860a	0.9629828
34	0x3f6dfcc4	0.92963815
35	0x3f78d80c	0.9720466
36	0x3f869bc0	1.0516281
37	0x3f671f63	0.9028227
38	0x3f74bccb	0.95600575
39	0x3f841ca4	1.032124
40	0x3f8057f0	1.0026836
41	0x3f863028	1.0483446
42	0x3f8ca5a1	1.0988046
43	0x3f852d93	1.0404533
44	0x3f889744	1.0671163
45	0x3f85b2d3	1.0445198
46	0x3f8c8f96	1.0981319
47	0x3f7f0a6b	0.9962527
48	0x3f7ad52e	0.97981536
49	0x3f813e2e	1.0097101
50	0x3f62a6b6	0.8853563
51	0x3f8fc224	1.1231122
52	0x3f84a2a6	1.0362136
53	0x3f761078	0.9611888
54	0x3f725318	0.9465804
55	0x3f7ab746	0.97935903
56	0x3f50779e	0.8143252
57	0x3f88262d	1.063665
58	0x3f77f6f6	0.9686121
59	0x3f769eef	0.96336263
60	0x3f72b5ee	0.9480885
61	0x3f7f8b68	0.9982209
62	0x3f5e9c28	0.86957026
63	0x3f6bd58a	0.9212271

6.bias f4 [64]
0	0x3d22e587	0.039769676
1	0x3b845915	0.0040389397
2	0xbd1c3d72	-0.038144536
3	0x3d083c12	0.033260413
4	0xbd9950c3	-0.07486107
5	0xbdd4d83b	-0.10392805
6	0x3dfd8598	0.123789966
7	0xbd076b72	-0.033061452
8	0xbd260282	-0.040529735
9	0xbdc2db47	-0.0951448
10	0xbc7d4cf8	-0.015460245
11	0xbdd1ac00	-0.102378845
12	0xbcd85b5d	-0.026410753
13	0x3d733ea8	0.059385926
14	0x3cfac056	0.030609291
15	0x3e1c3d6a	0.15257803
16	0x3dabcb9f	0.08388447
17	0x3cc2852a	0.023745138
18	0xbe357ff8	-0.17724597
19	0x3c5fdead	0.01366393
20	0xbd533b12	-0.051570006
21	0x3cbeda6d	0.023297513
22	0x3e19db41	0.15025045
23	0x3d307523	0.04308046
24	0xbcf26165	-0.029587457
25	0xbcd43884	-0.025905855
26	0xbc12ecaa	-0.008967558
27	0xbe2e8416	-0.17042574
28	0x3c36acd6	0.011149606
29	0xbbb013b7	-0.005373444
30	0x3cda20f1	0.026627036
31	0xbc378a36	-0.011202386
32	0x3da90afb	0.082540475
33	0x3cc441c2	0.023957137
34	0xbdb4fa2c	-0.08836779
35	0x3d9745eb	0.07386383
36	0xbdf6f73d	-0.12058876
37	0xbd7acf87	-0.06123307
38	0xbdb4347f	-0.08799075
39	0xbd14aa55	-0.036295254
40	0xbdaf94c4	-0.08573297
41	0xbcc55c29	-0.024091797
42	0x3ca43f7b	0.020049801
43	0x3a8a70eb	0.0010562217
44	0x3c2f0e0a	0.0106844995
45	0x3d590109	0.052979503
46	0x3dadedde	0.08492635
47	0x3da979ea	0.082752064
48	0xbdb6ba3f	-0.089222424
49	0x3e1198e5	0.14218481
50	0xbcdc1c6c	-0.026869021
51	0x3d01a143	0.03164793
52	0xbc3200f1	-0.010864482
53	0x3da408a6	0.08009462
54	0xbd287022	-0.041122563
55	0xbdafed12	-0.085901394
56	0xbdb58211	-0.08862699
57	0x3cdf816f	0.027283398
58	0xbd9ea4a0	-0.077462435
59	0xbdcb563f	-0.099285595
60	0xbcd42c0d	-0.025899911
61	0x3d489652	0.04897148
62	0xbdea57b6	-0.11442511
63	0xbcc5ac7d	-0.0241301

6.running_mean f4 [64]
0	0x40418d4c	3.024249
1	0x3e4fa9f9	0.20279683
2	0x403a2039	2.9082167
3	0xbdb9b37c	-0.09067437
4	0x3fbac557	1.4591473
5	0x3f0aac01	0.5416871
6	0x4012e667	2.2953126
7	0x3f298280	0.6621475
8	0x3fa23b28	1.2674303
9	0x402a6266	2.6622558
10	0x40173078	2.3623333
11	0x403db4f6	2.96417
12	0x404f1b7c	3.2360525
13	0x404e902d	3.2275498
14	0x401cb611	2.4486125
15	0x4033b4a5	2.8079007
16	0xc0958f1b	-4.673719
17	0x402133c6	2.518785
18	0x3f8c3d3b	1.0956186
19	0x3e456be1	0.19279434
20	0xbf3e9820	-0.74450874
21	0x40324b61	2.7858508
22	0xc0474731	-3.1137202
23	0x3eae1c76	0.3400609
24	0x401bea2d	2.436168
25	0x406d9a6e	3.7125506
26	0x3f0881d5	0.5332311
27	0xbf4c7a97	-0.7987456
28	0x4036262e	2.8460803
29	0x3f67a4f7	0.9048609
30	0x3f219010	0.63110447
31	0x400ae782	2.17038
32	0x403a106b	2.907252
33	0x403303bb	2.7971027
34	0x406959b3	3.6460998
35	0x4001330f	2.0187414
36	0x3f8b05e5	1.0861174
37	0x3f6f5203	0.93484515
38	0x3f7e364f	0.9930162
39	0x4069c604	3.652711
40	0x40116926	2.2720428
41	0x4058cea3	3.387612
42	0x3fd3a818	1.6535673
43	0x402f0ee6	2.7352843
44	0x4004fa21	2.0777667
45	0x39546cd2	0.00020258434
46	0x4088d2c3	4.2757277
47	0x3fe04acb	1.7522825
48	0x3fc7105f	1.5551871
49	0xbf696ed0	-0.9118471
50	0x40452ce0	3.080864
51	0x4040095a	3.0005708
52	0x401c107d	2.4385064
53	0xbf9dd486	-1.2330482
54	0x3fcd1a59	1.6023666
55	0x4042a02f	3.0410268
56	0xbe543955	-0.20724995
57	0x4024f37d	2.5773613
58	0x400cf951	2.202717
59	0x3f2c2068	0.6723695
60	0x3e8e5c9d	0.27805033
61	0x401e0a57	2.469381
62	0x4015c4fd	2.3401482
63	0x3fdc8f2b	1.7231191

6.running_var f4 [64]
0	0x40ce86f3	6.4539733
1	0x4138c770	11.548691
2	0x40bf8809	5.985356
3	0x4003e2b3	2.0607116
4	0x40f37d68	7.6090584
5	0x415bfde7	13.749488
6	0x40fac209	7.836186
7	0x40d9c3d1	6.8051534
8	0x413d24b7	11.821464
9	0x40db5cb1	6.855065
10	0x41143429	9.262734
11	0x41a7c7c8	20.97255
12	0x410c298e	8.760145
13	0x410f100b	8.941417
14	0x41113c1a	9.077173
15	0x40ef7e30	7.4841537
16	0x4093e6c6	4.6219206
17	0x414095dd	12.036588
18	0x4100ca96	8.049459
19	0x4128078b	10.501842
20	0x416bfe72	14.74962
21	0x41750fbc	15.316341
22	0x40f4123b	7.6272254
23	0x3f83f1c5	1.0308157
24	0x4166646c	14.399517
25	0x41141144	9.254215
26	0x4131e94f	11.11946
27	0x4180ac96	16.08427
28	0x40418e07	3.0242937
29	0x4181142f	16.134855
30	0x413a2745	11.634587
31	0x40c67b2c	6.2025356
32	0x410b9f47	8.726386
33	0x416515e7	14.317847
34	0x414d17fe	12.818357
35	0x40f7d895	7.745188
36	0x41523a15	13.13918
37	0x40d67c8c	6.7027035
38	0x4113c0fc	9.234615
39	0x403549c0	2.8326263
40	0x409a5589	4.8229413
41	0x4100be11	8.046403
42	0x40c44977	6.133968
43	0x40a9b053	5.302774
44	0x41882f71	17.023165
45	0x4158b4e9	13.5441675
46	0x4122f67b	10.185176
47	0x4112ee84	9.183231
48	0x4183d59a	16.479298
49	0x41205b75	10.022328
50	0x413029b7	11.010184
51	0x410f5384	8.95789
52	0x41029abd	8.162778
53	0x40f4f7ee	7.655265
54	0x411ed06d	9.925885
55	0x4154afb5	13.292897
56	0x413cafc0	11.792908
57	0x4143777e	12.216673
58	0x40ed3964	7.4132557
59	0x414645a6	12.392004
60	0x413dcd20	11.862579
61	0x417849bc	15.518002
62	0x40f3a673	7.6140685
63	0x4111a5ae	9.102949

9.weight f4 [64, 64, 3]
0	0xbd21cf2a	-0.039504208
1	0xbd0b3665	-0.03398742
2	0x3d9fc49b	0.078011714
3	0x3d33116d	0.04371779
4	0xbc6f123c	-0.01459175
5	0xbde0f26a	-0.10983737
6	0x3e05f4c5	0.13081653
7	0x3d8a0aba	0.06740327
8	0x3e0d2d3c	0.13786787
9	0xbd430be5	-0.047618765
10	0x3e1c20bd	0.15246864
11	0x3e338922	0.17532781
12	0x3e1b7b6b	0.15183799
13	0x3cbbb9f7	0.022915823
14	0x3d31fb34	0.043452457
15	0xbc90d3b0	-0.017679065
16	0xbca27f77	-0.01983617
17	0x3d1c035f	0.038089152
18	0xbd3c2933	-0.045937728
19	0x3ce2f034	0.027702428
20	0x3cd4378d	0.025905395
21	0xbd6be7b8	-0.05759403
22	0xbdbcbb08	-0.09215361
23	0xbe289108	-0.16461575
24	0x3e1aca3b	0.15116207
25	0xbd7b0568	-0.061284453
26	0x3d957b14	0.07298866
27	0xbbca2658	-0.0061691217
28	0x3d90902b	0.07058748
29	0xbde84a57	-0.11342304
30	0x3e1b8ac3	0.15189652
31	0x3e0a46d7	0.13503586
32	0x3b772439	0.00377108
33	0x3d780648	0.060552865
34	0x3d8a0dac	0.06740889
35	0x3df2ddd5	0.11858717
36	0xbe0f2218	-0.1397785
37	0xbd3918b4	-0.045189574
38	0xbdfbffee	-0.12304674
39	0x3c0b2d20	0.008494645
40	0xbd7f2d67	-0.06229916
41	0xbe3dbf61	-0.18530037
42	0xbda5a3b7	-0.08087867
43	0xbd14bb6a	-0.036311544
44	0xbd5b658b	-0.053563636
45	0xbdfadbd3	-0.122489594
46	0xbd1a7c96	-0.03771647
47	0x3c43503a	0.011920983
48	0xbb9b26ad	-0.004734835
49	0xbdc9b57e	-0.0984907
50	0xbd702008	-0.058624297
51	0x3ddc2976	0.107500955
52	0x3dda92af	0.10672509
53	0xbca54e4b	-0.020178935
54	0xbda0e748	-0.078566134
55	0x3c8f0e72	0.017462943
56	0xbd521e0c	-0.051298186
57	0xbc6cbd23	-0.014449391
58	0xbd9152ac	-0.070958465
59	0xbe5ccfd0	-0.21563649
60	0xbe22a68a	-0.15883842
61	0xbdb45554	-0.088053375
62	0xbd654b7c	-0.05598019
63	0x3d3e4936	0.04645654
64	0xbdb4adb3	-0.08822193
65	0x3db7db39	0.0897736
66	0xbde838cd	-0.11338959
67	0xbc9baae4	-0.019002385
68	0x3d790eed	0.06080525
69	0xbd278305	-0.040896434
70	0x3df0737c	0.11740777
71	0x3d803059	0.062592216
72	0xbd8799dc	-0.06621143
73	0x3d023398	0.031787485
74	0xbd652604	-0.055944458
75	0x3d85e314	0.06537452
76	0x3d5aa604	0.05338098
77	0x3da0d140	0.07852411
78	0xbb4ad8a9	-0.0030951893
79	0xbd3c6d0f	-0.046002444
80	0x3ca1226f	0.01966974
81	0x3e4f47d9	0.20242251
82	0x3cc28cdc	0.023748808
83	0xbc2aad8d	-0.010417354
84	0x3c7f08ee	0.015566094
85	0xbe156416	-0.14588961
86	0xbdb9be6e	-0.09069525
87	0xbdf1d547	-0.118082576
88	0xbda6b3ca	-0.08139761
89	0xbe36c4b8	-0.1784848
90	0xbe295324	-0.16535622
91	0x3c865822	0.016399447
92	0x3d4785bf	0.048711535
93	0xbb988b10	-0.0046552494
94	0x3c1fca74	0.009752858
95	0x3ca40f67	0.020026876
96	0x3dee4926	0.11635046
97	0xbd9c7fad	-0.0764154
98	0x3dcdf129	0.10055763
99	0x3c96dce3	0.018415874
100	0x3dd3fb21	0.103506334
101	0x3e186a18	0.14884222
102	0x3d21b953	0.03948338
103	0x3d2f18b3	0.042748164
104	0x3d8f5ff0	0.070007205
105	0xbdb98052	-0.09057678
106	0x3c7a3094	0.015270371
107	0xbd399bbb	-0.04531453
108	0xbcc7c188	-0.024384275
109	0xbbab3fd5	-0.005226115
110	0x3cb0566f	0.02152559
111	0xbcc8fd8d	-0.024534965
112	0x3cdfcb97	0.027318759
113	0xbc099118	-0.008396409
114	0xbdc1fbe1	-0.0947187
115	0xbdd14639	-0.10218472
116	0xbd6f277c	-0.058387265
117	0xbc18a2cd	-0.0093161585
118	0xbc1d0579	-0.009583824
119	0xbcdd2a6e	-0.026997771
120	0x3e33c423	0.17555289
121	0x3dd04694	0.10169712
122	0x3e5324ca	0.20619503
123	0x3c7812c3	0.015141192
124	0x3d8ceab8	0.068807065
125	0x3d5aea51	0.053446118
126	0xbd481c9c	-0.04885541
127	0xbd28d44a	-0.04121808
128	0xbde469ad	-0.111529686
129	0xbdb7b3d2	-0.08969845
130	0xbc2b5c85	-0.01045907
131	0xbe39b158	-0.18134058
132	0x3e45c708	0.19314206
133	0x3d979549	0.07401521
134	0x3d5d8c81	0.054089073
135	0xbda52752	-0.080641404
136	0xbd8112cb	-0.063024126
137	0x3c9b05b2	0.018923614
138	0x3da02309	0.078191824
139	0x3e362f6d	0.17791529
140	0x3e7c75c2	0.24654296
141	0x3ca5731a	0.020196486
142	0x3c686b6d	0.014185769
143	0x3d99a6fd	0.075025536
144	0x3dc6bd0e	0.09704028
145	0x3de1b393	0.11020579
146	0x3e338db1	0.1753452
147	0x3db3548d	0.08756361
148	0x3dc53dc0	0.096309185
149	0x3d61bed9	0.055113647
150	0xbcf8333b	-0.030297866
151	0xbc59a4c6	-0.013283914
152	0xbd37a667	-0.044836428
153	0x3e6df74d	0.23238869
154	0x3e7abb85	0.24485596
155	0x3d65d32b	0.05610959
156	0x3d8fb21b	0.07016393
157	0x3e2f3e6f	0.1711366
158	0x3cd571fc	0.026055329
159	0x3d6c36d7	0.057669487
160	0x3d819c7a	0.06328674
161	0x3d81be5f	0.063351385
162	0x3ccef2da	0.025262285
163	0xbd9afee2	-0.07568146
164	0x3cf1716d	0.029473031
165	0x3cced4ad	0.025247896
166	0x3e17808c	0.1479513
167	0x3e0a4e5d	0.13506456
168	0x3cd8f632	0.026484583
169	0xbdfeecb0	-0.12447488
170	0x3d3f1fdd	0.046661247
171	0x3d4e1d2f	0.0503208
172	0xbd872867	-0.06599503
173	0x3dd84fba	0.10562082
174	0x3d047c9a	0.03234539
175	0xbdf6c431	-0.12049139
176	0xbd39010e	-0.04516702
177	0xbddfdac4	-0.10930398
178	0xbe1cd363	-0.15315013
179	0xbe4c75e3	-0.19966845
180	0xbc922df7	-0.017844183
181	0xbd1e578e	-0.038657717
182	0x3c8144a6	0.015779804
183	0x3dc333a0	0.09531331
184	0x3c9fc58a	0.019503374
185	0x3d9ff532	0.07810439
186	0xbcd06f6d	-0.025443757
187	0x3d1d2436	0.03836461
188	0x3d1cf601	0.038320545
189	0xbd55cf12	-0.05219943
190	0xbdb1c03f	-0.08679246
191	0xbd0ef30e	-0.034899764
192	0xbe0c00f4	-0.13672239
193	0xbd2f307d	-0.04277085
194	0xbdcc8605	-0.099865
195	0xbc7ee9f9	-0.015558713
196	0x3d8093c5	0.06278185
197	0x3cb4560c	0.022013687
198	0x3dc8da60	0.09807277
199	0x3d8a6389	0.06757266
200	0x3e544cbb	0.20732395
201	0x3dd9c69c	0.10633585
202	0x3cd6cfd9	0.026222156
203	0x3da9de10	0.08294308
204	0xbd908e87	-0.07058435
205	0xbd39d297	-0.04536685
206	0x3dc45662	0.09586789
207	0x3ce9119f	0.028450785
208	0x3dabf240	0.08395815
209	0x3d881c7f	0.0664606
210	0xbdcf37f4	-0.10118094
211	0xbdfc26ad	-0.12312064
212	0xbde77e87	-0.1130343
213	0x3cba4fa2	0.02274305
214	0xbc3131aa	-0.0108150635
215	0x3dfa2354	0.122137696
216	0x3da789cd	0.0818058
217	0xbcec75fa	-0.02886485
218	0x3de0b6c1	0.109723575
219	0xbc5f5be2	-0.013632746
220	0x3d73c40c	0.059513137
221	0x3dc0eae0	0.09419799
222	0xbe066df9	-0.13127889
223	0x3c03a3bb	0.008034642
224	0x3b9012dd	0.00439678
225	0xbc0ebad2	-0.008711534
226	0x3dac5948	0.084154665
227	0x3cd2e4f4	0.025743939
228	0x3d600319	0.054690454
229	0x3dd3de3c	0.10345122
230	0x3d9bdddd	0.076106764
231	0x3e399b30	0.18125606
232	0x3dbfc742	0.09364177
233	0x3e215102	0.15753558
234	0xbd1fc245	-0.03900363
235	0x3d071e63	0.032987963
236	0xbce41b19	-0.027844952
237	0xbc334fb9	-0.0109443
238	0xbc814b31	-0.015782924
239	0xbe2f9820	-0.17147875
240	0x3db015a5	0.08597878
241	0xbd339e82	-0.043852337
242	0xbdaee6d5	-0.085401215
243	0xbcd3a6fa	-0.025836457
244	0xbdbef45c	-0.093239516
245	0x3d145757	0.036216106
246	0xbd68504f	-0.056717213
247	0x3d8db28a	0.06918819
248	0x3d537797	0.05162772
249	0x3dbd058f	0.09229576
250	0xb95b8451	-0.00020934759
251	0x3e37ceb1	0.1794994
252	0xbda7454e	-0.08167516
253	0xbe276caa	-0.16350046
254	0xbe4cbd8e	-0.19994184
255	0xbd9908a8	-0.07472354

10.weight f4 [64]
0	0x3f8b3861	1.087658
1	0x3f7e346f	0.9929876
2	0x3f75a350	0.9595232
3	0x3f8a4511	1.0802327
4	0x3f921d05	1.1415106
5	0x3f62422e	0.8838223
6	0x3f7bfdba	0.9843403
7	0x3f7c9cb0	0.98676586
8	0x3f83a24b	1.0283903
9	0x3f7d36fc	0.98912024
10	0x3f89f7da	1.0778763
11	0x3f846066	1.0341918
12	0x3f64c61e	0.893648
13	0x3f72c1e2	0.9482709
14	0x3f7b2095	0.9809659
15	0x3f68021f	0.90628237
16	0x3f823a97	1.017413
17	0x3f663c52	0.8993579
18	0x3f8e9dfb	1.1141962
19	0x3f68f484	0.909981
20	0x3f85a4f1	1.0440961
21	0x3f7a82a2	0.9785558
22	0x3f81d17e	1.0142057
23	0x3f8a1427	1.07874
24	0x3f7bdd04	0.9838412
25	0x3f6f045c	0.93366027
26	0x3f8e7f67	1.113263
27	0x3f83faed	1.0310951
28	0x3f745248	0.9543805
29	0x3f8e7c13	1.1131614
30	0x3f77d7ac	0.96813464
31	0x3f66bf32	0.9013549
32	0x3f6b25e8	0.91854715
33	0x3f851063	1.0395626
34	0x3f818d3a	1.0121224
35	0x3f7d5ba3	0.9896795
36	0x3f8be5ea	1.0929539
37	0x3f6b5e7f	0.91941065
38	0x3f94d136	1.1626346
39	0x3f958b56	1.1683147
40	0x3f8064e3	1.0030788
41	0x3f65b535	0.89729625
42	0x3f758ae1	0.9591504
43	0x3f5b2873	0.85608596
44	0x3f84a5c9	1.0363094
45	0x3f881392	1.0630972
46	0x3f8073d4	1.0035348
47	0x3f692fa8	0.9108834
48	0x3f8008ca	1.0002682
49	0x3f8c1907	1.0945138
50	0x3f83577f	1.0261077
51	0x3f7f1994	0.99648404
52	0x3f8ad271	1.0845472
53	0x3f7601e7	0.9609665
54	0x3f85c9cc	1.0452209
55	0x3f880a4e	1.0628145
56	0x3f768470	0.96295834
57	0x3f6be7ad	0.92150384
58	0x3f694156	0.9111532
59	0x3f7ead67	0.9948334
60	0x3f806c92	1.0033133
61	0x3f838d56	1.0277507
62	0x3f7748a6	0.9659523
63	0x3f6495b4	0.8929093

10.bias f4 [64]
0	0x3e26b611	0.1628039
1	0x3dcac77f	0.09901332
2	0xbdc1253f	-0.09430932
3	0x3c0ad681	0.008473993
4	0x3e1888a0	0.14895868
5	0xbd9c6eb2	-0.07638301
6	0xbcf9dadd	-0.03049987
7	0xbd7de5eb	-0.061986845
8	0x3dda3a93	0.106557034
9	0x3dad203c	0.08453414
10	0xbd161d27	-0.036648896
11	0xbc614edf	-0.0137517145
12	0x3db5eafd	0.08882711
13	0x3be62d27	0.0070244255
14	0xbd269453	-0.040668797
15	0xbd44d2bd	-0.04805254
16	0xbda32b57	-0.07967251
17	0xbdef5059	-0.11685247
18	0x3d374828	0.044746548
19	0xbdd32000	-0.10308838
20	0xbcdde9e3	-0.027089065
21	0xbdf01286	-0.11722283
22	0x3d151aa7	0.03640237
23	0x3d0fe37e	0.035129063
24	0xbc3c3914	-0.011488218
25	0xbd1e24a1	-0.03860915
26	0xbc5d09bf	-0.013491093
27	0x3d8fe21b	0.07025548
28	0xbd4b131f	-0.049578782
29	0x3de2955f	0.110636465
30	0x3d978507	0.0739842
31	0xbd9fede3	-0.07809045
32	0xbd958596	-0.0730087
33	0xbd0034dd	-0.031300414
34	0x3b75659f	0.0037444604
35	0x3d47b535	0.048756797
36	0x3d4a9d67	0.049466517
37	0x3bfb6a35	0.007672573
38	0x3dd66f47	0.10470443
39	0x3e0e86f5	0.1391867
40	0xbd3d48be	-0.04621195
41	0xbd36664a	-0.044531144
42	0xbb8071fe	-0.003919839
43	0xbda5b56c	-0.08091244
44	0x3cbd2f9f	0.023093997
45	0x3d3617cc	0.04445629
46	0x3d2ec679	0.042669747
47	0xbe2a8dde	-0.1665568
48	0xbcad2934	-0.021137811
49	0x3de7b545	0.11313871
50	0xbc752884	-0.014963273
51	0x3c62e822	0.01384929
52	0x3b2c7ebf	0.0026320664
53	0xbd116d2b	-0.0355045
54	0xbd777cf3	-0.060421895
55	0x3d8cc7d7	0.06874054
56	0x3e0e0be4	0.13871723
57	0x3cd19738	0.025584802
58	0xbe1ffdeb	-0.15624206
59	0xbcad71dd	-0.021172458
60	0x3cd22641	0.025653007
61	0xbd5c2d9e	-0.05375444
62	0xbcdc9b73	-0.026929593
63	0xbddbee2c	-0.10738787

10.running_mean f4 [64]
0	0x3f8cd4e7	1.1002473
1	0xbcf14a93	-0.029454505
2	0xbfaaf934	-1.3357301
3	0xc0501921	-3.2515337
4	0x3fa2ff0c	1.2734084
5	0x3f9d9b89	1.231309
6	0x3d5c6603	0.053808223
7	0xbf0d9b78	-0.5531535
8	0xbfad7536	-1.3551395
9	0x3e9af707	0.30266592
10	0x404a045a	3.1565156
11	0xbf242655	-0.6412099
12	0x3f02e7ea	0.5113512
13	0xbf4d7b8a	-0.8026663
14	0xbdba7593	-0.09104457
15	0xbff86d16	-1.940829
16	0x3fbf2541	1.4933244
17	0xc04b92f3	-3.180844
18	0xbe76b45b	-0.24092238
19	0xc04232db	-3.034354
20	0x3ff99c22	1.9500773
21	0xbefe84fc	-0.49710834
22	0xbff0d31e	-1.8814428
23	0x3f8f894a	1.1213772
24	0x3f22895e	0.63490856
25	0xbf6fbccc	-0.93647456
26	0x40008f52	2.0087476
27	0x3e6a63e8	0.22889674
28	0xbec56fa2	-0.38561732
29	0x3f168173	0.58791274
30	0xbf94ab48	-1.1614771
31	0xc014fcf8	-2.32794
32	0xbf503430	-0.8132963
33	0x404df0e0	3.2178268
34	0xc01a1ba7	-2.4079378
35	0xbd322d94	-0.043500498
36	0xbfa7ab9d	-1.3099247
37	0xbf1dd604	-0.61654687
38	0x3f9ccaa0	1.2249336
39	0x3f81a32a	1.0127919
40	0xbf64c2f6	-0.89359987
41	0xbeebdd32	-0.46067196
42	0x3ec3a0b2	0.38208538
43	0xbf4cdfb1	-0.80028826
44	0x3fba4abb	1.4554056
45	0xc00a8e27	-2.1649263
46	0xbfdbbba9	-1.7166644
47	0x3f8f114f	1.1177157
48	0xbf1d2b65	-0.6139434
49	0x405a1d8f	3.408054
50	0x3f06ebf4	0.52703786
51	0xc023cbfb	-2.559325
52	0xbf087c30	-0.53314495
53	0x3e685241	0.22687627
54	0x4046d8a2	3.1069722
55	0xbf28fd11	-0.6601115
56	0x3feaeffe	1.835449
57	0x3fb79959	1.4343673
58	0xbeee26e4	-0.46514046
59	0xc06f4e57	-3.7391565
60	0xc06ac3e1	-3.6682055
61	0xc05d734e	-3.4601626
62	0x3ebd8ba0	0.37020588
63	0xbf37ce03	-0.71798724

10.running_var f4 [64]
0	0x413b7060	11.714935
1	0x412fec8b	10.99525
2	0x40dc2f52	6.8807764
3	0x40eb4e29	7.353291
4	0x40e682c9	7.203465
5	0x410471b4	8.27776
6	0x40bc2c8d	5.8804383
7	0x4091af34	4.552637
8	0x41162807	9.384772
9	0x410bbe5c	8.733974
10	0x408a3a0b	4.3195853
11	0x40db3c02	6.851075
12	0x40cde685	6.4343896
13	0x411cdd03	9.803958
14	0x407efad2	3.9840589
15	0x40cfbdb1	6.4919057
16	0x40d47343	6.63907
17	0x41258781	10.345582
18	0x40819102	4.048951
19	0x4180217d	16.016352
20	0x41793095	15.574361
21	0x410ef783	8.935428
22	0x40ba01b4	5.812708
23	0x40bb229b	5.8479743
24	0x40f69299	7.705395
25	0x410b2965	8.697606
26	0x408a9c30	4.331566
27	0x40a53674	5.162897
28	0x411b113b	9.691707
29	0x407b8c5c	3.9304419
30	0x40c5fa11	6.1867757
31	0x410bb643	8.7319975
32	0x404d1083	3.2041328
33	0x408a47b0	4.321251
34	0x40b56101	5.6680913
35	0x41324d29	11.143838
36	0x400443e0	2.0666428
37	0x4126f922	10.435823
38	0x401408a4	2.3130274
39	0x40e3ef9c	7.122999
40	0x4124e4b3	10.305835
41	0x409c31bb	4.8810706
42	0x41276a92	10.463518
43	0x410a82a1	8.656892
44	0x40e79428	7.2368355
45	0x411ac89f	9.67398
46	0x41670234	14.438038
47	0x4175eedc	15.370815
48	0x40acbd42	5.3981028
49	0x40cf1183	6.4708877
50	0x40bc15ca	5.87766
51	0x40d0110e	6.502082
52	0x3ff1099c	1.8831058
53	0x41009d3d	8.038388
54	0x40b7cce9	5.7437634
55	0x40a7b214	5.240488
56	0x40ed354c	7.412756
57	0x41478f8f	12.4725485
58	0x4124fd33	10.311816
59	0x41004092	8.015764
60	0x410f9a1c	8.975124
61	0x40d15d44	6.542635
62	0x40286489	2.6311362
63	0x4135ccbe	11.362486

13.weight f4 [64, 64, 3]
0	0xbbd46d12	-0.0064827288
1	0x3dae3040	0.08505297
2	0x3c5cb84b	0.013471673
3	0x3de86b1c	0.113485545
4	0xbda165c8	-0.07880741
5	0xbd877dfd	-0.06615827
6	0xbd8db7c7	-0.06919818
7	0xbdd60fdc	-0.10452244
8	0xbcf84519	-0.030306386
9	0xbe4f0b73	-0.20219211
10	0x3db521f7	0.08844369
11	0xbd4ac9a2	-0.0495087
12	0x3d4c313d	0.049851645
13	0xbde22feb	-0.11044296
14	0xbe633553	-0.2218831
15	0xbd4ca1c4	-0.04995896
16	0xbcf40b73	-0.029790616
17	0xbcd8e4ab	-0.026476225
18	0xbc958c59	-0.0182554
19	0xbe4f343b	-0.20234768
20	0x3d011f71	0.031524125
21	0xbddcadc7	-0.10775333
22	0xbe0be252	-0.13660553
23	0xbdcc1b6f	-0.0996617
24	0xbe063cac	-0.13109082
25	0xbdd8567b	-0.1056337
26	0x3d3d8d5a	0.04627738
27	0xbbcf7d3d	-0.0063320682
28	0x3e1a56f1	0.15072228
29	0x3cf631cb	0.03005304
30	0xbc36eac5	-0.011164372
31	0xbdbe284d	-0.092850305
32	0x3ab89841	0.0014083461
33	0xbcaa1476	-0.02076171
34	0x3ddba20a	0.10724266
35	0xbe06e312	-0.13172558
36	0xbe163de6	-0.1467205
37	0xbe255e2c	-0.16149205
38	0xbda0d082	-0.0785227
39	0x3d75c3e2	0.06000126
40	0xbd8fc733	-0.07020416
41	0xbd0ee223	-0.03488363
42	0xbcc184cd	-0.023622895
43	0xbdac11ce	-0.084018335
44	0xbd7ae376	-0.06125208
45	0xbe18e6e1	-0.14931823
46	0xbde16b4b	-0.11006793
47	0xbdbfc24b	-0.0936323
48	0x3da056a0	0.078290224
49	0x3b75f85c	0.0037532067
50	0x3c70984d	0.014684749
51	0xbd789abe	-0.06069445
52	0xbd805e1e	-0.062679514
53	0xbd13a6ca	-0.036047734
54	0x3e5d29ba	0.21597949
55	0xbd4b6066	-0.04965248
56	0xbda642db	-0.081182204
57	0x3d64e711	0.055884425
58	0xbde93851	-0.113876946
59	0xbd66f649	-0.05638722
60	0x3dc79570	0.097453
61	0xbd4fe177	-0.05075213
62	0xbdf4df37	-0.11956637
63	0x3de666aa	0.1125005
64	0xbbfcfb15	-0.007720361
65	0x3dae21b3	0.08502521
66	0x3dbe9f96	0.09307782
67	0xbd7924e2	-0.06082619
68	0xbe5b76b6	-0.21432003
69	0xbd5645fa	-0.05231283
70	0xbe6d6d6c	-0.23186272
71	0x3d0abf90	0.033874094
72	0xbcdd50cf	-0.027016072
73	0xbe2c8dd8	-0.16850984
74	0xbd32233e	-0.04349064
75	0x3e2bdddb	0.1678385
76	0xbd0c7233	-0.034288596
77	0xbdee50db	-0.11636516
78	0xbccc4a89	-0.024937885
79	0xba68b600	-0.0008877218
80	0x3d6c003a	0.057617404
81	0xbdc5fa84	-0.09666923
82	0xbd27c6af	-0.040960964
83	0xbc83f24a	-0.016106743
84	0xbdd2b825	-0.10289029
85	0xbd5cdae1	-0.053919677
86	0x3cd49ebe	0.0259546
87	0xbe096a14	-0.13419372
88	0xbe594718	-0.21218526
89	0xbd72fdc4	-0.05932404
90	0x3d84a244	0.06476262
91	0x3dbeedd1	0.09322704
92	0x3dbb1f0d	0.09136782
93	0xbdebb15e	-0.115084395
94	0xbca6ab93	-0.020345485
95	0x3cceb612	0.025233302
96	0x3db6bef1	0.08923138
97	0xbce2146d	-0.02759763
98	0xbe14a8f5	-0.14517577
99	0x3c2d8701	0.0105912695
100	0x3cfb5743	0.030681258
101	0xbcc4d9d7	-0.024029655
102	0x3d5e4376	0.054263555
103	0xbd0ab4c5	-0.0338638
104	0xbded3834	-0.115829855
105	0x3e313532	0.17305449
106	0xbc7a214f	-0.01526673
107	0xbc7b726f	-0.015347107
108	0xbccb4a0f	-0.024815587
109	0xbd0980f5	-0.03357025
110	0xbe0c4fa9	-0.13702263
111	0x3cb2aaf6	0.021810036
112	0x3bd7d5b3	0.006586754
113	0xbcd5acdb	-0.0260834
114	0xbbb78086	-0.005600038
115	0x3e18a3a5	0.14906175
116	0xbe251b19	-0.16123618
117	0xbc831ff0	-0.01600644
118	0xbd923fca	-0.07141073
119	0xbddd2b7d	-0.1079931
120	0x3d7d87d2	0.061897106
121	0xbc5a4224	-0.013321433
122	0x3d14cb87	0.03632691
123	0x3ccb1c68	0.024793819
124	0xbc1ddcb0	-0.0096351355
125	0xbd9ee460	-0.07758403
126	0x3d7b5191	0.061357085
127	0xbdad16f4	-0.084516436
128	0x3ce02d41	0.027365329
129	0xbdd3e93f	-0.103472225
130	0xbdd51fbd	-0.10406444
131	0x3b990c50	0.004670657
132	0xbd968186	-0.073489234
133	0x3ce53542	0.027979497
134	0x3d4759b2	0.048669524
135	0xbd55b6ac	-0.052176163
136	0xbe081770	-0.1329019
137	0xbd4cc597	-0.049993124
138	0xbde4a401	-0.11164094
139	0xbd9a69f8	-0.07539743
140	0x3d9e2de4	0.07723597
141	0xbe19c9b4	-0.1501835
142	0xbc8e71c8	-0.01738824
143	0xbdd255d1	-0.102702744
144	0x3dc7b9f9	0.09752268
145	0x3d93d0c5	0.07217554
146	0x3e295c92	0.16539219
147	0xbca69476	-0.020334464
148	0x3d889dae	0.066707
149	0x3d517480	0.051136494
150	0x3d90b11b	0.0706503
151	0xbde3bc29	-0.11119873
152	0xbe27df38	-0.16393745
153	0xbdcf18e1	-0.10112167
154	0xbcae29a7	-0.021260096
155	0x3ddfa6e6	0.10920505
156	0x3ca86ae8	0.02055879
157	0xbd8b04d7	-0.067880325
158	0x3c90795d	0.017635996
159	0x3d1b815b	0.03796516
160	0x3ba9164d	0.005160129
161	0xbc9263bb	-0.01786982
162	0x3dd05f5b	0.101744376
163	0x3dfad266	0.122471616
164	0xbc7d9e3b	-0.01547962
165	0xbde2179e	-0.11039661
166	0xbdee4927	-0.116350465
167	0xbe16ff7d	-0.14745899
168	0x3c957ca0	0.018247902
169	0xbc1552d3	-0.009113985
170	0xbe39918d	-0.1812193
171	0xbdc67d18	-0.096918285
172	0x3d0bd548	0.034138948
173	0xbd40b76b	-0.04704992
174	0x3d74c882	0.05976153
175	0xbd8a4c1d	-0.06752799
176	0xbd2ffece	-0.04296761
177	0xbe40a281	-0.1881199
178	0xbd98294f	-0.07429754
179	0xbbaff005	-0.0053691887
180	0xbd98b426	-0.074562356
181	0x3d80ed49	0.062952586
182	0xbae0f74e	-0.0017163546
183	0x3b8ca0ab	0.004291614
184	0xbb819fda	-0.0039558234
185	0xbdb2ef96	-0.08737104
186	0x3d864996	0.06557004
187	0x3d708dfc	0.058729157
188	0x3d42aed4	0.04753001
189	0xbb55e78a	-0.0032639229
190	0xbd1f6e71	-0.038923685
191	0x3dd11365	0.10208777
192	0x3bac39d3	0.0052559166
193	0x3e07e7bb	0.13271992
194	0xba93ce39	-0.0011276669
195	0x3d4d0d2f	0.0500614
196	0xbe22af09	-0.15887083
197	0xbd739742	-0.059470423
198	0xbd9f4a57	-0.07777851
199	0xbc7111ae	-0.014713688
200	0xbda0871b	-0.07838269
201	0xbd01344c	-0.031544015
202	0xbde8498a	-0.113421515
203	0x3e017844	0.12643534
204	0x3db47d37	0.08812945
205	0xbbddac4a	-0.006764923
206	0xbdba0c26	-0.090843484
207	0xbda65a06	-0.08122639
208	0xbc344f1d	-0.01100519
209	0x3c31a68e	0.010842932
210	0xbcf60ce1	-0.030035438
211	0xbd91b2fc	-0.07114217
212	0x3dfda3eb	0.123847805
213	0xbe543ff1	-0.20727517
214	0xbdd635e9	-0.10459501
215	0x3c36170f	0.011113896
216	0x3b19e38d	0.0023481578
217	0xbbe4e62d	-0.006985447
218	0xbd17e1d9	-0.03708062
219	0x3cbb9296	0.022897046
220	0x3e023d50	0.12718701
221	0xbd999cdb	-0.07500621
222	0xbd81bca6	-0.0633481
223	0x3c4f9a5a	0.012671078
224	0x3d933edb	0.07189723
225	0xbadc4f9b	-0.0016808392
226	0xbd08dc74	-0.033413365
227	0xbe1c920a	-0.15290084
228	0xbd8f7fc6	-0.07006793
229	0x3c741268	0.0148969665
230	0x3d0b438b	0.03399996
231	0x3d723393	0.059131216
232	0xbc934abe	-0.017979976
233	0x3d9824b1	0.07428873
234	0xbd0eee78	-0.03489539
235	0xbbc7b70f	-0.0060948203
236	0x3da109a7	0.07863169
237	0xbd95cf26	-0.07314901
238	0xbbd8a2f3	-0.006611222
239	0x3dd22835	0.10261575
240	0xbcc90e8e	-0.024543073
241	0xbde9486a	-0.11390765
242	0x3dabf436	0.08396189
243	0xbde2e3f1	-0.110786326
244	0x3b49cb6b	0.0030791413
245	0x3dac1b20	0.08403611
246	0xbd643641	-0.055715803
247	0xbd836e6b	-0.06417545
248	0xbe873b1c	-0.26412284
249	0xbcd7e363	-0.026353544
250	0x3daf6d51	0.08565772
251	0x3c97c58a	0.018526811
252	0x3c613f35	0.01374798
253	0x3c6e2153	0.014534312
254	0xbda7b907	-0.08189588
255	0xbd5fc666	-0.054632567

14.weight f4 [64]
0	0x3f79df00	0.97605896
1	0x3f83e713	1.0304893
2	0x3f820dbd	1.0160443
3	0x3f87d426	1.0611618
4	0x3f89a79f	1.0754279
5	0x3f6613e3	0.89874095
6	0x3f5c52f0	0.8606405
7	0x3f8c3062	1.0952265
8	0x3f827d4b	1.0194486
9	0x3f75f168	0.9607148
10	0x3f7e59c9	0.9935575
11	0x3f83c961	1.0295831
12	0x3f852973	1.0403274
13	0x3f70ab71	0.940116
14	0x3f74a868	0.9556947
15	0x3f820b68	1.0159731
16	0x3f58f691	0.8475123
17	0x3f8920d7	1.0713147
18	0x3f8ce959	1.1008712
19	0x3f6fa679	0.9361339
20	0x3f73ffd3	0.9531223
21	0x3f81d788	1.01439
22	0x3f6d422d	0.926791
23	0x3f6f87cd	0.9356659
24	0x3f71ef72	0.9450599
25	0x3f7a57ca	0.97790205
26	0x3f8a63ab	1.0811666
27	0x3f86c0f3	1.0527633
28	0x3f723dcd	0.9462555
29	0x3f876b3b	1.0579599
30	0x3f5cb574	0.86214375
31	0x3f6c2a0b	0.9225165
32	0x3f82c386	1.0215919
33	0x3f7143f7	0.9424433
34	0x3f840432	1.031378
35	0x3f5ebe64	0.87009263
36	0x3f7d7d2d	0.9901913
37	0x3f678214	0.9043286
38	0x3f7f3e49	0.99704415
39	0x3f6b6e8a	0.91965544
40	0x3f6f0f6e	0.9338292
41	0x3f8d65d3	1.1046699
42	0x3f81a863	1.0129513
43	0x3f523a58	0.82120275
44	0x3f636100	0.88819885
45	0x3f739f6f	0.9516515
46	0x3f83a0c1	1.0283433
47	0x3f88db4f	1.0691928
48	0x3f866371	1.0499097
49	0x3f833cfe	1.0252988
50	0x3f8fb737	1.1227788
51	0x3f912ba4	1.1341443
52	0x3f842373	1.0323318
53	0x3f7f4789	0.9971853
54	0x3f72c619	0.94833523
55	0x3f852fb0	1.0405178
56	0x3f6d23ea	0.92632926
57	0x3f845f3a	1.0341561
58	0x3f829f96	1.0204952
59	0x3f86fd29	1.0546008
60	0x3f86eb4d	1.0540558
61	0x3f74619b	0.95461434
62	0x3f862dd0	1.0482731
63	0x3f7b94ab	0.98273724

14.bias f4 [64]
0	0xbccfb997	-0.02535705
1	0x3d8e7cb0	0.06957376
2	0x3d180240	0.03711152
3	0x3c90f15e	0.017693218
4	0x3ccdafe4	0.025108285
5	0xbe2354ca	-0.15950313
6	0xbe4760eb	-0.19470565
7	0x3d674195	0.05645903
8	0xbd00def0	-0.03146261
9	0xbdfa6319	-0.12225933
10	0xbb7e5950	-0.0038810559
11	0xbba93ead	-0.0051649422
12	0x3cb19355	0.021676699
13	0x3a88c891	0.001043575
14	0x3dbf592c	0.0934318
15	0x3b922f0a	0.004461174
16	0xbcee539d	-0.029092604
17	0x3cf324ba	0.029680599
18	0x3ca6cd1c	0.020361476
19	0xbd208d10	-0.039197028
20	0x3c295c6c	0.0103369765
21	0x3dc07bdf	0.093986265
22	0xbdfe9699	-0.12431068
23	0xbdc38313	-0.09546485
24	0xbd901cf9	-0.07036776
25	0x3df3cbd9	0.11904115
26	0xbc9d9615	-0.019236604
27	0xbc798060	-0.015228361
28	0x3cc3e666	0.023913573
29	0x3d51f531	0.051259223
30	0xbd912ae0	-0.07088256
31	0xbdd11624	-0.10209301
32	0x3dfbf664	0.12302855
33	0xbd9fbbdb	-0.077995025
34	0xbd55bfb1	-0.052184764
35	0xbde7c677	-0.11317151
36	0xbd23e6ad	-0.04001491
37	0xbcfd8cc7	-0.030950917
38	0x3da4f161	0.08053852
39	0xbd8a060e	-0.06739436
40	0xbcf56602	-0.029955868
41	0xbce5f0cb	-0.02806892
42	0x3cc7ffd0	0.024413973
43	0xbe2dfaec	-0.1699025
44	0xbd861673	-0.065472506
45	0xbdbed9b7	-0.093188696
46	0x3d61aa0b	0.055093806
47	0x3db50b88	0.0884009
48	0xbda6661f	-0.08124947
49	0x3d60308f	0.05473381
50	0x3e0605ae	0.13088104
51	0x3db26bf8	0.08712
52	0xbcfb52e6	-0.030679177
53	0xbcf90c13	-0.030401265
54	0xbd61493e	-0.05500149
55	0x3d42692d	0.047463585
56	0x3c263cc1	0.010146321
57	0xbcac7c7f	-0.021055458
58	0x3d9e0ecd	0.07717667
59	0xbb906954	-0.0044070873
60	0x3d8c6a4f	0.06856214
61	0x3cfbb626	0.030726504
62	0x3e1fe8f9	0.15616216
63	0x3cea1941	0.028576495
