notebooks/Radio_27ML/27ml_rf/27ml_rf_pytorch_only.pth (torch, 673364 bytes, 56 tensors)

0.weight f4 [64, 2, 3]
-0.17428485 0.04254763 -0.589341 -0.7751616 -0.7223776 -0.21199691 0.22716185 0.8524376
0.019697022 -0.19270872 -0.45791027 -0.36873958 -0.7131383 -0.63000095 -0.38988912 0.04116175
0.5258383 0.53885305 -0.34778574 -0.7220555 -0.12226767 0.58077997 0.33908328 0.4774889
0.022343654 0.472721 0.5862682 -0.939834 -0.44058827 0.061402358 -0.15661767 0.20207143
-0.34138423 -0.574393 -1.2268287 -0.9966164 -0.3566974 0.97195303 0.9518737 0.13862935
0.23628812 -0.08523018 -0.110157944 -1.0463363 -0.51658404 -0.08001133 0.5319488 0.3116825
0.1197131 0.17175059 0.562985 0.7646119 0.58774346 0.26347914 0.46531346 0.058561902
0.1851192 -0.6918953 -0.88295865 -0.61371225 0.57211345 0.4963319 -0.28322738 0.27150625
0.6208883 0.03040562 0.55552274 0.92317384 0.75014526 0.29459816 -0.12627979 0.15804018
0.45651704 1.1023487 0.55982083 0.5137997 0.34558377 -0.30932254 -0.31933686 -0.72482854
-0.8421098 0.49636215 0.40936315 -0.39464098 -0.18567383 -0.6069975 -0.48379937 -0.5189312
-0.31971583 -0.45687816 0.35915315 0.3742256 0.65085757 0.13162702 -0.6679031 -0.59588516
0.48814622 0.50783056 -0.057640463 -0.18542941 0.705655 0.7748994 -0.24141099 -0.5265078
-0.5373574 -0.3059472 -0.32724783 -0.86098015 -0.18931374 -0.10265145 -0.44030866 0.59443665
-0.0044493997 0.96727973 0.7833591 -0.6750654 -0.17324461 -0.5138138 0.17250037 0.40601963
0.077851415 -0.06924062 -0.08679629 0.12926696 -0.9056557 -1.1088965 -0.37972167 -0.54113406
-0.2548068 -0.59791595 -0.57039297 -0.16306369 -0.41650906 -0.10152932 0.29119393 -0.35671952
-0.6290992 -0.46224928 0.24996762 0.5875047 0.7512756 0.43103224 0.5970531 0.2462365
-0.83907384 -0.5693252 0.16777228 -0.26233238 -0.48778325 -0.43596235 -1.4749541 -0.7603571
-0.03730617 0.33084276 0.29614145 -0.4572524 0.20904838 -0.11377711 -0.2973063 -0.9226474
-0.3060867 -0.9310342 -1.0826386 -1.427981 -0.27041382 0.08679884 -0.29630727 -0.030880792
-0.41684645 0.04695269 0.5137599 -0.8975128 0.20526469 0.7475894 -0.13231154 0.17726599
0.10047456 -1.1614543 -0.070506446 -0.94177526 0.21647182 0.043882295 0.43647984 0.06943686
0.6468887 0.97114176 -0.05822414 -0.0068331608 -0.7288796 0.50231016 0.97826135 0.56896955
-0.59019995 -0.32531133 -0.5184911 -0.41382697 -0.7235178 0.26049405 -0.42702627 -0.29858252
-0.224099 -0.19454879 -1.0271597 -0.5753393 -0.30329016 0.19375178 -0.041014332 1.0765779
0.70043784 -0.0036673998 0.5643799 0.019185785 0.7543197 -0.37351882 -0.13132752 0.13990197
-0.7077257 -0.2821236 0.5563363 -0.6787156 -0.21842831 0.70537364 0.7386801 -0.28070205
-0.85007375 0.37035426 -0.44733208 -0.021041816 -0.29462028 -0.077421054 0.2604317 1.1045226
0.31645566 0.9887309 0.40263572 0.14974043 0.23489095 -0.9926077 -0.72707593 0.14756691
0.575153 0.6261406 0.20498471 -0.28297773 -0.08239568 -0.7082143 0.3018436 0.3375995
0.33239755 -0.7484079 -0.6022147 -0.37333083 0.81928897 0.1465684 -0.6061464 -0.33148304
00000000: ba77 32be 6c46 2e3d 0ddf 16bf fe70 46bf
00000010: bded 38bf b815 59be 1e9d 683e 5a39 5a3f
00000020: a65b a13c 6f55 45be 3773 eabe 6fcb bcbe
00000030: 3b90 36bf be47 21bf 8c9f c7be 3999 283d
00000040: 579d 063f 46f2 093f f910 b2be a1d8 38bf
00000050: 7967 fabd ffad 143f 539c ad3e 6d79 f43e
00000060: 0a0a b73c 7d08 f23e ac15 163f f698 70bf
00000070: c994 e1be 0a81 7b3d 6260 20be d0eb 4e3e
00000080: eac9 aebe 6b0b 13bf b908 9dbf 4122 7fbf
00000090: 0ba1 b6be ead1 783f ffad 733f daf4 0d3e
000000a0: 83f5 713e 298d aebd 7d9a e1bd 59ee 85bf
000000b0: da3e 04bf fbdc a3bd cc2d 083f d994 9f3e
000000c0: 242c f53d 63df 2f3e c91f 103f 9bbd 433f
000000d0: 5b76 163f bde6 863e 913d ee3e 9bde 6f3d
000000e0: e38f 3d3e 0d20 31bf 9409 62bf 3f1c 1dbf
000000f0: 0776 123f 371f fe3e 2e03 91be de02 8b3e
00000100: 89f2 1e3f 3515 f93c bd36 0e3f 1f55 6c3f
00000110: 8509 403f 92d5 963e 7d4f 01be 49d5 213e
00000120: 9abc e93e c319 8d3f 6b50 0f3f 6188 033f
00000130: 5bf0 b03e 865f 9ebe 1f80 a3be 5d8e 39bf
00000140: 8294 57bf 2e23 fe3e 0c98 d13e 620e cabe
00000150: 4821 3ebe 3064 1bbf 8db4 f7be add8 04bf
00000160: cbb1 a3be efeb e9be ece2 b73e 7f9a bf3e
00000170: 9a9e 263f 3cc9 063e b3fb 2abf ee8b 18bf
00000180: 4dee f93e 2f01 023f 6818 6cbd 35e1 3dbe
00000190: cea5 343f cf5f 463f 7134 77be 37c9 06bf
000001a0: 4190 09bf 1da5 9cbe 078d a7be 3269 5cbf
000001b0: 76db 41be ec3a d2bd 2370 e1be 002d 183f
000001c0: 45cc 91bb a59f 773f 398a 483f 16d1 2cbf
000001d0: 0967 31be 4d89 03bf f0a3 303e cee1 cf3e
000001e0: 9070 9f3d 07ce 8dbd 41c2 b1bd 8f5e 043e
000001f0: 0dd9 67bf 52f0 8dbf e16a c2be c387 0abf
00000200: 0976 82be 0511 19bf 4605 12bf 2bfa 26be
00000210: ad40 d5be 9bee cfbd 5f17 953e f1a3 b6be
00000220: a50c 21bf f0ab ecbe 83f7 7f3e b566 163f
00000230: 9953 403f 42b0 dc3e 79d8 183f 6c25 7c3e
00000240: 8bcd 56bf 4cbf 11bf 7fcc 2b3e 6e50 86be
00000250: babe f9be 7536 dfbe 4ccb bcbf c3a6 42bf
00000260: 5bce 18bd 3964 a93e da9f 973e fd1c eabe
00000270: c710 563e f903 e9bd 8838 98be 9f32 6cbf
00000280: 65b7 9cbe 4258 6ebf e793 8abf 15c8 b6bf
00000290: ae73 8abe 97c3 b13d 96b5 97be b7f9 fcbc
000002a0: e66c d5be 7751 403d c585 033f 66c3 65bf
000002b0: e830 523e 0562 3f3f ad7c 07be 3785 353e
000002c0: 9bc5 cd3d 89aa 94bf af65 90bd 2f18 71bf
000002d0: caaa 5d3e ecbd 333d 497a df3e ea34 8e3d
000002e0: 7f9a 253f bf9c 783f 707c 6ebd b5e8 dfbb
000002f0: da97 3abf 6697 003f 566f 7a3f fda7 113f
00000300: 5817 17bf 358f a6be d5bb 04bf 21e1 d3be
00000310: 7638 39bf 7a5f 853e 30a3 dabe cfdf 98be
00000320: 357a 65be cc37 47be f879 83bf 7049 13bf
00000330: d948 9bbe de66 463e a5fe 27bd 4ecd 893f
00000340: e54f 333f c258 70bb 337b 103f 822b 9d3c
00000350: 191b 413f dc3d bfbe b97a 06be 7642 0f3e
00000360: 832d 35bf 8172 90be 0e6c 0e3f 4ec0 2dbf
00000370: acab 5fbe 5e93 343f 241a 3d3f 2eb8 8fbe
00000380: 6f9e 59bf 139f bd3e b608 e5be e35f acbc
00000390: 78d8 96be ee8e 9ebd 4e57 853e ff60 8d3f
000003a0: 7a06 a23e 781d 7d3f 4526 ce3e 8e55 193e
000003b0: 4187 703e 8a1b 7ebf a621 3abf c81b 173e
000003c0: 3a3d 133f c04a 203f 83e7 513e 75e2 90be
000003d0: 11bf a8bd 884d 35bf 3f8b 9a3e d7d9 ac3e
000003e0: 0330 aa3e a997 3fbf be2a 1abf 3825 bfbe
000003f0: ecbc 513f 0716 163e 692c 1bbf 25b8 a9be

0.bias f4 [64]
0.15406427 0.39777634 0.21468003 0.259506 -0.16743992 0.20605725 0.046919692 -0.118117854
-0.24039555 -0.23368251 -0.33619955 0.26027876 0.29834753 -0.061810806 -0.24228582 0.32178795
0.26035854 0.033175744 -0.186236 0.35505697 0.14000216 -0.31822702 0.4060346 0.30828884
-0.15966481 0.22507426 -0.23299965 -0.07374556 0.33736968 0.02263029 -0.27331355 -0.13879876
-0.1227182 -0.07901638 0.04017637 0.36398727 0.029999845 -0.25167218 0.025843147 0.20792152
0.17767957 -0.36935282 -0.07478067 -0.31902173 -0.16149814 0.1607436 -0.2610807 0.13273583
0.35195988 0.022355635 -0.28864342 -0.14720114 0.10267927 -0.3397751 0.20357291 -0.361262
-0.40943402 -0.379185 -0.0565767 0.2914355 -0.4030267 0.33249646 -0.18281144 0.11308564
00000000: 06c3 1d3e 57a9 cb3e 15d5 5b3e f8dd 843e
00000010: 5f75 2bbe ac00 533e dd2e 403d c6e7 f1bd
00000020: 402a 76be 784a 6fbe 5922 acbe 4243 853e
00000030: 02c1 983e 542d 7dbd c619 78be 64c1 a43e
00000040: b74d 853e 4ae3 073d a6b4 3ebe 07ca b53e
00000050: ba5c 0f3e a7ee a2be c4e3 cf3e 09d8 9d3e
00000060: 2c7f 23be de79 663e 7697 6ebe ea07 97bd
00000070: b8bb ac3e 2863 b93c c1ef 8bbe 4321 0ebe
00000080: ae53 fbbd 57d3 a1bd fa8f 243d 8a5c ba3e
00000090: 3cc2 f53c 2ddb 80be 02b5 d33c 61e9 543e
000000a0: a2f1 353e d01b bdbe 9c26 99bd d156 a3be
000000b0: c55f 25be f899 243e 5fac 85be e7eb 073e
000000c0: 1634 b43e 2a23 b73c 12c9 93be e5bb 16be
000000d0: 8249 d23d 00f7 adbe 6b75 503e 55f7 b8be
000000e0: 56a1 d1be 8924 c2be f8bc 67bd 0937 953e
000000f0: 8459 cebe fa3c aa3e ec32 3bbe 7299 e73d

1.weight f4 [64]
1.0498344 0.9178432 1.3056204 1.1230421 1.0882516 1.30523 0.8504935 1.0979854
1.3350407 1.1355085 0.8678932 1.3171324 1.2295943 0.9371677 1.2478968 1.0847293
1.0765516 1.120452 0.98311 1.0966799 0.93131876 1.0076842 0.73838556 1.2957451
1.0807682 1.1765239 0.8523349 1.161196 1.4893512 0.9471702 1.3639555 1.2626112
1.0351896 1.1057771 1.0673743 0.9792393 0.91338164 0.8912177 1.1226947 0.9635583
1.117161 1.2575268 1.3263094 1.1913965 1.2199525 1.076498 1.3437896 0.70833206
1.0980178 0.84465295 0.9681472 1.109289 1.1044109 1.0813078 1.1518928 1.4485998
1.2920921 1.355884 1.075261 1.0289453 1.1905816 0.7458005 1.178096 1.3182623
00000000: f960 863f c6f7 6a3f 921e a73f d8bf 8f3f
00000010: d44b 8b3f c711 a73f f1b9 593f c98a 8c3f
00000020: 9de2 aa3f 5858 913f 402e 5e3f cb97 a83f
00000030: 5963 9d3f 39ea 6f3f 15bb 9f3f 69d8 8a3f
00000040: 71cc 893f f96a 8f3f 19ad 7b3f 0260 8c3f
00000050: e86a 6e3f ccfb 803f d606 3d3f fada a53f
00000060: 9d56 8a3f 5698 963f 9f32 5a3f 12a2 943f
00000070: 0fa3 be3f bf79 723f 1896 ae3f 3e9d a13f
00000080: 1881 843f 1b8a 8d3f b99f 883f 6daf 7a3f
00000090: 61d3 693f d826 643f 76b4 8f3f c2ab 763f
000000a0: 22ff 8e3f a3f6 a03f 82c4 a93f ae7f 983f
000000b0: 6727 9c3f b0ca 893f 4c01 ac3f 4055 353f
000000c0: d98b 8c3f 2d3b 583f 7fd8 773f 2ffd 8d3f
000000d0: 565d 8d3f 4b68 8a3f 3971 933f b86b b93f
000000e0: 4663 a53f 9b8d ad3f 27a2 893f 7bb4 833f
000000f0: fa64 983f c8ec 3e3f dacb 963f d2bc a83f

1.bias f4 [64]
0.06859581 0.0922501 -0.78964394 -0.86468685 -0.22963367 -0.24821143 0.2174882 -0.13115826
-0.71607935 -0.3327329 0.26371658 -0.8745967 -0.4360508 -0.49046382 -0.95478916 -0.22575267
-0.7200261 -0.056438915 -0.7146504 0.14172687 0.13868748 -0.6141653 -0.37288392 -0.36922258
0.40994865 0.24365953 0.38144064 -0.24110286 -0.18113385 -0.7483317 -0.13624537 -0.019016488
0.16969556 -0.7457704 -0.4615848 -0.5630128 -0.30192727 -0.03871832 0.1605215 0.029732602
-0.66650367 -0.92557764 -0.21860696 0.38803902 -0.4961255 -0.18154451 -0.08305165 0.14357449
-0.1821925 0.3494152 -0.8001665 0.41896388 -0.88747394 -0.20596771 0.22133563 -0.121861406
-0.26324654 0.012697178 -0.55268556 -0.070559345 -0.118927605 0.088013075 0.47676983 0.21183273
00000000: f67b 8c3d 9fed bc3d 1b26 4abf 1e5c 5dbf
00000010: 1725 6bbe 232b 7ebe 3ab5 5e3e 5a4e 06be
00000020: fa50 37bf f75b aabe dc05 873e 92e5 5fbf
00000030: 0d42 dfbe 131e fbbe 106d 74bf b52b 67be
00000040: a153 38bf 7e2c 67bd 54f3 36bf d920 113e
00000050: 1704 0e3e f039 1dbf a4ea bebe be0a bdbe
00000060: cae4 d13e e281 793e 304c c33e abe3 76be
00000070: 277b 39be ab92 3fbf e883 0bbe 77c8 9bbc
00000080: acc4 2d3e cfea 3ebf d854 ecbe 9b21 10bf
00000090: 3696 9abe 1a97 1ebd c05f 243e c991 f33c
000000a0: fc9f 2abf a8f2 6cbf 81da 5fbe 0dad c63e
000000b0: 2904 febe cee6 39be fc16 aabd 3105 133e
000000c0: ac90 3abe 8de6 b23e b6d7 4cbf 6f82 d63e
000000d0: 7e31 63bf 33e9 52be cfa5 623e 7992 f9bd
000000e0: 40c8 86be d307 503c cd7c 0dbf 6b81 90bd
000000f0: 5190 f3bd 3340 b43d 2d1b f43e aeea 583e

1.running_mean f4 [64]
0.1737784 0.38685015 0.23452097 0.27003452 -0.17707148 0.2260651 0.025478803 -0.09677298
-0.26046062 -0.23220563 -0.35125312 0.22885701 0.26785457 -0.036820017 -0.21705632 0.3069409
0.23998427 0.058193423 -0.18381946 0.35560912 0.15137795 -0.29479733 0.41781697 0.28006035
-0.1362386 0.2570328 -0.21876751 -0.033069246 0.33485615 0.033336315 -0.29152286 -0.13821676
-0.097553104 -0.055959616 0.032223236 0.34613663 0.037136894 -0.24377152 0.014917422 0.2043601
0.16232517 -0.37576413 -0.07854273 -0.3231514 -0.17869163 0.19066842 -0.26214877 0.11806748
0.38334048 0.035733957 -0.2564578 -0.16424675 0.10695445 -0.3572318 0.16636014 -0.36274502
-0.45258513 -0.40279725 -0.058984157 0.28841305 -0.39009407 0.3604858 -0.15561563 0.08328279
00000000: f7f2 313e 3911 c63e 4426 703e f741 8a3e
00000010: 3a52 35be 9c7d 673e ecb8 d03c ea30 c6bd
00000020: 185b 85be 50c7 6dbe 73d7 b3be 7e59 6a3e
00000030: 3c24 893e 96d0 16bd 0344 5ebe 5c27 9d3e
00000040: 70be 753e 3a5c 6e3d 2b3b 3cbe 6612 b63e
00000050: d202 1b3e adef 96be 1bec d53e 1264 8f3e
00000060: 2282 0bbe ce99 833e 9704 60be 9e73 07bd
00000070: 4472 ab3e a98b 083d 7c42 95be b288 0dbe
00000080: ecc9 c7bd e935 65bd 83fc 033d d238 b13e
00000090: db1c 183d 3e9f 79be 3468 743c c643 513e
000000a0: 9238 263e 2864 c0be 03db a0bd 1a74 a5be
000000b0: f0fa 36be 953e 433e 5d38 86be 5dcd f13d
000000c0: 3445 c43e c55d 123d 704e 83be 4d30 28be
000000d0: ef0a db3d 16e7 b6be 505a 2a3e b7b9 b9be
000000e0: 3db9 e7be 713b cebe 5f99 71bd e0aa 933e
000000f0: 69ba c7be 9891 b83e b459 1fbe 2b90 aa3d

1.running_var f4 [64]
782.17926 540.4327 955.9914 776.65466 747.36115 1768.5063 681.5935 829.5601
750.07135 1191.4425 401.30914 1125.1492 1094.4211 934.3632 736.157 755.76746
678.80975 895.5758 717.15027 178.70808 890.43756 710.2612 512.92126 926.9294
740.7295 1338.5634 1056.6449 1830.407 224.77888 1120.466 797.23785 1139.4596
680.23425 951.70404 779.9078 486.15085 268.9348 232.19026 1317.2339 781.8305
719.5173 879.50165 239.52115 1292.0907 1606.0398 930.996 236.41461 388.90164
1165.1243 1125.8528 1071.2366 781.1246 1054.4323 664.5505 1692.342 233.01076
2307.2834 837.36475 896.4008 206.35323 1301.7094 797.37885 1189.2635 1093.2507
00000000: 798b 4344 b11b 0744 73ff 6e44 e629 4244
00000010: 1dd7 3a44 3410 dd44 fc65 2a44 d963 4f44
00000020: 9184 3b44 29ee 9444 92a7 c843 c6a4 8c44
00000030: 7acd 8844 3f97 6944 0c0a 3844 1ef1 3c44
00000040: d3b3 2944 dae4 5f44 9e49 3344 45b5 3243
00000050: 019c 5e44 b890 3144 f63a 0044 7bbb 6744
00000060: b02e 3944 0752 a744 a314 8444 06cd e444
00000070: 65c7 6043 e90e 8c44 394f 4744 b56e 8e44
00000080: fe0e 2a44 0fed 6d44 19fa 4244 4f13 f343
00000090: a877 8643 b530 6843 7ca7 a444 2775 4344
000000a0: 1be1 3344 1be0 5b44 6a85 6f43 e782 a144
000000b0: 46c1 c844 bebf 6844 246a 6c43 6973 c243
000000c0: faa3 9144 4abb 8c44 92e7 8544 f947 4344
000000d0: d5cd 8344 3b23 2644 f28a d344 c102 6943
000000e0: 8934 1045 5857 5144 a719 6044 6d5a 4e43
000000f0: b3b6 a244 3f58 4744 6fa8 9444 06a8 8844

4.weight f4 [64, 64, 3]
0.4893111 0.13442223 0.1561297 -0.102497704 0.012718525 0.3097161 -0.3385089 0.051778566
0.47711954 -0.24168628 0.05196557 -0.03832472 -0.108628176 0.18272357 0.4231786 0.035457492
0.16261677 0.21582013 -0.17222564 -0.44984892 -0.57804936 -0.055233825 -0.055554606 0.70914555
-0.23393786 -0.33964035 -0.3049115 -0.099149875 0.15349089 0.25312462 -0.94288385 -0.41204476
-0.56193346 -0.29955924 -0.34340346 0.035043616 -0.4233678 -0.2789622 0.05425065 -0.024051232
-0.09151838 0.32679534 -0.31943282 -0.07765335 -0.38819516 -0.39945677 0.13670844 0.43911767
-0.19360374 -0.17682862 -0.26967427 0.55399024 0.06934691 0.17944103 -0.27747375 0.07292596
0.006092831 -0.0059301583 0.13717952 -0.18854474 0.09345643 0.22327562 0.1784119 0.01515419
-0.03446199 -0.11037023 -0.02660005 0.19382209 -0.114084214 -0.3025258 -0.20335342 -0.7134356
0.7626346 0.26341772 -0.022299927 0.2502443 -0.08895403 -0.06691705 0.60248595 0.2508996
0.12425861 0.016610969 0.099356376 0.3276877 -0.008603285 -0.1329733 -0.30661324 -0.47465307
0.042966533 0.00452751 -0.278256 -0.11535245 -1.1915542 -0.6666013 -0.11920701 0.21971436
0.47335908 0.27301672 0.1415666 -0.4046019 -0.0070226225 -0.49211624 -0.3205067 -0.22149308
-0.01044224 -0.42198384 0.06029715 0.07146593 -0.020144284 0.17605734 0.05282388 -0.03708492
-0.015383856 -0.06252241 -1.0438378 -0.13209353 -0.54630977 -0.029633896 0.21787886 0.20653182
-0.25126728 -0.1781259 0.4842217 -0.26842764 -0.13578314 0.09111884 0.023557525 -0.35436216
0.080457985 -1.0526714 -0.1697205 -0.03522632 -0.53320324 -0.10625484 -0.23764108 0.31901452
0.1380311 0.0753171 0.033627924 0.08324821 0.25321817 -0.090940244 -0.6869425 -0.4265168
-0.07010306 -0.032666996 0.4136232 0.45979068 0.19884509 0.2041066 -0.08477984 -0.0898153
-0.006897219 -0.25410458 0.13644677 0.26350302 -0.43848717 -0.045479216 -0.012124682 -0.25275525
-0.16611572 0.3384709 -1.0721225 -0.4058134 -0.12423968 0.07492402 0.051638246 -0.17092359
-0.6705691 -0.31364897 0.22238363 -0.6317468 -0.2839557 -0.7036502 -0.23931746 0.036267027
-0.11641157 0.18856438 -0.050115474 -0.058307867 -0.49650198 -0.050694916 0.7145013 0.27649674
-0.026609113 0.19943216 0.07073566 -0.0450834 0.40204024 -0.7666484 -0.44372737 -1.011196
0.146941 -0.12228123 0.16214123 0.4947572 0.12059978 0.03542203 0.5361667 0.07621899
-0.7327424 0.59104234 -0.11783214 -0.68398964 0.47511047 0.04200555 -0.47512543 0.3970327
-0.10287047 0.20332058 0.18375602 0.13425897 -0.6435526 0.47356725 0.048249006 -0.24999854
0.7725449 0.39904878 -0.65976334 0.52686167 0.066150844 0.12124784 -0.121277586 0.17750297
0.12299789 0.8036467 0.42853647 -0.78391504 0.65969086 0.6881197 -0.30921307 0.3903773
0.22154447 0.05488332 -0.22748075 -0.09530654 -0.123676874 0.61964726 0.20771651 -0.53465986
0.6962858 0.298469 -0.5186592 0.16481127 -0.044137064 0.4124818 0.39917144 -0.19612208
-0.57769805 -0.667469 -0.22825074 0.444227 0.10278654 0.012261009 0.359457 -0.0487745
00000000: fc86 fa3e fba5 093e 77e0 1f3e 51ea d1bd
00000010: 5c61 503c 1c93 9e3e 0a51 adbe c315 543d
00000020: 0349 f43e 9c7c 77be d9d9 543d 62fa 1cbd
00000030: 7378 debd e31b 3b3e deaa d83e e03b 113d
00000040: 0385 263e f4ff 5c3e eb5b 30be 9952 e6be
00000050: 0bfb 13bf dd3c 62bd 3a8d 63bd 908a 353f
00000060: 688d 6fbe 57e5 adbe 5c1d 9cbe 170f cbbd
00000070: b72c 1d3e 8d99 813e d660 71bf 88f7 d2be
00000080: dfda 0fbf d45f 99be 94d2 afbe e589 0f3d
00000090: aac3 d8be 22d4 8ebe ee35 5e3d 1707 c5bc
000000a0: fd6d bbbd b851 a73e b38c a3be b808 9fbd
000000b0: 84c1 c6be 9985 ccbe 4cfd 0b3e 08d4 e03e
000000c0: 0f40 46be 9012 35be bf12 8abe 4ed2 0d3f
000000d0: c105 8e3d 64bf 373e 0a11 8ebe 355a 953d
000000e0: 5fa6 c73b c651 c2bb ca78 0c3e df11 41be
000000f0: 1666 bf3d 5da2 643e 9cb1 363e 4849 783c
00000100: 0428 0dbd ca09 e2bd 59e8 d9bc 4c79 463e
00000110: fca4 e9bd a9e4 9abe e13b 50be b7a3 36bf
00000120: 053c 433f b0de 863e 56ae b6bc 0520 803e
00000130: 882d b6bd ce0b 89bd 853c 1a3f ea75 803e
00000140: 4c7b fe3d ba13 883c 5b7b cb3d afc6 a73e
00000150: cbf4 0cbc 272a 08be 69fc 9cbe ba05 f3be
00000160: adfd 2f3d 825b 943b 9277 8ebe e83d ecbd
00000170: d984 98bf 62a6 2abf ce22 f4bd cdfc 603e
00000180: 1f5c f23e d9c8 8b3e d6f6 103e fb27 cfbe
00000190: 071e e6bb a9f6 fbbe 7419 a4be 15cf 62be
000001a0: ee15 2bbc 440e d8be 25fa 763d bb5c 923d
000001b0: a005 a5bc 6048 343e da5d 583d 5be6 17bd
000001c0: 920c 7cbc c00b 80bd 7a9c 85bf 8743 07be
000001d0: f5da 0bbf c9c2 f2bc a31b 5f3e 147d 533e
000001e0: 1ba6 80be a366 36be e8eb f73e 596f 89be
000001f0: bc0a 0bbe 849c ba3d b6fb c03c f56e b5be
00000200: 28c7 a43d f0bd 86bf 36cb 2dbe 7949 10bd
00000210: 0280 08bf 239c d9bd 2f58 73be df55 a33e
00000220: 0658 0d3e da3f 9a3d 6fbd 093d 0a7e aa3d
00000230: d0a5 813e e13e babd 77db 2fbf 6960 dabe
00000240: 3192 8fbd d4cd 05bd 6cc6 d33e af69 eb3e
00000250: 0c9e 4b3e 5201 513e 0ea1 adbd 16f1 b7bd
00000260: 1102 e2bb ff19 82be b4b8 0b3e dee9 863e
00000270: 6481 e0be 6a48 3abd 9aa6 46bc 2369 81be
00000280: 3d1a 2abe 0f4c ad3e 4f3b 89bf c6c6 cfbe
00000290: 6071 febd c471 993d a082 533d 9806 2fbe
000002a0: 6baa 2bbf 9996 a0be 89b8 633e 29ba 21bf
000002b0: a462 91be 6b22 34bf a30f 75be bc8c 143d
000002c0: 3069 eebd 0517 413e e245 4dbd 3bd4 6ebd
000002d0: 8235 febe 79a5 4fbd 8fe9 363f fb90 8d3e
000002e0: 5bfb d9bc f237 4c3e dcdd 903d 5fa9 38bd
000002f0: 38d8 cd3e 1243 44bf 3c30 e3be df6e 81bf
00000300: b477 163e 956e fabd 5a08 263e d150 fd3e
00000310: 04fd f63d b116 113d 3942 093f b418 9c3d
00000320: 0295 3bbf 8d4e 173f fa51 f1bd f219 2fbf
00000330: ae41 f33e 030e 2c3d a443 f3be df47 cb3e
00000340: c1ad d2bd 4533 503e 8a2a 3c3e 2f7b 093e
00000350: ddbf 24bf 6877 f23e c0a0 453d 9eff 7fbe
00000360: 81c5 453f 1f50 cc3e 40e6 28bf 68e0 063f
00000370: 187a 873d ca50 f83d 6260 f8bd 57c3 353e
00000380: 51e6 fb3d cabb 4d3f 2269 db3e a8ae 48bf
00000390: 80e1 283f 9d28 303f 2d51 9ebe 89df c73e
000003a0: 8edc 623e 55cd 603d b7f0 68be 1330 c3bd
000003b0: 4d4a fdbd 34a1 1e3f a3b3 543e 78df 08bf
000003c0: c93f 323f eed0 983e d9c6 04bf 49c4 283e
000003d0: 11c9 34bd d130 d33e 3360 cc3e 3ad4 48be
000003e0: 05e4 13bf 40df 2abf 90ba 69be b971 e33e
000003f0: c081 d23d 66e2 483c bf0a b83e c5c7 47bd

4.bias f4 [64]
-0.009169731 0.052847873 -0.028230818 0.01940806 0.07643737 -0.033369277 -0.037762776 0.016193204
-0.077777706 -0.027537493 0.086539984 0.08805635 -0.0119893635 -0.05411486 -0.042640045 0.0895594
0.084033065 0.012569611 -0.06101865 -0.030561004 0.016690172 0.01085219 0.02699282 0.0027924553
0.0037526775 -0.14693117 0.0028629014 0.11420472 0.00018022866 -0.008744969 -0.015512712 0.062134087
0.019028738 -0.092443526 0.013825626 0.009209713 0.09975962 0.03582611 0.0010381801 -0.063212246
-0.025412511 -0.015789563 -0.09203765 -0.0586335 -0.032945115 -0.041500587 0.07616489 -0.058412008
0.11056298 0.07821775 -0.08117345 -0.07785033 -0.047935713 -0.06279356 -0.024350157 -0.015464123
-0.0015850211 -0.059589136 0.02607596 -0.10489071 0.029426942 0.005569153 -0.07166832 -0.074847676
00000000: a43c 16bc 0377 583d 5144 e7bc a7fd 9e3c
00000010: 328b 9c3d 39ae 08bd 24ad 1abd 9ca7 843c
00000020: eb49 9fbd 4f96 e1bc e03b b13d e356 b43d
00000030: 096f 44bc 8ba7 5dbd 54a7 2ebd eb6a b73d
00000040: 8719 ac3d c5f0 4d3c b1ee 79bd 125b fabc
00000050: d4b9 883c 62cd 313c 0c20 dd3c a001 373b
00000060: 7bef 753b 2075 16be 849f 3b3b 2ae4 e93d
00000070: c3fb 3c39 0f47 0fbc 0829 7ebc 5080 7e3d
00000080: 28e2 9b3c 0853 bdbd e184 623c 56e4 163c
00000090: c64e cc3d 66be 123d 8b13 883a 6c75 81bd
000000a0: e62d d0bc 1d59 81bc 3c7e bcbd ae29 70bd
000000b0: 75f1 06bd 85fc 29bd 56fc 9b3d 6e41 6fbd
000000c0: d86e e23d a130 a03d 443e a6bd fe6f 9fbd
000000d0: 3d58 44bd e999 80bd fb79 c7bc 3c5d 7dbc
000000e0: 7cc0 cfba bd13 74bd 409d d53c f1d0 d6bd
000000f0: c510 f13c 717d b63b d7c6 92bd bd49 99bd

5.weight f4 [64]
0.90796363 1.4759946 1.3283947 0.8334213 0.6415275 0.67856526 1.0483541 0.99835205
0.86776793 0.89401716 1.1835365 1.6026958 0.9179674 1.1144055 1.0603555 2.0325184
1.1472106 1.2839848 0.8562337 0.9574553 1.0462466 1.2703167 0.9375244 1.1590893
0.9242997 1.0007144 0.78745025 1.3675267 1.0754688 1.6368101 1.587206 0.96694636
0.9894362 1.4199693 0.9639439 0.7588812 0.9140144 1.36983 1.0024927 0.7850419
1.2327589 1.0597678 1.0355201 0.76782393 1.1272943 0.93539476 0.96146184 1.134615
0.9995552 1.3588034 0.72756225 0.6987208 1.0145882 0.85472536 1.0076871 1.2068719
1.5088905 0.86832744 0.686793 0.7673357 0.82219744 0.7396087 1.102033 1.0565249
00000000: 4e70 683f 64ed bc3f d608 aa3f 195b 553f
00000010: 253b 243f 74b6 2d3f 7830 863f 0094 7f3f
00000020: 0a26 5e3f 4fde 643f 207e 973f 2325 cd3f
00000030: e9ff 6a3f d7a4 8e3f bbb9 873f c814 0240
00000040: ccd7 923f 9d59 a43f 2232 5b3f ca1b 753f
00000050: 69eb 853f bd99 a23f 9901 703f 0a5d 943f
00000060: e89e 6c3f 6917 803f 5796 493f 1d0b af3f
00000070: f6a8 893f fe82 d13f 9129 cb3f cc89 773f
00000080: b14b 7d3f 8ec1 b53f 07c5 763f 0a46 423f
00000090: d9fc 693f 9756 af3f ae51 803f 82f8 483f
000000a0: 0bcb 9d3f 79a6 873f ec8b 843f 1c90 443f
000000b0: 2e4b 903f 0876 6f3f 5d22 763f 103b 913f
000000c0: d9e2 7f3f 45ed ad3f 8541 3a3f 5edf 323f
000000d0: 07de 813f 48cf 5a3f e4fb 803f c77a 9a3f
000000e0: 5323 c13f b54a 5e3f abd1 2f3f 1d70 443f
000000f0: 887b 523f ff56 3d3f 6b0f 8d3f 353c 873f

5.bias f4 [64]
-0.31728843 -0.6803839 -0.69707006 -0.4775143 -0.049141034 -0.19094804 -0.35301906 -0.38340485
-0.036723584 -0.42676765 -0.50204766 -0.3876222 -0.42216283 -0.6200546 -0.19558224 -0.92368
-0.6397765 -0.7795409 -0.59526104 -0.4748395 -0.28587046 -0.31742063 -0.09281998 -0.17196864
-0.31573716 -0.19025427 -0.15278131 1.7004572 -0.50636005 -0.98503774 -0.52186704 -0.3768652
-0.48331684 -1.1364453 -0.20297968 -0.53611946 -0.22878441 -0.7387324 -0.41550365 -0.57505476
-0.34046835 -0.13536228 -0.4353988 -0.46941486 -0.43530345 -0.5544721 -0.31998214 -0.5865309
-0.39899498 -0.17853642 -0.18473226 -0.26776186 -0.29888704 -0.42167646 -0.45733675 -0.3546741
-0.5614713 -0.23141108 -0.4850068 -0.40141112 -0.369306 -0.2536686 -0.5388134 -0.5215611
00000000: a173 a2be a42d 2ebf 2f73 32bf c17c f4be
00000010: 1c48 49bd e287 43be eabe b4be a44d c4be
00000020: 786b 16bd 4a81 dabe 3286 00bf 6b76 c6be
00000030: ba25 d8be e6bb 1ebf b646 48be 4b76 6cbf
00000040: 65c8 23bf fe8f 47bf 0763 18bf 2a1e f3be
00000050: 9d5d 92be f584 a2be 6718 bebd 8c18 30be
00000060: 4da8 a1be 04d2 42be b472 1cbe 95a8 d93f
00000070: d0a0 01bf 6f2b 7cbf 1499 05bf 7af4 c0be
00000080: 4e75 f7be 0a77 91bf e8d9 4fbe 203f 09bf
00000090: 7646 6abe 911d 3dbf e5bc d4be ca36 13bf
000000a0: de51 aebe 699c 0abe 97ec debe 2557 f0be
000000b0: 18e0 debe e2f1 0dbf b3d4 a3be e426 16bf
000000c0: 1249 ccbe 40d2 36be 742a 3dbe 1518 89be
000000d0: b907 99be fae5 d7be 0b28 eabe d897 b5be
000000e0: 95bc 0fbf 07f7 6cbe d052 f8be c285 cdbe
000000f0: ad15 bdbe dae0 81be adef 09bf 0785 05bf

5.running_mean f4 [64]
-6.879366 6.9731774 5.8217297 3.491177 -4.170942 -7.8478823 11.414229 -12.607967
-12.163047 10.776594 7.4541836 -17.561161 -10.178292 3.3037877 -12.003817 -29.334108
-8.664602 -29.432901 -14.778397 -16.248571 -18.976 -12.955915 -12.373908 -14.113579
8.617933 9.265149 -14.595752 -23.65197 11.547845 -1.309585 33.834824 -15.292644
-6.9228015 -1.6908001 -5.1815057 0.7163537 -5.3680344 -0.6187597 4.2317386 2.521346
-13.660249 -12.783983 9.914336 -8.560043 8.930592 5.905964 -13.099448 8.237876
-12.3408785 -13.210607 -8.164979 -10.640387 9.230196 -9.393371 -19.64289 -17.3659
19.814978 -7.2081738 0.554441 -12.57889 -5.3378224 -4.317663 -11.782041 -10.185002
00000000: c423 dcc0 4524 df40 9c4b ba40 726f 5f40
00000010: 5b78 85c0 da21 fbc0 afa0 3641 3cba 49c1
00000020: d79b 42c1 ee6c 2c41 ac88 ee40 427d 8cc1
00000030: 49da 22c1 4271 5340 a20f 40c1 41ac eac1
00000040: 36a2 0ac1 9576 ebc1 5074 6cc1 13fd 81c1
00000050: d9ce 97c1 6e4b 4fc1 87fb 45c1 38d1 61c1
00000060: 0ee3 0941 0d3e 1441 3388 69c1 3c37 bdc1
00000070: f9c3 3841 7ba0 a7bf dc56 0742 abae 74c1
00000080: 9787 ddc0 236c d8bf e5ce a5c0 f562 373f
00000090: f0c6 abc0 0967 1ebf 676a 8740 bc5d 2140
000000a0: 6190 5ac1 328b 4cc1 1fa1 1e41 f0f5 08c1
000000b0: b4e3 0e41 a8fd bc40 5797 51c1 57ce 0341
000000c0: 3d74 45c1 a55e 53c1 c1a3 02c1 063f 2ac1
000000d0: e2ae 1341 3f4b 16c1 a424 9dc1 5ded 8ac1
000000e0: 1385 9e41 5ca9 e6c0 d8ef 0d3f 2243 49c1
000000f0: 71cf aac0 4c2a 8ac0 3d83 3cc1 c5f5 22c1

5.running_var f4 [64]
180.7221 46.97356 54.119705 214.56972 79.26963 165.16972 183.38583 182.73018
166.13976 162.18866 51.573658 150.40794 97.78931 36.654324 303.2631 182.77234
98.98323 113.6429 148.67274 252.37915 327.8008 215.74144 148.16573 161.62372
76.93834 72.2009 182.57411 103.239746 132.10408 90.28052 148.90779 211.06125
56.9367 76.3437 134.71042 138.1147 149.6736 85.264984 150.90222 70.805016
285.4566 175.52101 133.13795 99.21921 164.95778 129.90732 160.65152 128.74368
342.84695 167.38417 108.64719 118.01346 168.4265 106.79703 160.32727 144.68391
128.40544 162.37112 39.52656 194.0403 141.63991 82.91858 136.575 124.24791
00000000: dcb8 3443 ede4 3b42 947a 5842 d991 5643
00000010: 0d8a 9e42 732b 2543 c662 3743 edba 3643
00000020: c723 2643 4c30 2243 6d4b 4e42 6f68 1643
00000030: 2094 c342 079e 1242 ada1 9743 b8c5 3643
00000040: 6af7 c542 2a49 e342 39ac 1443 1061 7c43
00000050: 81e6 a343 cfbd 5743 6d2a 1443 ac9f 2143
00000060: 6ee0 9942 dc66 9042 f992 3643 c07a ce42
00000070: a51a 0443 a08f b442 65e8 1443 ae0f 5343
00000080: 2ebf 6342 f9af 9842 deb5 0643 5d1d 0a43
00000090: 71ac 1543 ac87 aa42 f8e6 1643 2b9c 8d42
000000a0: 72ba 8e43 6185 2f43 5123 0543 3c70 c642
000000b0: 31f5 2443 46e8 0143 caa6 2043 62be 0043
000000c0: 696c ab43 5962 2743 5c4b d942 e406 ec42
000000d0: 2f6d 2843 1498 d542 c853 2043 15af 1043
000000e0: cb67 0043 025f 2243 331b 1e42 510a 4243
000000f0: d1a3 0d43 50d6 a542 3393 0843 ee7e f842

8.weight f4 [64, 64, 3]
-0.09352181 -0.13131762 -0.07570881 0.23928957 0.1050663 0.7786282 0.38514262 0.18444343
0.29420143 0.2379983 0.6292892 -0.21684574 0.3538899 0.00794244 -0.46068996 -0.06578498
-0.014294195 -0.1217839 -0.42033443 0.15634388 0.22810374 0.1000732 0.09368635 -0.14447483
0.168779 0.2051959 -0.22605439 -0.1731853 0.069096744 -0.18780991 0.34472802 -0.26284948
0.05570462 0.20622115 -0.2143881 0.24626268 -0.06052895 0.019720418 0.3103535 0.11539709
-0.07224495 -0.6304513 -0.23059419 0.065186515 0.2346785 -0.114457585 -0.97098607 -0.4952753
0.1799042 0.069152564 -0.2940225 -0.72999096 -0.8418824 -0.7116812 -0.12646917 0.11503697
-0.56768495 0.050676588 0.1416506 -0.07289248 0.34839377 -0.2279527 -0.76445323 -0.5134102
-0.049813338 -0.039854072 -0.15173256 -0.046974536 0.26733142 -0.22231308 0.2083988 -0.15183567
0.042325087 0.4028784 0.8268802 -0.28250536 -0.52592254 0.01294958 -0.05367879 0.1638896
-0.12443143 0.4498391 -0.78421354 -0.40334705 -0.66302514 -0.17428967 -0.310075 -0.28876698
-0.29059696 0.36995885 0.2886761 -0.024647169 0.19992644 -0.10215179 0.14367332 -0.1371506
0.15561296 -0.26952693 -0.04767644 0.18046264 -0.24793856 -0.23980373 -0.30472508 0.4594688
-0.532912 -0.032503303 0.33659187 0.2847186 -0.089277096 0.11174754 0.18028688 0.31077194
-0.32199502 0.61784035 -0.8727611 -0.6722365 -0.54989725 -0.024018874 -0.2855207 -0.081870556
-0.359032 0.09731959 -0.16599903 0.093179084 0.08013508 -0.0807137 -0.047249615 0.12821443
-0.04181601 0.17571853 0.25266907 0.052778523 -0.73949677 -0.06776435 -0.22184664 -0.02705066
0.31848496 -0.037166405 -0.074572 0.28096297 -0.5702245 -0.18070605 0.30154783 -0.28338954
-0.144925 0.2769979 -0.43668664 -0.039294913 -0.0019817965 0.08837551 0.50443053 0.20384994
-0.04002816 -0.09762407 -0.08067964 -0.12733574 0.09573372 0.63963354 -0.117473975 -0.13834105
0.19061568 0.027764069 -0.14126234 -0.21473426 -0.44615334 -0.07370093 -0.41787043 -0.24939875
-0.45955628 -0.028078604 -0.7595261 0.0647815 0.060566954 -0.23863882 -0.28531417 0.10562675
-0.07803122 -0.19448404 -0.042774025 -0.18661624 -0.2991341 0.20998798 -0.19593163 -0.18490851
0.41457725 0.3250511 -0.31236455 0.092874706 -0.17715901 -0.39065394 -0.18864161 -0.8773295
-0.06635757 0.60238844 0.29183576 -0.22137819 0.23597367 -0.22879824 0.056757335 -0.34653115
-0.49436638 0.12907156 0.54346824 0.51110154 -0.11342708 -0.0370397 -0.11250675 -0.13948812
0.16769686 -0.012146958 0.9861114 0.7123858 0.23005745 -0.014600171 -0.30030617 0.19903374
-0.09848792 -0.073511936 0.11801181 0.0015001935 0.3663059 0.45633426 -0.52696484 -0.055468477
0.17661802 -0.09914725 -0.14113961 0.5087537 0.21165122 0.30475292 -0.10619891 -0.18373127
0.17237273 0.28297484 0.45787174 0.43133008 -0.1119672 0.5207428 0.09647678 0.21803728
0.0686648 -0.29799452 0.1271949 0.59591836 -0.02061226 -0.16460687 0.018780442 -0.31882274
-0.024037192 0.11593163 0.43093872 0.3649356 -0.21277164 -0.110024445 0.16070992 0.2521288
00000000: 5d88 bfbd 2078 06be 380d 9bbd 5308 753e
00000010: 002d d73d 2d54 473f 6a31 c53e bdde 3c3e
00000020: 92a1 963e d4b5 733e 1919 213f cf0c 5ebe
00000030: 0f31 b53e 0221 023c 8edf ebbe 47ba 86bd
00000040: 3332 6abc d669 f9bd 1336 d7be 9c18 203e
00000050: 0794 693e 2ef3 cc3d a1de bf3d 36f1 13be
00000060: 67d4 2c3e e01e 523e cd7a 67be 7d57 31be
00000070: 9882 8d3d 3e51 40be 3180 b03e 3594 86be
00000080: 872a 643d a32b 533e 8e88 5bbe 492c 7c3e
00000090: 34ed 77bd b78c a13c a7e6 9e3e 4f55 ec3d
000000a0: 29f5 93bd 4265 21bf e220 6cbe 8280 853d
000000b0: 904f 703e bd68 eabd 8b92 78bf b994 fdbe
000000c0: ce38 383e dc9f 8d3d 1e8a 96be b0e0 3abf
000000d0: 9b85 57bf bd30 36bf 2281 01be 8198 eb3d
000000e0: cd53 11bf 4192 4f3d db0c 113e a748 95bd
000000f0: ab60 b23e 6f6c 69be 35b3 43bf da6e 03bf
00000100: 1209 4cbd 063e 23bd c85f 1bbe 5f68 40bd
00000110: aadf 883e 0aa6 63be 7f66 553e cf7a 1bbe
00000120: 125d 2d3d 1446 ce3e 6cae 533f 8ba4 90be
00000130: dca2 06bf 7a2a 543c 4ade 5bbd add2 273e
00000140: e8d5 febd 4f51 e63e 38c2 48bf 8183 cebe
00000150: 04bc 29bf fe78 32be 27c2 9ebe 44d9 93be
00000160: 20c9 94be 3f6b bd3e 5bcd 933e dce8 c9bc
00000170: 84b9 4c3e f534 d1bd 191f 133e 3571 0cbe
00000180: 0159 1f3e 6fff 89be 5f48 43bd 33cb 383e
00000190: 9be3 7dbe 1c8f 75be ed04 9cbe 7f3f eb3e
000001a0: ec6c 08bf 2f22 05bd c555 ac3e a3c6 913e
000001b0: e9d6 b6bd e5db e43d 209d 383e 801d 9f3e
000001c0: 88dc a4be c92a 1e3f 456d 5fbf b117 2cbf
000001d0: 11c6 0cbf 3bc3 c4bc c52f 92be c0ab a7bd
000001e0: 0bd3 b7be 7e4f c73d a6fb 29be add4 be3d
000001f0: dc1d a43d 394d a5bd d088 41bd a54a 033e
00000200: 4447 2bbd 8fef 333e d75d 813e 4b2e 583d
00000210: a94f 3dbf 09c8 8abd c42b 63be 5999 ddbc
00000220: 7610 a33e cd3b 18bd 34b9 98bd 61da 8f3e
00000230: 3cfa 11bf 020b 39be 7a64 9a3e 6f18 91be
00000240: 3867 14be abd2 8d3e 6495 dfbe b4f3 20bd
00000250: 07e1 01bb 38fe b43d 5c22 013f 0abe 503e
00000260: 91f4 23bd 21ef c7bd 5e3b a5bd 4d64 02be
00000270: 0a10 c43d 06bf 233f 3296 f0bd 47a9 0dbe
00000280: c230 433e 7971 e33c 13a7 10be 4ce3 5bbe
00000290: 366e e4be 83f0 96bd 1df3 d5be 6362 7fbe
000002a0: f64a ebbe 1a05 e6bc 4d70 42bf 2aac 843d
000002b0: 0e15 783d bc5d 74be b314 92be d652 d83d
000002c0: d5ce 9fbd d326 47be d133 2fbd 5418 3fbe
000002d0: 1b28 99be 1707 573e 4da2 48be a858 3dbe
000002e0: 7843 d43e 196d a63e 3fee 9fbe 1835 be3d
000002f0: 2c69 35be cb03 c8be 442b 41be ab98 60bf
00000300: 7ae6 87bd 2136 1a3f 7f6b 953e f7b0 62be
00000310: 15a3 713e 164a 6abe 617a 683d 886c b1be
00000320: 971d fdbe 562b 043e bc20 0b3f 8dd7 023f
00000330: 754c e8bd f1b6 17bd f069 e6bd f9d5 0ebe
00000340: bab8 2b3e 0904 47bc cc71 7c3f ea5e 363f
00000350: 2e94 6b3e 8e35 6fbc bbc1 99be 80cf 4b3e
00000360: 09b4 c9bd 6d8d 96bd 2db0 f13d 24a2 c43a
00000370: 728c bb3e a5a4 e93e 2be7 06bf ea32 63bd
00000380: 5bdb 343e b70d cbbd e786 10be af3d 023f
00000390: 19bb 583e 9308 9c3e d07e d9bd 0d24 3cbe
000003a0: 7a82 303e 14e2 903e 2a6e ea3e 4cd7 dc3e
000003b0: 0f4f e5bd 664f 053f 9e95 c53d 2a45 5f3e
000003c0: 21a0 8c3d bd92 98be 613f 023e 1b8e 183f
000003d0: 0bdb a8bc b48e 28be 71d9 993c bc3c a3be
000003e0: a5e9 c4bc 906d ed3d 00a4 dc3e d7d8 ba3e
000003f0: cfe0 59be 7f54 e1bd 2491 243e 0717 813e

8.bias f4 [64]
0.0619025 -0.069552265 0.08141238 0.23095092 -0.08499869 -0.0338291 0.011346555 0.055547435
-0.11483699 -0.041454785 0.02561041 -0.08690004 0.07896328 -0.08715879 0.12201713 -0.036643624
0.023813196 -0.023703713 0.02417521 -0.05009626 0.020746846 -0.033694018 -0.009590899 -0.02198644
-0.0417122 -0.033375602 -0.088153996 0.11185134 0.01359248 0.02012698 -0.017864821 0.08835101
0.014303296 0.016086493 -0.0066283895 0.034250397 -0.031663183 -0.04615511 0.048540626 0.030767275
-0.075929165 -0.088828094 -0.116465904 0.06747465 -0.04534367 0.060429018 0.060028758 -0.07120499
-0.040993337 -0.07095944 -0.06830157 0.0135048255 -0.05722931 -0.008367777 0.03101961 -0.0977639
-0.1097148 -0.035406258 0.04145588 0.0038863814 0.035352226 0.0039154277 -0.07258046 0.017154688
00000000: 7a8d 7d3d 6b71 8ebd 89bb a63d 667e 6c3e
00000010: cb13 aebd 6290 0abd e7e6 393c b585 633d
00000020: a82f ebbd 7ecc 29bd eccc d13c a6f8 b1bd
00000030: 80b7 a13d 4f80 b2bd 1ee4 f93d a017 16bd
00000040: e413 c33c 4a2e c2bc 170b c63c bc31 4dbd
00000050: 4af5 a93c bd02 0abd 2523 1dbc e81c b4bc
00000060: 69da 2abd dbb4 08bd 158a b4bd 5112 e53d
00000070: feb2 5e3c 56e1 a43c 3f59 92bc 60f1 b43d
00000080: 5f58 6a3c d2c7 833c f632 d9bb 254a 0c3d
00000090: 41b1 01bd 240d 3dbd 89d2 463d a70b fc3c
000000a0: c080 9bbd 81eb b5bd ad85 eebd 2630 8a3d
000000b0: 49ba 39bd 6b84 773d b7e0 753d ecd3 91bd
000000c0: a1e8 27bd 2f53 91bd b2e1 8bbd 5843 5d3c
000000d0: 4869 6abd 0019 09bc d61c fe3c 7138 c8bd
000000e0: 27b2 e0bd 2706 11bd a4cd 293d a9b2 7e3b
000000f0: 7fcd 103d fd4c 803b 10a5 94bd fd87 8c3c

9.weight f4 [64]
0.45656705 0.46009514 0.87197816 1.9829782 0.867017 0.9617977 1.3644722 1.4570062
1.4131505 0.65240425 0.9675924 0.96625817 1.1002676 1.1212533 0.6504443 0.88072616
0.93482065 1.3295423 1.1793411 1.2112899 1.3032594 0.8266699 1.4291215 0.9689189
0.8144954 0.9407651 1.4154272 0.9727307 1.29795 0.74484026 1.0917152 1.2284942
1.0074474 0.5227353 0.5878048 0.7659898 1.1696471 0.8557964 0.6248041 1.3323424
1.1229541 1.3076584 0.5324456 0.49260023 0.38459605 0.98089534 0.96770513 0.9543521
0.8160816 0.8663475 0.6052143 1.0369368 1.3382074 1.8892249 0.39024085 0.86724246
0.9600628 0.54221565 1.8520354 1.1186317 0.56902975 1.0227363 0.7887633 0.7571978
00000000: 28c3 e93e 9791 eb3e f639 5f3f 3bd2 fd3f
00000010: d3f4 5d3f 6038 763f 06a7 ae3f 2e7f ba3f
00000020: 1ee2 b43f f703 273f 23b4 773f b25c 773f
00000030: 92d5 8c3f 3a85 8f3f 8583 263f 4577 613f
00000040: 6850 6f3f 712e aa3f a6f4 963f 8c0b 9b3f
00000050: 34d1 a63f a3a0 533f 74ed b63f 120b 783f
00000060: c582 503f fbd5 703f b82c b53f e104 793f
00000070: 3a23 a63f daad 3e3f 53bd 8b3f 4c3f 9d3f
00000080: 09f4 803f fbd1 053f 607a 163f e817 443f
00000090: ffb6 953f 7915 5b3f 29f3 1f3f 328a aa3f
000000a0: f6bc 8f3f 5a61 a73f 5b4e 083f 1936 fc3e
000000b0: c6e9 c43e f51b 7b3f 86bb 773f 6b50 743f
000000c0: b9ea 503f f3c8 5d3f 53ef 1a3f 58ba 843f
000000d0: 614a ab3f 1fd2 f13f a6cd c73e 9a03 5e3f
000000e0: adc6 753f a5ce 0a3f 7f0f ed3f 532f 8f3f
000000f0: efab 113f 06e9 823f 64ec 493f b7d7 413f

9.bias f4 [64]
-0.26295894 -0.25713453 -0.24111167 -0.37659445 -0.8938898 -0.5597084 -1.2511218 -0.80228084
-1.1281494 -0.20048048 -0.38650426 -0.8242511 -0.8362146 -1.0257139 -0.20552425 -0.6222626
-0.64020914 -0.7998891 -0.6358912 -0.50910103 -1.0377216 -0.37038818 -1.2250507 -0.76592803
-0.40174866 -0.6088396 -1.1277037 -0.22901927 -0.6610464 -0.43686333 -0.57686937 -0.7212568
-0.5450561 -0.08276415 -0.064467795 -0.2587507 -0.8131444 -0.7946537 -0.38756156 -0.672365
-0.4928826 -0.49065608 -0.4642334 -0.14347287 0.03548807 -0.5484715 -0.5536439 -0.68164444
-0.60413015 -0.63927615 -0.29444897 -0.58065987 -0.17650987 -0.9209651 0.15223338 -0.91099036
-0.40960345 -0.0140716145 -0.5354138 -0.79319876 -0.0020017475 0.13968216 -0.56061506 -0.48638523
00000000: 8ea2 86be 23a7 83be fae5 76be fdd0 c0be
00000010: f6d5 64bf 0d49 0fbf c224 a0bf 4762 4dbf
00000020: 3367 90bf c14a 4dbe e3e3 c5be 1f02 53bf
00000030: 2912 56bf 984a 83bf f374 52be 9a4c 1fbf
00000040: bfe4 23bf 88c5 4cbf c4c9 22bf 7254 02bf
00000050: 10d4 84bf 85a3 bdbe 76ce 9cbf dc13 44bf
00000060: 00b2 cdbe e9dc 1bbf 9858 90bf 0784 6abe
00000070: 563a 29bf 8dac dfbe b6ad 13bf 49a4 38bf
00000080: cc88 0bbf 4080 a9bd b107 84bd f97a 84be
00000090: 3b2a 50bf 6d6e 4bbf 786e c6be 1d20 2cbf
000000a0: 1c5b fcbe 4637 fbbe 00b0 edbe 8dea 12be
000000b0: f05b 113d a168 0cbf 9bbb 0dbf 4080 2ebf
000000c0: 46a8 1abf 9aa7 23bf 04c2 96be 20a6 14bf
000000d0: 01bf 34be 5ec4 6bbf 11e3 1b3e aa36 69bf
000000e0: 8bb7 d1be a18c 66bc e110 09bf 130f 4bbf
000000f0: c02f 03bb d708 0f3e 7884 0fbf 7c07 f9be

9.running_mean f4 [64]
-4.595227 -0.9377566 -0.42316034 -11.865737 -3.273026 5.856061 1.5107628 0.3468653
-3.3884523 -7.562776 -1.8880409 -0.46069404 -0.048260167 -5.3441324 0.15627377 -1.4889926
0.80834794 -4.155922 0.13538711 -3.1401477 -3.9982033 1.2747027 -3.2210188 -4.3221855
-2.945538 1.6343284 -2.5940106 1.2699138 -1.2425171 0.3716893 -4.996492 -5.510246
1.6111517 -5.5696015 -2.5267205 -3.7332156 -0.7697648 -4.680849 -5.974406 -6.936403
-2.831021 5.3416514 -0.6071985 -6.2109447 2.809551 -4.206475 -4.6075206 -7.9068694
-1.7989953 -2.55311 -6.54206 4.2890887 -5.595455 -6.965351 0.28581282 -3.3854818
-0.7855922 0.6938281 -12.676517 -0.13905129 -2.6259758 -6.042981 -2.9446511 -2.2771041
00000000: 190c 93c0 d110 70bf 79a8 d8be 0fda 3dc1
00000010: 4279 51c0 da64 bb40 ad60 c13f 5498 b13e
00000020: 67dc 58c0 4302 f2c0 53ab f1bf 17e0 ebbe
00000030: 74ac 45bd 2203 abc0 3b06 203e 4f97 bebf
00000040: e4ef 4e3f 50fd 84c0 eba2 0a3e 2ef8 48c0
00000050: 90e2 7fc0 7529 a33f 2c25 4ec0 584f 8ac0
00000060: b283 3cc0 ac31 d13f 4504 26c0 898c a23f
00000070: cd0a 9fbf 0f4e be3e 43e3 9fc0 ef53 b0c0
00000080: 383a ce3f 2d3a b2c0 cab5 21c0 01ed 6ec0
00000090: 4e0f 45bf 84c9 95c0 552e bfc0 03f7 ddc0
000000a0: 732f 35c0 cfee aa40 5c71 1bbf 0fc0 c6c0
000000b0: afcf 3340 719b 86c0 cf70 93c0 1305 fdc0
000000c0: 7a45 e6bf 2766 23c0 8e58 d1c0 3740 8940
000000d0: f80d b3c0 28e4 dec0 0f56 923e bcab 58c0
000000e0: 921c 49bf b89e 313f 03d3 4ac1 7663 0ebe
000000f0: fd0f 28c0 1a60 c1c0 2a75 3cc0 13bc 11c0

9.running_var f4 [64]
23.137693 20.059668 45.13456 53.934948 36.44085 61.28372 26.483656 46.60882
44.050682 39.249634 69.331024 23.049734 57.022694 22.996695 16.14204 45.947533
34.4079 53.389725 59.788734 86.807106 52.445503 52.252296 56.793148 22.12967
53.42588 37.349724 46.549152 24.827185 75.7597 34.527203 61.878742 66.448456
93.33283 25.86637 56.640335 24.23086 66.52187 19.951895 20.683552 64.93123
70.902054 40.79104 32.57033 19.597908 24.804276 41.490643 31.102634 20.041458
43.68685 23.946852 21.40339 35.43797 57.04708 58.204327 16.870897 24.155052
57.333576 30.445484 99.9594 52.844154 38.45975 58.413567 26.669407 27.365961
00000000: ff19 b941 337a a041 ca89 3442 63bd 5742
00000010: 6ec3 1142 8722 7542 87de d341 6f6f 3a42
00000020: e633 3042 a0ff 1c42 7ca9 8a42 db65 b841
00000030: 3d17 6442 3bf9 b741 e622 8141 46ca 3742
00000040: b1a1 0942 148f 5542 aa27 6f42 3d9d ad42
00000050: 32c8 5142 5a02 5142 2f2c 6342 9009 b141
00000060: 1ab4 5542 1e66 1542 5532 3a42 139e c641
00000070: f784 9742 db1b 0a42 d583 7742 9ce5 8442
00000080: 69aa ba42 53ee ce41 b48f 6242 cdd8 c141
00000090: 330b 8542 7b9d 9f41 ea77 a541 cadc 8142
000000a0: dacd 8d42 062a 2342 0548 0242 84c8 9c41
000000b0: 286f c641 6bf6 2542 32d2 f841 e854 a041
000000c0: 56bf 2e42 2793 bf41 253a ab41 7bc0 0d42
000000d0: 3630 6442 3bd1 6842 99f7 8641 8c3d c141
000000e0: 9555 6542 5a90 f341 36eb c742 6a60 5342
000000f0: c9d6 1942 7ea7 6942 f25a d541 7ded da41

12.weight f4 [64, 64, 3]
0.032072205 0.22112003 0.09476342 -0.21964051 -0.49861515 -0.6736186 -0.28172132 0.30880412
-0.120861866 0.026185337 -0.13171598 0.12112858 -0.18952297 0.29976693 -0.21745026 0.055500466
-0.01430145 0.018795423 -0.23888342 0.18129827 0.33091393 -0.07577683 0.21179655 -0.36879525
0.33954224 0.5096776 -0.0015671897 0.07822862 0.2841941 -0.8268352 -0.30197355 0.19519347
0.3507014 -0.05236353 0.3080715 0.23711087 -0.2776494 -0.22461392 0.019151196 -0.045953967
-0.36044872 -0.23167321 -0.04348569 0.12854882 0.40907374 -0.22037853 0.3249797 0.2637744
0.11542826 0.40906838 0.11259625 -0.047536194 0.06743108 -0.13769674 0.40789175 -0.3212651
-0.6745346 0.25789872 -0.09590856 0.46634522 -0.013193267 -0.19943538 -0.51618636 0.28090596
-0.21766648 0.089281425 0.15682566 0.12785569 0.3610948 0.12050403 0.011615914 -0.35038537
-0.6197016 -0.62841195 -0.14791194 -0.23082852 -0.8740183 -0.5232202 0.07255008 0.41756007
-0.13288696 -0.63731617 -0.5970094 -0.44083202 0.0038616273 0.12362048 0.25184417 -0.20397882
-0.41133532 -0.7333045 0.1368253 -0.39679176 -0.016780388 0.6420192 -0.43110177 -0.8411533
-0.6270604 -0.73078907 -0.8465538 0.40348518 -0.03688814 0.07791087 -0.7079595 -0.6073437
-0.24055158 -0.39016986 0.19436972 -0.07407651 0.11917563 -0.65971535 0.03427417 0.09308928
0.24037501 0.15489557 0.5617576 0.5692304 0.18378676 -0.18835029 0.7042281 -0.08916881
0.35033554 0.2994288 0.2708199 -0.15911765 -0.19464977 -0.16415556 -0.42167446 -0.38875768
-0.35134724 0.46899343 -0.31125924 -0.49911806 0.24646865 0.33170715 0.01946844 0.27646762
-0.21820411 -0.16408822 -0.05849565 0.2633462 0.5948174 0.048648033 -0.18910107 -0.06884045
-0.14311923 -0.11509368 0.43658188 -0.5191831 -0.15038568 0.10361724 -0.18922254 0.2623658
-0.2187997 -0.5015587 -0.4485865 -0.5461575 -0.20623745 0.11786452 -0.43572703 -0.1165267
0.00064205634 -0.41659096 -0.07497516 -0.617461 0.30929792 -0.042443868 -1.0081882 -1.2607251
-0.0029728538 -0.27154455 -0.62506443 0.46399602 -0.7790609 0.11621464 0.0368093 -0.24530867
0.16340199 0.07974158 -0.30607644 0.121597596 -0.2774681 -0.12080996 -0.641524 -0.13625142
0.07041559 -0.15596038 0.10690121 0.24650815 0.063669436 0.26782092 -0.32759097 -0.4897185
0.8469316 -0.10192642 0.24984024 0.048217382 0.55357337 0.13066396 0.061358 -0.41784537
-0.57558924 -0.54708564 -0.12302779 -0.26621065 0.07049646 0.07982288 0.037150297 0.06445124
-0.35496125 0.051663145 0.8712428 -0.58264977 -0.5766397 0.03980562 -0.06527273 -0.02402182
0.10847073 -0.17333415 -0.04924259 0.0678727 0.03663875 0.2009602 -0.25433782 0.13789782
-0.3762108 -0.05383685 0.5538761 0.1953652 0.052855678 0.010073359 0.114569716 -0.35932449
0.57073057 -0.074563146 -0.426862 0.27140614 -0.037097972 0.17866804 0.09696869 -0.0038544408
-0.26608315 0.5994446 0.10471002 0.24854355 0.10463908 -0.124687284 0.23846638 0.22432849
-0.01828052 -0.15182309 -0.34256706 0.45594478 0.6730795 0.04445893 -0.5270016 -0.4625814
00000000: 255e 033d 4a6d 623e 5313 c23d 71e9 60be
00000010: 7c4a ffbe 4572 2cbf c73d 90be 931b 9e3e
00000020: 6d86 f7bd a282 d63c 8ee0 06be 4312 f83d
00000030: 4f12 42be 0d7b 993e 48ab 5ebe 7554 633d
00000040: a150 6abc dcf8 993c db9d 74be 41a6 393e
00000050: 8d6d a93e e230 9bbd 32e1 583e bbd2 bcbe
00000060: 7bd8 ad3e 3b7a 023f 296a cdba 5436 a03d
00000070: e481 913e 79ab 53bf 479c 9abe cce0 473e
00000080: 228f b33e 247b 56bd 8cbb 9d3e 31cd 723e
00000090: 1028 8ebe 3101 66be f8e2 9c3c 3a3a 3cbd
000000a0: bc8c b8be be3b 6dbe 0d1e 32bd 4da2 033e
000000b0: 1d72 d13e e9aa 61be bd63 a63e 700d 873e
000000c0: a765 ec3d 6971 d13e dd98 e63d 50b5 42bd
000000d0: 4e19 8a3d 6000 0dbe 30d7 d03e dc7c a4be
000000e0: 4dae 2cbf 4d0b 843e b56b c4bd cdc4 ee3e
000000f0: 9328 58bc ca38 4cbe ca24 04bf e8d2 8f3e
00000100: f6e3 5ebe 2ed9 b63d e896 203e 9aec 023e
00000110: 6be1 b83e d1ca f63d ad50 3e3c b665 b3be
00000120: c4a4 1ebf 9bdf 20bf 3a76 17be 505e 6cbe
00000130: aabf 5fbf c2f1 05bf 2395 943d 6fca d53e
00000140: 8513 08be 2727 23bf 9cd5 18bf bcb4 e1be
00000150: 5b13 7d3b bc2c fd3d b8f1 803e d3df 50be
00000160: 8b9a d2be d8b9 3bbf ee1b 0c3e 4a28 cbbe
00000170: 0677 89bc 5f5b 243f 5fb9 dcbe d355 57bf
00000180: 0887 20bf fe14 3bbf c0b7 58bf 9c95 ce3e
00000190: 0518 17bd bc8f 9f3d d53c 35bf e07a 1bbf
000001a0: 2753 76be 58c4 c7be db08 473e 6db5 97bd
000001b0: 5a12 f43d 1be3 28bf 1263 0c3d 98a5 be3d
000001c0: de24 763e f29c 1e3e 59cf 0f3f 15b9 113f
000001d0: 9932 3c3e e6de 40be 4b48 343f 239e b6bd
000001e0: 2e5f b33e bb4e 993e e8a8 8a3e bdef 22be
000001f0: 4552 47be 6518 28be b7e5 d7be 3f0b c7be
00000200: c9e3 b3be e81f f03e 5f5d 9fbe 678c ffbe
00000210: 4762 7c3e 85d5 a93e 477c 9f3c 2a8d 8d3e
00000220: e670 5fbe be06 28be 2299 6fbd 50d5 863e
00000230: f445 183f 2943 473d b6a3 41be 39fc 8cbd
00000240: d98d 12be 3cb6 ebbd a987 df3e 2fe9 04bf
00000250: b4fe 19be 4735 d43d 8ec3 41be cf54 863e
00000260: 070d 60be 2766 00bf 21ad e5be fad0 0bbf
00000270: e92f 53be f462 f13d 9d17 dfbe 8da5 eebd
00000280: ac4f 283a 694b d5be 948c 99bd ed11 1ebf
00000290: 4c5c 9e3e 9fd9 2dbd 500c 81bf 715f a1bf
000002a0: 36d4 42bb e307 8bbe 3904 20bf e390 ed3e
000002b0: 8970 47bf f101 ee3d 59c5 163d 3232 7bbe
000002c0: da52 273e 8e4f a33d 0db6 9cbe 2908 f93d
000002d0: 4c10 8ebe 366b f7bd eb3a 24bf 7e85 0bbe
000002e0: 0d36 903d 14b4 1fbe 06ef da3d a26c 7c3e
000002f0: 1f65 823d d31f 893e 01ba a7be 62bc fabe
00000300: 82d0 583f cdbe d0bd 1fd6 7f3e 977f 453d
00000310: fcb6 0d3f c6cc 053e 8752 7b3d d4ef d5be
00000320: d159 13bf ce0d 0cbf fef5 fbbd c34c 88be
00000330: 7360 903d 2e7a a33d e92a 183d 03ff 833d
00000340: 7bbd b5be bc9c 533d c509 5f3f 8928 15bf
00000350: a99e 13bf 380b 233d b6ad 85bd 68c9 c4bc
00000360: e725 de3d 827e 31be 99b2 49bd d800 8b3d
00000370: 8412 163d 83c8 4d3e 9138 82be 1635 0d3e
00000380: b49e c0be 0784 5cbd d3ca 0d3f d10d 483e
00000390: 327f 583d bb0a 253c 87a3 ea3d 61f9 b7be
000003a0: 661b 123f 90b4 98bd a88d dabe bff5 8a3e
000003b0: 0bf4 17bd c1f4 363e 8597 c63d c99a 7cbb
000003c0: 0d3c 88be 3475 193f 3572 d63d 3382 7e3e
000003d0: 044d d63d 0c5c ffbd 8830 743e 5eb6 653e
000003e0: 07c1 95bc 8377 1bbe f364 afbe 9871 e93e
000003f0: f04e 2c3f 911a 363d 94e9 06bf 78d7 ecbe

12.bias f4 [64]
0.018227661 0.011671661 -0.009968697 0.0064800493 -0.0072679613 0.046604775 0.039726995 -0.01095905
-0.13915324 -0.0693546 -0.028810367 0.13049246 -0.032765705 0.053100828 -0.05304315 -0.084790416
-0.020412778 0.0555688 0.06263596 -0.07488667 0.08045471 0.10482088 0.026240053 0.13397272
-0.03725228 -0.03309044 -0.010603842 0.07648885 0.03835475 -0.048216496 0.111676075 0.065925635
-0.042126738 0.026907373 -0.09637493 0.057864826 0.047203485 -0.039835233 0.080328785 -0.0075810407
-0.0072931303 -0.0075336066 0.1563216 0.06138553 -0.10194452 0.056324128 -0.053597275 0.044121567
0.0207358 0.042781904 -0.027606219 0.17190199 -0.008028447 0.033295255 -0.009983863 -0.14995703
0.0608513 0.0030485685 0.0013426065 -0.014588659 0.08924684 -0.0003363591 0.026375381 -0.0642735
00000000: 2d52 953c 7f3a 3f3c bf53 23bc 9856 d43b
00000010: 1428 eebb a6e4 3e3d c6b8 223d 968d 33bc
00000020: 307e 0ebe c909 8ebd b803 ecbc d19f 053e
00000030: 5535 06bd 4180 593d c643 59bd 99a6 adbd
00000040: b338 a7bc 1c9c 633d 4847 803d 2f5e 99bd
00000050: 70c5 a43d 54ac d63d 61f5 d63c 2530 093e
00000060: d995 18bd d789 07bd bdbb 2dbc 30a6 9c3d
00000070: df19 1d3d a97e 45bd 6db6 e43d 0504 873d
00000080: 168d 2cbd da6c dc3c 3860 c5bd ab03 6d3d
00000090: 7158 413d 452a 23bd 6b83 a43d 616a f8bb
000000a0: 36fb eebb 79dc f6bb c512 203e 656f 7b3d
000000b0: 4ac8 d0bd 21b4 663d d188 5bbd d1b8 343d
000000c0: 20de a93c 143c 2f3d 7026 e2bc 1307 303e
000000d0: bf89 03bc 9b60 083d 5b93 23bc 568e 19be
000000e0: 363f 793d 7eca 473b 66fa af3a 4505 6fbc
000000f0: 0cc7 b63d 5b59 b0b9 2f11 d83c d3a1 83bd

13.weight f4 [64]
0.8847478 0.62167454 1.0910298 1.1620286 0.610965 0.80462515 0.705875 0.62389785
1.3504055 0.8009715 0.4666198 0.7038715 0.9126829 0.69312435 0.7366882 0.538889
1.333881 0.6406194 0.5740352 0.52435666 0.5331355 2.091103 0.78664374 1.4548101
0.7461126 1.3131022 0.41809344 0.6874825 0.5288416 0.648492 1.1722642 0.65174747
0.8030724 0.8551802 1.7723871 1.3020315 0.6398299 1.1598334 0.7766852 0.5129331
1.1068256 0.41128367 1.4985443 0.61143017 0.81937456 1.236307 1.0192912 0.6332085
0.530983 1.0422215 1.1732657 1.3234172 0.6741252 0.46190405 0.7623104 0.5298947
0.51847833 0.43527275 0.81874603 0.5517005 0.6219719 0.70575833 0.9489848 0.8666033
00000000: d57e 623f 1026 1f3f dda6 8b3f 5abd 943f
00000010: 3468 1c3f eafb 4d3f 39b4 343f c5b7 1f3f
00000020: 16da ac3f 780c 4d3f cae8 ee3e ec30 343f
00000030: 96a5 693f 9970 313f 9997 3c3f a1f4 093f
00000040: 9dbc aa3f a2ff 233f f9f3 123f 3d3c 063f
00000050: 917b 083f a2d4 0540 7c61 493f 3837 ba3f
00000060: 3c01 3f3f bc13 a83f 5810 d63e dafe 2f3f
00000070: 2a62 073f 9203 263f c10c 963f ecd8 263f
00000080: 2796 4d3f 17ed 5a3f 95dd e23f f8a8 a63f
00000090: e4cb 233f 6c75 943f d7d4 463f 954f 033f
000000a0: 76ac 8d3f c693 d23e 4dd0 bf3f b086 1c3f
000000b0: 88c2 513f 4f3f 9e3f 2278 823f f419 223f
000000c0: 80ee 073f 8467 853f 922d 963f bc65 a93f
000000d0: 7893 2c3f b07e ec3e c626 433f 2ea7 073f
000000e0: ffba 043f 12dc de3e 5799 513f 3e3c 0d3f
000000f0: 8d39 1f3f 94ac 343f abf0 723f b7d9 5d3f
