notebooks/Radio_27ML/27ml_rf/27ml_rf_quantized.pth (torch, 719808 bytes, 47 tensors)

1.weight f4 [64, 2, 3]
-0.9289982 0.09340591 -1.1487278 -2.693911 -1.8749126 0.6627599 2.6460524 2.5231225
-0.12168541 -0.65482646 -1.1862094 -0.06433021 -2.1387088 -0.7767749 -0.5183032 -0.78232026
1.5312438 1.5455327 -1.3112884 -0.73435134 0.80017495 2.166395 2.344752 1.2363663
-0.6456868 0.91945755 2.2507012 -1.5848751 -1.2260667 -0.15542127 -0.61249876 0.96535116
-1.2742186 -1.0345435 -2.9230611 -2.446368 -1.5396636 2.893054 -0.06318833 0.074585386
-0.85102385 1.0793812 0.8026446 -3.3500125 -3.4569292 -0.85633 0.24496236 0.9718967
-0.44638246 1.1586611 1.86444 2.0028925 1.064348 0.670743 1.3896997 -0.20013644
0.40606984 -2.5991874 -2.0850475 -1.6018915 1.5942826 0.9084207 -1.6339297 0.78553563
1.6283032 0.01522286 0.6647239 0.16990545 2.8116727 0.6492634 -0.97101754 -1.5161502
0.50536186 2.5864606 1.0600659 1.6532882 0.7576507 -1.1599704 -0.07188254 -1.0736842
-2.997536 1.5086873 0.9564784 -0.45247886 -1.1348268 -0.6066898 -2.0143154 -1.8043544
0.3655415 -1.0821458 0.8173423 0.82795084 1.2527008 -0.7044845 -1.8522857 -2.283279
1.0595022 0.35009843 -0.72855866 -1.4465466 1.5188558 2.6125739 -0.16718356 -2.3660467
-1.517459 -0.20277716 -1.5605277 -1.036197 0.16768077 0.16504021 0.30816272 1.2861804
0.9161946 3.981242 0.07853711 -1.9781454 -1.0434754 0.6709784 1.6041152 1.561038
-0.9941331 -0.16268879 0.24197446 0.17114317 -3.9774635 -0.123211026 -0.9534889 -1.8713331
-1.9351101 -0.90345234 -1.443168 0.7822745 -2.2105193 1.0501617 1.2141445 1.720299
-0.78730965 -1.02767 1.4442308 0.96565807 1.0517521 1.7761537 1.7744489 0.47987702
-1.2628521 -1.5797812 1.0189342 -1.1141989 -1.098909 -1.7477734 -3.27789 -3.2835927
-1.035759 0.63593394 0.6378578 -1.2398542 -0.25903642 -0.8000609 -0.59923303 -2.6820908
-2.4008255 -1.5535189 -3.6479383 -3.8878999 0.73726666 0.23369831 -0.034481645 -0.3551676
-1.5572544 0.663453 1.7722889 -1.1242849 1.1083547 1.7016338 -0.9458656 1.5855837
-0.74008465 -1.0818654 2.195382 -1.1679024 1.2495549 -0.05584212 1.3501043 0.44433516
2.5371366 0.5961231 -0.887755 -0.11775191 -1.1424544 1.0536178 2.3384283 2.4043558
-2.1808207 -1.6347171 -2.7785802 -0.6548199 -1.1724995 0.25233123 -1.9298815 0.27202114
0.7967802 0.5462831 -1.7009162 -1.8805118 -0.33455572 0.10118884 0.35676745 3.8346646
2.104862 1.5067741 -1.047023 -1.5010744 -0.011776214 -1.9593664 -1.6811275 -0.6255054
-0.81783736 0.34500805 0.4855348 -2.2578542 -0.47921354 2.6436427 0.65569705 -1.0712897
-1.4391571 -0.04587265 -1.2771363 -2.555205 0.72221303 0.47728172 -0.122068435 1.1785405
1.3811705 3.983202 -0.2647453 -0.49559984 0.37429732 -1.9516367 -2.74345 -3.9580092
2.1377106 2.2220774 -0.15949942 -0.9001365 0.19934212 -1.4085146 1.86342 -2.0211554
-0.3758396 0.3987725 -1.6282946 0.44165578 1.4128882 0.54161924 -0.09240737 -2.5676177
00000000: d3d2 6dbf 994b bf3d 8309 93bf 0a69 2cc0
00000010: 23fd efbf a2aa 293f ec58 2940 d77a 2140
00000020: 3336 f9bd b5a2 27bf b6d5 97bf 8fbf 83bd
00000030: 9be0 08c0 b8da 46bf 85af 04bf 2446 48bf
00000040: ccff c33f 04d4 c53f 4cd8 a7bf 73fe 3bbf
00000050: 44d8 4c3f 37a6 0a40 6b10 1640 4041 9e3f
00000060: bb4b 25bf 9261 6b3f 7d0b 1040 30dd cabf
00000070: c1ef 9cbf c126 1fbe b8cc 1cbf 4121 773f
00000080: 9819 a3bf ec6b 84bf 6f13 3bc0 4b91 1cc0
00000090: b213 c5bf cc27 3940 e268 81bd 39c0 983d
000000a0: b3dc 59bf 2a29 8a3f 1e7a 4d3f 9b66 56c0
000000b0: 543e 5dc0 7138 5bbf 6ad7 7a3e 39ce 783f
000000c0: 3e8c e4be 024f 943f f8a5 ee3f 642f 0040
000000d0: 8e3c 883f d0b5 2b3f aee1 b13f 91f0 4cbe
000000e0: 63e8 cf3e 1659 26c0 6b71 05c0 c80a cdbf
000000f0: 7411 cc3f 428e 683f 9c24 d1bf dd18 493f
00000100: 3d6c d03f 4d69 793c 582b 2a3f b2fb 2d3e
00000110: 72f2 3340 2036 263f 9b94 78bf 3611 c2bf
00000120: 655f 013f 9288 2540 3db0 873f f39e d33f
00000130: 65f5 413f e979 94bf 2737 93bd 7c6e 89bf
00000140: a1d7 3fc0 aa1c c13f c5db 743f 4fab e7be
00000150: 0142 91bf 0650 1bbf 8bea 00c0 16f5 e6bf
00000160: 4128 bb3e c183 8abf 583d 513f 96f4 533f
00000170: 8058 a03f 1959 34bf b317 edbf 3e21 12c0
00000180: c59d 873f 1a40 b33e d282 3abf 7028 b9bf
00000190: de69 c23f 6934 2740 2b32 2bbe 4f6d 17c0
000001a0: 193c c2bf d1a4 4fbe 5fbf c7bf 1aa2 84bf
000001b0: 82b4 2b3e 4d00 293e 81c7 9d3e 8fa1 a43f
000001c0: bb8b 6a3f abcc 7e40 10d8 a03d de33 fdbf
000001d0: 9a90 85bf 3ec5 2b3f a653 cd3f 18d0 c73f
000001e0: 827f 7ebf e497 26be 27c8 773e 2840 2f3e
000001f0: c38e 7ec0 1056 fcbd d917 74bf d887 efbf
00000200: b0b1 f7bf a748 67bf bbb9 b8bf 2443 483f
00000210: 2679 0dc0 b36b 863f 1669 9b3f c232 dc3f
00000220: 208d 49bf b18a 83bf 8edc b83f 5e35 773f
00000230: d09f 863f 0159 e33f 2421 e33f 71b2 f53e
00000240: 23a5 a1bf 4536 cabf 706c 823f 129e 8ebf
00000250: 0da9 8cbf 0ab7 dfbf f3c8 51c0 6226 52c0
00000260: c093 84bf 91cc 223f a64a 233f 8bb3 9ebf
00000270: 6ca0 84be cbd0 4cbf 5667 19bf 60a7 2bc0
00000280: 20a7 19c0 b5d9 c6bf d277 69c0 5ad3 78c0
00000290: 82bd 3c3f 9c4e 6f3e a03c 0dbd 87d8 b5be
000002a0: 1d54 c7bf 0ed8 293f 5dda e23f 91e8 8fbf
000002b0: 91de 8d3f 23cf d93f 3f24 72bf 68f4 ca3f
000002c0: 3076 3dbf 917a 8abf 2481 0c40 d37d 95bf
000002d0: 6af1 9f3f b5ba 64bd 38d0 ac3f e67f e33e
000002e0: 7260 2240 869b 183f e943 63bf ea27 f1bd
000002f0: f23b 92bf f3dc 863f cfa8 1540 f7e0 1940
00000300: 9192 0bc0 693e d1bf 42d4 31c0 47a2 27bf
00000310: 7714 96bf 8f31 813e 5b06 f7bf 5b46 8b3e
00000320: caf9 4b3f 36d9 0b3f 9fb7 d9bf 9cb4 f0bf
00000330: e34a abbe 183c cf3d 39aa b63e 256b 7540
00000340: 0fb6 0640 f9dd c03f da04 86bf 3523 c0bf
00000350: 06f1 40bc 85cc fabf 302f d7bf 1f21 20bf
00000360: ca5d 51bf e5a4 b03e 0498 f83e af80 10c0
00000370: 7a5b f5be 7131 2940 c3db 273f 0520 89bf
00000380: 4d36 b8bf f6e4 3bbd 3479 a3bf 7b88 23c0
00000390: f4e2 383f 455e f43e 04ff f9bd 6ada 963f
000003a0: 32ca b03f c8ec 7e40 b28c 87be 43bf fdbe
000003b0: e6a3 bf3e 3bcf f9bf af94 2fc0 0650 7dc0
000003c0: 40d0 0840 8436 0e40 d153 23be 586f 66bf
000003d0: 5720 4c3e 354a b4bf 8c84 ee3f 9c5a 01c0
000003e0: 0c6e c0be e92b cc3e f56b d0bf b520 e23e
000003f0: 85d9 b43f 8fa7 0a3f 1340 bdbd d953 24c0

2.weight f4 [64]
1.2175614 1.8288728 1.727958 2.0456734 1.6527907 1.7070485 1.1345092 1.651959
1.7858928 1.7075014 1.191606 1.5139133 1.593307 1.518778 1.5461528 1.6452024
1.1131436 1.7761774 1.7682967 1.8750635 1.4170353 1.3994924 1.9303011 1.6916941
1.4030298 1.7044106 1.9246593 1.5665665 1.2883688 1.8333215 1.0304266 1.6236761
1.8145308 1.0061079 1.4191982 1.9511299 2.293841 1.535757 1.5505122 2.0447197
1.1405368 1.3126684 1.9888453 2.127609 1.614781 2.0565205 2.0801482 2.1604764
1.2377745 1.7147397 1.1248287 1.8853177 2.149283 2.309848 1.8126084 2.0149322
1.8501568 1.2981226 1.5153328 2.0589101 1.5991707 2.5339644 2.0661516 1.6727555
00000000: 0dd9 9b3f 8118 ea3f ba2d dd3f 50ec 0240
00000010: a58e d33f 9180 da3f 9937 913f 6473 d33f
00000020: 2398 e43f 688f da3f 8c86 983f e9c7 c13f
00000030: 7cf1 cb3f 5167 c23f 56e8 c53f fe95 d23f
00000040: 7d7b 8e3f c859 e33f 8c57 e23f 1502 f03f
00000050: 6a61 b53f 9122 b33f 1b14 f73f 6f89 d83f
00000060: 7b96 b33f 202a da3f 3c5b f63f 4085 c83f
00000070: 45e9 a43f 47aa ea3f 05e5 833f 9ed4 cf3f
00000080: 8c42 e83f 25c8 803f 49a8 b53f a0be f93f
00000090: 4ace 1240 af93 c43f 2f77 c63f b0dc 0240
000000a0: 1cfd 913f 8505 a83f 7c92 fe3f bf2a 0840
000000b0: 25b1 ce3f 089e 0340 2621 0540 3f45 0a40
000000c0: 656f 9e3f 977c db3f 63fa 8f3f 1752 f13f
000000d0: da8d 0940 8dd4 1340 8d03 e83f a6f4 0040
000000e0: f0d1 ec3f e228 a63f 6df6 c13f 2fc5 0340
000000f0: a0b1 cc3f 792c 2240 d43b 0440 da1c d63f

2.bias f4 [64]
-0.057653885 -1.1411784 -0.5321632 -1.6099063 -0.42472345 -0.41407818 -0.8204014 -1.0355431
-0.70959467 -0.42021918 -0.35259774 -0.962028 -0.53640157 -0.6228408 -0.77392304 1.0419519
-0.5663233 -1.3211906 -1.3701022 -1.4943699 -0.8060108 -0.13191192 -0.32084674 1.184266
-0.18138064 -1.2382271 1.5745972 -0.30567366 -0.8245437 -0.14212081 -0.123106495 1.1100254
-1.3826545 -0.7851414 0.8564862 -1.6617751 -0.6326793 -1.0012378 -0.32596996 -1.7630564
-0.21537833 -0.9655376 -1.4241912 1.5596911 -0.47262982 1.2745018 -0.3497447 -1.8097537
-0.56844044 -0.21425784 -0.34407884 -1.0918715 -1.8121349 -1.9230039 -0.6670359 -0.5175246
1.1997716 -0.47433513 -0.9562958 -1.7943964 -0.2807451 -0.49358684 -1.7409775 1.0656928
00000000: 7b26 6cbd 2212 92bf d93b 08bf 6911 cebf
00000010: 5a75 d9be 0e02 d4be d305 52bf ad8c 84bf
00000020: ffa7 35bf f826 d7be b187 b4be 7847 76bf
00000030: 9d51 09bf 7f72 1fbf d21f 46bf ae5e 853f
00000040: 90fa 10bf c61c a9bf 825f afbf 8347 bfbf
00000050: b956 4ebf eb13 07be 0646 a4be 0796 973f
00000060: d9bb 39be 3a7e 9ebf 678c c93f 4281 9cbe
00000070: 4c15 53bf 1e88 11be 421f fcbd 5015 8e3f
00000080: d3fa b0bf 07ff 48bf ae42 5b3f 0cb5 d4bf
00000090: 45f7 21bf 8f28 80bf 89e5 a6be d5ab e1bf
000000a0: 238c 5cbe 792d 77bf e64b b6bf f5a3 c73f
000000b0: 89fc f1be e022 a33f bd11 b3be 02a6 e7bf
000000c0: 5085 11bf 6866 5bbe 1a2b b0be 72c2 8bbf
000000d0: 09f4 e7bf fe24 f6bf ddc2 2abf 7e7c 04bf
000000e0: 1e92 993f 0edc f2be cdcf 74bf c8ae e5bf
000000f0: d2bd 8fbe 6ab7 fcbe 5ad8 debf 9f68 883f

2.running_mean f4 [64]
0.14978398 -0.12493753 0.06441642 -0.08284845 -0.019442696 0.1673863 -0.04949733 0.19023508
-0.16550632 0.0814372 -0.080584005 -0.081269115 -0.16494055 0.093942 0.17767747 0.007847885
-0.079927996 0.19249639 -0.15265763 0.016498901 0.1138721 0.19051458 0.0010152019 -0.20145687
0.14301914 0.25142744 0.19443841 0.22619212 -0.06507738 0.0045851227 -0.15977466 -0.05365871
0.25139672 0.09380069 -0.16190879 0.17397161 0.0014312597 0.1428548 -0.17500451 0.19609185
-0.092680804 0.03402775 0.053049568 0.120266125 -0.090225615 0.23879944 0.00016660674 -0.20269722
-0.05705705 -0.003284566 0.10851555 -0.03746178 -0.22520278 -0.30241776 -0.22686218 0.0010547291
-0.18624584 -0.17223178 0.019186864 -0.02580163 0.02548034 -0.0039708964 0.10306276 -0.22739524
00000000: f960 193e 3fdf ffbd c2ec 833d 73ac a9bd
00000010: 4a46 9fbc 5067 2b3e b6bd 4abd fccc 423e
00000020: 7d7a 29be 8cc8 a63d 3a09 a5bd 6c70 a6bd
00000030: 2de6 28be aa64 c03d 15f1 353e 6a94 003c
00000040: 4ab1 a3bd c61d 453e 4852 1cbe b428 873c
00000050: c735 e93d 4116 433e 8610 853a b64a 4ebe
00000060: 9c73 123e 19bb 803e dd1a 473e e89e 673e
00000070: 4a47 85bd cc3e 963b f89b 23be 3cc9 5bbd
00000080: 12b7 803e 931a c03d 6bcb 25be 9d25 323e
00000090: 1b99 bb3a 8748 123e 6234 33be 4dcc 483e
000000a0: 6fcf bdbd af60 0b3d 814a 593d 164e f63d
000000b0: 35c8 b8bd d787 743e 28b3 2e39 dc8f 4fbe
000000c0: a7b4 69bd e041 57bb 673d de3d 8671 19bd
000000d0: 8f9b 66be 80d6 9abe 8f4e 68be d63e 8a3a
000000e0: 3bb7 3ebe 875d 30be c52d 9d3c f15d d3bc
000000f0: 25bc d03c 4b1e 82bb 9112 d33d 4cda 68be

2.running_var f4 [64]
5056.8394 7056.0195 4262.1665 7944.735 4158.986 9818.368 1709.4723 9527.257
4885.27 9482.139 2409.5908 4363.087 4843.1777 5624.1343 4799.705 7199.1553
3017.39 5747.703 9202.281 5527.2026 4999.9673 5879.9873 1417.3817 6445.785
4863.626 13743.481 10544.992 11908.131 1962.5522 1203.8016 4725.0415 8749.967
10358.981 3267.0012 12609.389 5805.558 1575.6418 4734.154 10503.9 17047.809
5429.4536 1321.552 7671.755 8419.439 9511.255 8532.041 1537.8918 7911.837
4997.3823 1266.5715 2974.9653 5697.49 7436.952 17063.824 11435.926 1506.9207
11294.255 4992.402 4381.9717 6239.116 5072.4087 1556.0717 7629.8965 8302.613
00000000: b706 9e45 2880 dc45 5531 8545 e145 f845
00000010: e3f7 8145 7969 1946 1daf d544 07dd 1446
00000020: 29aa 9845 8e28 1446 7499 1645 b258 8845
00000030: 6c59 9745 13c1 af45 a4fd 9545 3ef9 e045
00000040: 3d96 3c45 a09d b345 20c9 0f46 9fb9 ac45
00000050: bd3f 9c45 e6bf b745 372c b144 486e c945
00000060: 02fd 9745 edbd 5646 f8c3 2446 8610 3a46
00000070: ac51 f544 a779 9644 55a8 9345 deb7 0846
00000080: eddb 2146 0530 4c45 8e05 4546 776c b545
00000090: 8af4 c444 3bf1 9345 9a1f 2446 9e2f 8546
000000a0: a1ab a945 aa31 a544 0abe ef45 c28d 0346
000000b0: 059d 1446 2a50 0546 8a3c c044 b23e f745
000000c0: 0f2b 9c45 4a52 9e44 72ef 3945 ec0b b245
000000d0: 9e67 e845 a64f 8546 b4af 3246 765d bc44
000000e0: 0579 3046 3703 9c45 c6ef 8845 eef8 c245
000000f0: 4583 9e45 4b82 c244 2c6f ee45 74ba 0146

5.weight f4 [64, 64, 3]
1.4355444 0.2525232 -1.4122769 0.05190732 -2.350973 0.00049980916 -0.28145573 -2.6361015
-0.78861815 1.0195806 -0.64926285 1.430006 -0.948689 -1.1368444 1.3802489 -0.002082994
-0.7449062 0.4446419 -1.38165 2.1062431 0.11436717 0.52434754 -0.74277306 -0.066353306
-0.7610879 -1.4641467 -0.38554066 1.3523436 -0.9363781 0.85582316 -1.2168328 -0.26773116
-2.0833874 -3.388343 -0.25386098 0.44797143 -0.72155327 -1.2481192 -0.57815254 -0.45564649
-2.197875 -0.9396344 0.1231861 -0.81915265 -1.8034121 0.5656351 0.95700765 1.7780337
-0.37289226 -1.4845427 0.6004402 -0.8284203 -2.2015982 -1.6491117 1.2799627 0.6417042
1.9803214 1.2059296 -2.1387222 -1.4320171 -0.8962793 0.39066908 -0.21806592 0.363029
-1.1241941 -2.1046658 -1.7307913 1.4951558 1.1774586 -0.25764745 -0.4665887 -1.2919663
-0.10469288 0.16789734 0.98781073 -0.9146544 -2.1069884 1.9434993 1.7170224 0.8708075
1.0688486 -2.1997886 -0.84835136 -0.54307634 -1.8925881 -0.54387105 0.91589904 -0.5612579
0.5790456 0.19960417 0.3190711 -1.2729728 -1.6006883 -3.326214 -1.5909332 -4.15183
-0.26339293 -1.2387912 -1.9222845 -0.76556385 0.6611866 0.030396871 -3.6420975 -1.9513386
-1.4510126 -0.24794233 -0.78609484 -2.7544093 1.5256261 1.0869526 0.96539813 -0.7626511
-1.6135799 -1.8006331 -0.55557334 -3.8037493 -1.5894276 -1.4188623 -1.237946 -2.4491978
1.3467135 -1.4699553 1.1014531 -0.69232816 0.09012212 0.29606417 0.03787194 -2.1738276
-0.34738505 -3.5131524 -1.0400426 -3.6974282 -1.0282131 -2.2112012 -1.0861039 -0.8307926
0.4909766 -0.510045 0.39330167 1.3063437 0.9813956 -0.68961304 -0.7192717 -1.2278401
-1.6553631 -2.6357746 -1.0361577 1.1882837 0.09263889 0.464969 -1.6657012 -1.4141945
0.6474489 -1.1875417 -2.2187397 0.97136414 -0.3876405 -0.3001438 -1.0381391 -0.545323
-2.7339952 -1.3386053 0.61553764 -2.329076 -0.06829277 -0.27757716 1.5659438 0.6125851
1.2135916 0.92736816 2.2907012 1.2025243 0.18904607 -2.7807405 -0.25136033 -0.24486071
-1.6591419 -2.5968637 -3.623291 0.33364853 -1.7396868 -2.6808677 -0.79037714 1.7264304
0.27977073 -0.54673725 0.06602244 -1.3219014 -1.1588641 1.5413125 -0.247227 1.0270852
-3.339771 -0.9148287 1.5920193 -0.67475253 -2.8989887 -2.1620677 -0.2727422 1.8029865
1.123577 -1.9434917 -0.32498685 -0.8354726 -1.6059208 -1.0248764 -2.403019 -4.396253
-0.5224928 0.7131135 -0.9701708 0.22874518 1.5347929 -0.23606364 -0.5016842 -0.09777185
-0.7839858 0.37491128 0.32726815 -0.98204434 1.4659897 -0.9143322 0.23052731 0.69461864
0.31394422 -0.65499365 -0.053423572 0.14932968 -1.7179154 -1.2697788 0.43873352 -0.2883046
0.29710016 -0.40295216 -0.6817216 -0.5785236 1.2573401 -4.7873015 -3.4271424 -4.412831
-0.25715485 1.064964 1.4971602 -1.7415149 0.37327242 -0.17014635 -0.5978887 -0.17381628
-1.4377301 -1.249409 -1.1500235 -0.9780787 -4.409865 -1.2688185 1.0005189 -0.29221568
00000000: ebbf b73f b94a 813e 7dc5 b4bf c59c 543d
00000010: 5776 16c0 a005 033a f71a 90be e3b5 28c0
00000020: e1e2 49bf 9e81 823f 1736 26bf 700a b73f
00000030: 48dd 72bf 1e84 91bf ffab b03f d782 08bb
00000040: 2cb2 3ebf 1aa8 e33e e8d9 b0bf b0cc 0640
00000050: 5639 ea3d a43b 063f 6026 3ebf 3ee4 87bd
00000060: a8d6 42bf 2969 bbbf 9665 c5be 9819 ad3f
00000070: 7ab6 6fbf 3a17 5b3f 2dc1 9bbf 0f14 89be
00000080: 3856 05c0 9dda 58c0 11fa 81be 835c e53e
00000090: b7b7 38bf 5fc2 9fbf ce01 14bf 7f4a e9be
000000a0: fca9 0cc0 e18b 70bf fe48 fc3d fdb3 51bf
000000b0: 35d6 e6bf 76cd 103f 74fe 743f 9c96 e33f
000000c0: bceb bebe 7f05 bebf 73b6 193f 5a13 54bf
000000d0: fce6 0cc0 1816 d3bf d1d5 a33f ba46 243f
000000e0: 2c7b fd3f e75b 9a3f d3e0 08c0 564c b7bf
000000f0: 8f72 65bf c705 c83e ac4c 5fbe f0de b93e
00000100: 98e5 8fbf d8b2 06c0 928a ddbf 4461 bf3f
00000110: f7b6 963f 5eea 83be b7e4 eebe 275f a5bf
00000120: 3869 d6bd 48ed 2b3e 2ae1 7c3f ca26 6abf
00000130: e6d8 06c0 96c4 f83f 64c7 db3f 3eed 5e3f
00000140: 08d0 883f 56c9 0cc0 8e2d 59bf 0d07 0bbf
00000150: 5440 f2bf 223b 0bbf 5c78 6a3f 99ae 0fbf
00000160: 553c 143f 0965 4c3e 4a5d a33e c6f0 a2bf
00000170: 5be3 ccbf b1e0 54c0 b3a3 cbbf cbdb 84c0
00000180: 70db 86be b690 9ebf 6b0d f6bf fefb 43bf
00000190: 8643 293f dc02 f93c 2018 69c0 77c5 f9bf
000001a0: c8ba b9bf 98e4 7dbe 833d 49bf 3e48 30c0
000001b0: b747 c33f 4321 8b3f 5524 773f 1a3d 43bf
000001c0: c989 cebf 257b e6bf 0e3a 0ebf a170 73c0
000001d0: 5d72 cbbf 489d b5bf 0475 9ebf a8bf 1cc0
000001e0: 1c61 ac3f 7f27 bcbf 6afc 8c3f 6b3c 31bf
000001f0: f291 b83d b995 973e 9b1f 1b3d fe1f 0bc0
00000200: 74dc b1be 7dd7 60c0 1e20 85bf aaa2 6cc0
00000210: 7d9c 83bf 5284 0dc0 7405 8bbf d3ae 54bf
00000220: 4961 fb3e 4f92 02bf d65e c93e 4536 a73f
00000230: be3c 7b3f 7b8a 30bf 3122 38bf dd29 9dbf
00000240: f0e2 d3bf 88b0 28c0 d1a0 84bf ae19 983f
00000250: 75b9 bd3d 6b10 ee3e b235 d5bf 5304 b5bf
00000260: 36bf 253f 5e01 98bf d5ff 0dc0 52ab 783f
00000270: d178 c6be 73ac 99be bee1 84bf 4a9a 0bbf
00000280: c7f9 2ec0 6b57 abbf e093 1d3f 950f 15c0
00000290: 14dd 8bbd 981e 8ebe d970 c83f 61d2 1c3f
000002a0: f856 9b3f 0068 6d3f d99a 1240 51ec 993f
000002b0: 4b95 413e a7f7 31c0 4db2 80be c4bc 7abe
000002c0: c35e d4bf 0433 26c0 00e4 67c0 fbd3 aa3e
000002d0: 0fae debf 5693 2bc0 2856 4abf acfb dc3f
000002e0: 1c3e 8f3e f9f6 0bbf c636 873d 1134 a9bf
000002f0: a955 94bf ba49 c53f 1329 7dbe 8777 833f
00000300: cfbe 55c0 3732 6abf 4ac7 cb3f 95bc 2cbf
00000310: 0889 39c0 515f 0ac0 dea4 8bbe 43c8 e63f
00000320: 5fd1 8f3f 56c4 f8bf ad64 a6be 88e1 55bf
00000330: d08e cdbf 262f 83bf 10cb 19c0 1bae 8cc0
00000340: 17c2 05bf 9b8e 363f 1d5d 78bf 2d3c 6a3e
00000350: 1874 c43f abba 71be 606e 00bf 9c3c c8bd
00000360: 4bb3 48bf 5ff4 bf3e b18f a73e 4267 7bbf
00000370: 8da5 bb3f ad11 6abf 5a0f 6c3e 87d2 313f
00000380: 4cbd a03e aaad 27bf add2 5abd e1e9 183e
00000390: a7e4 dbbf 1d88 a2bf aea1 e03e a99c 93be
000003a0: 831d 983e bf4f cebe 4f85 2ebf 1f1a 14bf
000003b0: 85f0 a03f 9331 99c0 4d56 5bc0 e935 8dc0
000003c0: cda9 83be be50 883f f2a2 bf3f f6e9 debf
000003d0: 901d bf3e d83a 2ebe 3c0f 19bf e5fc 31be
000003e0: 8a07 b8bf a2ec 9fbf f833 93bf 5e63 7abf
000003f0: 9d1d 8dc0 a568 a2bf 0111 803f 4b9d 95be

6.weight f4 [64]
1.5895909 1.9043756 2.3548071 1.7112565 3.1506495 1.2264215 1.5725864 1.5057186
3.2193403 1.5700148 1.4095745 1.6598892 1.4086615 1.4917341 1.6968119 1.7359321
3.2603376 1.0029169 1.4697798 1.9056219 1.85884 1.5053262 1.4134257 2.8213482
1.5809804 1.7122751 1.462235 1.6001992 1.4363073 1.7128307 2.215847 1.6471548
2.1267283 2.0828025 1.2284967 1.4154419 1.8102635 1.3690997 1.8434637 1.6919987
2.1796782 2.4709263 1.5662211 1.9010628 1.4349252 1.7140799 1.5500969 2.6961653
1.9719802 2.2215588 1.6769301 1.9608219 1.6172426 2.130922 1.3745058 1.9727168
1.5131161 1.5238105 1.7093524 1.4946465 1.4965737 1.4500504 1.6702664 1.742018
00000000: b777 cb3f 94c2 f33f 29b5 1640 740a db3f
00000010: 3ea4 4940 61fb 9c3f 834a c93f 63bb c03f
00000020: ac09 4e40 3ff6 c83f f06c b43f 4077 d43f
00000030: 054f b43f 25f1 be3f 2231 d93f 0633 de3f
00000040: 5fa9 5040 955f 803f bf21 bc3f 6beb f33f
00000050: 78ee ed3f 87ae c03f 22eb b43f f890 3440
00000060: 915d ca3f d52b db3f 842a bb3f 54d3 cc3f
00000070: ebd8 b73f 093e db3f 70d0 0d40 f8d5 d23f
00000080: 511c 0840 a34c 0540 613f 9d3f 332d b53f
00000090: b7b6 e73f a93e af3f 9ef6 eb3f 6a93 d83f
000000a0: d97f 0b40 a823 1e40 ef79 c83f 0756 f33f
000000b0: a1ab b73f f866 db3f 9369 c63f f98d 2c40
000000c0: d969 fc3f 052e 0e40 a5a5 d63f 36fc fa3f
000000d0: ce01 cf3f 0761 0840 ceef af3f fc81 fc3f
000000e0: caad c13f 390c c33f 0fcc da3f 9450 bf3f
000000f0: ba8f bf3f 409b b93f 4acb d53f 72fa de3f

6.bias f4 [64]
-0.4542687 -0.6404595 -2.0764594 -0.7360324 -1.7183497 -0.323999 -0.8426605 -0.66509587
-2.2844048 -0.6053783 -0.7459061 -0.65782905 -0.037275184 -1.034917 -0.89835095 -0.7212238
-0.39242402 0.032614205 0.12680209 -1.1195061 -0.49428084 -0.87580943 -0.72471446 5.685256
-0.46210918 -1.1252029 -0.9383711 -0.691852 -0.8881699 -0.433189 -1.528025 -0.7234235
0.45761067 -0.69116306 -0.67790264 -0.6487117 -0.6212944 -0.32636684 -0.75362736 -0.5597255
-1.9063752 -2.1300747 -0.7414804 -0.6224927 -0.6150901 -0.37327036 -1.1241436 -1.3492781
-0.8222131 -1.7543454 -1.0603696 -0.87878704 -1.2308028 -1.4689939 -0.33017582 -0.685008
-1.5123141 -0.48904765 -0.77730834 -0.06209787 -0.63088983 -0.5235461 -1.0275337 -0.72315466
00000000: e895 e8be 27f5 23bf b6e4 04c0 9f6c 3cbf
00000010: e2f2 dbbf 32e3 a5be 99b8 57bf b943 2abf
00000020: b033 12c0 13fa 1abf b4f3 3ebf 7c67 28bf
00000030: ddad 18bd 2978 84bf 54fa 65bf 1fa2 38bf
00000040: cdeb c8be 7996 053d 68d8 013e fa4b 8fbf
00000050: 6112 fdbe 0c35 60bf e386 39bf 9eed b540
00000060: 9399 ecbe a606 90bf 1739 70bf 361d 31bf
00000070: 1a5f 63bf f3ca ddbe 5396 c3bf 4832 39bf
00000080: f24b ea3e 10f0 30bf 078b 2dbf f811 26bf
00000090: 260d 1fbf 8e19 a7be b9ed 40bf 2c4a 0fbf
000000a0: 1a04 f4bf 2553 08c0 a9d1 3dbf ae5b 1fbf
000000b0: 8b76 1dbf 4b1d bfbe f0e3 8fbf 25b5 acbf
000000c0: 8f7c 52bf 648e e0bf 31ba 87bf 30f8 60bf
000000d0: f28a 9dbf fe07 bcbf ce0c a9be af5c 2fbf
000000e0: 8293 c1bf 7464 fabe aefd 46bf 565a 7ebd
000000f0: ff81 21bf 1e07 06bf 3986 83bf aa20 39bf

6.running_mean f4 [64]
-52.02089 -33.958614 -11.845382 -34.347687 -53.038795 27.726482 -35.598892 -30.48351
-117.048225 -48.463978 -1.6504754 -20.603502 54.385258 23.77353 -46.47152 142.10501
-85.99025 73.218216 -6.615885 -7.427011 -67.741005 -8.209404 17.623436 -99.5561
-29.62276 15.288602 16.868786 -34.660236 -48.70039 -31.524946 -1.5445467 -29.556988
77.71334 -48.833878 3.2981057 17.594118 -43.748764 -79.87353 -58.41704 -24.987514
-5.4869194 -8.093638 -35.638836 -63.624237 14.545931 -38.248535 -27.363598 27.494616
27.278204 -9.727078 -20.545904 -15.237529 -53.905937 -9.522833 -23.043959 -48.59965
-64.73651 -7.6928024 -32.4527 -54.760914 -51.511295 8.506193 -30.215225 -30.545403
00000000: 6415 50c2 9fd5 07c2 af86 3dc1 0864 09c2
00000010: ba27 54c2 d6cf dd41 4465 0ec2 3ade f3c1
00000020: b118 eac2 1ddb 41c2 c742 d3bf f9d3 a4c1
00000030: 818a 5942 3030 be41 d6e2 39c2 e21a 0e43
00000040: 02fb abc2 ba6f 9242 54b5 d3c0 13aa edc0
00000050: 657b 87c2 b859 03c1 ccfc 8c41 b91c c7c2
00000060: 6afb ecc1 1d9e 7441 46f3 8641 15a4 0ac2
00000070: 33cd 42c2 1733 fcc1 b5b3 c5bf b674 ecc1
00000080: 3b6d 9b42 e455 43c2 2a14 5340 c1c0 8c41
00000090: bcfe 2ec2 3fbf 9fc2 0dab 69c2 6ee6 c7c1
000000a0: d894 afc0 8b7f 01c1 2b8e 0ec2 387f 7ec2
000000b0: 22bc 6841 80fe 18c2 a6e8 dac1 f9f4 db41
000000c0: c339 da41 1da2 1bc1 035e a4c1 ebcc 73c1
000000d0: ae9f 57c2 865d 18c1 075a b8c1 0b66 42c2
000000e0: 1879 81c2 702b f6c0 91cf 01c2 2d0b 5bc2
000000f0: 910b 4ec2 5e19 0841 c8b8 f1c1 fc5c f4c1

6.running_var f4 [64]
3331.8088 5649.0776 1065.3499 3890.0398 3683.148 3796.0708 2139.9463 4553.57
2103.5847 3714.1184 1777.1849 3824.7583 2740.7734 784.16455 2872.24 3142.1582
3445.6475 2561.3386 4062.9617 1013.6218 1723.3512 520.0965 2020.7457 2735.0122
1809.3872 781.84125 706.7038 1507.8871 2366.2058 2709.6833 987.9284 4794.647
2921.6685 4011.6003 3052.1526 3067.132 4169.433 4748.1616 4367.528 3029.2776
889.42664 1136.7917 3530.504 6105.743 4704.9985 2763.9265 833.387 764.00916
904.91724 858.0763 2797.295 2191.5757 2393.6892 955.6424 1650.9838 5352.2666
1380.3545 1870.5853 1693.6954 3395.1086 2627.5725 3509.7085 2885.2717 3043.1748
00000000: f13c 5045 9f88 b045 322b 8544 a320 7345
00000010: 5e32 6645 2241 6d45 24bf 0545 8f4c 8e45
00000020: 5b79 0345 e521 6845 eb25 de44 220c 6f45
00000030: 604c 2b45 880a 4444 d783 3345 8862 4445
00000040: 5c5a 5745 6b15 2045 63ef 7d45 cc67 7d44
00000050: 3d6b d744 2d06 0244 dd97 fc44 32f0 2a45
00000060: 642c e244 d775 4344 0bad 3044 637c bc44
00000070: 4be3 1345 ef5a 2945 6bfb 7644 2dd5 9545
00000080: b29a 3645 9bb9 7a45 71c2 3e45 1db2 3f45
00000090: 774b 8245 4b61 9445 397c 8845 7154 3d45
000000a0: 4e5b 5e44 5619 8e44 10a8 5c45 f2cd be45
000000b0: fd07 9345 d3be 2c45 c558 5044 9600 3f44
000000c0: b43a 6244 e284 5644 b8d4 2e45 36f9 0845
000000d0: 079b 1545 1de9 6e44 7b5f ce44 2242 a745
000000e0: 588b ac44 bbd2 e944 41b6 d344 bd31 5445
000000f0: 2939 2445 565b 5b45 5954 3445 cc32 3e45

9.weight f4 [64, 64, 3]
-0.9381568 -0.0020499092 -0.75358367 -0.16341567 0.35398775 0.86866033 -1.7829489 0.7881719
-1.8190447 -1.0397525 2.0391333 0.3574635 -0.8917931 -0.60364395 -2.760879 -0.48239288
-1.257956 0.41886318 -1.5823555 -1.2221822 1.0433053 1.3680431 0.20197032 1.0575342
0.5433262 -0.5641854 -1.947032 -2.3957777 -0.0018135681 0.37518474 -0.72777104 0.5800291
-0.49641353 2.4382677 1.1416667 1.2597706 -1.3029605 -4.7077045 -4.621339 -0.7824661
-0.37865552 -2.187511 0.36308882 -0.2791367 1.4687574 1.0125295 0.025276914 -1.5862528
1.031145 -0.585935 -2.2989445 0.397541 1.2634208 1.2077855 2.0380507 -0.2649437
1.4291195 -0.8175527 0.6758383 0.40095994 -1.9978466 0.22518782 -1.8579956 1.8184477
-2.267361 -2.2799346 0.42977574 -0.4155337 0.6006221 1.6257197 -1.3804914 -1.8001074
1.8711629 0.5669111 -0.6783009 0.5875009 -1.022922 1.81692 0.066453055 1.1788654
-1.9972962 -2.1866913 0.5457778 1.3966765 0.29628646 -1.894072 1.2741594 -1.5634224
0.44536275 0.13285683 0.6702197 1.6245872 0.23088188 1.4370743 1.6586616 2.1160264
-0.8067697 -1.8306792 -1.1703821 0.15266421 0.5507497 -0.5231867 0.4125036 -1.661779
2.0211372 -1.4786695 1.0745099 3.1143467 -0.43912745 1.0510961 0.74978244 -1.5822335
-0.5085648 0.829009 0.40962252 -1.9672073 1.6831515 -2.1254516 0.5622949 2.01155
0.29954854 2.3696496 1.1294816 -2.8547478 -0.9426653 0.8629045 0.60844946 0.78987
0.5744292 -0.70780855 0.42219213 0.2763066 -1.915724 1.8448628 1.3830787 0.35233113
-0.25388193 -1.3986982 1.6259938 -1.2117734 -1.3098136 0.016649405 -1.7054881 2.769729
-3.0523431 -1.5797253 -3.0803616 0.43906856 0.23385176 1.0914574 3.5431895 1.8868
1.6329389 0.2808911 -3.123629 -3.159452 -0.095370784 -0.6902314 0.9223451 0.48381895
1.4350717 -0.5262685 -0.38376904 0.09620494 -1.1704383 -0.4571859 0.550688 0.09707921
-2.4574847 -0.11690132 1.3872819 0.22496922 0.94667816 -2.0815616 0.26711354 0.2651472
-1.220531 -0.32355246 -0.03581625 -1.1264724 1.0874927 0.5663523 -1.6461886 1.8574771
-1.9042616 -0.10235552 0.21580638 -0.44816265 2.569595 -0.5378578 -1.1588175 -1.5022949
-0.2782186 -0.17329112 0.39299417 -0.5942388 -1.9491719 -0.097951606 -0.6364946 2.1262417
-1.2321153 -2.7064936 -0.08721012 0.1079676 -1.8908724 -2.147701 -2.330726 1.5298371
-4.777176 -1.3885094 -0.5500888 -2.615653 -0.13221996 -1.355778 -4.1979113 -1.5585582
0.50059557 0.9043381 0.6975646 -2.846189 -2.1017163 0.027356422 -3.336209 0.06031732
-2.0335999 -0.9128174 1.937419 -0.11732447 -0.82647955 -1.5046015 0.7866523 1.2223089
0.7936845 -0.5069905 -2.520491 -1.1891842 -0.10697554 0.041954458 1.5822976 0.8202326
0.5466181 2.3043897 0.42368332 0.61235505 -0.94091237 -0.16162382 -0.13203135 1.7679212
-1.5114698 -1.5562437 3.482283 0.6235814 -0.8194451 -1.7262536 -0.55018383 0.67230755
00000000: 0b2b 70bf c557 06bb dcea 40bf 7056 27be
00000010: e23d b53e 8660 5e3f ab37 e4bf a2c5 493f
00000020: 75d6 e8bf 9c16 85bf 2981 0240 7505 b73e
00000030: 8d4c 64bf 6988 1abf 3eb2 30c0 33fc f6be
00000040: b404 a1bf 3c75 d63e a08a cabf 7770 9cbf
00000050: 078b 853f 091c af3f 4fd1 4e3e 485d 873f
00000060: 6d17 0b3f 746e 10bf 5838 f9bf 6c54 19c0
00000070: 3fb5 edba 3718 c03e 344f 3abf c97c 143f
00000080: ea29 febe 940c 1c40 2222 923f 2a40 a13f
00000090: 69c7 a6bf 84a5 96c0 02e2 93c0 b34f 48bf
000000a0: 23df c1be 2e00 0cc0 c7e6 b93e 01eb 8ebe
000000b0: 3e00 bc3f 919a 813f 8811 cf3c 550a cbbf
000000c0: 8ffc 833f d6ff 15bf e821 13c0 7e8a cb3e
000000d0: c6b7 a13f b798 9a3f 6c6f 0240 b3a6 87be
000000e0: 63ed b63f 224b 51bf bd03 2d3f 9f4a cd3e
000000f0: 70b9 ffbf a397 663e cdd2 edbf e5c2 e83f
00000100: 711c 11c0 73ea 11c0 910b dc3e d5c0 d4be
00000110: 5fc2 193f 9517 d03f f1b3 b0bf eb69 e6bf
00000120: 4482 ef3f 1621 113f 21a5 2dbf 7566 163f
00000130: 1cef 82bf d690 e83f 8a18 883d 10e5 963f
00000140: 67a7 ffbf c0f2 0bc0 18b8 0b3f 4cc6 b23f
00000150: dcb2 973e f470 f2bf a817 a33f 3a1e c8bf
00000160: 9606 e43e 9f0b 083e 8593 2b3f 79f2 cf3f
00000170: 4d6c 6c3e 0df2 b73f 064f d43f fa6c 0740
00000180: 7688 4ebf b253 eabf 15cf 95bf 0254 1c3e
00000190: effd 0c3f 90ef 05bf ac33 d33e 2db5 d4bf
000001a0: 505a 0140 0b45 bdbf 8a89 893f 7551 4740
000001b0: 50d5 e0be 518a 863f bef1 3f3f a186 cabf
000001c0: 4d31 02bf ef39 543f 0bba d13e 73cd fbbf
000001d0: 8271 d73f 6607 08c0 8ff2 0f3f 3cbd 0040
000001e0: 6d5e 993e 57a8 1740 da92 903f 30b4 36c0
000001f0: 8352 71bf 4fe7 5c3f 58c3 1b3f ec34 4a3f
00000200: cb0d 133f f132 35bf 9129 d83e 0f78 8d3e
00000210: 7236 f5bf 7724 ec3f b908 b13f bf64 b43e
00000220: d0fc 81be 8b08 b3bf 9120 d03f 641b 9bbf
00000230: f9a7 a7bf 5564 883c 6f4d dabf 3d43 3140
00000240: 9759 43c0 7034 cabf a524 45c0 98cd e03e
00000250: d676 6f3e e0b4 8b3f 9ec3 6240 aa82 f13f
00000260: 2404 d13f f5d0 8f3e 8ae9 47c0 7634 4ac0
00000270: c251 c3bd 01b3 30bf cf1e 6c3f 1eb7 f73e
00000280: 6eb0 b73f 88b9 06bf 607d c4be 1807 c53d
00000290: ecd0 95bf 4514 eabe e4f9 0c3f 77d1 c63d
000002a0: 6e47 1dc0 f669 efbd 7492 b13f 555e 663e
000002b0: 8059 723f 4e38 05c0 1bc3 883e 60c1 873e
000002c0: 5c3a 9cbf aba8 a5be 0fb4 12bd 3f30 90bf
000002d0: f632 8b3f 77fc 103f 4fb6 d2bf cfc1 ed3f
000002e0: d8be f3bf c59f d1bd 59fc 5c3e 9375 e5be
000002f0: 3f74 2440 0cb1 09bf 2254 94bf 334b c0bf
00000300: ab72 8ebe 3a73 31be 8836 c93e 0920 18bf
00000310: 777e f9bf da9a c8bd 4ff1 22bf 5814 0840
00000320: f4b5 9dbf 3137 2dc0 389b b2bd 1e1e dd3d
00000330: 1b08 f2bf ef73 09c0 9d2a 15c0 b4d1 c33f
00000340: a0de 98c0 adba b1bf 9fd2 0cbf dc66 27c0
00000350: ab64 07be 228a adbf 4a55 86c0 d67e c7bf
00000360: 0827 003f b482 673f 9893 323f f627 36c0
00000370: 8582 06c0 931a e03c 7384 55c0 4b0f 773d
00000380: 8026 02c0 67ae 69bf 59fd f73f d047 f0bd
00000390: 2a94 53bf c896 c0bf 0c62 493f 9e74 9c3f
000003a0: e82e 4b3f 21ca 01bf b94f 21c0 3037 98bf
000003b0: fe15 dbbd 70d8 2b3d ba88 ca3f c4fa 513f
000003c0: 2aef 0b3f 1f7b 1340 05ed d83e 4dc3 1c3f
000003d0: a2df 70bf b780 25be 3a33 07be 3e4b e23f
000003e0: d877 c1bf fe32 c7bf badd 5e40 08a3 1f3f
000003f0: 27c7 51bf e1f5 dcbf d9d8 0cbf 591c 2c3f

10.weight f4 [64]
1.2985146 1.4673003 1.5658947 1.329492 1.2088991 2.2196622 1.5271354 4.64694
2.1398582 1.6992195 1.0684048 1.6821117 1.1258543 1.5914671 0.84222555 2.0530376
1.5716609 1.406797 1.3228724 1.4187429 1.0451611 1.342206 1.6782132 2.2763922
1.3530401 1.3678427 1.8826084 1.0485321 1.9364592 1.8279278 1.4786061 2.031182
1.3599453 2.1908703 1.6052378 1.3340479 1.9544326 2.335161 1.6599104 3.2182465
1.4303199 1.5218343 3.6574326 1.455425 1.685043 1.4777275 1.6129009 1.7247765
1.3640009 1.8423098 1.4586252 1.6842492 1.4260445 1.6440433 1.3288889 1.5252703
1.3355129 1.1779745 1.5165213 1.9501104 2.2752063 1.1485758 2.019439 1.8969316
00000000: ba35 a63f 7fd0 bb3f 3d6f c83f cb2c aa3f
00000010: 35bd 9a3f f20e 0e40 2c79 c33f bcb3 9440
00000020: 70f3 0840 0680 d93f 7dc1 883f 704f d73f
00000030: fe1b 903f 32b5 cb3f 189c 573f f864 0340
00000040: 2f2c c93f ed11 b43f e253 a93f 5e99 b53f
00000050: d7c7 853f 68cd ab3f b1cf d63f 69b0 1140
00000060: 6b30 ad3f 7815 af3f 50f9 f03f 4d36 863f
00000070: e5dd f73f 8af9 e93f f742 bd3f e3fe 0140
00000080: b012 ae3f 3837 0c40 6f78 cd3f 15c2 aa3f
00000090: d92a fa3f 4773 1540 f277 d43f c0f7 4d40
000000a0: b914 b73f 77cb c23f 6013 6a40 5e4b ba3f
000000b0: 7daf d73f 2d26 bd3f 8973 ce3f 7ac5 dc3f
000000c0: 9597 ae3f cfd0 eb3f 3bb4 ba3f 7a95 d73f
000000d0: a088 b63f 0370 d23f 0819 aa3f 0f3c c33f
000000e0: 16f2 aa3f dec7 963f 5f1d c23f 389d f93f
000000f0: fb9c 1140 8804 933f 7d3e 0140 a8ce f23f

10.bias f4 [64]
-1.2492162 0.22023216 -1.0702063 -0.7315181 -0.77480584 -1.7970316 0.26235318 -2.0186636
-1.608527 -0.87684715 0.034942213 -0.6806836 0.42257807 -2.310935 0.21104707 -2.6876092
-2.132696 -0.41784957 -0.014539409 -1.1883003 0.08988412 0.10693818 -1.0771134 -1.7636269
-1.0469574 -1.2863911 -0.1890835 -0.3780748 -1.2279297 -0.15760271 -0.8125754 -0.10909241
0.5863353 -1.869398 -0.003477796 -0.3859011 -2.1397965 -1.8203431 -2.3200717 -1.1650686
-0.9894098 -0.88543034 -1.1197498 -1.5798552 -1.4962366 -0.9123413 -0.9444139 -1.4769334
-1.0145476 -0.5277788 -0.56528854 -1.839944 -0.4272392 -1.687916 -0.83804154 -0.55244166
-1.5235972 -0.28975767 -1.6860429 -1.1947359 -0.26473597 1.0233221 -2.0918403 -1.1008753
00000000: 51e6 9fbf 8a84 613e 85fc 88bf c544 3bbf
00000010: ad59 46bf 2205 e6bf 2853 863e c931 01c0
00000020: 36e4 cdbf 0e79 60bf 911f 0f3d 4841 2ebf
00000030: 275c d83e 5ce6 13c0 b91c 583e ca01 2cc0
00000040: 177e 08c0 61f0 d5be b436 6ebc 391a 98bf
00000050: 2a15 b83d 6802 db3d dade 89bf 87be e1bf
00000060: b302 86bf 77a8 a4bf 1b9f 41be 0593 c1be
00000070: cd2c 9dbf 9b62 21be f104 50bf d76b dfbd
00000080: 121a 163f 6f48 efbf bceb 63bb d494 c5be
00000090: 6df2 08c0 0101 e9bf 0e7c 14c0 f820 95bf
000000a0: f649 7dbf 90ab 62bf f653 8fbf b238 cabf
000000b0: ae84 bfbf 338f 69bf 1cc5 71bf 270c bdbf
000000c0: b2dc 81bf 831c 07bf c0b6 10bf 4983 ebbf
000000d0: 19bf dabe a20d d8bf e489 56bf d16c 0dbf
000000e0: 3c05 c3bf 1e5b 94be 41d0 d7bf 1bed 98bf
000000f0: 798b 87be 38fc 823f b6e0 05c0 7be9 8cbf

10.running_mean f4 [64]
-28.019585 -27.801281 -29.94835 -4.564159 -37.64701 -11.083974 -5.0967064 -3.0031133
-10.269009 1.7124556 -4.05144 -2.1802478 40.683693 -15.042827 -43.543842 16.719084
-23.430801 -16.860449 -6.9098616 -5.451781 18.989885 -37.017773 -23.008081 -2.3018465
-55.73454 -18.333797 -25.380198 -58.4486 -22.664194 -31.718071 -37.479362 -32.005848
35.445206 -17.746435 -7.0201383 -14.176882 48.236084 -10.218361 -41.199516 -66.69219
-21.48401 -4.0269384 -42.490276 -4.1685843 -51.745655 -21.550526 -46.664116 -32.80824
-49.86803 -80.09158 -26.153332 -27.956175 -30.678131 -5.992896 -18.99107 -31.466576
-26.512142 2.9010468 -31.774614 -9.944916 -54.434845 54.022385 -48.60885 9.821011
00000000: 1c28 e0c1 0669 dec1 3996 efc1 970d 92c0
00000010: 8a96 16c2 f557 31c1 3818 a3c0 0233 40c0
00000020: dc4d 24c1 bf31 db3f 65a5 81c0 2e89 0bc0
00000030: 1abc 2242 6baf 70c1 e52c 2ec2 afc0 8541
00000040: 4872 bbc1 33e2 86c1 961d ddc0 fd74 aec0
00000050: 49eb 9741 3312 14c2 8d10 b8c1 7451 13c0
00000060: 2bf0 5ec2 9eab 92c1 a50a cbc1 5ecb 69c2
00000070: 4550 b5c1 9cbe fdc1 deea 15c2 fd05 00c2
00000080: e4c7 0d42 b3f8 8dc1 f9a4 e0c0 82d4 62c1
00000090: c0f1 4042 687e 23c1 4ecc 24c2 6762 85c2
000000a0: 41df abc1 aedc 80c0 0bf6 29c2 0b65 85c0
000000b0: 8dfb 4ec2 7a67 acc1 0ea8 3ac2 a33b 03c2
000000c0: dd78 47c2 e42e a0c2 063a d1c1 3fa6 dfc1
000000d0: d06c f5c1 cec5 bfc0 b6ed 97c1 8cbb fbc1
000000e0: de18 d4c1 c0aa 3940 6932 fec1 601e 1fc1
000000f0: 48bd 59c2 ec16 5842 766f 42c2 dc22 1d41

10.running_var f4 [64]
524.57666 1304.063 1138.1393 301.40366 379.55627 1309.5306 626.2174 1380.4348
1172.308 490.05133 779.716 945.06445 762.82477 362.06564 456.25375 322.9908
469.2843 887.22534 341.2116 420.0135 337.46396 1341.5101 1240.4473 1325.3896
395.81622 308.948 516.04047 414.37622 1105.9783 766.35535 868.3536 1378.4865
471.0898 1155.5948 1094.4412 1034.284 565.8401 1238.0264 384.74857 1035.5844
644.68317 659.1122 1822.1044 247.84404 1615.3242 486.28613 1255.7246 1100.5581
382.42612 2256.5613 1297.0541 460.51147 1069.8611 939.3582 817.2804 995.3955
215.83516 317.4095 247.99104 1325.1232 909.53296 1163.9374 493.05936 500.55682
00000000: e824 0344 0402 a344 7544 8e44 abb3 9643
00000010: 34c7 bd43 fbb0 a344 ea8d 1c44 ea8d ac44
00000020: db89 9244 9206 f543 d3ed 4244 2044 6c44
00000030: c9b4 3e44 6708 b543 7b20 e443 d37e a143
00000040: 64a4 ea43 6cce 5d44 169b aa43 ba01 d243
00000050: 63bb a843 53b0 a744 500e 9b44 78ac a544
00000060: 7ae8 c543 5879 9a43 9702 0144 2830 cf43
00000070: 4e3f 8a44 be96 3f44 a116 5944 914f ac44
00000080: 7f8b eb43 0973 9044 1ece 8844 1749 8144
00000090: c475 0d44 d8c0 9a44 d15f c043 b372 8144
000000a0: b92b 2144 2ec7 2444 57c3 e344 13d8 7743
000000b0: 60ea c944 a024 f343 30f7 9c44 dc91 8944
000000c0: 8b36 bf43 fb08 0d45 bb21 a244 7841 e643
000000d0: 8ebb 8544 edd6 6a44 f251 4c44 50d9 7844
000000e0: cdd5 5743 6ab4 9e43 b5fd 7743 f1a3 a544
000000f0: 1c62 6344 ff7d 9144 9987 f643 4647 fa43

13.weight f4 [64, 64, 3]
-2.090644 -1.8681571 0.011305888 0.98644805 -2.1567652 -0.59079367 -2.3430989 1.8197776
-0.87331915 0.18033615 -1.725966 -1.7938569 0.26895288 -0.7025992 -0.32205272 -1.2743804
-0.72593784 -1.2221807 -1.542949 -1.4363502 0.31748787 -1.7596062 -1.0951542 -0.9836739
-0.8537584 -1.119247 -1.5761389 -0.6676405 -0.54079723 -0.4813957 1.2645171 -0.100949876
-1.0318727 0.9674614 0.11056128 -1.3076059 0.7765177 -2.2876523 -1.6932149 1.1632433
-2.4630768 -1.530013 2.082245 -0.9035105 -1.8284779 2.8256001 -2.4620993 1.2098992
0.35702014 -4.2340007 2.2396846 0.5569359 2.8906467 -0.027120598 -1.1108955 -1.540974
-0.052200604 2.0797668 -1.9826531 1.5475211 -0.10444422 -1.2196325 -0.13279843 -0.5981452
-0.82104456 0.22195575 0.678544 -0.80336964 -1.2405618 -1.9486068 -2.1528616 -1.9611245
-1.4283718 -3.0689561 0.9135056 -0.1219864 -0.2766359 -2.617832 1.1685194 1.2029327
0.55509967 -0.5480691 -1.4685049 -0.6136117 -0.5135608 -0.28563648 -1.7338815 -0.4862009
-0.7105694 -1.4235983 0.5321475 -1.1675941 0.50241685 1.715484 -1.4465201 -0.5756767
0.3056692 -6.6972003 -0.766977 -1.287387 -1.0108483 -2.6893094 0.7336312 -1.0786768
-1.0980104 0.9399529 0.039161418 -0.5242363 -3.0023284 -3.2054417 -1.5845469 -1.4262607
-0.007874425 -1.2208459 0.28731784 -0.017398192 -0.7726743 -1.3496623 3.1136367 -0.5520799
1.1041845 -1.8475283 -0.21433848 -0.82823426 -1.2079408 2.308169 0.63565904 0.04429592
0.015335129 1.9119719 -2.2888455 4.136315 1.9266348 0.77236575 0.85805696 0.116124734
-0.808115 -0.2601909 -1.6273274 1.1244357 -0.290187 0.740719 -1.3895811 -2.101015
0.05354448 -0.75205153 -0.054444406 1.0091454 -2.4323611 1.2609407 0.078343585 -1.739307
-0.8203017 -1.1448128 -2.154173 -0.26330253 0.199235 -1.2128295 -1.6904026 -1.349544
0.5924952 -1.7971544 1.3913199 1.824724 -0.2812171 -0.491898 0.17532238 -1.1148812
-0.60731316 -0.3852564 -0.8419785 -0.039566804 -1.6129007 -0.75070024 0.051447503 0.0484802
-0.16830343 -0.57151103 -1.2828977 -1.7475779 1.2833833 0.52130187 0.2468655 -0.42710444
-2.6509414 -4.359099 -1.5757803 0.7476692 -1.0758536 -0.055877347 -0.70178956 0.33777583
2.2147417 0.369276 0.7577695 3.55141 0.66509795 3.089793 -1.0686777 -0.057048213
0.48801437 -1.1297735 0.24312012 -0.2144729 2.1104963 0.40250936 0.8634881 0.48896185
-0.62087053 0.3521658 0.45960936 1.4555811 2.1440325 -0.79978484 -1.5012865 -0.5519565
0.78445894 1.2994927 0.053662024 0.18500713 0.77358675 -2.6247575 -1.2196239 0.3474071
-1.1900415 0.090089284 0.6880006 0.65448225 1.0962305 1.5687772 0.9473124 2.2070355
-1.3517942 1.3749171 1.0362533 1.1990668 -0.27472118 0.5647728 -0.15701649 0.85113454
-0.026360199 1.6499212 -2.8324714 -0.58688325 0.47511718 -0.3561245 2.094659 -0.16295013
1.7101259 0.43980163 0.934445 -0.24029909 0.7187225 2.9417214 1.7563505 2.3358738
00000000: 1ccd 05c0 c61f efbf 553c 393c dc87 7c3f
00000010: 7108 0ac0 413e 17bf 55f5 15c0 79ee e83f
00000020: d891 5fbf 0aaa 383e 74ec dcbf 1a9d e5bf
00000030: 31b4 893e 8bdd 33bf 18e4 a4be e61e a3bf
00000040: 10d7 39bf 6b70 9cbf 5a7f c5bf 53da b7bf
00000050: c58d a23e c73a e1bf 032e 8cbf 0dd2 7bbf
00000060: e98f 5abf 7c43 8fbf ebbe c9bf 7dea 2abf
00000070: b071 0abf 7f79 f6be b2db a13f cfbe cebd
00000080: 6814 84bf 8dab 773f f46d e23d a15f a7bf
00000090: ddc9 463f e568 12c0 44bb d8bf 28e5 943f
000000a0: 0da3 1dc0 77d7 c3bf 8143 0540 774c 67bf
000000b0: 900b eabf a2d6 3440 0993 1dc0 fadd 9a3f
000000c0: 58cb b63e ef7c 87c0 fe56 0f40 5a93 0e3f
000000d0: 5b00 3940 042c debc d331 8ebf a33e c5bf
000000e0: 4dd0 55bd e61a 0540 94c7 fdbf 2c15 c63f
000000f0: dae6 d5bd eb1c 9cbf 50fc 07be 0b20 19bf
00000100: fa2f 52bf 5e48 633e 0fb5 2d3f a2a9 4dbf
00000110: bbca 9ebf f36b f9bf 7cc8 09c0 2106 fbbf
00000120: e3d4 b6bf c769 44c0 81db 693f 01d4 f9bd
00000130: 38a3 8dbe 8f8a 27c0 0b92 953f b3f9 993f
00000140: 031b 0e3f 424e 0cbf f8f7 bbbf a815 1dbf
00000150: b878 03bf f23e 92be d4ef ddbf 53ef f8be
00000160: e0e7 35bf 7838 b6bf d23a 083f b973 95bf
00000170: 649e 003f fb94 db3f 9227 b9bf 8c5f 13bf
00000180: ac80 9c3e 774f d6c0 9b58 44bf 19c9 a4bf
00000190: 7a63 81bf a51d 2cc0 41cf 3b3f 1512 8abf
000001a0: 9b8b 8cbf c1a0 703f b967 203d 5a34 06bf
000001b0: 2626 40c0 f525 4dc0 6fd2 cabf b68f b6bf
000001c0: bb03 01bc ae44 9cbf 531b 933e a786 8ebc
000001d0: fccd 45bf bcc1 acbf d345 4740 1c55 0dbf
000001e0: eb55 8d3f cf7b ecbf 8c7b 5bbe 2907 54bf
000001f0: ce9d 9abf 0ab9 1340 8dba 223f a36f 353d
00000200: 3140 7b3c 7fbb f43f 727c 12c0 b15c 8440
00000210: f89b f63f c3b9 453f 9fa9 5b3f ced2 ed3d
00000220: a0e0 4ebf be37 85be 444c d0bf 82ed 8f3f
00000230: 6493 94be c39f 3d3f cbdd b1bf 0877 06c0
00000240: 7551 5b3d 7386 40bf 1901 5fbd ad2b 813f
00000250: ceab 1bc0 8166 a13f 9a72 a03d 9da1 debf
00000260: 4bff 51bf 3a89 92bf f8dd 09c0 97cf 86be
00000270: 4304 4c3e ff3d 9bbf 1d5f d8bf dcbd acbf
00000280: c4ad 173f 2809 e6bf c516 b23f 8e90 e93f
00000290: b0fb 8fbe 0eda fbbe b687 333e 6db4 8ebf
000002a0: e078 1bbf 5440 c5be e78b 57bf cd10 22bd
000002b0: 8873 cebf e42d 40bf 9eba 523d 2d93 463d
000002c0: bc57 2cbe 8c4e 12bf fe35 a4bf a2b0 dfbf
000002d0: e745 a43f 0a74 053f 4fca 7c3e 6fad dabe
000002e0: 06a9 29c0 bd7d 8bc0 2bb3 c9bf 4067 3f3f
000002f0: 92b5 89bf a5df 64bd 7ba8 33bf f4f0 ac3e
00000300: 54be 0d40 be11 bd3e 2ffd 413f 4d4a 6340
00000310: dc43 2a3f 2bbf 4540 6eca 88bf 63ab 69bd
00000320: 05dd f93e 6b9c 90bf 7bf4 783e c99e 5bbe
00000330: 5f12 0740 b515 ce3e 8e0d 5d3f 3559 fa3e
00000340: 5ff1 1ebf 134f b43e eb51 eb3e 7b50 ba3f
00000350: d437 0940 b3be 4cbf 282a c0bf 054d 0dbf
00000360: 4dd2 483f c755 a63f b6cc 5b3d 8272 3d3e
00000370: c809 463f 07fc 27c0 a31c 9cbf 58df b13e
00000380: 4853 98bf bb80 b83d cf20 303f 268c 273f
00000390: 4851 8c3f b1cd c83f 1183 723f 1240 0d40
000003a0: 9807 adbf 49fd af3f f3a3 843f 057b 993f
000003b0: 41a8 8cbe f394 103f eec8 20be f4e3 593f
000003c0: 58f1 d7bc 9e30 d33f 3647 35c0 fb3d 16bf
000003d0: 8f42 f33e f355 b6be e50e 0640 66dc 26be
000003e0: 68e5 da3f ae2d e13e ca37 6f3f f710 76be
000003f0: 33fe 373f 2a45 3c40 18d0 e03f f57e 1540

14.weight f4 [64]
1.3161435 1.0599618 1.4718903 2.5289125 0.9932411 1.0406848 1.3041799 0.98075897
1.1214699 1.4754031 2.883162 1.3307147 1.0161736 1.896464 1.1884271 1.507416
1.4799763 1.439913 3.1176848 1.3361555 0.96671855 0.94159293 1.0360779 2.3519583
2.2600496 1.3679577 1.4203508 1.2191193 1.6834378 1.5980277 2.1548247 0.94940764
2.0073042 2.1231198 1.438077 1.4144126 1.3526351 1.4530258 1.6030467 1.0472008
1.7790741 1.4445372 1.4747024 1.5160064 1.0815676 1.2596717 1.1160504 1.2705855
3.5269156 1.7715416 2.2873814 1.1707131 2.3582664 1.6921959 1.5234668 1.7595991
1.6670697 0.762614 2.2361631 1.0086182 1.0375998 1.0453408 3.0303602 3.0430708
00000000: 6477 a83f d4ac 873f e766 bc3f b4d9 2140
00000010: 0c45 7e3f 2935 853f 5eef a63f 0513 7b3f
00000020: 538c 8f3f 02da bc3f ba85 3840 dc54 aa3f
00000030: fa11 823f 55bf f23f 611e 983f 02f3 c03f
00000040: dd6f bd3f 124f b83f 2688 4740 2507 ab3f
00000050: de7a 773f 3c0c 713f 339e 843f 7c86 1640
00000060: a7a4 1040 3d19 af3f 0ece b53f 1a0c 9c3f
00000070: e47a d73f 2c8c cc3f a6e8 0940 610c 733f
00000080: ac77 0040 32e1 0740 e812 b83f 790b b53f
00000090: 2623 ad3f c0fc b93f a230 cd3f ad0a 863f
000000a0: b3b8 e33f 98e6 b83f 0cc3 bc3f 7f0c c23f
000000b0: cf70 8a3f ec3c a13f bdda 8e3f 8ca2 a23f
000000c0: fcb8 6140 e0c1 e23f 7564 1240 edd9 953f
000000d0: d6ed 1640 e099 d83f f600 c33f 8b3a e13f
000000e0: 8a62 d53f ac3a 433f 4c1d 0f40 671a 813f
000000f0: 12d0 843f bacd 853f 6cf1 4140 acc1 4240

14.bias f4 [64]
-0.27220234 -0.11284786 -2.2122796 -1.0979745 -0.1785855 -0.41338846 0.5434922 -0.56417394
0.02051421 -0.49903738 -2.1593282 -0.88579744 -0.32837483 -1.9650006 -0.16912316 -1.4930036
-0.42297286 -0.45734927 -1.0738584 -1.0267224 -0.19191818 0.41241533 1.0011432 -1.8461632
0.7897523 -1.4229193 0.57153326 -0.08574243 -0.86273915 -0.6859746 -2.7291114 -0.4398533
-0.37455708 0.65997016 -1.2548339 -0.8518823 0.0588738 -1.4028306 -1.8580911 0.15458375
-0.40729088 0.016389476 -0.38823685 -1.248242 0.30611992 -0.14854355 -0.7717625 -1.0554969
-1.1479846 -0.5846593 -1.0740898 0.013956143 -3.4323993 -1.8526702 -0.392141 -0.31801096
0.4861012 -0.22728679 -2.440935 -0.2633412 -0.18105549 0.3562366 -0.99417746 -4.132959
00000000: 1b5e 8bbe c71c e7bd fd95 0dc0 6e8a 8cbf
00000010: 1edf 36be a7a7 d3be 4e22 0b3f b46d 10bf
00000020: 6b0d a83c d481 ffbe 6f32 0ac0 9fc3 62bf
00000030: bf20 a8be 2485 fbbf 9f2e 2dbe be1a bfbf
00000040: e68f d8be af29 eabe 3174 89bf a46b 83bf
00000050: 3386 44be 1a28 d33e 7625 803f 134f ecbf
00000060: 352d 4a3f 3822 b6bf 0150 123f ba99 afbd
00000070: 79dc 5cbf 089c 2fbf c3a9 2ec0 7434 e1be
00000080: f2c5 bfbe cef3 283f 669e a0bf f514 5abf
00000090: a725 713d f48f b3bf eed5 edbf 344b 1e3e
000000a0: 6e88 d0be 3943 863c fbc6 c6be 65c6 9fbf
000000b0: c0bb 9c3e cd1b 18be 3a92 45bf 861a 87bf
000000c0: 29f1 92bf 3bac 15bf c67b 89bf 4ea8 643c
000000d0: 6eac 5bc0 4c24 edbf b5c6 c8be 55d2 a2be
000000e0: 42e2 f83e debd 68be 4738 1cc0 a8d4 86be
000000f0: 9c66 39be a564 b63e 6a82 7ebf 3341 84c0

14.running_mean f4 [64]
-53.220436 30.317366 27.713678 -19.377596 15.750892 -9.901793 -28.932722 4.4268665
-40.052532 -7.479315 -12.894119 -10.102559 -6.6175365 -7.6623297 21.300112 -16.391273
3.8344438 -15.658745 -0.72515094 0.29441705 -22.539686 -17.24254 10.756111 10.3830595
-5.0717273 -9.695517 -11.940233 -8.811918 2.9210281 -0.94542295 -7.041523 -9.462161
10.673508 14.45888 3.9287035 21.650646 -13.7366705 11.604117 -17.004816 -17.25618
17.280388 -4.2313714 8.919462 4.4961114 7.461567 -17.189148 46.10279 26.576775
-22.971027 -7.392165 -16.205235 -21.759398 -1.5900675 39.02531 11.111479 -27.679363
-4.82143 -0.7668598 0.8092954 1.0299352 -17.034546 -30.236052 -13.281896 6.911898
00000000: bae1 54c2 f789 f241 9db5 dd41 5105 9bc1
00000010: a703 7c41 be6d 1ec1 3776 e7c1 e4a8 8d40
00000020: cb35 20c2 8c56 efc0 504e 4ec1 15a4 21c1
00000030: dcc2 d3c0 ce31 f5c0 a166 aa41 5421 83c1
00000040: 8767 7540 388a 7ac1 7ea3 39bf d5bd 963e
00000050: 4751 b4c1 b9f0 89c1 0819 2c41 0321 2641
00000060: 974b a2c0 d620 1bc1 320b 3fc1 9efd 0cc1
00000070: 20f2 3a40 3d07 72bf 2854 e1c0 0365 17c1
00000080: b0c6 2a41 9357 6741 e16f 7b40 8634 ad41
00000090: 67c9 5bc1 77aa 3941 dd09 88c1 a80c 8ac1
000000a0: 3c3e 8a41 6567 87c0 1eb6 0e41 25e0 8f40
000000b0: 28c5 ee40 6083 89c1 4269 3842 3c9d d441
000000c0: aac4 b7c1 9e8c ecc0 52a4 81c1 3f13 aec1
000000d0: 5587 cbbf eb19 1c42 9ec8 3141 566f ddc1
000000e0: 2849 9ac0 ed50 44bf fc2d 4f3f ebd4 833f
000000f0: c046 88c1 6fe3 f1c1 a582 54c1 452e dd40

14.running_var f4 [64]
446.948 423.20996 287.24463 457.97617 314.91388 410.0345 874.48474 278.04382
467.3448 288.02872 267.5909 231.96051 246.35658 213.32631 229.44789 219.58302
549.1423 368.76205 292.1589 399.469 451.73123 249.09738 606.40894 281.20728
2447.1567 217.01645 759.71375 313.53262 616.78125 847.18 204.74359 262.76865
878.7113 402.27765 186.75613 321.17218 513.4951 409.32574 149.46689 254.3559
750.45355 851.26624 421.29263 307.216 411.4473 557.6099 202.95668 245.34349
629.0357 836.684 362.84668 491.35022 183.31075 429.1444 384.1014 572.89264
857.7149 221.94121 212.18336 421.13638 519.8026 273.26456 547.5552 236.18597
00000000: 5879 df43 e09a d343 509f 8f43 f3fc e443
00000010: fa74 9d43 6a04 cd43 069f 5a44 9c05 8b43
00000020: 22ac e943 ad03 9043 a3cb 8543 e4f5 6743
00000030: 495b 7643 8953 5543 a972 6543 4195 5b43
00000040: 1b49 0944 8b61 b843 5714 9243 08bc c743
00000050: 99dd e143 ee18 7943 2c9a 1744 889a 8c43
00000060: 82f2 1845 3604 5943 aeed 3d44 2dc4 9c43
00000070: 0032 1a44 85cb 5344 5cbe 4c43 6362 8343
00000080: 86ad 5b44 8a23 c943 92c1 3a43 0a96 a043
00000090: b05f 0044 b2a9 cc43 8677 1543 1c5b 7e43
000000a0: 079d 3b44 0ad1 5444 75a5 d243 a69b 9943
000000b0: 41b9 cd43 0967 0b44 e9f4 4a43 ef57 7543
000000c0: 4942 1d44 c72b 5144 606c b543 d4ac f543
000000d0: 8d4f 3743 7c92 d643 fb0c c043 2139 0f44
000000e0: c16d 5644 f3f0 5d43 f12e 5443 7591 d243
000000f0: 5ef3 0144 dda1 8843 88e3 0844 9c2f 6c43
