notebooks/Radio_27ML/27ml_rf/model_w8a8_trained.pth (torch, 724426 bytes, 47 tensors)

1.weight f4 [64, 2, 3]
00000000: f36d 233e 1aaf 8fbd 233e f3bf 8441 babf
00000010: 86b0 86bf 3c07 153f 3e50 1840 3d9d 4640
00000020: c855 1c3f 9af0 3f3d 73e6 dbbd 8ee1 223f
00000030: 8bca 94bf 5288 a5bf 44fb 8fbe 590e e7be
00000040: 5b05 ce3f 0ff5 803f 96da 5dbf bffb 1bbf
00000050: 01c5 4a3f 2a48 e53f 3270 153f 0eae 0e40
00000060: 33ba 5ebf f8ee 353f 7896 c53f 8060 8cbf
00000070: a5d2 8dbf c26d 47bf 9cea 8cbd 96fa 293f
00000080: 1c3f 97be 21c9 00c0 2834 a4bf b7f1 39c0
00000090: 8fbe bfbf c9db 613f 41e2 d33f def3 0bbf
000000a0: c576 c63e 36ce 683f 8d55 68be de1f 3dc0
000000b0: a72d 06c0 0e8f e5be d2ef 2e3f bc0a ec3e
000000c0: 0409 8e3e 4ad3 333f 043d 8c3f 16da 983f
000000d0: acc0 f83f 2453 9b3f 9f4f a13f 1167 083e
000000e0: dff2 8bbe c0fe efbf ceb0 b4bf dbc1 d7bf
000000f0: 2328 2c3e e727 9d3c 512e f9be 69f5 3040
00000100: c58f 1340 ef0a 8bbf c42f 1c3f f672 5b3f
00000110: a042 4e40 d10a 863f 7cde 7a3e 5830 c1be
00000120: f130 383e 1f59 4940 8dae f33f e2db 433f
00000130: beb5 ed3e d3b1 56bf 09cc a8bf 04fb bdbf
00000140: ca36 e1bf a963 9d3f df09 023f 63e1 20bf
00000150: d1a2 92be 12d1 54bf e119 b2bd 0620 60bf
00000160: 4fab dfbf 4a9d 16c0 81c7 9f3f 33a6 223f
00000170: 940e 0340 c6ba 3cbe e0d7 9abf 32c9 2dbf
00000180: 2020 003f cea5 80be f47c f6bd 8d62 c8bf
00000190: 860f d53f d620 e33f 0a3f 44bf cff9 e5be
000001a0: f108 98bf fc70 73bf b63c 00c0 04e3 3dbf
000001b0: 3511 9cbf 6bf5 9a3e 920f 9cbf fc91 903f
000001c0: 07c7 45bf de17 c73f 71b8 adbc 1d0f 96bf
000001d0: 5277 b0bf ac8f 833f 6d72 953f bb3e 873f
000001e0: 3529 183f 45cf 203f 375d a23d ca41 373e
000001f0: 0ac1 f9bf 6c8c 33c0 fc99 16be 700a bfbf
00000200: 8f2a 9cbf bad7 87bf bcbd 70bf e096 86bf
00000210: d40c 05c0 9534 d73e 36e4 ce3f bef2 6b3f
00000220: 570a f7be 5123 d9be 28dd eb3e a73b 9a3f
00000230: 6c93 183f 8f87 df3f d468 de3f f8dd 833e
00000240: 050f c8bf 4a65 3ebf dc56 273f eb95 8cbf
00000250: cd82 bbbf 9f25 0bbf 9e1e 46c0 fed1 bfbf
00000260: eff3 b2bf d6f8 14be a3e5 a6bd 592f 8fbe
00000270: 9801 8d3e 1e1d a9bd da1e 2fbf f788 c5be
00000280: 51e3 33c0 60b9 33c0 3fcf 2dc0 3f9b 48c0
00000290: 96c5 933d 5f58 2cbe 8b4d 7ebe 30b3 84be
000002a0: d2e5 fabf 3c93 78bf 976c 613d ae3b 183f
000002b0: af2a 7e3f 5c78 8a3f 28eb 62bf 9393 c13f
000002c0: 9907 42bf 6f14 6cbf 785b d33f e773 47bf
000002d0: 2a0d 1f3f 388a 68bf feb3 823f c661 5c3f
000002e0: ffc5 0540 743a 913f 4626 c8bf 7ba9 1a3e
000002f0: 6b1a 88bf f3ed df3e 5121 de3f 19fa 2e3f
00000300: 937c debf 2cc1 f2bf c0c3 97bf c4cb 1fbf
00000310: e7fb 89bf 7b0b df3e f47b 323e dd2d 88be
00000320: 0d00 513e 9c75 f33f 7cdb fcbe ca16 0ac0
00000330: 4a8e e83d 850f b23e 7659 d6be 4743 7d3f
00000340: 5588 2640 f4ac 4940 9646 99bf 33ec b3bf
00000350: 5640 06bd 0fa2 67bf 9cb2 9cbf 6426 47bf
00000360: f5a7 96be a812 dabd 5776 cd3e e2d0 00c0
00000370: 8ee4 f2bd 54f8 0e40 d215 29bf 2ea1 183f
00000380: 9aeb e5be 304b 7f3f fac4 2ec0 90c8 d5be
00000390: fa4b dbbe edc3 90be e55c 743c ffad 1a40
000003a0: 0dd0 ac3f 8764 1540 0ddc 4b3e aa25 833f
000003b0: dc10 713f e076 c1bf 1d30 12c0 a734 07be
000003c0: 8164 0f40 0c60 ca3f 67d0 163f 4684 3ebf
000003d0: c15a f3bd b44e 6ebf ee21 493f 18eb b3bf
000003e0: d4cd 973f 68d9 4b3f ddca d1bf cf07 0dbe
000003f0: a26a 233f 5ec5 a63d 273e 2c3e 2270 24c0
0.15959911 -0.0701582 -1.9003338 -1.4551244 -1.0522621 0.58214164 2.3798976 3.103347
0.6106839 0.046860315 -0.10737314 0.6362542 -1.1624311 -1.2932227 -0.28121388 -0.45128134
1.6095384 1.0074786 -0.8666166 -0.6093101 0.79206854 1.7912648 0.5837432 2.2293735
-0.8700287 0.7106776 1.5436544 -1.096695 -1.1079909 -0.7790185 -0.06880686 0.6639799
-0.29540336 -2.012276 -1.2828417 -2.905378 -1.4980029 0.8822599 1.6553422 -0.54668987
0.3876249 0.9093965 -0.22688885 -2.95507 -2.0965364 -0.44835705 0.68334687 0.4610194
0.27741253 0.70244277 1.095612 1.1941555 1.9433799 1.2134748 1.2602423 0.13320567
-0.27333733 -1.8749619 -1.4116457 -1.6856035 0.16812186 0.019184066 -0.4866815 2.7649786
2.30565 -1.0862712 0.61010385 0.8572229 3.2228165 1.0472051 0.24498934 -0.37732196
0.1798742 3.1460645 1.9037644 0.7650739 0.4642772 -0.8386509 -1.3187267 -1.4842229
-1.7594845 1.2296039 0.5079631 -0.6284391 -0.28639844 -0.83131516 -0.08696342 -0.87548864
-1.7474154 -2.3533502 1.2482759 0.6353485 2.0477648 -0.18430623 -1.209713 -0.67885125
0.5004902 -0.251265 -0.12035552 -1.5655075 1.6645362 1.7744396 -0.7665869 -0.4491715
-1.1877729 -0.95094275 -2.0037055 -0.74174523 -1.2192751 0.30265364 -1.2192252 1.1294551
-0.77256817 1.5554159 -0.021206113 -1.1723362 -1.3786414 1.027822 1.1675545 1.0566019
0.59437877 0.6281627 0.079279356 0.1789619 -1.9512036 -2.8054457 -0.14707178 -1.492506
-1.2200488 -1.061271 -0.9403951 -1.0514793 -2.078908 0.42032304 1.6163394 0.9216727
-0.48250076 -0.42409757 0.46067166 1.2049454 0.5959995 1.7463244 1.7375741 0.25755286
-1.5629584 -0.74373305 0.6536691 -1.0983251 -1.4649292 -0.5435428 -3.0956187 -1.498596
-1.3980693 -0.14548048 -0.081492685 -0.2796581 0.27540278 -0.08257507 -0.6840645 -0.38581058
-2.8107493 -2.8081894 -2.7157743 -3.1344755 0.07215421 -0.16830586 -0.24834268 -0.2591796
-1.9601386 -0.9709966 0.0550352 0.59466064 0.9928388 1.0817981 -0.8864007 1.5123161
-0.75792843 -0.9221868 1.6512289 -0.7791123 0.6212946 -0.90835905 1.0211179 0.8608669
2.0902097 1.1345963 -1.563668 0.15103714 -1.0633062 0.43736228 1.7353917 0.6835037
-1.7381767 -1.8965201 -1.1856613 -0.62420297 -1.078 0.43563446 0.17430097 -0.2659749
0.20410176 1.9020267 -0.49386203 -2.157641 0.113552645 0.34777465 -0.41865128 0.9893078
2.602071 3.1511812 -1.1974666 -1.4056457 -0.0327762 -0.90481657 -1.2242007 -0.77792954
-0.29425016 -0.1064809 0.4012935 -2.0127492 -0.118599996 2.2339067 -0.6604892 0.5962094
-0.44906312 0.997241 -2.7307725 -0.4175458 -0.42831403 -0.2827448 0.014914726 2.4168699
1.3500992 2.3342607 0.19908161 1.0245869 0.9416635 -1.5114403 -2.2841866 -0.13203679
2.2405093 1.5810561 0.58911747 -0.74420583 -0.11882544 -0.9308884 0.785674 -1.405612
1.1859689 0.7962861 -1.6390034 -0.1377251 0.63834584 0.081431136 0.16820584 -2.569344

2.weight f4 [64]
00000000: 1d24 9f3f 8bb2 de3f b6cb a03f 5936 a53f
00000010: d4e2 b43f 81f3 cf3f 13dd 973f 665f c23f
00000020: 6793 d93f ed8d e13f e777 b03f e13f b03f
00000030: ecad d93f 001a ce3f e1fd d83f cf72 bd3f
00000040: 2054 a73f 54ac b53f 3ce6 653f a66e ca3f
00000050: 5c5a 923f 221a ba3f b31c f53f 2260 c23f
00000060: 724d bf3f 4e99 c23f ea5c de3f c274 d23f
00000070: 6c18 b13f 9ab0 b33f ca33 9c3f b38e 993f
00000080: a3e4 d03f 5996 b03f 3fa3 bf3f a781 d43f
00000090: 0340 2540 dc07 893f c928 d13f fdb4 db3f
000000a0: 26f3 d93f 2846 843f 08a5 be3f b804 d43f
000000b0: 66ec 0040 f2b1 b43f babb e73f 387f 973f
000000c0: e811 c73f 9ae8 863f 2a25 2a3f 11c2 cd3f
000000d0: 7ff9 fd3f ace0 c13f d39c cf3f 5820 a03f
000000e0: 92d9 cc3f 2dd6 af3f 076c cf3f ef0e 933f
000000f0: ece8 b13f 0ef1 1440 7f7f a63f 5972 c73f
1.2432896 1.7398237 1.2562168 1.290721 1.4131722 1.6246186 1.1864341 1.5185363
1.6998109 1.7621437 1.3786591 1.3769494 1.7006202 1.6101685 1.6952478 1.4800662
1.3072548 1.4193215 0.89804435 1.5815017 1.1433825 1.4539225 1.9149383 1.5185587
1.494551 1.5203035 1.7372105 1.6441882 1.3835578 1.403827 1.2203305 1.1996673
1.6319774 1.3795882 1.4971694 1.6602067 2.582032 1.0705523 1.6340572 1.7164608
1.7027328 1.033391 1.4894114 1.656394 2.0144286 1.4116805 1.8104165 1.1835699
1.555234 1.0539734 0.6646296 1.6074849 1.9841765 1.514669 1.6219734 1.250987
1.6003897 1.3737236 1.6204842 1.1488932 1.3899207 2.3272128 1.3007659 1.5581771

2.bias f4 [64]
00000000: 398f d6be bd8d 94bf 3a1b 96be 6616 4bbf
00000010: c810 93be e78e 2b3e 4e3a 7dbf 3281 81bf
00000020: 8cf6 a5bf f0bb 84bf 92c2 ce3c f9a3 96bf
00000030: 02d2 21bf 20e2 4bbf 8391 a1bf 2b16 443f
00000040: 4085 23bf f1a6 33bf 3394 edbe 81d9 9bbf
00000050: 04b7 223f 162a 4c3f 4038 57be 922a 043f
00000060: 3c48 353c af39 6c3f e80d 81bf fcc9 25be
00000070: 0fab 92bf a5bd 06be 6536 9a3d 852d 903e
00000080: bce4 88bf 1c5a 1abf 6902 18bf 6f4d a3bf
00000090: 2b05 61be 1d75 a6bf 07f4 8d3f 7640 a5bf
000000a0: 278e 9bbf bb1e 7cbf 5a64 2d3f 468a 6a3f
000000b0: 856e c7bf 6bb8 e1be 466e a8bf 505b 13bf
000000c0: d5df a7bf 4fb5 4b3d 90c5 003d 546a 91bd
000000d0: de85 afbf 345e 3bbf 1759 593f 4ea6 efbe
000000e0: 794d 403f b8c5 0abf fd6c a2bf cb9b 15be
000000f0: 58d2 4cbe a150 bdbe 2c45 10be cdce 68be
-0.41906145 -1.1605755 -0.29317647 -0.7933105 -0.2872374 0.16753732 -0.9891709 -1.0117552
-1.2965865 -1.0369854 0.025239263 -1.176879 -0.6321107 -0.79641914 -1.2622532 0.76596326
-0.638752 -0.7017661 -0.4640213 -1.2175752 0.6356051 0.7975172 -0.21017551 0.5162746
0.011064585 0.9227552 -1.0082369 -0.16190332 -1.1458453 -0.13158281 0.07529906 0.2815973
-1.0694804 -0.60293746 -0.5937868 -1.2758006 -0.21974628 -1.300449 1.1090096 -1.2910297
-1.2152756 -0.9848439 0.6773125 0.9161724 -1.5580603 -0.44086012 -1.3158653 -0.57561207
-1.3115183 0.049733456 0.03143841 -0.071003586 -1.3712728 -0.7319062 0.84901565 -0.46806568
0.75118214 -0.54207945 -1.268951 -0.14610212 -0.20002115 -0.36975577 -0.14088887 -0.22735138

2.running_mean f4 [64]
00000000: dc1b fdbb 599a 86bd 7098 673d 4073 833d
00000010: aa67 59bd 4a8b abbd 6dc0 87bb 4e0f 933d
00000020: 123d fd3c c45d 9abd af4d 573d 2b69 2cbd
00000030: 5422 70bd 2fc9 893d 19e9 47bd 99cb 95bd
00000040: 8eee a53c d883 a9bc 53b3 423d f98b 8d3d
00000050: 388f 94bd cae8 ecbb 5ded 96ba f2db a43c
00000060: d9f3 afbc fb20 863d 37f4 8cbd 51cb 723d
00000070: 9c59 853d 30c1 8b3b c5ee 293d b0ee 7e3d
00000080: 2cd0 1d3d b59b 17bc ebbd a83d bb91 a0bb
00000090: 79d3 973a 72d5 a2bc 0933 af3d 2123 97bd
000000a0: 62ae 99bd 12c6 97bc 8697 a9bd b73f 9e3d
000000b0: a287 9a3d 6e44 753c 2045 98bd 3ee2 b93c
000000c0: 4556 183d b603 9ebb 6dc4 233b b8ac 84bd
000000d0: cd82 9aba 5aca 8dbd a253 97bd ad09 6a3c
000000e0: cc5b dfbc 79e6 823c 3e0a a63d c924 bcba
000000f0: 081c 7c3d 9d30 973b d0a2 893d 20ac 7fbc
-0.0077242684 -0.06572408 0.05654186 0.064184666 -0.053077377 -0.08376177 -0.004142812 0.071806535
0.03091291 -0.075374156 0.05256432 -0.042092483 -0.058626488 0.06727826 -0.048806284 -0.07314224
0.020255353 -0.02069275 0.0475343 0.06911463 -0.07253879 -0.007229899 -0.0011514832 0.02012441
-0.02147858 0.06549259 -0.06882518 0.05927593 0.06511232 0.004264973 0.041487474 0.06223935
0.038528606 -0.009253432 0.08239349 -0.004900185 0.001158341 -0.01987717 0.08554656 -0.07379747
-0.07503964 -0.018527064 -0.08280854 0.077269964 0.07545401 0.014969928 -0.074350595 0.022690888
0.037191648 -0.0048222197 0.0024988905 -0.06478256 -0.0011788249 -0.06923361 -0.073889986 0.014284533
-0.027265452 0.015979039 0.08107422 -0.0014354225 0.06155017 0.0046139495 0.06720507 -0.015605003

2.running_var f4 [64]
00000000: fa55 fe44 b8b5 0946 2a59 3845 e3db 9b45
00000010: c296 3145 e984 0746 30ff 8e44 807f d645
00000020: 2310 a345 9abe b545 87db 9145 a549 ac45
00000030: a6e6 d145 d047 a145 8596 bc45 76ad 8e45
00000040: d511 cd44 29c3 8a45 7855 0e45 5511 7b45
00000050: 5177 ad45 2d64 7845 69e2 7744 706f 8945
00000060: 02d1 4745 08f1 0046 c0f0 0446 36b2 0046
00000070: 850c 6045 7064 5144 7eac 8045 e3b1 5345
00000080: b2f2 af45 6027 8d44 4897 2346 04bc 6045
00000090: 9b22 8a44 c9a5 f944 8ae7 0246 c672 9845
000000a0: 373b a145 fdfc 8144 a2e6 f445 1edb ac45
000000b0: d9f7 de45 6e09 6c45 659b 8345 318b 1345
000000c0: f8e3 c545 d89d 4f44 c199 3745 6452 5d45
000000d0: 4469 9245 bfc0 8c45 7424 e245 1939 8d44
000000e0: 7d8b aa45 94b1 3745 6e6f b245 7454 5444
000000f0: dcd3 5945 a86a 8e44 aa6b ac45 459b 6245
2034.6868 8813.43 2949.5728 4987.486 2841.4224 8673.228 1143.9746 6863.9375
5218.017 5815.825 4667.441 5513.2056 6716.831 5160.9766 6034.815 4565.6826
1640.5573 4440.395 2277.3418 4017.0833 5550.9146 3974.261 991.53766 4397.9297
3197.063 8252.258 8508.1875 8236.553 3584.7825 837.56934 4117.5615 3387.118
5630.337 1129.2305 10469.82 3595.751 1105.0814 1997.1808 8377.885 4878.3467
5159.402 1039.9059 7836.829 5531.3896 7134.981 3776.5894 4211.4243 2360.6995
6332.496 830.4663 2937.6096 3541.1494 4685.158 4504.0933 7236.5566 1129.7843
5457.436 2939.0986 5709.9287 849.3196 3485.2412 1139.333 5517.458 3625.7043

5.weight f4 [64, 64, 3]
00000000: f3ea 333f ecea 55be 71c0 313f 4f43 a3bf
00000010: 4f86 6b3f 0f0c 8dbf fb9f d4bf 6e07 84bf
00000020: 00d7 93bf e87a 13bf cad2 16c0 ee6b cabf
00000030: fa0c 853f 6813 d13e 64a8 883e 9e3f a03f
00000040: 036d 8dbd 5d3c 983f 7a26 8dbe 0854 fabe
00000050: 9212 593f 95a4 04bf 1c30 4ebf e9b4 fe3e
00000060: 3493 a5be b549 04bf 5143 3dbf 51ec 743f
00000070: cd99 ddbe 8798 bbbe 4fed 20c0 ee92 84bf
00000080: 086a 8bbf 53b4 8abf 677e d53d 3f51 553d
00000090: 7a89 503e ff22 a43f 99c9 813f 0581 b0bf
000000a0: b05f 61be 1500 203f 5cf3 f23b 1824 03c0
000000b0: a81f bbbf 94d4 c33d 8dfd b73f 25e4 d73f
000000c0: e84c 8d3f 43be 86bf ed51 5a3d 344e 85be
000000d0: e0cd 67bf 6c1f 7abe 7efb e3bf 08b1 98bf
000000e0: 6f94 55bf a559 8cbe e5a4 eb3d ea5c 45bf
000000f0: 376f 0a3e 6c91 423f add5 a03f 0978 4e3d
00000100: bc14 b6bd e9b8 7bbe a69e 913f f9c3 683d
00000110: 63b1 9a3e ebdf 4bbf ffc0 6d3d 1dcd 683e
00000120: cd94 803d 5a80 103f 4406 81bf 85c9 09c0
00000130: 3284 03bf e193 07c0 ae56 c23e cf5a 80bf
00000140: be80 9cbe fe89 ffbf 896f e53e 23ad 28c0
00000150: 3b1d 903e d860 5dbf 1872 97be fffb 853f
00000160: 12de b73f d7d3 bf3f 2294 81be 1fae 4abf
00000170: 2163 4ebf b5c1 26c0 f215 b8bf 9339 41c0
00000180: e835 87be 35c8 91be 9151 10bf a205 8d3f
00000190: 2ab2 133f 3193 323f f4b8 523e 62d2 0ebf
000001a0: 3d61 04c0 b405 8bbd a226 ebbe 0eee 0fc0
000001b0: a29a 473f 236c 6d3f 3292 993e aa30 013d
000001c0: 6444 84bf d49d 273f d63b 4dc0 b043 cebf
000001d0: b131 09c0 81e9 a3be a697 0abf 5452 56bf
000001e0: 5a40 9dbf 95c3 39be 99b2 b63d 255b 01bf
000001f0: e8a1 10be 808c 32bf 8e15 c53f 1ece 913e
00000200: 5d19 0c3f 445e 4ac0 1632 4bc0 65ef 39c0
00000210: 6b0a 7dbf 1be2 abbf 5c35 7bbe c9fa 21bf
00000220: 5310 b4bd dc28 21bf 7878 88bf 3228 afbf
00000230: ade4 8abe a219 2f3e c89a 443d f620 02bf
00000240: 3bca c13f e949 b8be 60cf b53f a3cd 093f
00000250: bcb4 0c3f ee18 9a3f 0bd2 97be 87a5 97bd
00000260: bd2e f33e c5ca d73e 6f95 9d3f 8115 6f3f
00000270: 64e2 98bf c153 f33e 2536 92bf 7edf 84bf
00000280: 9996 5e3f 1986 f23e ba4f ba3e 5f65 3f3f
00000290: c1a2 ca3f fb30 1ebd 7ae6 da3c 8258 03bf
000002a0: 1d53 323e 78c8 613f 21be 6a3f 9cef e9be
000002b0: 87a4 1d3f c28a 8dbf 9215 14bd db00 953e
000002c0: c997 3e3e d7af 6cbf 0d66 d43f 9553 af3f
000002d0: 5e89 acbf 5648 16c0 1024 f3bf e59c 7e3f
000002e0: 252d 7cbc fe9b a83f 7ab2 46bf 1cf9 25bf
000002f0: 1303 093e debb 4e3e c1ce 1e3f 98a8 b4be
00000300: ed34 af3e d2cb 3abf 2c46 fc3e ce9f 473f
00000310: 9838 b4bf 9441 43bf 1bce 0d3e 3696 e83e
00000320: 71bb 9cbe 95fa 95bc 44c6 143f 4f27 4b3e
00000330: 9dac 11bf b07d 71bf ece7 33bf 8dee 95bf
00000340: b007 b7bf be5f 0dc0 74ff 8fbe 9a11 8d3f
00000350: ea85 ebbe f40d 0c3f 68aa 96be 43f9 6f3e
00000360: 1c80 c5bf c7a8 103f 217e 67bf a98a 983e
00000370: 23ae 2ebe 78b4 91bf e67d 20c0 3b65 b83f
00000380: 1b50 dd3e 8ef4 5cbf 2e62 43bf 6ac0 8abf
00000390: 4e42 f3be d5f0 edbe e5ae 83bf a300 9ebd
000003a0: 83ff c8bf 87ce cfbe 448c 9ebf 7e87 cbbe
000003b0: 6cc7 50bf 8393 debd b923 debf 855f 93bf
000003c0: f5ff 713f 1940 973f 7496 a73f f09e 08c0
000003d0: 0c54 d8bf 4093 0bbf ad98 babd 46ca 23be
000003e0: 693e a3be f2f0 6dbf a7bc c4bf f4e0 c6bf
000003f0: 4364 7bbf fff8 6fbf ea0f dbbf 33d9 dd3e
0.7028038 -0.20890397 0.6943427 -1.2754916 0.92001814 -1.1019305 -1.6611322 -1.0314767
-1.1549988 -0.57609415 -2.3566155 -1.5814188 1.0394585 0.40835118 0.26690972 1.2519414
-0.06905558 1.1893421 -0.27568418 -0.48892236 0.8479396 -0.5181363 -0.8054216 0.49747398
-0.3233887 -0.5167497 -0.7393084 0.9567309 -0.43281403 -0.36639807 -2.5144842 -1.0357339
-1.0891733 -1.083628 0.104245 0.052079435 0.20364943 1.282318 1.0139648 -1.3789374
-0.22009158 0.62500125 0.0074142646 -2.049078 -1.4619036 0.095620304 1.4374253 1.6866499
1.1039095 -1.0526813 0.053300787 -0.26036227 -0.90548515 -0.24426049 -1.7811124 -1.1929026
-0.83429617 -0.27412143 0.115060605 -0.770949 0.13518988 0.76003146 1.2565209 0.050407443
-0.088906735 -0.24582256 1.1376541 0.05682752 0.3021346 -0.79638547 0.058045384 0.22734495
0.062783815 0.5644585 -1.0080037 -2.1529248 -0.5137359 -2.1184008 0.37956756 -1.0027713
-0.30566972 -1.9963987 0.44811657 -2.6355674 0.281473 -0.86475897 -0.29579234 1.0467528
1.4364645 1.4986523 -0.2530833 -0.7917194 -0.8062001 -2.605573 -1.4381697 -3.019139
-0.26408315 -0.28473058 -0.5637446 1.1017344 0.5769373 0.69755846 0.20578367 -0.5578977
-2.068435 -0.06788197 -0.45927912 -2.2489047 0.77970326 0.9274313 0.2999435 0.03154055
-1.0333371 0.654752 -3.206777 -1.6114407 -2.143658 -0.32014087 -0.5413765 -0.8371937
-1.2285264 -0.18141015 0.089207835 -0.505297 -0.14124262 -0.69745636 1.5397203 0.28477567
0.547262 -3.1620035 -3.174932 -2.9052365 -0.9884402 -1.3428377 -0.24532074 -0.6327329
-0.08792176 -0.6295297 -1.0661764 -1.3684142 -0.2712759 0.17099622 0.047999173 -0.50831544
1.5139841 -0.3599389 1.4203911 0.538294 0.5496328 1.2038858 -0.29652438 -0.07404619
0.47496596 0.42146888 1.2311229 0.9339219 -1.1944089 0.47524837 -1.1422774 -1.0380704
0.86948544 0.47367933 0.36388952 0.74764055 1.5830919 -0.03862093 0.026721228 -0.5130693
0.17414518 0.88196516 0.91696364 -0.4569062 0.61579174 -1.105797 -0.036153384 0.29102215
0.18612589 -0.9245581 1.6593643 1.3697382 -1.3479421 -2.348165 -1.899538 0.9945815
-0.015391623 1.3172605 -0.77616084 -0.64833236 0.13380079 0.20188853 0.6203423 -0.35284877
0.34220067 -0.72967255 0.49272287 0.7797822 -1.4079771 -0.7627194 0.13848154 0.45427102
-0.30611756 -0.018307963 0.5811503 0.19839214 -0.5690401 -0.9433241 -0.7027576 -1.1713425
-1.4299221 -2.2089686 -0.28124583 1.1020997 -0.46000606 0.5470879 -0.29426885 0.2343493
-1.5429721 0.56507534 -0.9042683 0.2979329 -0.17058615 -1.13832 -2.5076842 1.4405893
0.43225178 -0.8631066 -0.76321685 -1.083997 -0.47511524 -0.46472803 -1.0287749 -0.07714965
-1.5702976 -0.40587255 -1.2386556 -0.3975181 -0.81554294 -0.108679794 -1.7354652 -1.1513525
0.94531184 1.1816436 1.309279 -2.1347008 -1.6900649 -0.5452156 -0.09111152 -0.1599513
-0.31883553 -0.9294578 -1.5370072 -1.55374 -0.9819986 -0.9373931 -1.7114232 0.43329772

6.weight f4 [64]
00000000: 108c cd3f 2cd9 a93f 8c90 1140 46ac a83f
00000010: a975 0d40 dc2f 9a3f 6da3 c83f e00f bc3f
00000020: 99d6 b23f a9e8 8d3f 000d 9c3f 629d c13f
00000030: e5a6 b43f 0977 8d3f d1c2 e33f a729 673f
00000040: 82a9 0e40 3a2c 6c3f d3ee b63f ff73 a13f
00000050: bb21 b73f 1e16 b03f 90fa 863f 029d 2240
00000060: e004 ef3f da15 e43f 7f86 b53f d8f8 793f
00000070: 26e7 be3f b064 a03f 5fd3 5540 52e6 d83f
00000080: 3fe5 a93f e519 b43f 38f1 0e40 64ca 9d3f
00000090: e1ec cc3f d707 3040 04a7 c63f ac43 c93f
000000a0: 7ff5 0c40 9311 b13f 1bfa 7e3f 38df c63f
000000b0: 97e4 833f 315b 9a3f 8880 873f b9f3 c83f
000000c0: cde8 823f dca6 d23f 28c6 bc3f eee6 a73f
000000d0: 9dbd 893f 4b0b 0c40 62ef b53f 4c9d c33f
000000e0: 3390 a83f e3e6 a73f 984b 9e3f fe12 1040
000000f0: b561 bf3f bb08 b93f dd6f d23f 0b37 e23f
1.6058369 1.3269401 2.2744474 1.3177574 2.2103064 1.2045856 1.5674874 1.4692345
1.397174 1.1086627 1.2191467 1.5126154 1.4113432 1.1051952 1.7793828 0.9029793
2.229096 0.92254984 1.4291633 1.2613524 1.4307169 1.375675 1.0545216 2.540833
1.8673363 1.7819169 1.418167 0.9764533 1.4914291 1.2530727 3.341026 1.6945288
1.3273085 1.4070402 2.2334728 1.232739 1.600979 2.7504785 1.5519719 1.5723777
2.202484 1.3833488 0.9960038 1.5536871 1.0304135 1.205908 1.05861 1.5699378
1.0227295 1.6457171 1.4747972 1.3117349 1.076099 2.1881893 1.4213679 1.5282378
1.3169006 1.3117336 1.2366819 2.2511592 1.4951693 1.4455789 1.6440388 1.7673048

6.bias f4 [64]
00000000: e5f1 58bf 42f6 3ebf a888 dcbf 9d38 37bf
00000010: 9298 cebf 9571 60be a917 0bbf 81d2 27bf
00000020: c9fe 9ebe dea5 b7be 0ebd 16bf 5c47 44bf
00000030: 1272 bbbe 954a c8be d1ed 90bf 95be 42be
00000040: 9893 5840 b62a 7c3d 02e9 15bf fdc0 70bf
00000050: 3a61 83bf 55b4 40bf 4fb4 be3d 9a73 7e40
00000060: 67e9 06bf 0dd0 59bf 460a 40bf 2b83 91bc
00000070: 24e3 88bf 4d2f 35be edb4 1dc0 8824 c7be
00000080: 9606 20bf eaf4 dcbe c94d ccbf 368b 1fbe
00000090: 6244 5dbf e7ff 07bf cbb2 76bf 5bc6 7abf
000000a0: a2bf b8bf fc42 73bf eb56 87bd 0f1e 77bf
000000b0: fc2e 4bbe 0c10 d9be 8e81 5fbf 21bd 35bf
000000c0: 8b7c 3ebe a905 1abf ec01 31bf 3b83 eabe
000000d0: dd67 ccbe b74c e4bf cbfb eebe 11ec 1fbf
000000e0: 46c4 82bf 9cf8 23bf 1367 2abf def1 2bbf
000000f0: 2cc1 1cbf 3200 3dbf ae39 4ebf 5adc 0bbf
-0.847441 -0.7459451 -1.7229204 -0.7157076 -1.6140311 -0.21918328 -0.5433298 -0.6555558
-0.3105376 -0.35868734 -0.58882225 -0.76671386 -0.36610466 -0.39119402 -1.1322576 -0.19018014
3.3840084 0.06156417 -0.58558667 -0.94044477 -1.0264046 -0.75275165 0.09311735 3.9758058
-0.52699894 -0.85083085 -0.75015676 -0.017762741 -1.0694318 -0.17693825 -2.4641678 -0.3889506
-0.6251005 -0.43155605 -1.5961238 -0.15580449 -0.8643247 -0.5312485 -0.96366566 -0.97958916
-1.4433482 -0.95024085 -0.06608375 -0.9653024 -0.19842142 -0.42395055 -0.8730706 -0.7099171
-0.18602197 -0.60164887 -0.6914356 -0.45803246 -0.3992299 -1.7835912 -0.46676478 -0.62469584
-1.0216148 -0.6405122 -0.6656353 -0.67165935 -0.61232257 -0.73828423 -0.8055676 -0.54633105

6.running_mean f4 [64]
00000000: f9a9 dbc1 ec52 37c1 5556 20c1 9ccb 9fc1
00000010: f603 0bc1 b13f ff41 63d5 17c2 a164 2fc2
00000020: 09c1 09c2 6c2c b9c1 acc1 ef41 1399 49c1
00000030: 6c89 1542 921a 1b42 4ced 01c2 9a0a 3642
00000040: 2b39 65c2 10bd 5342 37dd 10c2 1606 7141
00000050: 9802 25c2 d241 dac1 b761 2f42 d057 94c2
00000060: 2a1d 9c41 05fc 2cc2 ad23 2ac2 22b5 2742
00000070: a966 bdc0 550c 4dc2 f13e c6c2 2ef3 39c2
00000080: 07a0 f041 1b62 45c2 d430 dec0 fe56 2142
00000090: 3623 17c2 70ca 37c2 24fd 31c2 3d01 03c1
000000a0: f8ff 25c0 4f05 8a41 5019 3142 5c4c 4fc2
000000b0: 772f f441 12ad 05c2 3fd4 e041 5828 56c2
000000c0: 01c0 e241 c4c8 0ec2 4c98 f5c1 42ed 31c1
000000d0: cb12 8cc2 2373 6ec1 2ec3 4ac2 e154 c1c1
000000e0: c116 d8c1 9ecb d3c1 6685 58c2 5ae6 82c2
000000f0: 09f6 32c2 65d2 bec1 c15a a4c1 9704 15c2
-27.457994 -11.457745 -10.021077 -19.974419 -8.688467 31.9061 -37.958385 -43.84827
-34.43851 -23.14669 29.969566 -12.599872 37.3842 38.775948 -32.481735 45.510353
-57.30583 52.93463 -36.21603 15.063986 -41.252533 -27.282139 43.845425 -74.17151
19.51424 -43.246113 -42.53484 41.926888 -5.9187818 -51.262043 -99.12293 -46.48748
30.078138 -49.345806 -6.9434605 40.334953 -37.784386 -45.947693 -44.497208 -8.187802
-2.593748 17.252592 44.27472 -51.82457 30.523176 -33.419014 28.103636 -53.5394
28.343752 -35.69606 -30.699364 -11.120424 -70.036705 -14.90311 -50.690605 -24.166445
-27.01111 -26.474422 -54.130272 -65.449905 -44.74027 -23.852732 -20.544313 -37.254482

6.running_var f4 [64]
00000000: 12e2 3845 5c45 c744 65b9 3344 298a 1c45
00000010: e22c 2e44 9bcd ab44 f12a 4c45 4c8a 5345
00000020: d8b5 e744 8efa 8344 a136 c444 a053 3144
00000030: 8d49 6a44 b4eb c944 4002 e644 b9ef c644
00000040: 0ec5 c244 112d e644 c952 0345 63fe 5d44
00000050: bf14 cf44 194b 9f44 55fc 5e44 1454 ca44
00000060: c893 2b44 7d9b ec44 fcbc f144 39bf d044
00000070: 548d f343 53cd 3c45 96af b144 bf55 4245
00000080: 73f4 8544 ec7e 6145 cacb fd43 4223 8e44
00000090: 82b4 e544 3c3f 8744 edca 0845 b6fb af43
000000a0: 3da8 0c44 9bf9 2044 4d32 5144 ab5c 0a45
000000b0: c7c8 2244 114a 9844 5892 0644 b98b 3745
000000c0: 3a3b 1a44 8a67 1945 2478 1e44 e9f9 4e44
000000d0: 3de4 1345 1699 1644 f189 1a45 07df e244
000000e0: c5b7 8244 3253 b344 4a25 7845 3787 a944
000000f0: 7cc1 6144 ce4d 5744 3d01 c944 2c70 2d45
2958.1294 1594.1675 718.8968 2504.635 696.7013 1374.4252 3266.6838 3384.6436
1853.6826 1055.8298 1569.7072 709.30664 937.14923 1615.3657 1840.0703 1591.4913
1558.158 1841.4083 2101.174 887.9748 1656.6483 1274.3468 891.9427 1618.6274
686.3091 1892.859 1933.9058 1669.9757 487.10413 3020.8328 1421.487 3109.3591
1071.639 3607.9326 507.5921 1137.1018 1837.6409 1081.9761 2188.6829 351.9665
562.6287 643.9001 836.78595 2213.7917 651.13715 1218.3146 538.2866 2936.7327
616.9254 2454.4712 633.8772 827.90485 2366.265 602.39197 2472.6213 1814.9696
1045.7428 1434.5999 3970.3306 1356.2255 903.0232 861.2157 1608.0387 2775.0107

9.weight f4 [64, 64, 3]
00000000: a852 69be 33c5 1140 7de1 96bf 5ffd 0c3f
00000010: 7b01 d63e 1f18 d33f de3e 133f a310 1dbf
00000020: 546f b8be 91c3 06c0 d1a0 76bf 5de4 093f
00000030: ae27 ba3f 1c18 0abe 13bd f23f 4fa9 053f
00000040: ffca c43e 1df8 d1be 51ec 38bf 6cc3 1840
00000050: ae36 70bf 0c7f 1e40 0ec7 d3bf b247 93bf
00000060: 2db1 3240 8c71 e9bf fd7f 6fc0 41ea 053e
00000070: c89f 9e3f 5630 373f a7e0 033f 8480 adbe
00000080: dd49 443f cc98 063f bee1 47be c774 dd3f
00000090: e2c7 87bf 6c11 1d3f cdbc b3bf c814 f13e
000000a0: e76d 49bf 5223 cbbf dcc9 9ec0 61f4 693e
000000b0: c2c6 f2be ed80 a1bf b47d 5cbe 2578 ce3f
000000c0: 2f57 c93d 5e5d fa3e 50a3 693f ff4a 423e
000000d0: 320d 74bc 4c98 b43e 7b46 49c0 8758 cdbf
000000e0: 006d 0b40 80f0 fabf c00c 89be 477b 053f
000000f0: adb1 08bf 2430 f63e ba0b 4ebf 5612 4840
00000100: 3ee1 7abf f76e 62c0 3c5e 80be f966 ff3e
00000110: e5cf 86be 07de 05bf c0d2 833e 532c e73e
00000120: 42a9 963f e662 a53e 51e5 98be 1eb2 9dbe
00000130: 13be ad3f ea2d d1bf 7520 28c0 6c68 38bf
00000140: 0e8b 6c3f 98b7 923e 17ef c6be b0b8 71bf
00000150: b70d 3b3d 84be 53be bffa 6f3d 266b 243f
00000160: 2084 4bbe 1752 6dc0 7aaa 06bf a5bd 3a3f
00000170: 5af5 cf3e cb6e 9ac0 52ad 0dbf c745 6b40
00000180: 353e 083e dfa8 73bf a83c 913a d50f b83f
00000190: b96c a43f 8a63 20c0 3e8e 5bbf 5032 8abd
000001a0: 5217 17bf 9210 5d3f 8d13 63bf d7bf ef3e
000001b0: c26f ccbf 8fca 873f e0eb a63e f3b3 5cbf
000001c0: b58f b4bd 081c 8b3c db6e b23f e841 aabf
000001d0: c176 22c0 76d5 0cbf 3e26 903f 9bf3 a0bf
000001e0: 6adf d53e 62c9 54bd cd6d 9a3f 9777 cebe
000001f0: 0ee3 9fbf 8300 70bf cb57 05bf d803 743e
00000200: e3db dd3e e609 8bbf d757 af3e a0ce 5ec0
00000210: 7c01 8ebf 9fc9 eebe 6b17 e13e 00ad 893f
00000220: 7e4a 87bc 06d1 1dc0 b7db 703f 3ae0 85bd
00000230: eb8a 5d3f 7136 09c0 575d f73e cc57 e03e
00000240: 0e54 7bbf 85c1 fcbe 621e ef3e fef8 2dbf
00000250: 6da5 313f e58b a3bf f595 62be 2245 803f
00000260: 3974 1d3e 53cd 933f e12b 25bf d2cd 90be
00000270: 7848 85c0 0df5 23bf 15d4 db3f 1b64 883f
00000280: 831f 303e 0bee cdbd 0191 1dbf 3545 b53f
00000290: a991 e7be 563f dbbf f70c 243f 3d9f f2be
000002a0: 725b e1bf 2e1d b2bf cc76 fc3e d7d9 a1be
000002b0: 9f02 aebe 3ded 3d3d 235d b6bf 096b 483f
000002c0: 2f83 64bf 37d2 9f3d 789e 20be 799b e03e
000002d0: a503 00bd 6c21 5cbe bccc 43c0 7fdb bdbf
000002e0: 6527 253d 5dd7 983f 0984 a83d 35e5 ca3f
000002f0: 3822 4cbf b589 133f 6996 09c0 bf03 1cc0
00000300: 5c2a 953f f3e8 8dbe f0b9 81bf 3f3d 07bf
00000310: 2c6e b13e cd75 5c3f 378e 173c 73d0 1f3f
00000320: 4c03 943f 3b2b 52bf 314e c83c bb47 083e
00000330: e321 f3be 07d5 c63f 3ccf 0cbf f7d8 1ebf
00000340: 0ae6 3a3f 74df aa3f 8c18 cbbe 5b9d c3bf
00000350: 77ab 723f 8c4a f7bf 3efd e6be 6362 19be
00000360: 964d 44bd c78f 653f 8127 b53f 5970 32bf
00000370: e518 d7bf b939 afbf f427 28bf dd79 08bf
00000380: 68e4 9dbf a9af be3f 96c9 14bd 6f55 76bf
00000390: 32c5 ba3f a0ab 0640 68af d03f fc28 9dbf
000003a0: 73fb ba3e 639f 38bf de4d a53f dd3e 57be
000003b0: 58d1 f8bf 7df9 3140 766a 8c3f 7992 26bd
000003c0: 74b6 c13f 22c0 a63f 3159 253f d031 d7be
000003d0: 2260 983f a10e c83f 8fa7 6dbf c23a 403f
000003e0: bccc 96bf e14f bc3d 73d6 1740 2fa5 bf3f
000003f0: 66e5 12be f67b 30c0 58b5 3b3d c6d8 a33e
-0.22785437 2.277661 -1.1787564 0.55074114 0.41798005 1.6491736 0.575178 -0.6135351
-0.36022437 -2.1056864 -0.96339136 0.5386408 1.4543359 -0.1348576 1.8963951 0.5221147
0.38436124 -0.41009608 -0.7223559 2.3869276 -0.93833435 2.4765043 -1.6545122 -1.1506255
2.792064 -1.8237777 -3.7421868 0.13077642 1.2392511 0.7155813 0.5151467 -0.33887112
0.76675206 0.525769 -0.19519708 1.7301263 -1.0607874 0.6135471 -1.4041992 0.47086167
-0.7868332 -1.5870154 -4.962141 0.2284713 -0.47417265 -1.261747 -0.21532327 1.6130415
0.09831082 0.4889936 0.9126482 0.18973921 -0.014895724 0.35272443 -3.1449268 -1.6042641
2.1785278 -1.9604645 -0.2676754 0.5214123 -0.5339611 0.48083603 -0.80486643 3.1261191
-0.9799994 -3.5380228 -0.25071895 0.4988325 -0.26330486 -0.5229191 0.25746727 0.45151004
1.1770403 0.32302016 -0.29862455 -0.30799955 1.3573631 -1.6342137 -2.626981 -0.72034335
0.9239968 0.28655696 -0.38854286 -0.94422436 0.045667376 -0.20678145 0.05858874 0.64225996
-0.1987462 -3.7081354 -0.52603877 0.72945625 0.40616876 -4.8260245 -0.5534259 3.6761339
0.1330498 -0.9517955 0.0011080699 1.4379832 1.284568 -2.5060754 -0.8576392 -0.067478776
-0.5901996 0.8635341 -0.8870171 0.4682605 -1.5971606 1.0608691 0.32601833 -0.8621208
-0.088164724 0.01698114 1.394008 -1.3301363 -2.5384982 -0.55013216 1.126167 -1.2574342
0.41772014 -0.051949866 1.2064759 -0.40325615 -1.2491167 -0.9375078 -0.52087086 0.23829591
0.43331823 -1.0862396 0.34246704 -3.4813614 -1.1094203 -0.466382 0.4396318 1.075592
-0.016515013 -2.4658828 0.9408526 -0.065369084 0.86540097 -2.1439478 0.483134 0.43816984
-0.9817513 -0.49366394 0.46702868 -0.67958057 0.69393045 -1.2777067 -0.22127517 1.0021098
0.15376367 1.1547035 -0.6452008 -0.28282028 -4.1650963 -0.6404579 1.7174097 1.065555
0.17199521 -0.10055169 -0.61549383 1.4161745 -0.45228317 -1.7128704 0.6408228 -0.47387114
-1.7606032 -1.3915155 0.49309385 -0.3161151 -0.33986375 0.046368826 -1.4247173 0.7828832
-0.8926267 0.07803767 -0.15685451 0.43868616 -0.031253476 -0.21497124 -3.059371 -1.483261
0.040320773 1.1940724 0.08228309 1.5851198 -0.79739714 0.57632 -2.1498053 -2.4377286
1.1653552 -0.2771679 -1.0134869 -0.5282783 0.34654367 0.8611725 0.009250215 0.62427443
1.1563506 -0.82097214 0.024451347 0.13308613 -0.4748679 1.5533761 -0.55003715 -0.6204981
0.7300726 1.3349442 -0.39667165 -1.5282396 0.94792885 -1.9319625 -0.45115083 -0.14978938
-0.047925554 0.8967251 1.4152681 -0.6970268 -1.6804472 -1.368949 -0.65685964 -0.5331095
-1.2335329 1.4897357 -0.03632506 -0.9622411 1.4591429 2.1042252 1.630353 -1.2278132
0.36519966 -0.72118205 1.2914388 -0.21020074 -1.9438887 2.7808526 1.0969989 -0.04066703
1.5133805 1.3027384 0.6458922 -0.4203019 1.1904337 1.5629464 -0.928338 0.7508966
-1.178123 0.09194923 2.372464 1.4972285 -0.14345321 -2.757566 0.04582724 0.32001323

10.weight f4 [64]
00000000: fc9e 8a3f e773 b03f 9707 803f 07e7 a73f
00000010: f9de 773f abda f13f 75f9 df3f 88b0 0640
00000020: ef01 0140 c350 903f 13b5 b33f ec3c b13f
00000030: 5d61 a23f 9698 483f 948d 4840 acea 983f
00000040: 810d 3e3f c1ff 933f 7ffe 923f d3c0 ac3f
00000050: e780 3f3f c83d 913f 3c84 993f 9e9c f23f
00000060: 53fe ca3f 3d46 af3f 5e34 863f 2789 f03f
00000070: 6081 993f 9b58 ae3f b808 8a3f a5c9 e73f
00000080: 914e c13f b285 583f 7aa0 9d3f a995 713f
00000090: ae99 b93f 0538 ac3f 6da4 873f 36f6 2540
000000a0: 97ab a13f 17c6 9b3f e1c4 7b40 7992 0940
000000b0: aaed a33f 6ea2 e83f c790 0440 fca3 6c3f
000000c0: d93a d73f 0a72 cc3f 5879 943f 9c6b 9d3f
000000d0: 160e 6c3f afb1 f83f be57 ef3f 707f bd3f
000000e0: 93c7 6f3f 90db bd3f b365 813f e5f2 b13f
000000f0: 7168 653f 039d a23f 2182 f43f 798b b53f
1.0829768 1.378537 1.0002316 1.3117379 0.96824604 1.8894857 1.7498003 2.1045246
2.015743 1.1274647 1.4039634 1.3846717 1.2685963 0.7835783 3.1336412 1.1946616
0.74239355 1.1562425 1.1483916 1.3496345 0.74806064 1.1346979 1.199348 1.8954046
1.5858864 1.369331 1.0484731 1.8791856 1.1992607 1.362079 1.0783911 1.8108412
1.5102102 0.84579 1.2314599 0.9436899 1.4500024 1.3454596 1.0597054 2.5931525
1.263049 1.2169827 3.9338915 2.149565 1.2806904 1.817457 2.0713365 0.9243772
1.6814834 1.5972302 1.1599531 1.2298465 0.92208993 1.9429225 1.8698652 1.4804516
0.936639 1.483263 1.0109161 1.390225 0.8961249 1.2704166 1.9102212 1.4183189

10.bias f4 [64]
00000000: 5a0b 82bf dec0 c0be 8be2 b63e 9de7 dbbe
00000010: 5dd9 7bbf cd41 8dbf 0823 bfbe 8815 0f3f
00000020: 87cc a5bf 6df6 10bf bea1 6dbf ac7c 89bf
00000030: c253 a4bf 1af9 39bf 466a babe 0f25 84bf
00000040: f8ce e83d 4d87 9cbf e279 3dbf 454d 94bf
00000050: 9f3a 5dbf 8a8e 89be 0a05 82be f655 23be
00000060: 4516 b2bf b67a 8ebf 9ba8 8bbf 4cd9 aabf
00000070: 8152 5dbf 47b2 c4bf f40f dbbe 8f6a 7bbf
00000080: 8f03 f5bf 2f4d c9be 1d42 9fbf 2b00 76bd
00000090: edac bfbf 415e adbf 7862 f5be 30b7 8cbf
000000a0: c6f8 f0bf c690 55bf 05c5 82bf 7e0a 95bf
000000b0: 3baa db3d ae9b c1bf 6631 cdbf 716a 52bf
000000c0: b9f2 c3bf da34 4fbf 152c 65bf c8c9 89bf
000000d0: ba17 f03e 19f7 cdbf 01f5 16c0 3384 27bf
000000e0: c477 01bf 0152 e8be f515 0cbf 6f6c f1bf
000000f0: 310f 153e 9891 2bbf bd08 bdbf d638 38bf
-1.0159714 -0.37647146 0.35719714 -0.42950144 -0.98378545 -1.1035706 -0.37331414 0.5589223
-1.2953042 -0.56626016 -0.92824924 -1.0741172 -1.2838061 -0.72645724 -0.36409205 -1.0323809
0.11367601 -1.222879 -0.74014103 -1.1586081 -0.86417574 -0.2686656 -0.2539447 -0.1595076
-1.3913046 -1.1131198 -1.0910829 -1.3347564 -0.86454016 -1.5366906 -0.4278561 -0.9820947
-1.9141711 -0.393167 -1.2442051 -0.060058754 -1.4974648 -1.3544389 -0.47926688 -1.0993404
-1.882592 -0.8342403 -1.0216376 -1.1643827 0.10725828 -1.5125635 -1.60307 -0.82193667
-1.5308448 -0.8094002 -0.8952039 -1.0764704 0.46893102 -1.6091033 -2.3587039 -0.65436095
-0.5057337 -0.45375064 -0.54721004 -1.8861216 0.14556576 -0.67019033 -1.4768292 -0.71961725

10.running_mean f4 [64]
00000000: 18bc 0bc1 1654 5641 f684 7740 d589 1ac2
00000010: e4d9 50c1 ea3d 253e af43 b8c0 7036 0e42
00000020: 3f54 1cc1 28bc 26c2 9d0f 7ec0 17e6 cec1
00000030: 45c8 30c0 2c41 d041 f930 4ec2 306c 55c2
00000040: 4505 c8c0 8923 a6c1 0dda a8c0 45b8 c4c0
00000050: b223 15c2 45b7 03c2 8521 9ec1 05b3 46c2
00000060: 8e0b 9ac1 9a90 1cc1 c228 55c1 752e 38bf
00000070: 5a47 18c1 d90e 08c2 426c b3c1 a718 3ec0
00000080: 9210 93c1 d36e 3cc2 aa28 0142 de3b 0b40
00000090: 5046 8f3f a435 21c2 9c05 b4c1 226c 06c2
000000a0: cc75 85c1 39b4 27c2 2557 aec1 c4cd 83c1
000000b0: f3b5 06c2 3163 23c1 2092 0a40 8b63 0fc2
000000c0: b845 bfc0 9ba2 19c1 bff3 2bc1 a9eb efc0
000000d0: f60a 5840 8522 1c42 1eca 0541 55c7 bbc0
000000e0: 5bdb 0ac2 1803 10c2 010d 54c1 269e 8bc1
000000f0: 5938 1ac0 0e94 a6c1 46d3 39c1 dfc6 ccc0
-8.733421 13.395529 3.8674903 -38.6346 -13.053196 0.161369 -5.758262 35.55316
-9.770568 -41.683746 -3.969703 -25.862349 -2.7622235 26.031822 -51.547825 -53.35565
-6.2506433 -20.767351 -5.2766175 -6.147494 -37.28486 -32.928974 -19.766367 -49.674824
-19.255642 -9.785303 -13.322451 -0.7194589 -9.51742 -34.0145 -22.42786 -2.9702547
-18.383091 -47.108227 32.28971 2.175529 1.1193333 -40.302383 -22.502739 -33.6056
-16.682518 -41.926 -21.792551 -16.475471 -33.677685 -10.211717 2.1651688 -35.84721
-5.9772606 -9.602199 -10.747008 -7.497517 3.375669 39.03371 8.361845 -5.8680825
-34.714214 -36.00302 -13.253175 -17.45222 -2.4096892 -20.822292 -11.61408 -6.3992763

10.running_var f4 [64]
00000000: 5929 fa43 0ed5 4944 8276 6d43 2b99 4d44
00000010: c42c 8043 52f5 3c44 c752 c043 1703 2844
00000020: b0eb 3544 3d7e f343 835e 8f43 953e 3444
00000030: ee35 e543 8d8c 7743 2b88 f543 c3b1 7843
00000040: ca28 7843 bc73 e343 8279 6243 fee6 7643
00000050: 6a34 be43 9cbb 4744 adc0 2a44 a007 5644
00000060: d170 8544 9eeb 9743 3efc 9b43 2185 4144
00000070: d712 0344 e110 3443 75e7 4d44 ffe6 4f44
00000080: 2ac6 b143 4085 9a43 10bb c743 0816 9643
00000090: 6ad4 5643 a00f 4043 9fb0 0d44 3e2c 2e44
000000a0: 261f 8c43 aaf1 4543 d91b ab44 a0c4 c743
000000b0: 9112 7a43 8c5f 2a44 0534 4244 638b cb43
000000c0: 8a59 2144 9994 f843 d630 0744 b80a 9243
000000d0: a7f4 6b43 cadb c643 a9ec 3143 29c7 2444
000000e0: ac81 7a43 1481 9443 7551 ec43 9860 9c43
000000f0: 6a03 f543 3331 4544 c545 e543 449c 6743
500.32303 807.329 237.46292 822.39325 256.34973 755.8331 384.6467 672.0483
727.6826 486.98624 286.73837 720.97784 458.42133 247.54903 491.0638 248.69438
248.15933 454.90417 226.47464 246.90231 380.4095 798.9314 683.01056 856.11914
1067.5255 303.84076 311.97064 774.08014 524.2944 180.06593 823.6165 831.6093
355.54816 309.04102 399.46143 300.17212 214.82974 192.06104 566.7597 696.6913
280.24335 197.944 1368.8702 399.53613 250.07253 681.4929 776.8128 407.08896
645.39905 497.16092 540.76306 292.08374 235.95567 397.7171 177.92445 659.1119
250.50653 297.00842 472.63638 312.75464 490.02667 788.76874 458.54507 231.61041

13.weight f4 [64, 64, 3]
00000000: 7088 da3f 8d58 763f f44c bebf 810c 5d3f
00000010: 5ec5 983e 1e29 0dbf 92be 803f 65be b8bf
00000020: eaea 963f d73f 0a3f 471a d0be c62a c5be
00000030: d2ef c5be e0db f33e 3fcb 1b3e f8a7 ef3f
00000040: f559 aabf 3384 f33f 6d19 5fbc 915d 8fbe
00000050: 70fa a4bf 7e6d c0be cc36 1dbf b562 2abf
00000060: f32b 95bf e7dc 0740 856f cdbf 6ac7 64bf
00000070: 6b09 e6be ecc2 3040 1eaf 3bbf 6d54 813f
00000080: 42f4 ddbf c95a b23f ef31 83be c65b 1b3f
00000090: dff3 33bf c215 d03e d9d6 25be 3360 6f3e
000000a0: 8ae0 4bc0 8720 cbbd 6d87 24be 3e8d dcbc
000000b0: fbba f2be 02dc 9bbf c7b0 863f 608f 643c
000000c0: fd3a 403f ee95 a03f d45c 20c0 506f 013f
000000d0: 47b8 e43f e92b 2940 7af4 823e 2d15 573f
000000e0: f55e 16bf 9ff0 9abf d136 efbe 35c8 75be
000000f0: d6ab e13f 81ae 2840 5d23 893f f5d9 07be
00000100: 3363 23c0 8cc9 c93e 396d 86bf 3f6c 2140
00000110: 7ef6 6f3e d180 efbf 6b4e dfbf 2c92 84bf
00000120: d708 bd3f 2d0e eb3f a12b 623f 4665 20be
00000130: be4a fdbe 1ca0 95bf 7b31 9cbe b3e6 eabd
00000140: 19ff f7bf fd46 1440 1d3b 4e3e 42c3 2040
00000150: 5857 a53d ce27 c83f 9fbb b0be 2570 02bf
00000160: 3871 c23e cf86 5cbc f7b5 2c3e afee d43f
00000170: a60c dcbf 1f12 94bf 153f 5f3f 4618 83bf
00000180: ea50 9bbe 3bb3 6ebe 1d2d bdbf 2ec0 1bbf
00000190: 8c05 fb3a 629a cdbd 5ac0 85bf 08e4 abbe
000001a0: 066a 81bf 9179 f8bf 7f5a 9d3f ac4c debd
000001b0: 1e68 e73e 833a c2be 7b51 32bd b219 99be
000001c0: fab5 93be 007c c6be 29bd 0240 528f 683e
000001d0: 74d2 a63f e4cc 8b3e 4f36 3abf 8769 1ebf
000001e0: 02c0 14bf 5d15 bbbf b065 fabe 95bc ae3f
000001f0: c668 39be 19d9 5a3e 7f38 b13d c740 a93e
00000200: cb34 05bd 1cb0 8abe 25cd 30bf 2ad6 e1be
00000210: 327f 06bf 1ceb 51be 29c0 c13c cd4c 88bd
00000220: f705 6f3e c384 4fbf ee79 a8be d40c 9dbf
00000230: 7ec7 533e 0a50 0ac0 ab3a 1840 33d3 22c0
00000240: 09fc 0ebf c143 2140 7629 02bc 9519 5cbf
00000250: ba2f 08bd a5f3 0abf 5863 d23f b3bb 95be
00000260: 5d54 fe3f af88 c3bf e909 f7bf 0059 6bbf
00000270: 2e98 363f 4dc3 cc3e 499a 83be 239a b23b
00000280: 766a 833e ab6d 1cbe 20c1 df3e f4cc be3d
00000290: 44b5 d83d 6b8d a63f 1438 d93e 5881 3c3f
000002a0: bed0 6fbb ecea 803f f53d 03c0 b87b 1f3f
000002b0: dd69 4ebe 9ddf 1e3e 7564 0540 41dc f43e
000002c0: 0c3b 2c3f 5524 c8bf 1be9 7bbf b008 653e
000002d0: 2393 ddbe 7a09 593e cf32 0d3f 6dd0 32bf
000002e0: 04a5 0d3f 3932 ca3f e055 9fbf 7b1d d9bf
000002f0: c934 a5be 485d 50bf 4407 903e dbb4 703c
00000300: 1dc9 c33c 897c 413f 3500 c53d 70c5 45bf
00000310: d163 82bd da4c 81bc 593d b33e d7ba dc3e
00000320: ab4a 2dbf d7b7 b23e 618d 8ebe e0c1 5b3f
00000330: 895c 05bf 3981 383f 19c4 babe a749 0ebe
00000340: afe6 d93e 9c80 60be 9cb7 0fbf 6653 0d3f
00000350: 8625 a4bc 3cb0 e8be dc29 15bf 29d0 bf3e
00000360: 223c 033d fc02 0c3e ac0a 433f 807b 40bf
00000370: 850c a2bf 9cc6 033f c708 373f bda8 d138
00000380: 4f3a f9be 61e5 1f3f 2ff2 61be 1c5d 43bd
00000390: 5966 5bbe eb32 83bc 2f30 443d 30f1 3e3f
000003a0: ac8d 563d 33da 983f 7e7e 5f3f 67b4 ad3d
000003b0: 9af9 9dbf 40cc 7ebf 6b1d 7f3f 7883 273e
000003c0: 555f 273f 4075 87be 8196 1a3e a276 763e
000003d0: b5ea 6f3f 7109 5f3e 1a59 d23e 0fb4 463f
000003e0: 9311 7ebf 85a1 2d3f 6fe3 243e 9dfb e43e
000003f0: 6ac6 36bf accd b53f 28c8 4c3e c184 ba3e
1.7072887 0.9622887 -1.4867234 0.86347204 0.2983808 -0.55140865 1.0058157 -1.4433104
1.179044 0.5400366 -0.40645048 -0.38509196 -0.3865953 0.4762869 0.15214251 1.8723135
-1.3308703 1.9024719 -0.013616902 -0.28001073 -1.2888927 -0.37583536 -0.6141174 -0.66556865
-1.1654037 2.1228578 -1.6049658 -0.8936678 -0.4492906 2.761897 -0.7331408 1.010389
-1.7340167 1.3933955 -0.25624034 0.6068691 -0.7029399 0.406416 -0.16195239 0.23376541
-3.1855798 -0.099183135 -0.16067286 -0.026922818 -0.4740828 -1.2176516 1.0522698 0.013950199
0.7509001 1.2545755 -2.5056658 0.50560474 1.7868737 2.643305 0.25577146 0.84016687
-0.5873864 -1.2104682 -0.4672151 -0.24002154 1.7630565 2.6356509 1.0713917 -0.13266738
-2.5529296 0.3941158 -1.0502082 2.5222318 0.23433873 -1.8711187 -1.7445806 -1.0357108
1.4768323 1.8363701 0.8834782 -0.15663633 -0.49471086 -1.1689487 -0.305065 -0.11469784
-1.9374725 2.3168328 0.20139737 2.5119176 0.080733 1.5637147 -0.34518144 -0.5095237
0.37977004 -0.013459875 0.16866289 1.663534 -1.719136 -1.156803 0.8720563 -1.0241783
-0.3033517 -0.23310558 -1.4779392 -0.6084012 0.0019151433 -0.10039212 -1.0449326 -0.33572412
-1.0110481 -1.9412099 1.2293242 -0.10854468 0.45196623 -0.37935266 -0.043534737 -0.29902416
-0.28849775 -0.3876648 2.0427954 0.22710922 1.3032975 0.27304757 -0.7273912 -0.6187977
-0.5810548 -1.4615895 -0.48905706 1.3651301 -0.18106374 0.21371879 0.08653354 0.33057234
-0.03252105 -0.27087486 -0.69063026 -0.44108707 -0.52537835 -0.20499843 0.0236512 -0.066552736
0.23342119 -0.81061953 -0.32905525 -1.226954 0.20681569 -2.1611352 2.3785808 -2.5441406
-0.55853325 2.5197604 -0.007944455 -0.85976535 -0.03324864 -0.5427802 1.6436567 -0.29244766
1.9869496 -1.5276088 -1.9299899 -0.9193268 0.7132596 0.39992753 -0.25703648 0.0054505034
0.2566716 -0.1527621 0.4370203 0.093164355 0.10581449 1.3011907 0.42425597 0.7363486
-0.0036592926 1.0071692 -2.0506566 0.62298155 -0.20157571 0.15514989 2.0842564 0.4782429
0.672776 -1.5636088 -0.98402566 0.22366595 -0.4327632 0.21195021 0.5515565 -0.6984928
0.5532992 1.5796577 -1.2448082 -1.6962122 -0.32266834 -0.81392336 0.28130543 0.014691557
0.02389961 0.7558065 0.0961918 -0.7725439 -0.06366695 -0.015783716 0.35007742 0.43111297
-0.6769206 0.34905884 -0.2784224 0.85842705 -0.5209432 0.7207218 -0.36477736 -0.13895284
0.4255881 -0.2192406 -0.5613954 0.5520538 -0.020037424 -0.45446956 -0.58267 0.374635
0.03203977 0.13673013 0.7618816 -0.75188446 -1.2660071 0.5147493 0.7149777 9.9973266e-05
-0.48677298 0.6245938 -0.22065042 -0.047696218 -0.21425761 -0.01601549 0.047897514 0.7458677
0.052381203 1.1941589 0.87302387 0.08481675 -1.2341797 -0.9953041 0.99654263 0.16358745
0.6537984 -0.26456642 0.15096475 0.24068692 0.9371751 0.21780945 0.41083604 0.776185
-0.99245566 0.67824584 0.16102384 0.44723216 -0.71396506 1.4203391 0.19998229 0.36429408

14.weight f4 [64]
00000000: 1611 8b3f e9e8 a93f da9b 873f 365b 493f
00000010: 67e2 493f f96d 733f 0bff 7a3f 3558 cc3f
00000020: c77e 2240 d7ee 813f c379 bd3f 52bc 963f
00000030: ddf3 893f 00ae cc3f fac5 a03f 1b03 0040
00000040: ddb5 8b3f 140b d93f 2a08 8d3f ebdb e63f
00000050: 6097 9e3f dcb6 e03f 4a32 b33f ad8b 2f3f
00000060: 1677 6940 0735 d83f 2cd2 8d3f 08b9 b03f
00000070: 27cb ad3f 4069 e83f a3b6 8d3f ded3 bc3f
00000080: 7e75 543f 86d4 853f 8129 863f 7212 e13f
00000090: 704d 2f40 aaa1 6d3f 918c 083f 61a2 b13f
000000a0: 45a2 bb3f 6c7d ac3f 8294 6b3f 2fa3 493f
000000b0: 225d 8e3f a78a 423f b3ca 9e3f 6b44 6e3f
000000c0: ca3f 653f e83a 883f 5495 9a3f f4c3 8c3f
000000d0: 5819 ba3f 2d6c 263f ea9f b33f b05c f53f
000000e0: f486 693f 9ff4 543f 0290 eb3f 60c4 cc3f
000000f0: dd77 6f3f ca92 593f 2e9a 0640 1264 c03f
1.0864589 1.3274204 1.0594437 0.786548 0.7886109 0.9508968 0.98045415 1.5964419
2.5389879 1.0151013 1.4802784 1.1776221 1.0777546 1.59906 1.2560418 2.0001895
1.0914875 1.6956506 1.1018116 1.8035864 1.2389946 1.7555804 1.3999722 0.68572503
3.6478934 1.6891183 1.1079764 1.3806467 1.3577622 1.815712 1.1071361 1.4752157
0.8299178 1.0455482 1.0481416 1.7583754 2.7391014 0.92824805 0.5333949 1.3877679
1.4658896 1.3475776 0.9202348 0.78764623 1.1122172 0.75992817 1.2405609 0.9307315
0.8955046 1.0642977 1.2076821 1.09973 1.4538984 0.65008813 1.4033177 1.9168911
0.9122155 0.8318576 1.8403323 1.5997429 0.9354227 0.8498961 2.1031604 1.5030539

14.bias f4 [64]
00000000: 3acb b43d cafa 38be 7a91 85be 2b96 0c3f
00000010: 2a2d 51be 6e79 abbe 95f6 353e eccd dfbf
00000020: 3dff c4bf b7bf 0c3e 2eb8 e9bf fcec 88bd
00000030: 77b9 0c3f fc36 47c0 b3de 4bbf 58a6 95bf
00000040: 2521 34bf 63ad 1ebf 572e 11bf b05e 46bf
00000050: 149b 26bf 73d2 c4bf af8d c7bf d655 5a3d
00000060: 01eb d3bf 8781 9bbf ec01 443e 052c 62bf
00000070: 6c31 7bbf 475c e7be 0dea 393f 3443 14bf
00000080: 050d 25bf 3ab4 2f3f d160 ebbd 54b0 36c0
00000090: 0ce7 a1bf 1ffe b1bf b3d7 6bbb 6f1b 9fbf
000000a0: e18c 9dbf 9c24 df3e 72cd e4be dc55 2ebe
000000b0: 3d18 9cbf 345e 8cbe 4e51 02c0 438d 91bf
000000c0: 2645 bbbe ebbd 26bf 1d6a e23e 761b 5ebf
000000d0: fcde 3dbe cc09 40be 35e4 5bbf f83b e1be
000000e0: 144f c0be f115 c73e 7c89 48c0 5e1a b3bf
000000f0: 9005 6b3e b917 04bf 323d 00c0 4aa2 36bf
0.08827825 -0.18064418 -0.26087552 0.5491664 -0.20427385 -0.3349108 0.17769845 -1.7484717
-1.5390393 0.13745008 -1.8259332 -0.06685826 0.54970497 -3.112731 -0.7963669 -1.1691389
-0.70363075 -0.6198332 -0.56711334 -0.7748823 -0.6508038 -1.5376724 -1.5590113 0.053304516
-1.6556093 -1.2148904 0.19141358 -0.8834842 -0.98122287 -0.4518759 0.7262276 -0.57915044
-0.6447299 0.6863438 -0.11493076 -2.8545122 -1.2648635 -1.3905677 -0.003598672 -1.2430247
-1.2308618 0.43582618 -0.44687992 -0.1702494 -1.2194897 -0.2741562 -2.0362124 -1.1371235
-0.36576194 -0.6513354 0.44221583 -0.8676065 -0.18542093 -0.18753737 -0.8589509 -0.43991065
-0.37560332 0.38883927 -3.1333914 -1.3992422 0.2295134 -0.515987 -2.003735 -0.71341383

14.running_mean f4 [64]
00000000: 094a a3c0 07a3 e2c0 3f97 02c0 51ea 1440
00000010: 9899 6a40 12cb c0c0 1939 42c1 44df ea40
00000020: 84e1 cec0 7d19 08c1 9f9e 31c0 aa8c a6c1
00000030: 87f2 fe3f 3f5a 6b41 20d0 8640 21bd 9ac1
00000040: cca4 82c1 e113 26c1 3d86 d3c0 1e14 0041
00000050: 7986 0cc1 731d 8240 9f81 8ec0 c4e0 09c1
00000060: ff82 8b40 cec9 6ec0 9870 e3c0 5b52 4841
00000070: 3df4 2dc1 5b11 3ec1 0f99 b4c1 e09f 28c1
00000080: 35b2 1ac1 b94e f4bf b60c 803f 07b8 62c1
00000090: b730 4e3f 8bbd 4abf 4943 8441 8a8f 8e40
000000a0: 8af6 0440 1a18 ab41 51ca 6ac1 7d2b 3341
000000b0: 0439 d6c0 cf8b 2dc0 360f 6641 2c6d bb41
000000c0: 007b 55bf 2e74 abc1 e8da 10c1 cb6e 8ac0
000000d0: 9803 2fc1 48b7 e640 0936 3841 4b26 fbc1
000000e0: d44c 3fc1 9b87 88c1 282b 9941 d7b7 2c41
000000f0: e70e f8c1 acef ff40 652d 9fc0 f4e7 0340
-5.1027875 -7.082401 -2.0404813 2.3268015 3.6656246 -6.024789 -12.13894 7.339754
-6.465029 -8.506223 -2.7753065 -20.818684 1.9917763 14.709533 4.212906 -19.342348
-16.330467 -10.379853 -6.6101365 8.004911 -8.78283 4.066095 -4.453323 -8.617374
4.3597407 -3.7310672 -7.1074944 12.520106 -10.8721285 -11.879237 -22.574736 -10.539032
-9.668508 -1.9086524 1.0003879 -14.169929 0.8054308 -0.7919547 16.532854 4.455022
2.0775476 21.386768 -14.674394 11.198117 -6.69446 -2.7116582 14.378714 23.428307
-0.8339081 -21.431728 -9.053444 -4.3260245 -10.938377 7.209873 11.513192 -31.393698
-11.956257 -17.066214 19.146072 10.794883 -31.007277 7.998007 -4.9742913 2.0610323

14.running_var f4 [64]
00000000: 2de4 6143 8cd2 8543 8284 8f43 2f0e d842
00000010: 6621 d942 1865 5943 acb6 8843 e718 1343
00000020: 675c 4343 6bf9 b143 1a9b 1843 6742 b443
00000030: 1a8e be43 7bf3 4043 6539 7043 95c7 9143
00000040: 552b 3a43 5886 b843 8e02 d542 e414 1043
00000050: 4b0e 9743 138c 1343 59e0 b042 d9ff 2943
00000060: e7db 1543 54e2 3943 f80a b843 d0e1 1e43
00000070: c954 9e43 bdec 4743 695d c343 ab37 f743
00000080: 27eb df42 c532 b843 3ebc af43 fdbf 0b42
00000090: 9b34 8643 aca1 8b42 7b17 0b43 795a 5943
000000a0: e12a bb43 387b 1843 a252 3243 befb 2d43
000000b0: f687 df42 5286 4243 d94c 3543 1414 0143
000000c0: a48d de42 959d 2343 f453 a243 1818 fb42
000000d0: cdf7 b143 eab1 c842 3d45 9d43 2508 6644
000000e0: c4e8 4943 0481 dc42 b9be be42 78cc d342
000000f0: 7daf bd43 37f7 2443 64ce e842 f800 f242
225.89131 267.6449 287.03522 108.0277 108.56523 217.3949 273.42712 147.09727
195.36095 355.94858 152.60587 360.51877 381.11017 192.9511 240.2242 291.55923
186.16927 369.04956 106.50499 144.0816 302.11166 147.54716 88.43818 169.9994
149.859 185.8841 368.0857 158.88208 316.66238 199.92476 390.72977 494.4349
111.95928 368.39664 351.47064 34.93749 268.41098 69.815765 139.09172 217.35341
374.335 152.48132 178.32278 173.98337 111.76555 194.52469 181.30019 129.07843
111.27664 163.61555 324.65588 125.54706 355.93594 100.34749 314.54092 920.12726
201.90924 110.25198 95.372505 105.89935 379.371 164.96568 116.40311 121.00189
