notebooks/Radio_27ML/27ml_rf/model_trained.pth (torch, 724081 bytes, 47 tensors)

1.weight f4 [64, 2, 3]
0	0x3d5818c4	0.052757993
1	0x3e8d6c4f	0.27621695
2	0xbe84ec01	-0.25961307
3	0xbea6be56	-0.3256709
4	0xbe67f9c8	-0.22653878
5	0x3ba84505	0.005135181
6	0x3d9aeff3	0.07565298
7	0x3ec8899e	0.39167494
8	0xbd2ceaf4	-0.042216256
9	0x3e13e209	0.14441694
10	0xbca12709	-0.019671934
11	0x3c0631d7	0.008190594
12	0xbeadc4a6	-0.33939093
13	0xbe7bafa2	-0.24578717
14	0xbe733dd9	-0.23754062
15	0x3d8e9247	0.06961494
16	0x3e619961	0.22031166
17	0x3e81799c	0.25288093
18	0xbea55985	-0.3229486
19	0xbe808f39	-0.2510927
20	0x3e23e898	0.16006696
21	0x3e9bb321	0.30410102
22	0xbdbea62e	-0.0930904
23	0x3ea696ed	0.32537022
24	0xbdf9ab01	-0.121908195
25	0x3ac4f79a	0.0015027404
26	0x3ea2ad6c	0.31772935
27	0xbeaa5cf7	-0.33274052
28	0xbeae380c	-0.34027135
29	0xbe4810e4	-0.19537693
30	0xbe5f371f	-0.21798371
31	0x3e9a0111	0.3007894
32	0xbe995343	-0.29946336
33	0xbe5845d4	-0.21120387
34	0xbe97b9d5	-0.29633966
35	0xbecff7e9	-0.40618828
36	0xbe1ef6e5	-0.1552387
37	0x3eb44ce7	0.35214922
38	0x3e8cafe6	0.2747795
39	0x3e69fda3	0.22850661
40	0xbcc37997	-0.02386169
41	0xbe41398b	-0.18869607
42	0x3e133d32	0.14378813
43	0xbea73ca1	-0.32663444
44	0xbebc1e94	-0.3674208
45	0xbe080b2c	-0.13285512
46	0x3ea1f2d1	0.31630567
47	0x3e93da79	0.2887762
48	0xbe6d46d1	-0.23171546
49	0xbd6c7188	-0.05772546
50	0x3e52af91	0.20574786
51	0x3ef10061	0.47070602
52	0x3e3cf654	0.18453342
53	0x3df862ae	0.12128197
54	0x3e874553	0.26420078
55	0xbe2edaf3	-0.1707571
56	0x3d1f97df	0.038963195
57	0xbed35530	-0.4127593
58	0xbed935b8	-0.42423797
59	0xbe73e127	-0.23816358
60	0x3e18269f	0.14858483
61	0x3e63a100	0.22229385
62	0xbe455b1e	-0.1927304
63	0x3e20d75b	0.15707152
64	0x3e994daa	0.29942065
65	0x3cbb4e07	0.022864355
66	0x38e93bc2	0.000111214365
67	0x3dd34dd0	0.10317576
68	0x3e955139	0.2916353
69	0x3ea0bec7	0.31395552
70	0xbe9984cb	-0.29984125
71	0xbe5a8376	-0.21339211
72	0x3deba360	0.11505771
73	0x3edef4af	0.43546054
74	0x3ee55b46	0.447962
75	0x3ed7aff4	0.4212643
76	0x3d826fba	0.063689664
77	0xbe7c3d84	-0.24632841
78	0x3d54e940	0.051980257
79	0xbe8afba8	-0.27145123
80	0xbebc8130	-0.36817312
81	0x3edd0af9	0.43172434
82	0x3eb4dcae	0.35324615
83	0xbea3c98c	-0.31989706
84	0xbd018a60	-0.031626105
85	0xbe1e5531	-0.15462185
86	0xbde386ed	-0.111097194
87	0xbe0e4578	-0.13893688
88	0x3e3c9a84	0.18418318
89	0xbe7751dd	-0.24152322
90	0x3e11ba3d	0.142312
91	0x3e8fcf39	0.28087786
92	0x3eb13a1f	0.34614655
93	0x3e339714	0.175381
94	0xbeae7d41	-0.34079936
95	0xbe88c56a	-0.26713115
96	0x3ea40e65	0.32042232
97	0x3e2b325e	0.16718432
98	0xbe6dffc6	-0.23242101
99	0xbe962f4b	-0.29332957
100	0x3e9b68cf	0.303534
101	0x3e6776f5	0.22603972
102	0xbe37b30a	-0.17939392
103	0xbe53a8ff	-0.20669936
104	0xbee6d819	-0.45086744
105	0x3cf11e60	0.02943343
106	0xbe904fae	-0.2818579
107	0xbe6f57c8	-0.2337333
108	0x3d5489fa	0.051889397
109	0x3c17b810	0.0092601925
110	0xbdecc219	-0.11560459
111	0x3e9f385d	0.3109769
112	0xbe88d229	-0.2672284
113	0x3ecf2ee0	0.4046545
114	0x3e7e2699	0.24819411
115	0xbeaecc1c	-0.34140098
116	0xbe5df532	-0.21675566
117	0xbd472a35	-0.048624236
118	0xbc0af208	-0.008480556
119	0x3de73f1b	0.11291333
120	0x3d76fef8	0.06030175
121	0xbda6e444	-0.08149007
122	0xbe394fa4	-0.18096787
123	0x3df66d00	0.12032509
124	0xbee8e3a5	-0.4548618
125	0xbea7e3dc	-0.3279103
126	0xbd8e3db7	-0.06945365
127	0xbe4e17e7	-0.20126306
128	0xbe60d8b9	-0.21957673
129	0xbeb2f8fd	-0.34955588
130	0xbd72b123	-0.059250962
131	0x3de80303	0.113286994
132	0xbe45a528	-0.19301283
133	0x3c909550	0.017649323
134	0x3eb7e299	0.35915068
135	0xbd89acb3	-0.06722393
136	0xbd9eff78	-0.077635705
137	0xbd3d4164	-0.04620494
138	0x3cf77d83	0.030211216
139	0x3e52f2dc	0.20600456
140	0x3edca109	0.4309161
141	0x3e798f6e	0.2437112
142	0x3eb29487	0.34878942
143	0xbd88f6aa	-0.066876724
144	0xbec3b6ca	-0.38225394
145	0xbe83a06f	-0.2570834
146	0x3e72ac9b	0.23698656
147	0xbd1e86de	-0.038702838
148	0xbe6a9b50	-0.2291081
149	0xbebaa1a8	-0.3645146
150	0xbebd10ef	-0.36926982
151	0xbecf1b8b	-0.404507
152	0xbdb29e72	-0.08721627
153	0x3e5d08d0	0.21585393
154	0x3e609d6f	0.21935056
155	0xbecc3675	-0.39885297
156	0x3e510d0e	0.20415136
157	0xbeba940d	-0.3644108
158	0xbe1bb27c	-0.15204805
159	0xbdec2509	-0.115305014
160	0xbd5ed067	-0.054397967
161	0xbe53caf9	-0.20682897
162	0xbe9bb1ce	-0.30409092
163	0xbf03179d	-0.51207906
164	0xbdf46220	-0.11932778
165	0x3d4ea3ca	0.05044917
166	0xbe544300	-0.20728683
167	0x3e405ad7	0.18784653
168	0xbe9a69cd	-0.30158845
169	0x3d4777f4	0.04869838
170	0x3edc8b95	0.43075243
171	0xbe3bc482	-0.1833668
172	0x3ecbe572	0.3982349
173	0x3dd61ee8	0.10455114
174	0xbedc8aea	-0.43074733
175	0x3e739334	0.23786622
176	0xbdda8ef7	-0.106718
177	0xbe0119e4	-0.12607533
178	0x3eb236c7	0.34807417
179	0xbe97722e	-0.295793
180	0x3dbd994c	0.09257755
181	0xbbacb09b	-0.0052700764
182	0x3e7b3cd8	0.24534929
183	0x3e345565	0.176107
184	0x3e51538a	0.20442024
185	0x3e1f8669	0.15578617
186	0xbde34aa0	-0.11098218
187	0xbde3a605	-0.1111565
188	0xbeb760fa	-0.35816175
189	0x3e77f404	0.24214178
190	0x3e8fd41f	0.28091523
191	0x3e8bd82c	0.27313364
192	0xbedfe973	-0.43732795
193	0x3cdc30b1	0.026878687
194	0xbe8bec07	-0.27328512
195	0xbe3e341b	-0.18574564
196	0xbe655f63	-0.22399668
197	0x3e2c7f9e	0.16845557
198	0xbe3f35d4	-0.18672878
199	0xbca594a2	-0.020212475
200	0x3cf138f3	0.0294461
201	0x3e88199d	0.2658204
202	0xbea6b7ec	-0.32562196
203	0xbea9ac5e	-0.33139318
204	0xbe42f75a	-0.1903967
205	0x3ebdccd0	0.37070322
206	0xbd6ca341	-0.05777288
207	0x3ea35228	0.31898618
208	0x3e02d28d	0.12775631
209	0x3c8bd39f	0.017068682
210	0x3d4b93a2	0.04970134
211	0xbc15e742	-0.009149374
212	0x3e17e4d0	0.14833379
213	0xbccd06dc	-0.025027685
214	0x3c6d4a86	0.0144831
215	0x3da6fbf4	0.08153525
216	0xbeba6334	-0.3640381
217	0xbe8366e3	-0.25664434
218	0x3eb865ae	0.36015075
219	0xbe85d691	-0.26140264
220	0xbd62ec8a	-0.055401362
221	0x3eb6544d	0.3561119
222	0x3e49bb9a	0.1970047
223	0x3d53014a	0.0515149
224	0xbe96d11f	-0.29456422
225	0x3e7a8c4d	0.24467583
226	0xbebe7421	-0.37197974
227	0xbe467d37	-0.19383703
228	0xbd89ad45	-0.06722502
229	0xbd2316e7	-0.039816763
230	0x3cadde1c	0.021224074
231	0x3e98948a	0.29800826
232	0x3e0ca705	0.13735588
233	0x3ececfb2	0.40392834
234	0x3e37a11a	0.17932549
235	0xbe9c9b92	-0.3058744
236	0x3e27921b	0.16364329
237	0xbea7b73d	-0.32756987
238	0xbe314b5d	-0.17313905
239	0x3d5bcbfe	0.05366134
240	0x3e25f70e	0.16207525
241	0x3ead1e4a	0.3381217
242	0xbd8c1d90	-0.06841576
243	0x3d971283	0.07376578
244	0x3e2c0bb9	0.16801347
245	0xbecdaa40	-0.40168953
246	0x3ea05fe3	0.31323156
247	0xbe8d8d73	-0.2764698
248	0x3d5b4328	0.053530842
249	0xbe1510a5	-0.1455713
250	0xbe9fd471	-0.31216767
251	0x3c9a279a	0.018817712
252	0x3ea77255	0.32704416
253	0xbcf1162a	-0.029429514
254	0xbe5ce1ac	-0.21570462
255	0xbe7c864c	-0.24660605

2.weight f4 [64]
0	0x3f819ab2	1.0125334
1	0x3f6e4ded	0.93087655
2	0x3f8541d1	1.041071
3	0x3f696760	0.9117336
4	0x3f8c8dbc	1.0980754
5	0x3f8cec28	1.1009569
6	0x3f836d4a	1.0267727
7	0x3f81cb99	1.0140258
8	0x3f8505c8	1.0392389
9	0x3f83273a	1.0246346
10	0x3f73d209	0.95242363
11	0x3f79f796	0.9764341
12	0x3f8e8a4f	1.1135958
13	0x3f7bf435	0.98419505
14	0x3f87d9b4	1.0613313
15	0x3f876192	1.0576651
16	0x3f828bbe	1.0198896
17	0x3f85f553	1.0465492
18	0x3f833f7a	1.0253747
19	0x3f6e5a9d	0.93107015
20	0x3f7b7fde	0.98241985
21	0x3f82a6fc	1.020721
22	0x3f7051b5	0.93874675
23	0x3f8ea118	1.1142912
24	0x3f7c6833	0.98596495
25	0x3f7a01ca	0.9765898
26	0x3f843fd9	1.0331985
27	0x3f75cb1a	0.96013033
28	0x3f6fff97	0.93749374
29	0x3f866f86	1.0502784
30	0x3f89ad67	1.0756043
31	0x3f725b71	0.9467078
32	0x3f87d7ff	1.0612792
33	0x3f82c21e	1.021549
34	0x3f74bf5d	0.956045
35	0x3f747135	0.9548524
36	0x3f7d2062	0.9887754
37	0x3f6aba55	0.9169057
38	0x3f83007c	1.0234523
39	0x3f874bba	1.0569985
40	0x3f84770b	1.0348829
41	0x3f83e6af	1.0304774
42	0x3f8615af	1.0475367
43	0x3f6ee3c1	0.93316275
44	0x3f70650f	0.93904203
45	0x3f8b3a10	1.0877094
46	0x3f80b9a5	1.0056654
47	0x3f62cd64	0.8859465
48	0x3f786ea7	0.9704384
49	0x3f6834ae	0.9070538
50	0x3f8175b1	1.0114042
51	0x3f776170	0.9663305
52	0x3f6774f3	0.90412825
53	0x3f68b281	0.90897375
54	0x3f87da22	1.0613444
55	0x3f7bedd7	0.9840979
56	0x3f76b841	0.963749
57	0x3f81af9e	1.0131719
58	0x3f831ad4	1.0242562
59	0x3f6230ba	0.883556
60	0x3f803c1d	1.0018345
61	0x3f69189a	0.91053164
62	0x3f6b5f97	0.91942734
63	0x3f91442a	1.1348927

2.bias f4 [64]
0	0x3d533c61	0.051571254
1	0xbd90a05e	-0.070618376
2	0x3d6fc3e9	0.058536444
3	0xbd51c715	-0.05121525
4	0xbd0b1a7f	-0.033960816
5	0xbc84030e	-0.016114738
6	0x3dab8d21	0.083765276
7	0x3d890cb5	0.06691877
8	0x3d68c0a3	0.056824338
9	0x3d596cf6	0.05308243
10	0xbd46cb9b	-0.048534017
11	0xbd9d0b64	-0.07668188
12	0x3dc71f25	0.09722737
13	0xbd1dc22a	-0.038515247
14	0xbd5f0969	-0.054452334
15	0x3c399b1f	0.011328488
16	0x3d8a633c	0.06757209
17	0x3d008893	0.031380247
18	0x3c71f7a3	0.014768514
19	0xbcac88c7	-0.021061314
20	0xbda4e4df	-0.08051466
21	0xbc9fa029	-0.01948555
22	0x3dabc7d1	0.08387721
23	0x3dd8a05e	0.105774626
24	0xbd58fd28	-0.052975804
25	0xbd450e38	-0.048109263
26	0xbd906be9	-0.07051832
27	0x3d143d7c	0.03619145
28	0xbd48da1d	-0.049036134
29	0xbd836ef8	-0.0641765
30	0xbd0ed174	-0.03486772
31	0x3d758367	0.05993977
32	0x3d067b14	0.03283222
33	0xbcc4e54d	-0.02403512
34	0x3cc37930	0.023861498
35	0xbd97c237	-0.074100904
36	0xbcade391	-0.021226676
37	0xbdb4de2d	-0.08831439
38	0x3da2be42	0.07946445
39	0x3d96e1f4	0.07367316
40	0x3d6b0d88	0.05738595
41	0xbdbdd22d	-0.092686035
42	0x3d47777a	0.048697926
43	0xbd50e8d8	-0.051003307
44	0xbd8bd468	-0.06827623
45	0x3a23d7fd	0.00062501413
46	0xbdc33663	-0.09531858
47	0xbe0d8d12	-0.13823345
48	0x3d8620cc	0.06549224
49	0xbe02557f	-0.12727927
50	0x3cdc660e	0.026904132
51	0x3d1384d3	0.036015343
52	0xbda4420a	-0.080204085
53	0x3cbabcb5	0.02279506
54	0x3da20ba1	0.07912374
55	0xbd612a73	-0.054972123
56	0x3df02e8d	0.11727629
57	0xbd2b67ce	-0.041847043
58	0x3d80e89c	0.06294367
59	0xbdc5d721	-0.09660173
60	0xbd8425c6	-0.06452517
61	0xbd93d9d3	-0.07219281
62	0xbd8100be	-0.0629897
63	0x3db928ca	0.09040983

2.running_mean f4 [64]
0	0x3c5246b2	0.012834238
1	0x3cb3eadf	0.021962581
2	0xbd5c0040	-0.053711176
3	0xbd08188f	-0.033226546
4	0x3ccdf551	0.02514139
5	0x3ae3c8ab	0.0017378529
6	0x3cec0494	0.028810777
7	0xbd237034	-0.039901927
8	0xbc8a988f	-0.016918449
9	0x3cf31819	0.029674577
10	0x3ab28c2d	0.0013622098
11	0x3cae002f	0.021240322
12	0x3d5e511f	0.05427658
13	0xbd1bb6b5	-0.03801604
14	0xbc626064	-0.013816927
15	0x3d4ef7e8	0.05052939
16	0x3c1fd4d2	0.00975533
17	0xbd2d1699	-0.04225788
18	0xbc2947eb	-0.010332088
19	0xbca2e9f3	-0.019886946
20	0x3af99291	0.0019040873
21	0xbcc68cfd	-0.02423715
22	0x3c3f1e00	0.011664867
23	0x3cef2dc0	0.02919662
24	0xbc89bfd6	-0.016815107
25	0xbd4d8b7f	-0.050181862
26	0xbc307114	-0.010769147
27	0xbd5d8845	-0.054085035
28	0x3c08184b	0.008306573
29	0xbc8aa069	-0.016922193
30	0x3bfac7c5	0.007653209
31	0xbd4817b5	-0.048850734
32	0xbd23bc6f	-0.039974626
33	0xbbe60f09	-0.0070208353
34	0xbb7fe30e	-0.0039045247
35	0x3c3019c7	0.010748333
36	0xbc85636e	-0.016282763
37	0x3b4e46af	0.0031475236
38	0xbcac37db	-0.021022728
39	0x3ba8e475	0.0051541873
40	0x3cd493be	0.025949355
41	0x3c503464	0.012707803
42	0x3c45e4b0	0.012078449
43	0xbd24cc98	-0.04023418
44	0xbbc0e741	-0.0058869426
45	0xbd42ee32	-0.047590442
46	0xbbfb9462	-0.0076776007
47	0xbc44a18c	-0.012001406
48	0xbcce601b	-0.025192311
49	0xbc192d15	-0.009349127
50	0xbc37c468	-0.0112162605
51	0x3d0bb646	0.034109376
52	0x3cb369dc	0.021901064
53	0x3c4352f9	0.011921638
54	0x3d5fc961	0.05463541
55	0xbcc0d783	-0.023540264
56	0x3d956c71	0.07296074
57	0x3bcf0d92	0.0063187564
58	0xbcc190b5	-0.023628572
59	0xbc1ebefe	-0.009689091
60	0xbd8ddb89	-0.06926639
61	0xbcd75233	-0.026284313
62	0xbd8618e6	-0.06547718
63	0x3d2617cb	0.040550034

2.running_var f4 [64]
0	0x42a361d0	81.69104
1	0x4245df82	49.46827
2	0x43427484	194.45514
3	0x42fb522b	125.660484
4	0x434b4946	203.28622
5	0x434981b1	201.5066
6	0x42922b61	73.084724
7	0x4311da60	145.85303
8	0x431e2574	158.1463
9	0x437adb45	250.85652
10	0x426b10d4	58.766434
11	0x42729c0c	60.65239
12	0x436b0704	235.0274
13	0x432781e9	167.50746
14	0x41df5936	27.91856
15	0x433c235a	188.13809
16	0x426bcc1e	58.949333
17	0x435de538	221.89539
18	0x428abeb5	69.372475
19	0x42382b97	46.04257
20	0x42eee586	119.44829
21	0x429bdcd4	77.931305
22	0x4204d585	33.208515
23	0x43191f91	153.1233
24	0x430de043	141.87602
25	0x433d7e9d	189.49458
26	0x42866e14	67.215
27	0x4334f5f2	180.96072
28	0x429748b5	75.642006
29	0x4280e83d	64.45359
30	0x42ac9e36	86.309006
31	0x4358dc4f	216.86058
32	0x42f21c6c	121.05551
33	0x4297983b	75.797325
34	0x4290aea9	72.34113
35	0x41392a1e	11.5727825
36	0x4292b6e6	73.35722
37	0x425da5a7	55.41177
38	0x431f58e8	159.34729
39	0x426073fd	56.11327
40	0x4291ebd1	72.96058
41	0x427c92c9	63.143345
42	0x42a2a269	81.31721
43	0x435abbee	218.7341
44	0x42dce9af	110.45641
45	0x4361e1df	225.88231
46	0x422bcac2	42.948006
47	0x42aa9b23	85.303
48	0x42484142	50.06373
49	0x4241ae26	48.420067
50	0x422a2b84	42.542496
51	0x42cc809a	102.251175
52	0x421e5c92	39.5904
53	0x41cc2c23	25.521551
54	0x432c0c7c	172.04877
55	0x42be5346	95.16264
56	0x43ab8d1e	343.10248
57	0x43486044	200.37604
58	0x42ded0a9	111.40754
59	0x4202505b	32.578472
60	0x43d3e689	423.80106
61	0x42e1857b	112.760704
62	0x437e4f93	254.31084
63	0x437897be	248.59274

5.weight f4 [64, 64, 3]
0	0x3cb74929	0.022373753
1	0x3db6ddd4	0.08929029
2	0x3dad7736	0.08470003
3	0x3d463385	0.048388977
4	0x3d217268	0.039415747
5	0x3db90884	0.09034827
6	0xbc86f0f6	-0.016472321
7	0xbdb7ede6	-0.089809224
8	0xbdf85a09	-0.12126548
9	0xbd50af5f	-0.050948497
10	0xbd97e634	-0.07416955
11	0xbcad0345	-0.021119723
12	0x3d9a8b3e	0.075460896
13	0x3d85a24f	0.065250985
14	0x3d2ac339	0.041690085
15	0x3d21d186	0.039506458
16	0x3e1fff06	0.15624627
17	0x3db99ad4	0.09062734
18	0xbd7f0381	-0.0622592
19	0x3e02dae3	0.12778811
20	0x3da33a66	0.07970123
21	0xbd883109	-0.06649978
22	0x3d2b798f	0.041863974
23	0xbc0c5c29	-0.008566895
24	0xbd652781	-0.055945877
25	0x3d30c661	0.04315794
26	0xbcbd367d	-0.023097271
27	0x3da801ff	0.08203506
28	0x3da4fb5f	0.08055758
29	0x3d9f257a	0.0777082
30	0xbdc43c90	-0.09581864
31	0x3ce9749b	0.028497985
32	0x3c7f49e7	0.015581585
33	0x3c77e41a	0.015130067
34	0x3d940635	0.072277464
35	0x3e09401d	0.13403364
36	0x3c765d54	0.0150369
37	0x3c83b99c	0.016079716
38	0x3d948ed4	0.07253805
39	0x3d892cce	0.06697999
40	0x3db4204d	0.087952234
41	0xbd8468be	-0.064652905
42	0x3d9490ee	0.07254206
43	0x3c7bc7ef	0.015367492
44	0x3d331bbe	0.04372763
45	0x3bb6d7a4	0.0055799056
46	0x3aefbcd3	0.0018290527
47	0x3de4ab8c	0.111655325
48	0x3ba09f6b	0.0049018166
49	0x3d8645bc	0.065562695
50	0xbdd8822a	-0.10571702
51	0xbccee3d3	-0.02525512
52	0xbd2562e9	-0.04037753
53	0x3c263cf5	0.010146369
54	0x3d3b7ff5	0.045776326
55	0xbe031700	-0.12801743
56	0xbe159b2f	-0.14609979
57	0xbd0a3185	-0.03373863
58	0xbc63f1f3	-0.013912666
59	0x3ce98e7d	0.028510327
60	0xbdb61459	-0.088906
61	0x3d2cc2e1	0.04217804
62	0x3d36f369	0.044665728
63	0x3d23008a	0.039795436
64	0xbd47679a	-0.048682787
65	0xbdeb5675	-0.114911
66	0x3df3e435	0.119087614
67	0x3d921eaa	0.07134755
68	0x3df1bf56	0.118040726
69	0x3d932280	0.07184315
70	0xbc35a811	-0.011087433
71	0x3df54946	0.119768664
72	0x3e0c994f	0.13730358
73	0x3dfb3f18	0.122678936
74	0x3c0f1187	0.008732206
75	0x3c6de53f	0.014519989
76	0xbe1a7015	-0.15081818
77	0xbda2f485	-0.07956795
78	0x3dc6ec9f	0.09713101
79	0x3d0de867	0.034645464
80	0x3d42904c	0.047500893
81	0xbc4eeb63	-0.012629363
82	0xbd855e15	-0.06512085
83	0xbe040b35	-0.128949
84	0xbcd1a2d0	-0.02559033
85	0xbd00dbbc	-0.031459555
86	0x3d44e9b1	0.048074428
87	0x3b65d087	0.003506692
88	0x3d4677f8	0.048454255
89	0x3cce28b0	0.025165886
90	0x3daafe2b	0.0834926
91	0xbd79d964	-0.060998335
92	0xbd0a7c9d	-0.033810247
93	0xbb7f4d80	-0.0038956106
94	0xbd77d3c1	-0.06050468
95	0xbd094f04	-0.03352262
96	0xbd7b010b	-0.06128029
97	0xbda47784	-0.08030608
98	0xbe105e4e	-0.14098474
99	0x3d61db48	0.055140764
100	0x3d93020d	0.071781255
101	0x3ddda3bc	0.108222455
102	0x3db5d924	0.08879307
103	0x3d9718b8	0.073777616
104	0xbd385e5e	-0.04501187
105	0xbcd0d450	-0.025491863
106	0xbbb94425	-0.0056538754
107	0xbd625907	-0.055260684
108	0x3d55a059	0.052154873
109	0xbc6b115f	-0.014347403
110	0xbc51bdb1	-0.012801574
111	0x386a9676	5.5930075e-05
112	0xbdfecd5d	-0.12441514
113	0x3c009c7b	0.007849808
114	0x3d55a5dc	0.05216013
115	0x3c37415c	0.0111850165
116	0xbe15016c	-0.14551324
117	0x3dec3aad	0.11534629
118	0x3d6d21dc	0.05789362
119	0x3d29bd3f	0.041440245
120	0x3bb3bb64	0.005484985
121	0x3d045985	0.032311935
122	0x3db38d5f	0.08767199
123	0x3d028bb6	0.03187152
124	0xbd3e56d7	-0.046469536
125	0x3d2b18b9	0.041771624
126	0xbdb56feb	-0.08859237
127	0x3d580916	0.05274304
128	0xbdcfe49f	-0.10151028
129	0xbd36032f	-0.04443663
130	0xbd5c6a16	-0.05381211
131	0xbd41d80f	-0.04732519
132	0x3cf92aa7	0.030415846
133	0x3d286814	0.04111488
134	0x3ce96e02	0.028494839
135	0x3ce90c59	0.02844827
136	0xbce3e876	-0.027820807
137	0x3cef5e63	0.029219812
138	0x3dd3d06b	0.10342487
139	0xb8cd1141	-9.7783755e-05
140	0xbbdd5ccb	-0.0067554465
141	0x3d367257	0.044542637
142	0x3de3ac6f	0.111168735
143	0xbd855deb	-0.06512054
144	0xbbbda81d	-0.005787863
145	0xbd6d6444	-0.05795695
146	0x3c22b474	0.009930719
147	0x3e04147d	0.1289844
148	0xbd898add	-0.06715939
149	0xbc133ac6	-0.008986181
150	0xbdcd5240	-0.100254536
151	0x3d4e9b08	0.050440818
152	0xbc957b49	-0.018247264
153	0xbd8a3db1	-0.06750048
154	0x3d220e6f	0.039564546
155	0x3dc44f74	0.09585467
156	0x3c5fa0cb	0.013649176
157	0xbd2d6d2d	-0.042340446
158	0x3c31d87b	0.010854836
159	0xbdb86e7c	-0.09005448
160	0x3c0eebac	0.008723181
161	0x3df9c71b	0.121961795
162	0xbd35e80f	-0.04441076
163	0x3d81aab3	0.063313864
164	0x3d2f0037	0.042724814
165	0x3d99791c	0.07493803
166	0xbd8061cd	-0.06268654
167	0xbda5cd59	-0.080958076
168	0x3d9472c5	0.07248453
169	0x3c6a09e0	0.014284581
170	0x3dba9e60	0.09112239
171	0x3d5748ef	0.05255979
172	0x3c3bd58d	0.011464489
173	0x3cf4ef34	0.029899217
174	0x3dad017a	0.08447547
175	0x3b95c95c	0.004571123
176	0xbe140746	-0.144559
177	0xbd6f4ecd	-0.05842476
178	0xbbb5870c	-0.0055397805
179	0x3cfabf57	0.030608816
180	0xbd7a083a	-0.061043
181	0xbc01c5c5	-0.007920687
182	0xbdb18cf7	-0.08669465
183	0xbcdecb54	-0.027196564
184	0xbc2ad418	-0.010426544
185	0xbd5da495	-0.054112036
186	0x3ce62337	0.028092964
187	0xbcaf5eeb	-0.021407565
188	0xbdcd4b91	-0.10024179
189	0xbd75165d	-0.05983578
190	0x3d766d5d	0.06016289
191	0x3d1f5733	0.03890152
192	0x3ce696fd	0.028148169
193	0x3c206ac9	0.009791085
194	0x3dbedbe8	0.093192875
195	0x3dc0c0fe	0.0941181
196	0xbd039c35	-0.032131393
197	0xbda555bd	-0.08072994
198	0xbdf90acd	-0.12160263
199	0xbd4d0ab9	-0.050059054
200	0xbd98237b	-0.07428642
201	0x3d2b45ad	0.041814495
202	0x3d528638	0.051397532
203	0x3d1429eb	0.03617279
204	0x3d3a42b2	0.04547376
205	0x3bddd6b1	0.006769978
206	0xbbe398ad	-0.0069456906
207	0xbc3c5bf7	-0.0114965355
208	0xbc05b302	-0.008160355
209	0x3e002964	0.1251579
210	0x3dc0eaf6	0.09419815
211	0x3df3813c	0.11889884
212	0x3b9fe9a9	0.0048801494
213	0x3aac12f1	0.0013128204
214	0x3e048108	0.12939847
215	0x3cba1213	0.022713697
216	0x3c9faae5	0.019490669
217	0x3c81b95d	0.015835458
218	0x3d506df0	0.050886095
219	0x3b4525f5	0.0030082439
220	0x3cb57c62	0.022154037
221	0xbcfe1663	-0.031016534
222	0x3de800fd	0.113283135
223	0x3d7c651f	0.061619874
224	0xbd0a702d	-0.033798385
225	0x3d83bd87	0.06432634
226	0x3d1f1218	0.038835615
227	0x3ccce6f9	0.02501248
228	0x3d6a4111	0.05719096
229	0xbdf7964a	-0.12089212
230	0x3db474d8	0.08811349
231	0x3df6baea	0.1204737
232	0x3ddf6df5	0.109096445
233	0x3dd88c7f	0.105736725
234	0x3e07514c	0.13214606
235	0x3da737b9	0.08164925
236	0x3d1afc5b	0.03783832
237	0x3ced2b7e	0.028951403
238	0xbd560b62	-0.05225695
239	0xbd3cd2c4	-0.04609944
240	0x3d6c66a4	0.057715073
241	0x3d00a5db	0.031408172
242	0x3c86c58b	0.016451618
243	0xbd9bba59	-0.07603902
244	0xbdce57c5	-0.100753345
245	0x3ba7e537	0.00512376
246	0x3dc23d1a	0.094843104
247	0x3de2ee96	0.11080663
248	0xbd050278	-0.032473058
249	0xbd4ef594	-0.05052717
250	0x3dd438ed	0.1036242
251	0xbd65ddcd	-0.05611973
252	0xbc908a54	-0.017644085
253	0xbb75dbd4	-0.003751506
254	0x3c071397	0.008244417
255	0xbce49177	-0.027901394

6.weight f4 [64]
0	0x3f81ec10	1.0150166
1	0x3f7ea5eb	0.9947192
2	0x3f72449a	0.9463593
3	0x3f787fc0	0.9706993
4	0x3f83b429	1.0289356
5	0x3f772fac	0.96557117
6	0x3f899c0d	1.0750748
7	0x3f8c741f	1.0972937
8	0x3f75ce14	0.96017575
9	0x3f88a6af	1.0675868
10	0x3f7260ae	0.9467877
11	0x3f7844fd	0.9698027
12	0x3f7283ce	0.9473237
13	0x3f614c79	0.88007313
14	0x3f7c83cf	0.98638624
15	0x3f725897	0.9466643
16	0x3f931640	1.1491165
17	0x3f7e2e1a	0.99289095
18	0x3f733f4f	0.95018476
19	0x3f700b41	0.9376717
20	0x3f61a3f4	0.881408
21	0x3f68c9c8	0.90932894
22	0x3f6dba61	0.92862517
23	0x3f80b142	1.0054095
24	0x3f86409e	1.048847
25	0x3f75a17a	0.9594952
26	0x3f88d2b5	1.0689303
27	0x3f6b4d55	0.91914874
28	0x3f85e8d3	1.0461677
29	0x3f824c00	1.0179443
30	0x3f68ce3d	0.90939695
31	0x3f7f3971	0.99697024
32	0x3f8b02de	1.086025
33	0x3f838d60	1.0277519
34	0x3f829431	1.0201474
35	0x3f87fe05	1.0624396
36	0x3f71fa81	0.94522864
37	0x3f7cb80c	0.98718333
38	0x3f81d303	1.0142521
39	0x3f6fab40	0.9362068
40	0x3f697338	0.91191435
41	0x3f86f2f1	1.054289
42	0x3f8a9274	1.0825944
43	0x3f76018f	0.9609613
44	0x3f72311d	0.9460619
45	0x3f82c926	1.0217636
46	0x3f7fd9b4	0.99941564
47	0x3f8b6b1a	1.089206
48	0x3f71fdbc	0.9452779
49	0x3f642b09	0.89128166
50	0x3f6ad6d0	0.9173403
51	0x3f8e432a	1.1114247
52	0x3f80ee11	1.0072652
53	0x3f8f03a9	1.1172992
54	0x3f7ac074	0.9794991
55	0x3f6e53e4	0.93096757
56	0x3f85e7b8	1.046134
57	0x3f777855	0.9666799
58	0x3f7dd3de	0.9915141
59	0x3f67af4b	0.9050185
60	0x3f89ea4e	1.0774629
61	0x3f6e6f20	0.93138313
62	0x3f854de6	1.0414398
63	0x3f66f445	0.90216476

6.bias f4 [64]
0	0x3c3759e8	0.011190869
1	0xbd0cf9ec	-0.03441803
2	0x3d32cd7d	0.043653
3	0x3db51bb0	0.088431716
4	0x3d6133a9	0.054980908
5	0x3d41fa8d	0.047358084
6	0x3d3cf19e	0.04612886
7	0x3cb103e8	0.021608308
8	0x3c1f46d9	0.009721481
9	0x3d24bcb2	0.040219016
10	0x3bc0d207	0.005884412
11	0x3d231f8c	0.039825007
12	0xbca01395	-0.019540587
13	0xbc36c01a	-0.011154199
14	0xbce4e422	-0.027940813
15	0xbc17f211	-0.009274022
16	0x3d775afb	0.0603895
17	0xbcb3104e	-0.02185836
18	0x3bffdbb7	0.0078081745
19	0x3d5cbdbf	0.053891893
20	0xbc37dede	-0.011222569
21	0xbd1b42e0	-0.037905574
22	0xbdd3b4ef	-0.10337245
23	0xbc863c57	-0.016386194
24	0x3dd39fa5	0.10333184
25	0xbcc7ff51	-0.024413737
26	0x3d238050	0.03991729
27	0xbd5ae072	-0.053436704
28	0x3da35832	0.07975806
29	0x3db7f883	0.08982947
30	0xbc94c42c	-0.018159948
31	0xbd694f9d	-0.05696069
32	0x3db70937	0.089373045
33	0x3dc550a8	0.096345246
34	0x3c1299c4	0.008947793
35	0x3d5b6001	0.053558353
36	0xbd63ef4f	-0.055648144
37	0x3ccf4abe	0.025304195
38	0x3d0e4006	0.034729026
39	0xbd05054e	-0.032475762
40	0xbc2caa7d	-0.010538694
41	0x3e1f9232	0.15583113
42	0x3e1789f5	0.1479872
43	0xbd4f97f2	-0.050682016
44	0xbd73e2e9	-0.05954257
45	0xbd4a67bc	-0.049415335
46	0xbd9519da	-0.072803214
47	0xbc3121e9	-0.0108113075
48	0xbcb8b5b3	-0.022547578
49	0x3cfee341	0.031114222
50	0xba9fda39	-0.0012195773
51	0x3ddf9f23	0.10919025
52	0x3c099f50	0.0083997995
53	0x3e2d38cf	0.16916202
54	0x3dd86615	0.105663456
55	0xbdf03023	-0.11727931
56	0x3d2c500a	0.04206852
57	0x3bf38818	0.007431995
58	0x3d0188e0	0.031624675
59	0xbcb83aea	-0.02248903
60	0x3e04581d	0.12924238
61	0x3d2a2b4c	0.041545197
62	0xbcc37d1f	-0.023863373
63	0xbd016a84	-0.03159572

6.running_mean f4 [64]
0	0x3f60fb78	0.8788371
1	0x400d5271	2.2081568
2	0x3e2a5e58	0.16637552
3	0x3ebb5f56	0.36596173
4	0x3eab113a	0.3341158
5	0x3f8bd4ab	1.0924276
6	0xbef3942a	-0.47573978
7	0x3fabb284	1.3413854
8	0x3ee2d8bf	0.4430599
9	0x3f164c89	0.58710533
10	0xbfc1a901	-1.5129701
11	0xbfd47222	-1.659733
12	0x3fbb848c	1.4649825
13	0x3f923b32	1.1424315
14	0xbf0a4759	-0.5401512
15	0xc00a8d44	-2.1648722
16	0xc05ebb40	-3.4801788
17	0xc021b90e	-2.5269198
18	0x3f7610ef	0.9611959
19	0xc008b045	-2.1357586
20	0x3ceb45d7	0.028719826
21	0x3ed7c8ca	0.42145377
22	0x3f24492c	0.6417415
23	0x3ec4fa49	0.38472202
24	0x3f427e71	0.75974184
25	0xbf0658be	-0.5247916
26	0x3f814c31	1.0101377
27	0xbf1e47a8	-0.6182809
28	0xbed26620	-0.4109354
29	0x3fd68d72	1.6761916
30	0x3f7b7100	0.982193
31	0x3fce0e1c	1.6098056
32	0x3f395189	0.7239004
33	0x3f77ae56	0.9675039
34	0xbfbb915f	-1.4653739
35	0x3d575286	0.052568935
36	0x3f3097a2	0.68981373
37	0xbfb12360	-1.383892
38	0x3fcd65ed	1.604673
39	0x3fdbdd7d	1.7176968
40	0x3f6015b2	0.87533104
41	0x3ee65e6b	0.4499391
42	0x3e332514	0.17494613
43	0x3db3a0e8	0.08770925
44	0x3ea594d9	0.32340124
45	0x3f7a3b53	0.9774677
46	0xbf6b98a4	-0.92029786
47	0x3d8de459	0.069283195
48	0xc00cd1c0	-2.2003021
49	0xbfc34694	-1.5255914
50	0x4050e795	3.2641346
51	0x3f0fe83a	0.56213725
52	0xbfdc031c	-1.7188449
53	0x3fcecab0	1.6155605
54	0xc034a67b	-2.8226612
55	0x3fc0f993	1.5076164
56	0x3f809011	1.0043966
57	0xbf788a70	-0.9708624
58	0xbfbc703e	-1.4721754
59	0xbf769304	-0.9631808
60	0x3f845b15	1.0340296
61	0x3fb8c60a	1.4435437
62	0x3dffd933	0.12492599
63	0xbee0085d	-0.4375638

6.running_var f4 [64]
0	0x403e74b2	2.9758725
1	0x3ff7f998	1.9373045
2	0x408f3a71	4.475884
3	0x40cd1b73	6.4096007
4	0x407a8a5a	3.9146943
5	0x408fa78c	4.4892025
6	0x408fa083	4.4883437
7	0x40db4f3e	6.853423
8	0x40357222	2.835091
9	0x40528985	3.2896435
10	0x40ac23b2	5.3793573
11	0x40854b7f	4.165466
12	0x409fda42	4.995393
13	0x40960417	4.6879992
14	0x4015ebdc	2.3425207
15	0x402bf037	2.6865366
16	0x3fdc1325	1.7193342
17	0x4084a1fb	4.144773
18	0x401c21c9	2.439562
19	0x40672f45	3.61226
20	0x3fcb26ea	1.5871251
21	0x401a5d0f	2.4119298
22	0x40bacaf8	5.8372765
23	0x40888972	4.266778
24	0x40e29f97	7.081981
25	0x41068dc8	8.409615
26	0x408b2f89	4.3495526
27	0x403faae8	2.9948063
28	0x403022a0	2.7521133
29	0x40970a69	4.720021
30	0x407b94b6	3.9309516
31	0x3ffd9f67	1.9814271
32	0x40022916	2.0337577
33	0x400d35d5	2.2064106
34	0x406f24c5	3.7366192
35	0x40658cdc	3.5867224
36	0x4078724f	3.8819768
37	0x40b682d2	5.7034693
38	0x4058e180	3.3887634
39	0x3fd44fc8	1.6586847
40	0x40824246	4.07059
41	0x40731b6b	3.7985485
42	0x40c6ceea	6.212758
43	0x40a8d16b	5.2755637
44	0x40a3bae6	5.1165648
45	0x400e5d56	2.2244468
46	0x40e1dbe1	7.0580907
47	0x4022d67a	2.5443406
48	0x40344e46	2.8172774
49	0x403d5ffd	2.9589837
50	0x40092722	2.1430135
51	0x4054467e	3.3168025
52	0x408a444d	4.3208375
53	0x40347aa0	2.8199844
54	0x4031a716	2.775823
55	0x404a69ea	3.1627145
56	0x401242be	2.2853236
57	0x40493605	3.143922
58	0x3f8d17a6	1.1022842
59	0x40b23b2b	5.5697227
60	0x409bc17c	4.8673687
61	0x4098d263	4.775682
62	0x402db018	2.713873
63	0x401f8298	2.4923458

9.weight f4 [64, 64, 3]
0	0xbd0d0263	-0.034426104
1	0xbc3adebc	-0.011405643
2	0x3e00975a	0.12557736
3	0x3dd5f6c5	0.10447458
4	0x3db02486	0.08600716
5	0x39718f58	0.00023036951
6	0xbb8ca180	-0.0042917132
7	0xbd6a9199	-0.05726776
8	0x3c050955	0.008119901
9	0xbe002af5	-0.12516387
10	0xbccc095f	-0.024906812
11	0x3da51450	0.08060515
12	0x3dc2dd81	0.09514905
13	0x3d95ddb9	0.07317681
14	0xbe10576a	-0.14095846
15	0xbcd6673a	-0.02617227
16	0x3d0effd0	0.03491193
17	0xbcd6f600	-0.026240349
18	0xbe02d554	-0.1277669
19	0x3c51d8fe	0.012808083
20	0xbd4fa7d8	-0.050697178
21	0x3c2c9871	0.010534392
22	0x3c9473bc	0.018121593
23	0xbd1e0bc0	-0.038585424
24	0x3dae0ef4	0.08498946
25	0xbdaf6d3e	-0.08565758
26	0xbc4a1818	-0.012334846
27	0xbc08d335	-0.008351137
28	0x3dbe1630	0.09281576
29	0x3c266ebc	0.010158237
30	0xbb9022e1	-0.004398689
31	0xbd42c494	-0.047550753
32	0xbdcddee4	-0.10052279
33	0x3e127e41	0.14305975
34	0x3e0cbd01	0.13743974
35	0x3dcee1d5	0.10101668
36	0xbd4b9257	-0.049700107
37	0xbdfb939b	-0.12284013
38	0xbdc216af	-0.09476983
39	0xbd08b82c	-0.033378765
40	0xbd099a0b	-0.033594172
41	0xba88108c	-0.0010380908
42	0x3d16e486	0.03683903
43	0xbc8d1e24	-0.017226286
44	0x3d20a919	0.039223764
45	0x3cf61e50	0.030043751
46	0x3d3f955d	0.046773303
47	0x3d0a307a	0.033737637
48	0x3e2059d3	0.15659265
49	0xbcf69c91	-0.030103954
50	0xbda3e780	-0.080031395
51	0xbd28049b	-0.041020017
52	0x3dcfca27	0.101459794
53	0xbdf9b33e	-0.12192391
54	0x3d9ca5ed	0.07648835
55	0xbbe8d9cf	-0.007106043
56	0xbca90409	-0.020631807
57	0xbd28a5cb	-0.041173737
58	0x3c312106	0.010811096
59	0x3b9eabfe	0.0048422804
60	0xbd228431	-0.03967685
61	0x3d84c85a	0.064835265
62	0x3d24685f	0.0401386
63	0x3de840cf	0.11340486
64	0xbc9452e3	-0.01810593
65	0xbc2b8701	-0.010469199
66	0x3cc1a82c	0.02363976
67	0xbcdabfdc	-0.026702814
68	0xbd0695fc	-0.03285788
69	0xbd6fbe5b	-0.058531146
70	0x3d4ee229	0.050508652
71	0x3db93ef6	0.09045212
72	0xbc80ddcc	-0.015730761
73	0x3d78bfa1	0.060729627
74	0x3dc68444	0.096931964
75	0x3e093660	0.13399649
76	0x3d0fe74d	0.035132695
77	0x3d5559e8	0.052087694
78	0x3ca8cfe8	0.02060695
79	0x3cf4e645	0.029894957
80	0x3da0f175	0.07858554
81	0x3dd33daa	0.10314496
82	0x3d191ed3	0.037382912
83	0xbcbd386a	-0.02309819
84	0x3d616855	0.05503114
85	0xbc02d31f	-0.0079849055
86	0xbc08f5b6	-0.008359363
87	0xbe00111e	-0.1250653
88	0xbcfb8f7b	-0.030708065
89	0xbcc50455	-0.024049917
90	0x3ce93504	0.028467663
91	0xbd8cf6cd	-0.06883011
92	0xbb931f9a	-0.004489851
93	0xbd50d7cb	-0.050987046
94	0xbdad252c	-0.084543556
95	0x3db7300a	0.089447096
96	0xbd5698e1	-0.05239189
97	0xbc1b4284	-0.009476308
98	0x3dfc19e1	0.123096235
99	0xbda055da	-0.07828875
100	0x3dc28c49	0.094994135
101	0x3dbeb4c6	0.093118235
102	0xbd9b15c6	-0.07572512
103	0xbd004513	-0.031315874
104	0x3dcd7313	0.10031714
105	0xbdfacaa6	-0.12245683
106	0x3d1c1c53	0.03811295
107	0x3b4d2a05	0.0031305563
108	0xbd4b982e	-0.049705677
109	0xbdb3fd34	-0.08788529
110	0x3de72fcf	0.11288416
111	0xbdc4e9d5	-0.096149124
112	0x3e08fb63	0.13377146
113	0x3dd97fc2	0.10620071
114	0xbdeca8e8	-0.11555654
115	0xbe0ca4b7	-0.13734709
116	0xbdd5d4e9	-0.10441
117	0xbca4db96	-0.020124238
118	0x3ba95036	0.0051670326
119	0xbc8242ce	-0.015900996
120	0xbd417b53	-0.04723675
121	0xbd8bf16e	-0.068331584
122	0xbd043bb2	-0.032283492
123	0xbdccaf82	-0.09994413
124	0x3cb0d291	0.02158478
125	0x3d458c06	0.04822924
126	0xbde5ed0f	-0.11226856
127	0x3d3cb303	0.046069156
128	0x3d7fc664	0.06244506
129	0xbb25c731	-0.002529573
130	0x3dbd1af3	0.09233656
131	0xbdaca70d	-0.084303
132	0x3e0afc9a	0.13572922
133	0x3da4d660	0.08048701
134	0x3c7442be	0.014908491
135	0xbd17e826	-0.03708663
136	0xbdb059e9	-0.08610899
137	0x3e044c9c	0.12919849
138	0xbd11a93f	-0.035561796
139	0xbc3dbe59	-0.011581027
140	0x3d905646	0.07047705
141	0x3dcee265	0.10101775
142	0x3d14137b	0.03615139
143	0x3d7995c1	0.060933832
144	0x3e06a726	0.131497
145	0x3cd4dc41	0.025983931
146	0x3d232463	0.039829623
147	0x3d80a2c4	0.06281045
148	0xbc4536fc	-0.012037035
149	0xbc6e2df6	-0.014537325
150	0xbd64b94b	-0.05584077
151	0xbb402286	-0.0029317453
152	0xbbf82e41	-0.0075738733
153	0x3d10a5bb	0.035314303
154	0x3d84d293	0.06485476
155	0xbda8a1f0	-0.08234012
156	0x3dec0d05	0.11525921
157	0x3d82d30d	0.06387911
158	0x3ca10876	0.019657355
159	0xbe0bebd9	-0.13664187
160	0xbe1ebe5e	-0.15502307
161	0xbd884d17	-0.06655329
162	0x3e2f4d55	0.17119344
163	0x3d4e43d1	0.050357644
164	0x3c0fc988	0.008776076
165	0xbb1c465e	-0.0023845653
166	0x3dabd8dd	0.08390973
167	0x3d9a0dfe	0.075222
168	0xbd3a19df	-0.04543483
169	0xbd1581e5	-0.03650083
170	0x3e1126b5	0.14174922
171	0x3dada311	0.08478368
172	0x3cb72c7e	0.022360083
173	0x3d4258ca	0.047447957
174	0x3d38793e	0.0450375
175	0x3c7d817a	0.015472764
176	0xbc1d9727	-0.009618557
177	0x3cfabd8e	0.030607965
178	0xbba01c6e	-0.0048862016
179	0xbb51e5e3	-0.0032027892
180	0x3d03258a	0.032018222
181	0x3d0d382b	0.034477394
182	0x3d1d1f37	0.038359847
183	0x3ba661db	0.0050775832
184	0xbd1468ca	-0.036232747
185	0x3dd9925d	0.1062362
186	0xbe32cdf3	-0.17461376
187	0xbcafb306	-0.02144767
188	0xbde0bce1	-0.10973526
189	0xbc2ced0c	-0.010554563
190	0xbdd7e595	-0.10541836
191	0xbdbfd572	-0.09366883
192	0xbcd7f002	-0.026359562
193	0x3d954cec	0.07290062
194	0x3dc42f06	0.095792815
195	0x3d5fa1b1	0.05459756
196	0x3e0e8ebd	0.13921638
197	0x3da67fcb	0.08129843
198	0x3c0c078c	0.008546721
199	0x3cb5f366	0.022210788
200	0x3da52c27	0.08065062
201	0xbc86586f	-0.01639959
202	0xbdd017d7	-0.10160797
203	0x3c08f6fb	0.008359666
204	0x3e0fc578	0.14040172
205	0x3c450122	0.012024196
206	0x3d75c331	0.060000602
207	0x39d6a12e	0.0004093735
208	0x3d0e4328	0.034732014
209	0x3d6d01e5	0.057863135
210	0xbdb272f9	-0.087133355
211	0xbdf0b86f	-0.11753928
212	0xbda0c7e7	-0.07850628
213	0x3dc8ed25	0.09810857
214	0xbcd438f4	-0.025906064
215	0x3d53bc8c	0.051693484
216	0x3c96ae11	0.018393548
217	0x3d8c67ff	0.06855773
218	0x3def72e9	0.11691839
219	0xbd9ad47b	-0.07560059
220	0xbde53686	-0.1119204
221	0x3def0f8c	0.11672887
222	0xbd996aa2	-0.07491042
223	0xbc92cd4e	-0.017920163
224	0xbd983665	-0.0743225
225	0xbcb9307d	-0.022606129
226	0xbca93a56	-0.0206577
227	0xbc3e9abd	-0.011633572
228	0xbcd205bf	-0.025637506
229	0x3d9d6c55	0.07686678
230	0x3ca9e994	0.020741262
231	0x3d9e0636	0.077160284
232	0xbaf1310f	-0.0018401461
233	0x3da78c9a	0.081811145
234	0x3dcc868c	0.099866
235	0x3d7393b8	0.059467047
236	0x3bfea298	0.0077708475
237	0x3d99d544	0.0751138
238	0xbc8f2ae8	-0.017476514
239	0xbbae9dea	-0.0053288834
240	0xbd8b41ee	-0.067996845
241	0xbd6a5e4a	-0.057218827
242	0xbdfdc9ca	-0.12392004
243	0xbbb89568	-0.005633045
244	0xbdc6f072	-0.0971383
245	0x3d059779	0.03261516
246	0xbd011fce	-0.031524472
247	0x3e3dc923	0.18533759
248	0x3d3075cc	0.04308109
249	0x3d532ee9	0.05155841
250	0xbd46f847	-0.04857662
251	0x3db46ebc	0.088101834
252	0xbc854bb4	-0.01627145
253	0xbda03775	-0.078230776
254	0xbd933f1c	-0.071897715
255	0xbdf71c94	-0.12065998

10.weight f4 [64]
0	0x3f81b610	1.0133686
1	0x3f7d8e7b	0.9904553
2	0x3f811b80	1.0086517
3	0x3f67ee8c	0.9059837
4	0x3f86d2af	1.0533046
5	0x3f8f3829	1.1189014
6	0x3f7e388f	0.9930505
7	0x3f7da246	0.99075735
8	0x3f88f4b7	1.0699681
9	0x3f8563b0	1.0421047
10	0x3f89fd01	1.0780336
11	0x3f81c823	1.0139202
12	0x3f84aa68	1.0364504
13	0x3f712743	0.94200534
14	0x3f879649	1.0592738
15	0x3f8da769	1.1066715
16	0x3f7bfc91	0.9843226
17	0x3f7ffa1b	0.99991006
18	0x3f83a317	1.0284146
19	0x3f86ca6d	1.0530525
20	0x3f81e431	1.0147763
21	0x3f6f1060	0.9338436
22	0x3f704081	0.93848425
23	0x3f6f606e	0.93506515
24	0x3f74c662	0.9561521
25	0x3f89d90e	1.0769365
26	0x3f8483cd	1.0352722
27	0x3f743c16	0.95404184
28	0x3f83493c	1.0256724
29	0x3f6c72d8	0.9236274
30	0x3f87e4cb	1.0616697
31	0x3f7b2cb9	0.98115116
32	0x3f78ad5d	0.9713953
33	0x3f69244f	0.9107103
34	0x3f8d7a27	1.1052903
35	0x3f82a8fa	1.0207818
36	0x3f8b2f91	1.0873891
37	0x3f81bf69	1.0136539
38	0x3f8111be	1.008354
39	0x3f738134	0.95119023
40	0x3f7e01bf	0.99221414
41	0x3f81ea2d	1.014959
42	0x3f787470	0.9705267
43	0x3f820da5	1.0160414
44	0x3f81937e	1.0123136
45	0x3f81d1af	1.0142115
46	0x3f8aa4ed	1.0831581
47	0x3f81632a	1.0108387
48	0x3f642df5	0.89132625
49	0x3f8b752a	1.0895131
50	0x3f7ffd36	0.99995744
51	0x3f880c78	1.0628805
52	0x3f80fe52	1.0077612
53	0x3f886ba4	1.0657849
54	0x3f7363aa	0.9507395
55	0x3f77b41f	0.9675922
56	0x3f7d0a93	0.9884426
57	0x3f687d84	0.9081652
58	0x3f7f820a	0.998078
59	0x3f827069	1.0190555
60	0x3f6ea91d	0.93226796
61	0x3f84cec3	1.0375599
62	0x3f6c90df	0.92408556
63	0x3f6a1e84	0.91452813

10.bias f4 [64]
0	0xbdd06f0c	-0.101774305
1	0xbd13e55c	-0.036107406
2	0xbd261917	-0.04055127
3	0xbcd6e547	-0.026232375
4	0x3d49340f	0.049121913
5	0x3e29e228	0.16590178
6	0x3cb7026c	0.022340022
7	0x3d829cb0	0.06377542
8	0xbd5a0f55	-0.053237278
9	0x3d3f9501	0.04677296
10	0xbdd08664	-0.10181883
11	0xbbbae1b5	-0.005703176
12	0xbd95a736	-0.073072836
13	0xbd8a3eb6	-0.067502424
14	0x3d0a1e10	0.033720076
15	0x3d709769	0.058738146
16	0xbda6072e	-0.08106838
17	0xbd7deea5	-0.061995167
18	0x3d89a1ca	0.06720312
19	0x3e3e106a	0.18560949
20	0x3d958edc	0.07302639
21	0xbb98cc6c	-0.004663041
22	0xbd21fc57	-0.03954729
23	0xbd825eca	-0.06365736
24	0x3d4f7887	0.050652053
25	0x3d977e0e	0.0739709
26	0x3cae81fb	0.021302214
27	0x3d334cdd	0.043774474
28	0x3da0d655	0.078533806
29	0xbd74e74c	-0.059790894
30	0xbc8a8490	-0.016908914
31	0xbd4da3db	-0.050205093
32	0xbc411648	-0.011785097
33	0xbd35f706	-0.044425033
34	0xbd007669	-0.031362925
35	0xbcac57c3	-0.021037942
36	0x3de084b3	0.1096281
37	0xbd45896b	-0.048226755
38	0x3d0dd0d8	0.034622997
39	0xbd6ba8f7	-0.057534184
40	0x3cfb0a23	0.030644482
41	0x3d0a7438	0.03380224
42	0xbd60fb79	-0.054927323
43	0x3d23986d	0.039940286
44	0x3c92a785	0.017902145
45	0xbd1da3cc	-0.038486287
46	0x3dc37277	0.09543317
47	0x3cabc5d6	0.020968359
48	0xbe26b695	-0.16280587
49	0x3c3d3a55	0.011549552
50	0xbdb7b094	-0.089692265
51	0x3d519216	0.05116471
52	0x3c710e32	0.014712857
53	0x3d57c677	0.052679505
54	0x3d9ffb2a	0.078115776
55	0xbd85e906	-0.06538586
56	0x3bab9ef7	0.005237456
57	0xbdaaa49c	-0.08332178
58	0x3c556fb7	0.013027123
59	0x3d1405fd	0.036138523
60	0xbd8c6470	-0.068550944
61	0xbc7c0fbb	-0.01538461
62	0x3be0776b	0.006850173
63	0xbd5a4c4b	-0.053295415

10.running_mean f4 [64]
0	0x3efb3e8f	0.49071166
1	0x3f481053	0.7814991
2	0x3d8fda78	0.070240915
3	0xbf8df420	-1.1090126
4	0x3d9f4327	0.0777648
5	0x3f192e7c	0.59836555
6	0x3f0e0fea	0.5549303
7	0x3f924794	1.1428094
8	0x3fe5ade9	1.7943698
9	0x3fe0613f	1.7529677
10	0x3d7331fc	0.05937384
11	0x3f381446	0.71905935
12	0xc005c390	-2.0900612
13	0x3f3e638b	0.7437064
14	0xc009cd48	-2.1531544
15	0xbff3e6c9	-1.9054805
16	0x3f8a0de2	1.0785487
17	0x4015c6a4	2.340249
18	0xbdde41ac	-0.1085237
19	0x3f3e2a0a	0.74282897
20	0x3fd15a24	1.6355634
21	0xbda32b44	-0.07967237
22	0x3f38bcce	0.72163093
23	0x3e9c88c2	0.30573088
24	0xbf66581a	-0.8997818
25	0xc048234c	-3.1271544
26	0x3f538d38	0.8263736
27	0x401df15a	2.467856
28	0x3da9b1a1	0.08285833
29	0x3f65efad	0.8981884
30	0xc0499db9	-3.1502516
31	0xbfbe3bb4	-1.486197
32	0xc05387ad	-3.305156
33	0xbf82f9a2	-1.0232432
34	0x3f3c59b6	0.7357439
35	0x3fbf3935	1.4939333
36	0x3efe6558	0.49686694
37	0xbf5f6915	-0.8726972
38	0x3e19eeec	0.15032548
39	0x3fe457d5	1.7839304
40	0xbc552952	-0.01301034
41	0xbf7c8942	-0.9864694
42	0xc01771f2	-2.3663297
43	0x3f4232b8	0.7585864
44	0x401e151b	2.4700382
45	0x3d23fe68	0.040037543
46	0xbf9070bb	-1.1284403
47	0x3ea60b45	0.32430473
48	0xbe3f0f93	-0.18658285
49	0x3fa6a912	1.3020346
50	0xbfd2629d	-1.6436344
51	0x3fe6e367	1.8038148
52	0xbf5e2935	-0.86781627
53	0xbf2d7363	-0.6775419
54	0xc0487d8a	-3.1326623
55	0x3f1074ec	0.5642841
56	0xbefb302b	-0.49060187
57	0x3ef858f3	0.48505363
58	0x3f88229f	1.0635566
59	0xbec01b50	-0.37520838
60	0xbea570b5	-0.3231255
61	0xc00edcd9	-2.2322295
62	0xbfa37ff1	-1.277342
63	0xbf878e65	-1.059033

10.running_var f4 [64]
0	0x3fee7710	1.8630085
1	0x3fd49bd4	1.6610055
2	0x3f90da46	1.1316612
3	0x3ff90db5	1.9457308
4	0x3fcd0f5c	1.6020312
5	0x3fd9d01b	1.7016634
6	0x401cf622	2.4525228
7	0x3f9b9d13	1.215731
8	0x4029107c	2.6416311
9	0x3f85c489	1.0450603
10	0x401936b8	2.3939648
11	0x3ff8914e	1.9419343
12	0x40875386	4.2289457
13	0x4016ed47	2.3582323
14	0x3fc53734	1.5407472
15	0x401ae98b	2.4205043
16	0x3fb3a0c7	1.403344
17	0x401ecaec	2.4811354
18	0x3fb599df	1.4187583
19	0x3f9de84a	1.2336514
20	0x3fc31e2d	1.5243584
21	0x3fe979cd	1.8240296
22	0x3f16f816	0.589723
23	0x4022b52a	2.5423074
24	0x3fbd9e04	1.4813848
25	0x4008b293	2.1358993
26	0x3fdc2e6d	1.7201668
27	0x400072f4	2.0070162
28	0x400cdb3f	2.2008817
29	0x3fe4c99b	1.7874025
30	0x400ad791	2.1694071
31	0x3fa9c395	1.3262812
32	0x405267f7	3.2875955
33	0x40305cf2	2.755673
34	0x4006a406	2.1037612
35	0x3faa8b02	1.3323672
36	0x40259028	2.5869236
37	0x3f8a1022	1.0786173
38	0x4040256f	3.0022848
39	0x3ff0629f	1.8780097
40	0x409ac83c	4.8369427
41	0x3fbf0d60	1.4925957
42	0x400dd4b0	2.2161064
43	0x401fa538	2.4944592
44	0x403a30dc	2.9092321
45	0x4059931f	3.3996046
46	0x40387b35	2.88252
47	0x3ff6ea34	1.9290223
48	0x3fd774d4	1.6832528
49	0x402baa62	2.6822743
50	0x3f9dd5d7	1.2330884
51	0x3f9256b0	1.1432705
52	0x404febfd	3.2487786
53	0x4005372b	2.0814922
54	0x4059300d	3.3935578
55	0x3f2fbe81	0.6865006
56	0x401ac237	2.418104
57	0x40020d9e	2.0320811
58	0x3fd054de	1.62759
59	0x402d6add	2.7096474
60	0x3f91c0ce	1.1386964
61	0x3f87c2f0	1.0606365
62	0x402a0c28	2.656992
63	0x4008372c	2.1283674

13.weight f4 [64, 64, 3]
0	0xbcb2b73d	-0.02181589
1	0x3caa8bfd	0.020818705
2	0xbbcace22	-0.0061891237
3	0xbd1344f4	-0.03595443
4	0x3dd02ee4	0.10165194
5	0x3c3b7246	0.011440819
6	0xbdf6a5ba	-0.120433286
7	0xbd9150d5	-0.070954956
8	0x3a66ac54	0.00087994826
9	0xbdec7d09	-0.11547286
10	0xbc7e0390	-0.015503779
11	0x3d088caa	0.033337273
12	0x3dd83751	0.10557426
13	0xbdcf9337	-0.10135501
14	0xbd606395	-0.05478247
15	0xbb0e45ab	-0.0021709006
16	0x3d4ab24e	0.04948645
17	0x3d655c73	0.05599637
18	0xbd97e7e0	-0.074172735
19	0xbe529860	-0.20565939
20	0xbc4d3c2c	-0.012526553
21	0x3da849ce	0.08217202
22	0xbc18450b	-0.009293805
23	0xbe26b78f	-0.1628096
24	0xbcf2c8f7	-0.029636843
25	0xbd02d8a3	-0.031944882
26	0xbe23b36e	-0.15986416
27	0x3d096bb1	0.03354997
28	0x3daf343e	0.08554886
29	0xbe2aa6fa	-0.16665259
30	0xbc1bd49f	-0.009511142
31	0xbdbc1cb1	-0.0918516
32	0xbd7540df	-0.05987632
33	0xbdae6a75	-0.08516399
34	0xbc2f5df7	-0.010703555
35	0xbdcb34d7	-0.09922188
36	0xbd01f1a8	-0.031724602
37	0xbd6d2dff	-0.057905193
38	0x3c424510	0.011857286
39	0xbd90730a	-0.07053192
40	0x3d3f80d9	0.046753738
41	0xbd49fe39	-0.04931471
42	0x3ccc57c6	0.024944197
43	0xbd3b49e1	-0.045724753
44	0x3ca4e400	0.02012825
45	0x3d01306a	0.031540312
46	0x3e134ffa	0.14385977
47	0x3d66130f	0.05617052
48	0xbd4c3e65	-0.04986419
49	0xbe1a4972	-0.1506708
50	0xbdb46d4a	-0.08809908
51	0xbcfac69f	-0.030612288
52	0x3d58ab0f	0.05289751
53	0x3c2e1a72	0.010626422
54	0x3c730c48	0.014834471
55	0x3b9a63f9	0.0047116247
56	0xbca93559	-0.020655321
57	0xbd85f249	-0.06540353
58	0xbdcee9be	-0.101031765
59	0xbdd12252	-0.10211624
60	0xbd06da41	-0.032922987
61	0xbe2c82d0	-0.16846776
62	0xbd61f9ae	-0.055169754
63	0xbc3549a5	-0.0110649215
64	0x3d0a004e	0.033691697
65	0x3d7ae4fa	0.061253525
66	0xbd116d16	-0.035504423
67	0x3c102f1b	0.008800293
68	0xbd96e07d	-0.073670365
69	0xbd6cbdb9	-0.05779812
70	0xbe281b56	-0.16416678
71	0xbb7807e0	-0.003784649
72	0x3cdd2761	0.026996316
73	0xbd98bea1	-0.074582346
74	0xbc7ad4df	-0.0153095415
75	0x3bf874b7	0.007582273
76	0x3e2a7ba0	0.16648722
77	0x3d9438c9	0.072373934
78	0xbcbe9a97	-0.023267074
79	0xbe048a25	-0.12943323
80	0xbd82c9c6	-0.063861415
81	0x3c9a8bd8	0.01886551
82	0xbde53d1b	-0.111932956
83	0xbd6fdca6	-0.058560036
84	0xbe115cb2	-0.14195517
85	0xbe462b27	-0.19352399
86	0x3d0e780e	0.03478246
87	0xbd9b4ca5	-0.07582978
88	0xbdfa606e	-0.12225424
89	0x3d7fbb37	0.0624344
90	0x3dc3a89d	0.09553645
91	0x3e4c39d6	0.19943938
92	0x3e510d4d	0.2041523
93	0xbc3cf2ee	-0.011532528
94	0x3d5c6599	0.05380783
95	0x3db6e7ea	0.08930953
96	0xbc35c3d5	-0.011094053
97	0x3dbfb86a	0.09361346
98	0x3db9222b	0.0903972
99	0xbcd84ebb	-0.02640473
100	0xbca2c847	-0.01987089
101	0x3d60392a	0.054742016
102	0xbdfcb7bb	-0.12339731
103	0xbdc2d72e	-0.095136985
104	0x3caf9248	0.021432057
105	0x3d2e610b	0.042573016
106	0xbdf06563	-0.11738088
107	0xbd0fbe1f	-0.035093423
108	0xbe20ecc0	-0.15715313
109	0x3c153fd1	0.009109453
110	0x3cd2a90f	0.025715379
111	0xbce54108	-0.02798511
112	0x3cdde690	0.02708748
113	0x3d4efc6b	0.050533693
114	0xbd43aee2	-0.047774203
115	0x3d63b189	0.055589233
116	0xbdf0564f	-0.11735212
117	0x3be8e10b	0.0071069053
118	0xbda6d0d3	-0.08145299
119	0xbd15404a	-0.036438264
120	0x3da33bbd	0.079703785
121	0x3d21ab5c	0.03947006
122	0x3dbb18e9	0.091356106
123	0xbda191be	-0.07889126
124	0x3dbccdc6	0.09218936
125	0x3c1b16a9	0.009465852
126	0x3d2d8d28	0.042370945
127	0x3e0bb97a	0.13644972
128	0x3e5a5f35	0.21325381
129	0xbd4a8de9	-0.049451742
130	0xbd43fb8e	-0.047847323
131	0x3d17a193	0.037019324
132	0xbc999811	-0.018749269
133	0xbe28b874	-0.16476613
134	0xbcbdf730	-0.023189157
135	0x3ddbb178	0.10727209
136	0xbd97ca9c	-0.074116915
137	0xbc2bda50	-0.0104890615
138	0x3dba1a1b	0.090870105
139	0xbc88072a	-0.016604979
140	0x3dbb00ef	0.091310374
141	0x3bf2b227	0.0074064913
142	0x3ca5d2f2	0.020242188
143	0x3c356b76	0.011072984
144	0x3c0ecde8	0.008716084
145	0xbd223d18	-0.039609045
146	0xbb00c2e7	-0.001964742
147	0xbd55f4de	-0.052235477
148	0xbd2d71e1	-0.04234493
149	0x3be333bc	0.0069336575
150	0x3e23b84e	0.15988275
151	0x3d1b202b	0.037872475
152	0xbc3a32d3	-0.0113646565
153	0xbc87f7a0	-0.016597569
154	0xbd731147	-0.05934265
155	0xbd4e37ad	-0.050346065
156	0xbd4c9a51	-0.049951855
157	0xbcc4bf52	-0.02401701
158	0x3d115ad9	0.03548703
159	0xbbfff6a3	-0.007811384
160	0x3d51f4cd	0.05125885
161	0xbda981d6	-0.08276717
162	0xbc1bf224	-0.00951818
163	0x3e22458e	0.15846846
164	0x3d57e076	0.052704297
165	0x39acc1d9	0.00032950824
166	0x3d2698bb	0.040673
167	0xbd059035	-0.03260823
168	0xbde57809	-0.112045355
169	0xbe023eea	-0.12719312
170	0xba1c2f7f	-0.0005958005
171	0x3d0af833	0.033928107
172	0xbe059ac7	-0.13047324
173	0xbc8232d2	-0.015893374
174	0x3cd810d6	0.026375216
175	0xbe12ca4a	-0.1433498
176	0xbe17c6ff	-0.14822005
177	0xbdebbc31	-0.11510504
178	0xbd911fef	-0.07086169
179	0x3de634f4	0.11240569
180	0xbd2a5b6f	-0.041591104
181	0xbd8be451	-0.06830657
182	0x3dcd09bc	0.10011622
183	0x3d87699e	0.06611942
184	0x3da90e0c	0.08254632
185	0x3e1bd3bd	0.1521749
186	0x3ccdd96f	0.025128094
187	0xbd89e2de	-0.067327246
188	0x3d9a040c	0.07520303
189	0xbe05a742	-0.13052085
190	0xbe18ca22	-0.14920858
191	0x3d13f472	0.036121793
192	0xbdf54f56	-0.11978023
193	0x3d8bccd7	0.068261795
194	0x3d357ffa	0.0443115
195	0xbc739666	-0.014867401
196	0xbce5ad08	-0.02803661
197	0x3b1d7cc8	0.0024030674
198	0x3cd2ffd9	0.025756763
199	0x3e33fb79	0.17576398
200	0xba465976	-0.00075664313
201	0xbd3d0652	-0.046148606
202	0xbe12ca9f	-0.14335106
203	0x3dbf9e3e	0.09356354
204	0x3d144582	0.0361991
205	0xbccfd60b	-0.025370618
206	0xbc53d6dd	-0.012929645
207	0xbd8dfbae	-0.0693277
208	0xbdf93299	-0.12167854
209	0xbbcd4e69	-0.0062654507
210	0x3d5b60d8	0.053559154
211	0xbda140d3	-0.07873692
212	0xbbe25f5d	-0.006908341
213	0xbe237ad0	-0.15964818
214	0xbd29c270	-0.041445196
215	0xbbfbb04d	-0.007680929
216	0x3c902517	0.01759581
217	0x3dc52cf6	0.09627716
218	0x3d2c9a5a	0.04213939
219	0xbd5e9bc3	-0.054347765
220	0x3da6100e	0.08108531
221	0xbc4ed7dc	-0.012624707
222	0xbd1ceded	-0.03831284
223	0xbc95a234	-0.018265821
224	0x3c7759cf	0.015097096
225	0xbd13e836	-0.036110125
226	0xbc69bdb7	-0.014266423
227	0xbdda1b4e	-0.10649739
228	0x3e17ed2f	0.14836572
229	0x3e1e6fa9	0.15472282
230	0x3d0e0afd	0.034678448
231	0x3d6f2dcf	0.058393296
232	0xbc4f9653	-0.012670117
233	0xbda328fb	-0.07966801
234	0x3cdde567	0.027086927
235	0xbc967572	-0.01836655
236	0x3d85c2c3	0.065312885
237	0xbc889524	-0.016672678
238	0x3d0ce6ea	0.034399904
239	0x3db7a0d7	0.08966225
240	0x3d4bd99d	0.04976808
241	0xbc14ba08	-0.009077556
242	0x3d037516	0.032094084
243	0x3bf33033	0.0074215173
244	0x3bc9a84f	0.006154097
245	0xbd29c156	-0.041444145
246	0xbe0d8b8b	-0.13822763
247	0xbd93c7a9	-0.072158165
248	0xbcabe572	-0.020983431
249	0xbdb4400c	-0.088012785
250	0x3daec36e	0.08533369
251	0x3e1b44c2	0.15162948
252	0xbe02a090	-0.12756562
253	0x3d9d4a6c	0.076802105
254	0x3c65109b	0.01398101
255	0x3c9f6cd3	0.019461071

14.weight f4 [64]
0	0x3f722f50	0.94603443
1	0x3f6c76a9	0.9236856
2	0x3f7d1bbf	0.9887046
3	0x3f85aa54	1.0442605
4	0x3f8505c1	1.0392381
5	0x3f9272c7	1.1441277
6	0x3f87f89c	1.0622745
7	0x3f74f5b1	0.95687395
8	0x3f789af1	0.9711142
9	0x3f6eb223	0.93240565
10	0x3f83fda6	1.0311782
11	0x3f8e5034	1.1118226
12	0x3f7a945c	0.9788263
13	0x3f7864a9	0.97028595
14	0x3f6e0f53	0.9299213
15	0x3f831e8c	1.0243697
16	0x3f84f8a9	1.0388385
17	0x3f8456a4	1.0338941
18	0x3f7f5176	0.99733675
19	0x3f859a41	1.04377
20	0x3f8547d0	1.041254
21	0x3f7aa48f	0.97907346
22	0x3f768dde	0.9631022
23	0x3f63ddf3	0.8901054
24	0x3f85974b	1.0436796
25	0x3f6dfa22	0.929598
26	0x3f83edbe	1.0306928
27	0x3f68ed4c	0.90987086
28	0x3f7a4f79	0.97777516
29	0x3f7e95fa	0.99447596
30	0x3f7d17e7	0.988646
31	0x3f88b45c	1.0680041
32	0x3f8044a6	1.002095
33	0x3f7e7711	0.9940043
34	0x3f7d9baf	0.9906568
35	0x3f804a45	1.0022665
36	0x3f846da6	1.0345962
37	0x3f7056b3	0.9388229
38	0x3f660712	0.8985454
39	0x3f823364	1.0171933
40	0x3f808b6b	1.0042547
41	0x3f6ca623	0.92441005
42	0x3f83290a	1.0246899
43	0x3f832fc3	1.0248951
44	0x3f870a93	1.0550102
45	0x3f659884	0.89685845
46	0x3f6bd2ba	0.9211842
47	0x3f667c84	0.90033746
48	0x3f840cc4	1.0316396
49	0x3f7facd2	0.9987308
50	0x3f890469	1.0704471
51	0x3f803a31	1.0017759
52	0x3f870e81	1.0551301
53	0x3f7daf0f	0.99095243
54	0x3f85c41a	1.045047
55	0x3f85de1c	1.0458407
56	0x3f7282c4	0.9473078
57	0x3f81e938	1.0149298
58	0x3f88527d	1.0650173
59	0x3f7f44d2	0.99714386
60	0x3f8a6f1c	1.0815158
61	0x3f7f6098	0.99756765
62	0x3f693b04	0.91105676
63	0x3f789dea	0.9711596

14.bias f4 [64]
0	0x3d8fb0cb	0.070161425
1	0xbd78cafe	-0.060740463
2	0xbd3560f0	-0.0442819
3	0x3d1b0d5a	0.03785453
4	0x3d46b6e1	0.04851425
5	0x3dd75e6b	0.10516056
6	0x3dd52e1a	0.10409184
7	0x3cc24c17	0.023717923
8	0xbd1a2432	-0.037632175
9	0xbd4a1f55	-0.049346287
10	0x3d1dcf1e	0.0385276
11	0x3cf6d67e	0.030131575
12	0x3c3cd770	0.011525974
13	0xbc16c2b3	-0.009201693
14	0xbd3bac3e	-0.04581856
15	0xbcb05c70	-0.021528453
16	0xbccd12a4	-0.025033303
17	0x3df447dd	0.11927769
18	0xbd3f0847	-0.046638753
19	0x3d4406b8	0.04785797
20	0x3dbb37e2	0.09141518
21	0xbcee75d0	-0.029108912
22	0x3d362044	0.044464365
23	0xbd38a34c	-0.045077607
24	0x3d406431	0.04697055
25	0xbd21376c	-0.039359495
26	0xbccb8574	-0.024843909
27	0xbd7bbbed	-0.061458517
28	0x3a13736c	0.0005624804
29	0x3d0b4063	0.03399695
30	0xbd2d9cc1	-0.04238582
31	0x3cb48c6c	0.022039615
32	0x3c9ee6d7	0.019397182
33	0x3d564a01	0.05231667
34	0x3d5ba8d1	0.053627793
35	0x3d3abdd2	0.045591183
36	0x3ce032f2	0.027368043
37	0xbcc814d6	-0.024423998
38	0xbe143ded	-0.14476748
39	0xbc85c7d8	-0.016330644
40	0xbc0c4050	-0.008560255
41	0xbd727d13	-0.05920131
42	0x3d7ea099	0.062164877
43	0x3cf2ba8b	0.029629966
44	0x3d4d032f	0.050051864
45	0xbdd7c2d3	-0.10535207
46	0x3d9300d1	0.0717789
47	0xbdce03af	-0.10059296
48	0x3c74c164	0.014938686
49	0xbce22d20	-0.027609408
50	0xbd31af62	-0.04338015
51	0x3daac684	0.08338645
52	0x3da5e5c1	0.08100463
53	0x3a6a10de	0.0008928905
54	0x3d368a77	0.044565644
55	0x3c28ecf3	0.010310399
56	0xbd564d01	-0.05231953
57	0x3d03e37e	0.032199375
58	0xbccac8a3	-0.024753874
59	0x3d3a9625	0.045553345
60	0x3e47f56f	0.19527219
61	0x3daca7c3	0.084304355
62	0xbe00a767	-0.12563859
63	0xbd568777	-0.052375283
