notebooks/Radio_27ML/output/example_output_radio_27ml_tidy_ZCU104/intermediate_models/step_apply_folding_config.onnx (onnx, 702189 bytes, 20 tensors)

MatMul_8_param0 f4 [128, 128]
3.0 -2.0 0.0 -4.0 0.0 -3.0 -1.0 0.0
1.0 0.0 -2.0 -3.0 0.0 3.0 -1.0 -1.0
-3.0 -2.0 4.0 -1.0 2.0 -2.0 0.0 -2.0
0.0 -3.0 4.0 -2.0 3.0 -1.0 1.0 -4.0
-3.0 5.0 1.0 0.0 2.0 -2.0 1.0 0.0
-2.0 0.0 -2.0 -2.0 2.0 -2.0 -4.0 -1.0
4.0 1.0 1.0 -1.0 1.0 0.0 0.0 1.0
-1.0 4.0 2.0 -3.0 -1.0 -1.0 0.0 0.0
-1.0 -4.0 0.0 0.0 0.0 -3.0 3.0 -4.0
1.0 0.0 0.0 1.0 -4.0 1.0 -3.0 -2.0
3.0 1.0 2.0 1.0 2.0 -2.0 -2.0 3.0
0.0 -1.0 -1.0 -3.0 0.0 -1.0 3.0 0.0
0.0 3.0 2.0 -5.0 3.0 -2.0 -2.0 2.0
0.0 -2.0 -4.0 4.0 -1.0 1.0 5.0 1.0
3.0 3.0 1.0 -3.0 -1.0 -1.0 2.0 0.0
0.0 -1.0 0.0 -1.0 3.0 -2.0 1.0 0.0
2.0 3.0 1.0 5.0 -2.0 -2.0 -4.0 1.0
-2.0 -1.0 1.0 0.0 -4.0 5.0 0.0 0.0
-2.0 -3.0 0.0 -1.0 1.0 0.0 -1.0 1.0
0.0 -2.0 0.0 2.0 -2.0 -3.0 -1.0 0.0
1.0 2.0 -1.0 -1.0 -1.0 -2.0 -1.0 0.0
3.0 2.0 -3.0 2.0 -2.0 -1.0 1.0 -1.0
-1.0 -1.0 2.0 -2.0 -1.0 -1.0 2.0 0.0
4.0 -1.0 -2.0 0.0 -1.0 -2.0 -1.0 1.0
-4.0 1.0 -1.0 -2.0 4.0 3.0 3.0 -3.0
-1.0 0.0 -2.0 0.0 -3.0 -1.0 0.0 0.0
2.0 0.0 -2.0 3.0 1.0 -1.0 1.0 -1.0
2.0 1.0 -2.0 -1.0 -4.0 6.0 3.0 2.0
1.0 1.0 -2.0 2.0 -4.0 -2.0 3.0 -2.0
0.0 1.0 -3.0 -1.0 0.0 -2.0 3.0 4.0
0.0 2.0 -2.0 1.0 -1.0 -1.0 6.0 -4.0
-1.0 -1.0 2.0 -2.0 -1.0 -2.0 -1.0 -4.0
00000000: 0000 4040 0000 00c0 0000 0000 0000 80c0
00000010: 0000 0000 0000 40c0 0000 80bf 0000 0000
00000020: 0000 803f 0000 0000 0000 00c0 0000 40c0
00000030: 0000 0000 0000 4040 0000 80bf 0000 80bf
00000040: 0000 40c0 0000 00c0 0000 8040 0000 80bf
00000050: 0000 0040 0000 00c0 0000 0000 0000 00c0
00000060: 0000 0000 0000 40c0 0000 8040 0000 00c0
00000070: 0000 4040 0000 80bf 0000 803f 0000 80c0
00000080: 0000 40c0 0000 a040 0000 803f 0000 0000
00000090: 0000 0040 0000 00c0 0000 803f 0000 0000
000000a0: 0000 00c0 0000 0000 0000 00c0 0000 00c0
000000b0: 0000 0040 0000 00c0 0000 80c0 0000 80bf
000000c0: 0000 8040 0000 803f 0000 803f 0000 80bf
000000d0: 0000 803f 0000 0000 0000 0000 0000 803f
000000e0: 0000 80bf 0000 8040 0000 0040 0000 40c0
000000f0: 0000 80bf 0000 80bf 0000 0000 0000 0000
00000100: 0000 80bf 0000 80c0 0000 0000 0000 0000
00000110: 0000 0000 0000 40c0 0000 4040 0000 80c0
00000120: 0000 803f 0000 0000 0000 0000 0000 803f
00000130: 0000 80c0 0000 803f 0000 40c0 0000 00c0
00000140: 0000 4040 0000 803f 0000 0040 0000 803f
00000150: 0000 0040 0000 00c0 0000 00c0 0000 4040
00000160: 0000 0000 0000 80bf 0000 80bf 0000 40c0
00000170: 0000 0000 0000 80bf 0000 4040 0000 0000
00000180: 0000 0000 0000 4040 0000 0040 0000 a0c0
00000190: 0000 4040 0000 00c0 0000 00c0 0000 0040
000001a0: 0000 0000 0000 00c0 0000 80c0 0000 8040
000001b0: 0000 80bf 0000 803f 0000 a040 0000 803f
000001c0: 0000 4040 0000 4040 0000 803f 0000 40c0
000001d0: 0000 80bf 0000 80bf 0000 0040 0000 0000
000001e0: 0000 0000 0000 80bf 0000 0000 0000 80bf
000001f0: 0000 4040 0000 00c0 0000 803f 0000 0000
00000200: 0000 0040 0000 4040 0000 803f 0000 a040
00000210: 0000 00c0 0000 00c0 0000 80c0 0000 803f
00000220: 0000 00c0 0000 80bf 0000 803f 0000 0000
00000230: 0000 80c0 0000 a040 0000 0000 0000 0000
00000240: 0000 00c0 0000 40c0 0000 0000 0000 80bf
00000250: 0000 803f 0000 0000 0000 80bf 0000 803f
00000260: 0000 0000 0000 00c0 0000 0000 0000 0040
00000270: 0000 00c0 0000 40c0 0000 80bf 0000 0000
00000280: 0000 803f 0000 0040 0000 80bf 0000 80bf
00000290: 0000 80bf 0000 00c0 0000 80bf 0000 0000
000002a0: 0000 4040 0000 0040 0000 40c0 0000 0040
000002b0: 0000 00c0 0000 80bf 0000 803f 0000 80bf
000002c0: 0000 80bf 0000 80bf 0000 0040 0000 00c0
000002d0: 0000 80bf 0000 80bf 0000 0040 0000 0000
000002e0: 0000 8040 0000 80bf 0000 00c0 0000 0000
000002f0: 0000 80bf 0000 00c0 0000 80bf 0000 803f
00000300: 0000 80c0 0000 803f 0000 80bf 0000 00c0
00000310: 0000 8040 0000 4040 0000 4040 0000 40c0
00000320: 0000 80bf 0000 0000 0000 00c0 0000 0000
00000330: 0000 40c0 0000 80bf 0000 0000 0000 0000
00000340: 0000 0040 0000 0000 0000 00c0 0000 4040
00000350: 0000 803f 0000 80bf 0000 803f 0000 80bf
00000360: 0000 0040 0000 803f 0000 00c0 0000 80bf
00000370: 0000 80c0 0000 c040 0000 4040 0000 0040
00000380: 0000 803f 0000 803f 0000 00c0 0000 0040
00000390: 0000 80c0 0000 00c0 0000 4040 0000 00c0
000003a0: 0000 0000 0000 803f 0000 40c0 0000 80bf
000003b0: 0000 0000 0000 00c0 0000 4040 0000 8040
000003c0: 0000 0000 0000 0040 0000 00c0 0000 803f
000003d0: 0000 80bf 0000 80bf 0000 c040 0000 80c0
000003e0: 0000 80bf 0000 80bf 0000 0040 0000 00c0
000003f0: 0000 80bf 0000 00c0 0000 80bf 0000 80c0

MatMul_9_param0 f4 [128, 27]
-2.0 2.0 3.0 -5.0 -1.0 0.0 0.0 0.0
-3.0 -5.0 -5.0 -3.0 0.0 -1.0 -5.0 -5.0
-3.0 1.0 -1.0 1.0 -1.0 4.0 1.0 -2.0
2.0 -3.0 0.0 -1.0 -3.0 -3.0 2.0 1.0
1.0 3.0 1.0 2.0 -2.0 1.0 -1.0 3.0
0.0 -1.0 1.0 0.0 -3.0 -1.0 -3.0 -2.0
-1.0 -1.0 4.0 -1.0 2.0 2.0 0.0 2.0
2.0 0.0 -1.0 -1.0 -4.0 1.0 -3.0 -2.0
-1.0 -1.0 0.0 -2.0 -3.0 -2.0 -1.0 -4.0
-3.0 -3.0 -2.0 2.0 3.0 -3.0 3.0 -6.0
0.0 -2.0 -5.0 -3.0 5.0 0.0 -2.0 -1.0
-3.0 1.0 2.0 1.0 1.0 3.0 3.0 3.0
2.0 1.0 -3.0 -3.0 -1.0 -5.0 -3.0 -3.0
2.0 -2.0 0.0 -1.0 1.0 0.0 0.0 -1.0
0.0 -2.0 0.0 -2.0 -1.0 -2.0 -3.0 -1.0
-2.0 1.0 -2.0 -2.0 -2.0 2.0 1.0 1.0
-1.0 1.0 -3.0 -1.0 -2.0 -3.0 0.0 2.0
0.0 -1.0 1.0 0.0 -5.0 1.0 1.0 3.0
1.0 1.0 1.0 2.0 1.0 3.0 1.0 2.0
-4.0 3.0 -2.0 4.0 -6.0 -2.0 -1.0 -1.0
-1.0 -4.0 -5.0 -3.0 -4.0 -1.0 0.0 1.0
0.0 0.0 1.0 1.0 4.0 1.0 1.0 3.0
2.0 3.0 2.0 -2.0 -2.0 -3.0 -4.0 -3.0
-1.0 0.0 -1.0 1.0 0.0 -2.0 -3.0 -4.0
-2.0 0.0 -2.0 1.0 0.0 -2.0 -2.0 0.0
1.0 0.0 -1.0 -3.0 0.0 -3.0 1.0 2.0
4.0 1.0 3.0 4.0 -1.0 3.0 0.0 -1.0
0.0 -3.0 -2.0 0.0 -2.0 1.0 0.0 0.0
0.0 1.0 -3.0 -1.0 1.0 -1.0 2.0 -2.0
2.0 3.0 -2.0 1.0 0.0 1.0 3.0 -4.0
-1.0 -2.0 0.0 -1.0 -1.0 0.0 -2.0 -1.0
-1.0 -3.0 -1.0 -4.0 0.0 0.0 0.0 -1.0
00000000: 0000 00c0 0000 0040 0000 4040 0000 a0c0
00000010: 0000 80bf 0000 0000 0000 0000 0000 0000
00000020: 0000 40c0 0000 a0c0 0000 a0c0 0000 40c0
00000030: 0000 0000 0000 80bf 0000 a0c0 0000 a0c0
00000040: 0000 40c0 0000 803f 0000 80bf 0000 803f
00000050: 0000 80bf 0000 8040 0000 803f 0000 00c0
00000060: 0000 0040 0000 40c0 0000 0000 0000 80bf
00000070: 0000 40c0 0000 40c0 0000 0040 0000 803f
00000080: 0000 803f 0000 4040 0000 803f 0000 0040
00000090: 0000 00c0 0000 803f 0000 80bf 0000 4040
000000a0: 0000 0000 0000 80bf 0000 803f 0000 0000
000000b0: 0000 40c0 0000 80bf 0000 40c0 0000 00c0
000000c0: 0000 80bf 0000 80bf 0000 8040 0000 80bf
000000d0: 0000 0040 0000 0040 0000 0000 0000 0040
000000e0: 0000 0040 0000 0000 0000 80bf 0000 80bf
000000f0: 0000 80c0 0000 803f 0000 40c0 0000 00c0
00000100: 0000 80bf 0000 80bf 0000 0000 0000 00c0
00000110: 0000 40c0 0000 00c0 0000 80bf 0000 80c0
00000120: 0000 40c0 0000 40c0 0000 00c0 0000 0040
00000130: 0000 4040 0000 40c0 0000 4040 0000 c0c0
00000140: 0000 0000 0000 00c0 0000 a0c0 0000 40c0
00000150: 0000 a040 0000 0000 0000 00c0 0000 80bf
00000160: 0000 40c0 0000 803f 0000 0040 0000 803f
00000170: 0000 803f 0000 4040 0000 4040 0000 4040
00000180: 0000 0040 0000 803f 0000 40c0 0000 40c0
00000190: 0000 80bf 0000 a0c0 0000 40c0 0000 40c0
000001a0: 0000 0040 0000 00c0 0000 0000 0000 80bf
000001b0: 0000 803f 0000 0000 0000 0000 0000 80bf
000001c0: 0000 0000 0000 00c0 0000 0000 0000 00c0
000001d0: 0000 80bf 0000 00c0 0000 40c0 0000 80bf
000001e0: 0000 00c0 0000 803f 0000 00c0 0000 00c0
000001f0: 0000 00c0 0000 0040 0000 803f 0000 803f
00000200: 0000 80bf 0000 803f 0000 40c0 0000 80bf
00000210: 0000 00c0 0000 40c0 0000 0000 0000 0040
00000220: 0000 0000 0000 80bf 0000 803f 0000 0000
00000230: 0000 a0c0 0000 803f 0000 803f 0000 4040
00000240: 0000 803f 0000 803f 0000 803f 0000 0040
00000250: 0000 803f 0000 4040 0000 803f 0000 0040
00000260: 0000 80c0 0000 4040 0000 00c0 0000 8040
00000270: 0000 c0c0 0000 00c0 0000 80bf 0000 80bf
00000280: 0000 80bf 0000 80c0 0000 a0c0 0000 40c0
00000290: 0000 80c0 0000 80bf 0000 0000 0000 803f
000002a0: 0000 0000 0000 0000 0000 803f 0000 803f
000002b0: 0000 8040 0000 803f 0000 803f 0000 4040
000002c0: 0000 0040 0000 4040 0000 0040 0000 00c0
000002d0: 0000 00c0 0000 40c0 0000 80c0 0000 40c0
000002e0: 0000 80bf 0000 0000 0000 80bf 0000 803f
000002f0: 0000 0000 0000 00c0 0000 40c0 0000 80c0
00000300: 0000 00c0 0000 0000 0000 00c0 0000 803f
00000310: 0000 0000 0000 00c0 0000 00c0 0000 0000
00000320: 0000 803f 0000 0000 0000 80bf 0000 40c0
00000330: 0000 0000 0000 40c0 0000 803f 0000 0040
00000340: 0000 8040 0000 803f 0000 4040 0000 8040
00000350: 0000 80bf 0000 4040 0000 0000 0000 80bf
00000360: 0000 0000 0000 40c0 0000 00c0 0000 0000
00000370: 0000 00c0 0000 803f 0000 0000 0000 0000
00000380: 0000 0000 0000 803f 0000 40c0 0000 80bf
00000390: 0000 803f 0000 80bf 0000 0040 0000 00c0
000003a0: 0000 0040 0000 4040 0000 00c0 0000 803f
000003b0: 0000 0000 0000 803f 0000 4040 0000 80c0
000003c0: 0000 80bf 0000 00c0 0000 0000 0000 80bf
000003d0: 0000 80bf 0000 0000 0000 00c0 0000 80bf
000003e0: 0000 80bf 0000 40c0 0000 80bf 0000 80c0
000003f0: 0000 0000 0000 0000 0000 0000 0000 80bf

MultiThreshold_0_param0 f4 [64, 15]
16.0 61.0 105.0 149.0 193.0 237.0 281.0 325.0
370.0 414.0 458.0 502.0 546.0 590.0 635.0 27.0
64.0 102.0 139.0 176.0 214.0 251.0 288.0 326.0
363.0 400.0 438.0 475.0 513.0 550.0 22.0 88.0
155.0 221.0 287.0 353.0 420.0 486.0 552.0 618.0
685.0 751.0 817.0 883.0 950.0 39.0 100.0 161.0
221.0 282.0 343.0 404.0 465.0 526.0 586.0 647.0
708.0 769.0 830.0 890.0 39.0 103.0 167.0 232.0
296.0 360.0 424.0 488.0 553.0 617.0 681.0 745.0
810.0 874.0 938.0 35.0 99.0 163.0 227.0 290.0
354.0 418.0 482.0 545.0 609.0 673.0 737.0 800.0
864.0 928.0 12.0 53.0 94.0 135.0 177.0 218.0
259.0 300.0 341.0 383.0 424.0 465.0 506.0 547.0
588.0 19.0 77.0 136.0 195.0 254.0 313.0 372.0
431.0 490.0 549.0 608.0 666.0 725.0 784.0 843.0
21.0 81.0 140.0 200.0 260.0 320.0 380.0 440.0
500.0 559.0 619.0 679.0 739.0 799.0 859.0 28.0
104.0 181.0 257.0 334.0 410.0 487.0 563.0 640.0
716.0 792.0 869.0 945.0 1022.0 1098.0 26.0 66.0
105.0 145.0 185.0 225.0 265.0 304.0 344.0 384.0
424.0 464.0 503.0 543.0 583.0 29.0 68.0 108.0
147.0 187.0 226.0 266.0 305.0 344.0 384.0 423.0
463.0 502.0 542.0 581.0 17.0 85.0 153.0 221.0
289.0 357.0 426.0 494.0 562.0 630.0 698.0 766.0
834.0 902.0 970.0 39.0 104.0 169.0 235.0 300.0
365.0 430.0 495.0 560.0 625.0 690.0 755.0 820.0
885.0 950.0 16.0 41.0 66.0 90.0 115.0 139.0
164.0 189.0 213.0 238.0 263.0 287.0 312.0 336.0
361.0 31.0 95.0 160.0 224.0 288.0 352.0 416.0
480.0 544.0 608.0 673.0 737.0 801.0 865.0 929.0
12.0 50.0 87.0 124.0 161.0 198.0 236.0 273.0
310.0 347.0 385.0 422.0 459.0 496.0 534.0 29.0
00000000: 0000 8041 0000 7442 0000 d242 0000 1543
00000010: 0000 4143 0000 6d43 0080 8c43 0080 a243
00000020: 0000 b943 0000 cf43 0000 e543 0000 fb43
00000030: 0080 0844 0080 1344 00c0 1e44 0000 d841
00000040: 0000 8042 0000 cc42 0000 0b43 0000 3043
00000050: 0000 5643 0000 7b43 0000 9043 0000 a343
00000060: 0080 b543 0000 c843 0000 db43 0080 ed43
00000070: 0040 0044 0080 0944 0000 b041 0000 b042
00000080: 0000 1b43 0000 5d43 0080 8f43 0080 b043
00000090: 0000 d243 0000 f343 0000 0a44 0080 1a44
000000a0: 0040 2b44 00c0 3b44 0040 4c44 00c0 5c44
000000b0: 0080 6d44 0000 1c42 0000 c842 0000 2143
000000c0: 0000 5d43 0000 8d43 0080 ab43 0000 ca43
000000d0: 0080 e843 0080 0344 0080 1244 00c0 2144
000000e0: 0000 3144 0040 4044 0080 4f44 0080 5e44
000000f0: 0000 1c42 0000 ce42 0000 2743 0000 6843
00000100: 0000 9443 0000 b443 0000 d443 0000 f443
00000110: 0040 0a44 0040 1a44 0040 2a44 0040 3a44
00000120: 0080 4a44 0080 5a44 0080 6a44 0000 0c42
00000130: 0000 c642 0000 2343 0000 6343 0000 9143
00000140: 0000 b143 0000 d143 0000 f143 0040 0844
00000150: 0040 1844 0040 2844 0040 3844 0000 4844
00000160: 0000 5844 0000 6844 0000 4041 0000 5442
00000170: 0000 bc42 0000 0743 0000 3143 0000 5a43
00000180: 0080 8143 0000 9643 0080 aa43 0080 bf43
00000190: 0000 d443 0080 e843 0000 fd43 00c0 0844
000001a0: 0000 1344 0000 9841 0000 9a42 0000 0843
000001b0: 0000 4343 0000 7e43 0080 9c43 0000 ba43
000001c0: 0080 d743 0000 f543 0040 0944 0000 1844
000001d0: 0080 2644 0040 3544 0000 4444 00c0 5244
000001e0: 0000 a841 0000 a242 0000 0c43 0000 4843
000001f0: 0000 8243 0000 a043 0000 be43 0000 dc43
00000200: 0000 fa43 00c0 0b44 00c0 1a44 00c0 2944
00000210: 00c0 3844 00c0 4744 00c0 5644 0000 e041
00000220: 0000 d042 0000 3543 0080 8043 0000 a743
00000230: 0000 cd43 0080 f343 00c0 0c44 0000 2044
00000240: 0000 3344 0000 4644 0040 5944 0040 6c44
00000250: 0080 7f44 0040 8944 0000 d041 0000 8442
00000260: 0000 d242 0000 1143 0000 3943 0000 6143
00000270: 0080 8443 0000 9843 0000 ac43 0000 c043
00000280: 0000 d443 0000 e843 0080 fb43 00c0 0744
00000290: 00c0 1144 0000 e841 0000 8842 0000 d842
000002a0: 0000 1343 0000 3b43 0000 6243 0000 8543
000002b0: 0080 9843 0000 ac43 0000 c043 0080 d343
000002c0: 0080 e743 0000 fb43 0080 0744 0040 1144
000002d0: 0000 8841 0000 aa42 0000 1943 0000 5d43
000002e0: 0080 9043 0080 b243 0000 d543 0000 f743
000002f0: 0080 0c44 0080 1d44 0080 2e44 0080 3f44
00000300: 0080 5044 0080 6144 0080 7244 0000 1c42
00000310: 0000 d042 0000 2943 0000 6b43 0000 9643
00000320: 0080 b643 0000 d743 0080 f743 0000 0c44
00000330: 0040 1c44 0080 2c44 00c0 3c44 0000 4d44
00000340: 0040 5d44 0080 6d44 0000 8041 0000 2442
00000350: 0000 8442 0000 b442 0000 e642 0000 0b43
00000360: 0000 2443 0000 3d43 0000 5543 0000 6e43
00000370: 0080 8343 0080 8f43 0000 9c43 0000 a843
00000380: 0080 b443 0000 f841 0000 be42 0000 2043
00000390: 0000 6043 0000 9043 0000 b043 0000 d043
000003a0: 0000 f043 0000 0844 0000 1844 0040 2844
000003b0: 0040 3844 0040 4844 0040 5844 0040 6844
000003c0: 0000 4041 0000 4842 0000 ae42 0000 f842
000003d0: 0000 2143 0000 4643 0000 6c43 0080 8843
000003e0: 0000 9b43 0080 ad43 0080 c043 0000 d343
000003f0: 0080 e543 0000 f843 0080 0544 0000 e841

MultiThreshold_1_param0 f4 [64, 15]
122.0 194.0 265.0 337.0 408.0 479.0 551.0 622.0
694.0 765.0 837.0 908.0 980.0 1051.0 1123.0 255.0
314.0 373.0 432.0 491.0 550.0 608.0 667.0 726.0
785.0 844.0 903.0 961.0 1020.0 1079.0 54.0 148.0
242.0 336.0 430.0 524.0 618.0 712.0 806.0 900.0
994.0 1088.0 1182.0 1276.0 1370.0 69.0 179.0 288.0
398.0 507.0 617.0 727.0 836.0 946.0 1056.0 1165.0
1275.0 1385.0 1494.0 1604.0 64.0 145.0 225.0 306.0
387.0 468.0 549.0 630.0 711.0 791.0 872.0 953.0
1034.0 1115.0 1196.0 145.0 238.0 330.0 422.0 514.0
607.0 699.0 791.0 883.0 976.0 1068.0 1160.0 1253.0
1345.0 1437.0 -15.0 68.0 151.0 234.0 317.0 400.0
482.0 565.0 648.0 731.0 814.0 897.0 980.0 1062.0
1145.0 180.0 280.0 380.0 480.0 581.0 681.0 781.0
882.0 982.0 1082.0 1183.0 1283.0 1383.0 1484.0 1584.0
80.0 154.0 227.0 301.0 375.0 449.0 522.0 596.0
670.0 744.0 817.0 891.0 965.0 1038.0 1112.0 88.0
159.0 231.0 302.0 374.0 445.0 517.0 588.0 659.0
731.0 802.0 874.0 945.0 1017.0 1088.0 -101.0 2.0
105.0 208.0 311.0 414.0 517.0 620.0 723.0 826.0
929.0 1032.0 1135.0 1238.0 1341.0 -129.0 -41.0 47.0
136.0 224.0 313.0 401.0 490.0 578.0 667.0 755.0
844.0 932.0 1021.0 1109.0 201.0 300.0 399.0 499.0
598.0 697.0 796.0 895.0 995.0 1094.0 1193.0 1292.0
1391.0 1491.0 1590.0 169.0 273.0 376.0 479.0 583.0
686.0 790.0 893.0 997.0 1100.0 1204.0 1307.0 1410.0
1514.0 1617.0 -17.0 49.0 114.0 179.0 244.0 310.0
375.0 440.0 505.0 571.0 636.0 701.0 766.0 832.0
897.0 -178.0 -105.0 -32.0 41.0 113.0 186.0 259.0
332.0 405.0 477.0 550.0 623.0 696.0 769.0 841.0
-330.0 -282.0 -234.0 -186.0 -138.0 -90.0 -42.0 6.0
54.0 102.0 150.0 198.0 246.0 294.0 342.0 -204.0
00000000: 0000 f442 0000 4243 0080 8443 0080 a843
00000010: 0000 cc43 0080 ef43 00c0 0944 0080 1b44
00000020: 0080 2d44 0040 3f44 0040 5144 0000 6344
00000030: 0000 7544 0060 8344 0060 8c44 0000 7f43
00000040: 0000 9d43 0080 ba43 0000 d843 0080 f543
00000050: 0080 0944 0000 1844 00c0 2644 0080 3544
00000060: 0040 4444 0000 5344 00c0 6144 0040 7044
00000070: 0000 7f44 00e0 8644 0000 5842 0000 1443
00000080: 0000 7243 0000 a843 0000 d743 0000 0344
00000090: 0080 1a44 0000 3244 0080 4944 0000 6144
000000a0: 0080 7844 0000 8844 00c0 9344 0080 9f44
000000b0: 0040 ab44 0000 8a42 0000 3343 0000 9043
000000c0: 0000 c743 0080 fd43 0040 1a44 00c0 3544
000000d0: 0000 5144 0080 6c44 0000 8444 00a0 9144
000000e0: 0060 9f44 0020 ad44 00c0 ba44 0080 c844
000000f0: 0000 8042 0000 1143 0000 6143 0000 9943
00000100: 0080 c143 0000 ea43 0040 0944 0080 1d44
00000110: 00c0 3144 00c0 4544 0000 5a44 0040 6e44
00000120: 0040 8144 0060 8b44 0080 9544 0000 1143
00000130: 0000 6e43 0000 a543 0000 d343 0080 0044
00000140: 00c0 1744 00c0 2e44 00c0 4544 00c0 5c44
00000150: 0000 7444 0080 8544 0000 9144 00a0 9c44
00000160: 0020 a844 00a0 b344 0000 70c1 0000 8842
00000170: 0000 1743 0000 6a43 0080 9e43 0000 c843
00000180: 0000 f143 0040 0d44 0000 2244 00c0 3644
00000190: 0080 4b44 0040 6044 0000 7544 00c0 8444
000001a0: 0020 8f44 0000 3443 0000 8c43 0000 be43
000001b0: 0000 f043 0040 1144 0040 2a44 0040 4344
000001c0: 0080 5c44 0080 7544 0040 8744 00e0 9344
000001d0: 0060 a044 00e0 ac44 0080 b944 0000 c644
000001e0: 0000 a042 0000 1a43 0000 6343 0080 9643
000001f0: 0080 bb43 0080 e043 0080 0244 0000 1544
00000200: 0080 2744 0000 3a44 0040 4c44 00c0 5e44
00000210: 0040 7144 00c0 8144 0000 8b44 0000 b042
00000220: 0000 1f43 0000 6743 0000 9743 0000 bb43
00000230: 0080 de43 0040 0144 0000 1344 00c0 2444
00000240: 00c0 3644 0080 4844 0080 5a44 0040 6c44
00000250: 0040 7e44 0000 8844 0000 cac2 0000 0040
00000260: 0000 d242 0000 5043 0080 9b43 0000 cf43
00000270: 0040 0144 0000 1b44 00c0 3444 0080 4e44
00000280: 0040 6844 0000 8144 00e0 8d44 00c0 9a44
00000290: 00a0 a744 0000 01c3 0000 24c2 0000 3c42
000002a0: 0000 0843 0000 6043 0080 9c43 0080 c843
000002b0: 0000 f543 0080 1044 00c0 2644 00c0 3c44
000002c0: 0000 5344 0000 6944 0040 7f44 00a0 8a44
000002d0: 0000 4943 0000 9643 0080 c743 0080 f943
000002e0: 0080 1544 0040 2e44 0000 4744 00c0 5f44
000002f0: 00c0 7844 00c0 8844 0020 9544 0080 a144
00000300: 00e0 ad44 0060 ba44 00c0 c644 0000 2943
00000310: 0080 8843 0000 bc43 0080 ef43 00c0 1144
00000320: 0080 2b44 0080 4544 0040 5f44 0040 7944
00000330: 0080 8944 0080 9644 0060 a344 0040 b044
00000340: 0040 bd44 0020 ca44 0000 88c1 0000 4442
00000350: 0000 e442 0000 3343 0000 7443 0000 9b43
00000360: 0080 bb43 0000 dc43 0080 fc43 00c0 0e44
00000370: 0000 1f44 0040 2f44 0080 3f44 0000 5044
00000380: 0040 6044 0000 32c3 0000 d2c2 0000 00c2
00000390: 0000 2442 0000 e242 0000 3a43 0080 8143
000003a0: 0000 a643 0080 ca43 0080 ee43 0080 0944
000003b0: 00c0 1b44 0000 2e44 0040 4044 0040 5244
000003c0: 0000 a5c3 0000 8dc3 0000 6ac3 0000 3ac3
000003d0: 0000 0ac3 0000 b4c2 0000 28c2 0000 c040
000003e0: 0000 5842 0000 cc42 0000 1643 0000 4643
000003f0: 0000 7643 0000 9343 0000 ab43 0000 4cc3

MultiThreshold_2_param0 f4 [64, 15]
74.0 124.0 175.0 226.0 276.0 327.0 377.0 428.0
479.0 529.0 580.0 630.0 681.0 732.0 782.0 88.0
137.0 186.0 235.0 284.0 333.0 382.0 431.0 479.0
528.0 577.0 626.0 675.0 724.0 773.0 29.0 69.0
108.0 148.0 187.0 227.0 267.0 306.0 346.0 386.0
425.0 465.0 504.0 544.0 584.0 -52.0 5.0 63.0
121.0 179.0 237.0 295.0 352.0 410.0 468.0 526.0
584.0 642.0 699.0 757.0 25.0 70.0 115.0 160.0
205.0 250.0 295.0 340.0 386.0 431.0 476.0 521.0
566.0 611.0 656.0 53.0 97.0 141.0 185.0 229.0
272.0 316.0 360.0 404.0 448.0 491.0 535.0 579.0
623.0 666.0 70.0 129.0 188.0 248.0 307.0 366.0
425.0 485.0 544.0 603.0 662.0 722.0 781.0 840.0
899.0 103.0 145.0 187.0 229.0 271.0 312.0 354.0
396.0 438.0 480.0 522.0 563.0 605.0 647.0 689.0
173.0 230.0 287.0 344.0 401.0 458.0 515.0 572.0
629.0 686.0 743.0 800.0 857.0 914.0 971.0 150.0
187.0 223.0 260.0 297.0 334.0 371.0 408.0 444.0
481.0 518.0 555.0 592.0 629.0 666.0 43.0 97.0
151.0 205.0 259.0 313.0 367.0 421.0 474.0 528.0
582.0 636.0 690.0 744.0 798.0 82.0 134.0 185.0
237.0 288.0 340.0 392.0 443.0 495.0 547.0 598.0
650.0 701.0 753.0 805.0 -111.0 -37.0 38.0 112.0
187.0 261.0 336.0 411.0 485.0 560.0 634.0 709.0
783.0 858.0 932.0 96.0 158.0 219.0 280.0 341.0
403.0 464.0 525.0 586.0 648.0 709.0 770.0 831.0
893.0 954.0 -145.0 -101.0 -57.0 -13.0 31.0 75.0
119.0 163.0 207.0 251.0 295.0 339.0 383.0 427.0
471.0 -125.0 -73.0 -20.0 33.0 86.0 139.0 191.0
244.0 297.0 350.0 403.0 456.0 508.0 561.0 614.0
113.0 158.0 204.0 249.0 294.0 339.0 384.0 430.0
475.0 520.0 565.0 610.0 656.0 701.0 746.0 217.0
00000000: 0000 9442 0000 f842 0000 2f43 0000 6243
00000010: 0000 8a43 0080 a343 0080 bc43 0000 d643
00000020: 0080 ef43 0040 0444 0000 1144 0080 1d44
00000030: 0040 2a44 0000 3744 0080 4344 0000 b042
00000040: 0000 0943 0000 3a43 0000 6b43 0000 8e43
00000050: 0080 a643 0000 bf43 0080 d743 0080 ef43
00000060: 0000 0444 0040 1044 0080 1c44 00c0 2844
00000070: 0000 3544 0040 4144 0000 e841 0000 8a42
00000080: 0000 d842 0000 1443 0000 3b43 0000 6343
00000090: 0080 8543 0000 9943 0000 ad43 0000 c143
000000a0: 0080 d443 0080 e843 0000 fc43 0000 0844
000000b0: 0000 1244 0000 50c2 0000 a040 0000 7c42
000000c0: 0000 f242 0000 3343 0000 6d43 0080 9343
000000d0: 0000 b043 0000 cd43 0000 ea43 0080 0344
000000e0: 0000 1244 0080 2044 00c0 2e44 0040 3d44
000000f0: 0000 c841 0000 8c42 0000 e642 0000 2043
00000100: 0000 4d43 0000 7a43 0080 9343 0000 aa43
00000110: 0000 c143 0080 d743 0000 ee43 0040 0244
00000120: 0080 0d44 00c0 1844 0000 2444 0000 5442
00000130: 0000 c242 0000 0d43 0000 3943 0000 6543
00000140: 0000 8843 0000 9e43 0000 b443 0000 ca43
00000150: 0000 e043 0080 f543 00c0 0544 00c0 1044
00000160: 00c0 1b44 0080 2644 0000 8c42 0000 0143
00000170: 0000 3c43 0000 7843 0080 9943 0000 b743
00000180: 0080 d443 0080 f243 0000 0844 00c0 1644
00000190: 0080 2544 0080 3444 0040 4344 0000 5244
000001a0: 00c0 6044 0000 ce42 0000 1143 0000 3b43
000001b0: 0000 6543 0080 8743 0000 9c43 0000 b143
000001c0: 0000 c643 0000 db43 0000 f043 0080 0244
000001d0: 00c0 0c44 0040 1744 00c0 2144 0040 2c44
000001e0: 0000 2d43 0000 6643 0080 8f43 0000 ac43
000001f0: 0080 c843 0000 e543 00c0 0044 0000 0f44
00000200: 0040 1d44 0080 2b44 00c0 3944 0000 4844
00000210: 0040 5644 0080 6444 00c0 7244 0000 1643
00000220: 0000 3b43 0000 5f43 0000 8243 0080 9443
00000230: 0000 a743 0080 b943 0000 cc43 0000 de43
00000240: 0080 f043 0080 0144 00c0 0a44 0000 1444
00000250: 0040 1d44 0080 2644 0000 2c42 0000 c242
00000260: 0000 1743 0000 4d43 0080 8143 0080 9c43
00000270: 0080 b743 0080 d243 0000 ed43 0000 0444
00000280: 0080 1144 0000 1f44 0080 2c44 0000 3a44
00000290: 0080 4744 0000 a442 0000 0643 0000 3943
000002a0: 0000 6d43 0000 9043 0000 aa43 0000 c443
000002b0: 0080 dd43 0080 f743 00c0 0844 0080 1544
000002c0: 0080 2244 0040 2f44 0040 3c44 0040 4944
000002d0: 0000 dec2 0000 14c2 0000 1842 0000 e042
000002e0: 0000 3b43 0080 8243 0000 a843 0080 cd43
000002f0: 0080 f243 0000 0c44 0080 1e44 0040 3144
00000300: 00c0 4344 0080 5644 0000 6944 0000 c042
00000310: 0000 1e43 0000 5b43 0000 8c43 0080 aa43
00000320: 0080 c943 0000 e843 0040 0344 0080 1244
00000330: 0000 2244 0040 3144 0080 4044 00c0 4f44
00000340: 0040 5f44 0080 6e44 0000 11c3 0000 cac2
00000350: 0000 64c2 0000 50c1 0000 f841 0000 9642
00000360: 0000 ee42 0000 2343 0000 4f43 0000 7b43
00000370: 0080 9343 0080 a943 0080 bf43 0080 d543
00000380: 0080 eb43 0000 fac2 0000 92c2 0000 a0c1
00000390: 0000 0442 0000 ac42 0000 0b43 0000 3f43
000003a0: 0000 7443 0080 9443 0000 af43 0080 c943
000003b0: 0000 e443 0000 fe43 0040 0c44 0080 1944
000003c0: 0000 e242 0000 1e43 0000 4c43 0000 7943
000003d0: 0000 9343 0080 a943 0000 c043 0000 d743
000003e0: 0080 ed43 0000 0244 0040 0d44 0080 1844
000003f0: 0000 2444 0040 2f44 0080 3a44 0000 5943

MultiThreshold_3_param0 f4 [64, 15]
-75.0 -17.0 41.0 99.0 157.0 215.0 272.0 330.0
388.0 446.0 504.0 562.0 620.0 678.0 736.0 -14.0
17.0 49.0 81.0 113.0 145.0 177.0 209.0 241.0
273.0 305.0 337.0 369.0 400.0 432.0 85.0 128.0
171.0 214.0 257.0 300.0 343.0 386.0 429.0 472.0
514.0 557.0 600.0 643.0 686.0 -38.0 9.0 55.0
102.0 149.0 196.0 242.0 289.0 336.0 383.0 430.0
476.0 523.0 570.0 617.0 27.0 60.0 93.0 125.0
158.0 191.0 223.0 256.0 289.0 321.0 354.0 387.0
419.0 452.0 485.0 -8.0 31.0 69.0 107.0 146.0
184.0 222.0 260.0 299.0 337.0 375.0 413.0 452.0
490.0 528.0 -98.0 -56.0 -14.0 29.0 71.0 113.0
155.0 197.0 240.0 282.0 324.0 366.0 408.0 451.0
493.0 50.0 83.0 116.0 149.0 182.0 215.0 248.0
281.0 314.0 347.0 380.0 413.0 446.0 479.0 512.0
-41.0 -5.0 31.0 68.0 104.0 141.0 177.0 213.0
250.0 286.0 323.0 359.0 396.0 432.0 468.0 15.0
48.0 81.0 114.0 147.0 180.0 213.0 246.0 279.0
312.0 345.0 378.0 411.0 444.0 477.0 41.0 83.0
125.0 168.0 210.0 252.0 294.0 336.0 378.0 420.0
462.0 504.0 546.0 588.0 630.0 -92.0 -49.0 -6.0
37.0 80.0 123.0 166.0 209.0 252.0 295.0 338.0
381.0 424.0 467.0 510.0 -2.0 36.0 74.0 112.0
150.0 188.0 226.0 264.0 302.0 340.0 378.0 416.0
454.0 492.0 530.0 -1.0 38.0 77.0 116.0 155.0
195.0 234.0 273.0 312.0 351.0 390.0 429.0 468.0
507.0 546.0 35.0 91.0 146.0 201.0 257.0 312.0
368.0 423.0 479.0 534.0 590.0 645.0 700.0 756.0
811.0 48.0 93.0 139.0 185.0 230.0 276.0 322.0
367.0 413.0 459.0 505.0 550.0 596.0 642.0 687.0
94.0 139.0 185.0 231.0 277.0 323.0 369.0 415.0
460.0 506.0 552.0 598.0 644.0 690.0 736.0 -124.0
00000000: 0000 96c2 0000 88c1 0000 2442 0000 c642
00000010: 0000 1d43 0000 5743 0000 8843 0000 a543
00000020: 0000 c243 0000 df43 0000 fc43 0080 0c44
00000030: 0000 1b44 0080 2944 0000 3844 0000 60c1
00000040: 0000 8841 0000 4442 0000 a242 0000 e242
00000050: 0000 1143 0000 3143 0000 5143 0000 7143
00000060: 0080 8843 0080 9843 0080 a843 0080 b843
00000070: 0000 c843 0000 d843 0000 aa42 0000 0043
00000080: 0000 2b43 0000 5643 0080 8043 0000 9643
00000090: 0080 ab43 0000 c143 0080 d643 0000 ec43
000000a0: 0080 0044 0040 0b44 0000 1644 00c0 2044
000000b0: 0080 2b44 0000 18c2 0000 1041 0000 5c42
000000c0: 0000 cc42 0000 1543 0000 4443 0000 7243
000000d0: 0080 9043 0000 a843 0080 bf43 0000 d743
000000e0: 0000 ee43 00c0 0244 0080 0e44 0040 1a44
000000f0: 0000 d841 0000 7042 0000 ba42 0000 fa42
00000100: 0000 1e43 0000 3f43 0000 5f43 0000 8043
00000110: 0080 9043 0080 a043 0000 b143 0080 c143
00000120: 0080 d143 0000 e243 0080 f243 0000 00c1
00000130: 0000 f841 0000 8a42 0000 d642 0000 1243
00000140: 0000 3843 0000 5e43 0000 8243 0080 9543
00000150: 0080 a843 0080 bb43 0080 ce43 0000 e243
00000160: 0000 f543 0000 0444 0000 c4c2 0000 60c2
00000170: 0000 60c1 0000 e841 0000 8e42 0000 e242
00000180: 0000 1b43 0000 4543 0000 7043 0000 8d43
00000190: 0000 a243 0000 b743 0000 cc43 0080 e143
000001a0: 0080 f643 0000 4842 0000 a642 0000 e842
000001b0: 0000 1543 0000 3643 0000 5743 0000 7843
000001c0: 0080 8c43 0000 9d43 0080 ad43 0000 be43
000001d0: 0080 ce43 0000 df43 0080 ef43 0000 0044
000001e0: 0000 24c2 0000 a0c0 0000 f841 0000 8842
000001f0: 0000 d042 0000 0d43 0000 3143 0000 5543
00000200: 0000 7a43 0000 8f43 0080 a143 0080 b343
00000210: 0000 c643 0000 d843 0000 ea43 0000 7041
00000220: 0000 4042 0000 a242 0000 e442 0000 1343
00000230: 0000 3443 0000 5543 0000 7643 0080 8b43
00000240: 0000 9c43 0080 ac43 0000 bd43 0080 cd43
00000250: 0000 de43 0080 ee43 0000 2442 0000 a642
00000260: 0000 fa42 0000 2843 0000 5243 0000 7c43
00000270: 0000 9343 0000 a843 0000 bd43 0000 d243
00000280: 0000 e743 0000 fc43 0080 0844 0000 1344
00000290: 0080 1d44 0000 b8c2 0000 44c2 0000 c0c0
000002a0: 0000 1442 0000 a042 0000 f642 0000 2643
000002b0: 0000 5143 0000 7c43 0080 9343 0000 a943
000002c0: 0080 be43 0000 d443 0080 e943 0000 ff43
000002d0: 0000 00c0 0000 1042 0000 9442 0000 e042
000002e0: 0000 1643 0000 3c43 0000 6243 0000 8443
000002f0: 0000 9743 0000 aa43 0000 bd43 0000 d043
00000300: 0000 e343 0000 f643 0080 0444 0000 80bf
00000310: 0000 1842 0000 9a42 0000 e842 0000 1b43
00000320: 0000 4343 0000 6a43 0080 8843 0000 9c43
00000330: 0080 af43 0000 c343 0080 d643 0000 ea43
00000340: 0080 fd43 0080 0844 0000 0c42 0000 b642
00000350: 0000 1243 0000 4943 0080 8043 0000 9c43
00000360: 0000 b843 0080 d343 0080 ef43 0080 0544
00000370: 0080 1344 0040 2144 0000 2f44 0000 3d44
00000380: 00c0 4a44 0000 4042 0000 ba42 0000 0b43
00000390: 0000 3943 0000 6643 0000 8a43 0000 a143
000003a0: 0080 b743 0080 ce43 0080 e543 0080 fc43
000003b0: 0080 0944 0000 1544 0080 2044 00c0 2b44
000003c0: 0000 bc42 0000 0b43 0000 3943 0000 6743
000003d0: 0080 8a43 0080 a143 0080 b843 0080 cf43
000003e0: 0000 e643 0000 fd43 0000 0a44 0080 1544
000003f0: 0000 2144 0080 2c44 0000 3844 0000 f8c2

MultiThreshold_4_param0 f4 [64, 15]
74.0 127.0 180.0 234.0 287.0 340.0 394.0 447.0
501.0 554.0 607.0 661.0 714.0 767.0 821.0 122.0
185.0 248.0 311.0 374.0 437.0 500.0 563.0 626.0
690.0 753.0 816.0 879.0 942.0 1005.0 40.0 79.0
118.0 157.0 196.0 235.0 274.0 314.0 353.0 392.0
431.0 470.0 509.0 548.0 587.0 55.0 88.0 121.0
155.0 188.0 221.0 255.0 288.0 321.0 354.0 388.0
421.0 454.0 488.0 521.0 11.0 67.0 123.0 178.0
234.0 289.0 345.0 400.0 456.0 512.0 567.0 623.0
678.0 734.0 790.0 22.0 71.0 119.0 168.0 217.0
266.0 315.0 364.0 413.0 461.0 510.0 559.0 608.0
657.0 706.0 105.0 155.0 206.0 256.0 306.0 356.0
406.0 456.0 506.0 556.0 606.0 656.0 706.0 756.0
806.0 24.0 60.0 95.0 130.0 166.0 201.0 237.0
272.0 307.0 343.0 378.0 414.0 449.0 484.0 520.0
-5.0 54.0 114.0 173.0 233.0 292.0 351.0 411.0
470.0 529.0 589.0 648.0 708.0 767.0 826.0 -43.0
1.0 44.0 88.0 131.0 175.0 219.0 262.0 306.0
349.0 393.0 436.0 480.0 524.0 567.0 87.0 136.0
186.0 235.0 285.0 334.0 384.0 433.0 483.0 533.0
582.0 632.0 681.0 731.0 780.0 116.0 154.0 192.0
230.0 267.0 305.0 343.0 381.0 419.0 457.0 495.0
532.0 570.0 608.0 646.0 91.0 133.0 175.0 217.0
259.0 301.0 343.0 385.0 427.0 469.0 511.0 553.0
595.0 637.0 679.0 66.0 107.0 147.0 188.0 229.0
269.0 310.0 351.0 391.0 432.0 473.0 513.0 554.0
595.0 635.0 -3.0 34.0 70.0 107.0 143.0 180.0
216.0 253.0 289.0 326.0 362.0 398.0 435.0 471.0
508.0 -68.0 -32.0 4.0 40.0 76.0 112.0 148.0
184.0 220.0 256.0 292.0 328.0 364.0 400.0 436.0
36.0 73.0 110.0 146.0 183.0 219.0 256.0 293.0
329.0 366.0 403.0 439.0 476.0 513.0 549.0 45.0
00000000: 0000 9442 0000 fe42 0000 3443 0000 6a43
00000010: 0080 8f43 0000 aa43 0000 c543 0080 df43
00000020: 0080 fa43 0080 0a44 00c0 1744 0040 2544
00000030: 0080 3244 00c0 3f44 0040 4d44 0000 f442
00000040: 0000 3943 0000 7843 0080 9b43 0000 bb43
00000050: 0080 da43 0000 fa43 00c0 0c44 0080 1c44
00000060: 0080 2c44 0040 3c44 0000 4c44 00c0 5b44
00000070: 0080 6b44 0040 7b44 0000 2042 0000 9e42
00000080: 0000 ec42 0000 1d43 0000 4443 0000 6b43
00000090: 0000 8943 0000 9d43 0080 b043 0000 c443
000000a0: 0080 d743 0000 eb43 0080 fe43 0000 0944
000000b0: 00c0 1244 0000 5c42 0000 b042 0000 f242
000000c0: 0000 1b43 0000 3c43 0000 5d43 0000 7f43
000000d0: 0000 9043 0080 a043 0000 b143 0000 c243
000000e0: 0080 d243 0000 e343 0000 f443 0040 0244
000000f0: 0000 3041 0000 8642 0000 f642 0000 3243
00000100: 0000 6a43 0080 9043 0080 ac43 0000 c843
00000110: 0000 e443 0000 0044 00c0 0d44 00c0 1b44
00000120: 0080 2944 0080 3744 0080 4544 0000 b041
00000130: 0000 8e42 0000 ee42 0000 2843 0000 5943
00000140: 0000 8543 0080 9d43 0000 b643 0080 ce43
00000150: 0080 e643 0000 ff43 00c0 0b44 0000 1844
00000160: 0040 2444 0080 3044 0000 d242 0000 1b43
00000170: 0000 4e43 0000 8043 0000 9943 0000 b243
00000180: 0000 cb43 0000 e443 0000 fd43 0000 0b44
00000190: 0080 1744 0000 2444 0080 3044 0000 3d44
000001a0: 0080 4944 0000 c041 0000 7042 0000 be42
000001b0: 0000 0243 0000 2643 0000 4943 0000 6d43
000001c0: 0000 8843 0080 9943 0080 ab43 0000 bd43
000001d0: 0000 cf43 0080 e043 0000 f243 0000 0244
000001e0: 0000 a0c0 0000 5842 0000 e442 0000 2d43
000001f0: 0000 6943 0000 9243 0080 af43 0080 cd43
00000200: 0000 eb43 0040 0444 0040 1344 0000 2244
00000210: 0000 3144 00c0 3f44 0080 4e44 0000 2cc2
00000220: 0000 803f 0000 3042 0000 b042 0000 0343
00000230: 0000 2f43 0000 5b43 0000 8343 0000 9943
00000240: 0080 ae43 0080 c443 0000 da43 0000 f043
00000250: 0000 0344 00c0 0d44 0000 ae42 0000 0843
00000260: 0000 3a43 0000 6b43 0080 8e43 0000 a743
00000270: 0000 c043 0080 d843 0080 f143 0040 0544
00000280: 0080 1144 0000 1e44 0040 2a44 00c0 3644
00000290: 0000 4344 0000 e842 0000 1a43 0000 4043
000002a0: 0000 6643 0080 8543 0080 9843 0080 ab43
000002b0: 0080 be43 0080 d143 0080 e443 0080 f743
000002c0: 0000 0544 0080 0e44 0000 1844 0080 2144
000002d0: 0000 b642 0000 0543 0000 2f43 0000 5943
000002e0: 0080 8143 0080 9643 0080 ab43 0080 c043
000002f0: 0080 d543 0080 ea43 0080 ff43 0040 0a44
00000300: 00c0 1444 0040 1f44 00c0 2944 0000 8442
00000310: 0000 d642 0000 1343 0000 3c43 0000 6543
00000320: 0080 8643 0000 9b43 0080 af43 0080 c343
00000330: 0000 d843 0080 ec43 0040 0044 0080 0a44
00000340: 00c0 1444 00c0 1e44 0000 40c0 0000 0842
00000350: 0000 8c42 0000 d642 0000 0f43 0000 3443
00000360: 0000 5843 0000 7d43 0080 9043 0000 a343
00000370: 0000 b543 0000 c743 0080 d943 0080 eb43
00000380: 0000 fe43 0000 88c2 0000 00c2 0000 8040
00000390: 0000 2042 0000 9842 0000 e042 0000 1443
000003a0: 0000 3843 0000 5c43 0000 8043 0000 9243
000003b0: 0000 a443 0000 b643 0000 c843 0000 da43
000003c0: 0000 1042 0000 9242 0000 dc42 0000 1243
000003d0: 0000 3743 0000 5b43 0000 8043 0080 9243
000003e0: 0080 a443 0000 b743 0080 c943 0080 db43
000003f0: 0000 ee43 0040 0044 0040 0944 0000 3442

MultiThreshold_5_param0 f4 [64, 15]
107.0 156.0 206.0 255.0 305.0 354.0 404.0 453.0
503.0 552.0 602.0 651.0 701.0 750.0 800.0 -10.0
20.0 50.0 81.0 111.0 141.0 171.0 201.0 232.0
262.0 292.0 322.0 352.0 383.0 413.0 -97.0 -66.0
-35.0 -4.0 28.0 59.0 90.0 121.0 152.0 183.0
214.0 245.0 276.0 307.0 339.0 -16.0 40.0 95.0
151.0 206.0 262.0 317.0 373.0 428.0 484.0 539.0
595.0 651.0 706.0 762.0 49.0 82.0 115.0 148.0
181.0 214.0 247.0 280.0 313.0 346.0 379.0 412.0
445.0 478.0 511.0 47.0 74.0 100.0 127.0 153.0
180.0 206.0 233.0 259.0 286.0 312.0 339.0 365.0
392.0 418.0 98.0 150.0 201.0 252.0 303.0 354.0
406.0 457.0 508.0 559.0 610.0 661.0 713.0 764.0
815.0 -10.0 22.0 53.0 84.0 116.0 147.0 178.0
210.0 241.0 272.0 304.0 335.0 366.0 398.0 429.0
31.0 72.0 112.0 153.0 194.0 235.0 276.0 316.0
357.0 398.0 439.0 480.0 520.0 561.0 602.0 -24.0
13.0 50.0 87.0 124.0 161.0 198.0 235.0 272.0
309.0 347.0 384.0 421.0 458.0 495.0 3.0 56.0
108.0 160.0 212.0 264.0 316.0 368.0 421.0 473.0
525.0 577.0 629.0 681.0 733.0 85.0 124.0 162.0
201.0 239.0 278.0 316.0 355.0 393.0 432.0 470.0
509.0 547.0 586.0 624.0 -45.0 -11.0 23.0 57.0
91.0 125.0 159.0 193.0 227.0 261.0 296.0 330.0
364.0 398.0 432.0 64.0 111.0 157.0 204.0 250.0
296.0 343.0 389.0 436.0 482.0 529.0 575.0 622.0
668.0 715.0 64.0 108.0 152.0 197.0 241.0 285.0
329.0 374.0 418.0 462.0 506.0 551.0 595.0 639.0
684.0 165.0 215.0 264.0 314.0 363.0 413.0 463.0
512.0 562.0 611.0 661.0 710.0 760.0 810.0 859.0
-28.0 17.0 61.0 106.0 150.0 195.0 239.0 284.0
328.0 373.0 417.0 462.0 506.0 551.0 595.0 -6.0
00000000: 0000 d642 0000 1c43 0000 4e43 0000 7f43
00000010: 0080 9843 0000 b143 0000 ca43 0080 e243
00000020: 0080 fb43 0000 0a44 0080 1644 00c0 2244
00000030: 0040 2f44 0080 3b44 0000 4844 0000 20c1
00000040: 0000 a041 0000 4842 0000 a242 0000 de42
00000050: 0000 0d43 0000 2b43 0000 4943 0000 6843
00000060: 0000 8343 0000 9243 0000 a143 0000 b043
00000070: 0080 bf43 0080 ce43 0000 c2c2 0000 84c2
00000080: 0000 0cc2 0000 80c0 0000 e041 0000 6c42
00000090: 0000 b442 0000 f242 0000 1843 0000 3743
000000a0: 0000 5643 0000 7543 0000 8a43 0080 9943
000000b0: 0080 a943 0000 80c1 0000 2042 0000 be42
000000c0: 0000 1743 0000 4e43 0000 8343 0080 9e43
000000d0: 0080 ba43 0000 d643 0000 f243 00c0 0644
000000e0: 00c0 1444 00c0 2244 0080 3044 0080 3e44
000000f0: 0000 4442 0000 a442 0000 e642 0000 1443
00000100: 0000 3543 0000 5643 0000 7743 0000 8c43
00000110: 0080 9c43 0000 ad43 0080 bd43 0000 ce43
00000120: 0080 de43 0000 ef43 0080 ff43 0000 3c42
00000130: 0000 9442 0000 c842 0000 fe42 0000 1943
00000140: 0000 3443 0000 4e43 0000 6943 0080 8143
00000150: 0000 8f43 0000 9c43 0080 a943 0080 b643
00000160: 0000 c443 0000 d143 0000 c442 0000 1643
00000170: 0000 4943 0000 7c43 0080 9743 0000 b143
00000180: 0000 cb43 0080 e443 0000 fe43 00c0 0b44
00000190: 0080 1844 0040 2544 0040 3244 0000 3f44
000001a0: 00c0 4b44 0000 20c1 0000 b041 0000 5442
000001b0: 0000 a842 0000 e842 0000 1343 0000 3243
000001c0: 0000 5243 0000 7143 0000 8843 0000 9843
000001d0: 0080 a743 0000 b743 0000 c743 0080 d643
000001e0: 0000 f841 0000 9042 0000 e042 0000 1943
000001f0: 0000 4243 0000 6b43 0000 8a43 0000 9e43
00000200: 0080 b243 0000 c743 0080 db43 0000 f043
00000210: 0000 0244 0040 0c44 0080 1644 0000 c0c1
00000220: 0000 5041 0000 4842 0000 ae42 0000 f842
00000230: 0000 2143 0000 4643 0000 6b43 0000 8843
00000240: 0080 9a43 0080 ad43 0000 c043 0080 d243
00000250: 0000 e543 0080 f743 0000 4040 0000 6042
00000260: 0000 d842 0000 2043 0000 5443 0000 8443
00000270: 0000 9e43 0000 b843 0080 d243 0080 ec43
00000280: 0040 0344 0040 1044 0040 1d44 0040 2a44
00000290: 0040 3744 0000 aa42 0000 f842 0000 2243
000002a0: 0000 4943 0000 6f43 0000 8b43 0000 9e43
000002b0: 0080 b143 0080 c443 0000 d843 0000 eb43
000002c0: 0080 fe43 00c0 0844 0080 1244 0000 1c44
000002d0: 0000 34c2 0000 30c1 0000 b841 0000 6442
000002e0: 0000 b642 0000 fa42 0000 1f43 0000 4143
000002f0: 0000 6343 0080 8243 0000 9443 0000 a543
00000300: 0000 b643 0000 c743 0000 d843 0000 8042
00000310: 0000 de42 0000 1d43 0000 4c43 0000 7a43
00000320: 0000 9443 0080 ab43 0080 c243 0000 da43
00000330: 0000 f143 0040 0444 00c0 0f44 0080 1b44
00000340: 0000 2744 00c0 3244 0000 8042 0000 d842
00000350: 0000 1843 0000 4543 0000 7143 0080 8e43
00000360: 0080 a443 0000 bb43 0000 d143 0000 e743
00000370: 0000 fd43 00c0 0944 00c0 1444 00c0 1f44
00000380: 0000 2b44 0000 2543 0000 5743 0000 8443
00000390: 0000 9d43 0080 b543 0080 ce43 0080 e743
000003a0: 0000 0044 0080 0c44 00c0 1844 0040 2544
000003b0: 0080 3144 0000 3e44 0080 4a44 00c0 5644
000003c0: 0000 e0c1 0000 8841 0000 7442 0000 d442
000003d0: 0000 1643 0000 4343 0000 6f43 0000 8e43
000003e0: 0000 a443 0080 ba43 0080 d043 0000 e743
000003f0: 0000 fd43 00c0 0944 00c0 1444 0000 c0c0

MultiThreshold_6_param0 f4 [64, 15]
17.0 51.0 84.0 118.0 152.0 185.0 219.0 253.0
286.0 320.0 354.0 387.0 421.0 455.0 489.0 -82.0
-35.0 12.0 59.0 106.0 153.0 200.0 247.0 294.0
341.0 388.0 434.0 481.0 528.0 575.0 -27.0 15.0
58.0 100.0 143.0 185.0 228.0 270.0 313.0 355.0
398.0 440.0 483.0 525.0 567.0 35.0 87.0 140.0
192.0 244.0 296.0 349.0 401.0 453.0 505.0 557.0
610.0 662.0 714.0 766.0 -29.0 10.0 49.0 87.0
126.0 165.0 204.0 243.0 282.0 320.0 359.0 398.0
437.0 476.0 515.0 -47.0 -8.0 32.0 71.0 110.0
149.0 189.0 228.0 267.0 306.0 346.0 385.0 424.0
463.0 503.0 115.0 161.0 206.0 251.0 296.0 341.0
387.0 432.0 477.0 522.0 568.0 613.0 658.0 703.0
749.0 -75.0 -46.0 -18.0 10.0 38.0 67.0 95.0
123.0 152.0 180.0 208.0 236.0 265.0 293.0 321.0
-101.0 -43.0 16.0 74.0 133.0 191.0 249.0 308.0
366.0 425.0 483.0 541.0 600.0 658.0 717.0 13.0
48.0 82.0 116.0 150.0 184.0 218.0 252.0 287.0
321.0 355.0 389.0 423.0 457.0 492.0 -0.0 34.0
68.0 103.0 137.0 171.0 206.0 240.0 274.0 309.0
343.0 377.0 412.0 446.0 480.0 -26.0 19.0 65.0
110.0 155.0 201.0 246.0 292.0 337.0 383.0 428.0
473.0 519.0 564.0 610.0 97.0 141.0 186.0 231.0
276.0 321.0 365.0 410.0 455.0 500.0 545.0 589.0
634.0 679.0 724.0 101.0 150.0 198.0 247.0 296.0
344.0 393.0 442.0 490.0 539.0 588.0 636.0 685.0
734.0 782.0 34.0 78.0 122.0 166.0 210.0 254.0
298.0 341.0 385.0 429.0 473.0 517.0 561.0 604.0
648.0 -6.0 24.0 54.0 85.0 115.0 145.0 175.0
206.0 236.0 266.0 296.0 326.0 357.0 387.0 417.0
75.0 105.0 136.0 167.0 198.0 228.0 259.0 290.0
321.0 351.0 382.0 413.0 443.0 474.0 505.0 -11.0
00000000: 0000 8841 0000 4c42 0000 a842 0000 ec42
00000010: 0000 1843 0000 3943 0000 5b43 0000 7d43
00000020: 0000 8f43 0000 a043 0000 b143 0080 c143
00000030: 0080 d243 0080 e343 0080 f443 0000 a4c2
00000040: 0000 0cc2 0000 4041 0000 6c42 0000 d442
00000050: 0000 1943 0000 4843 0000 7743 0000 9343
00000060: 0080 aa43 0000 c243 0000 d943 0080 f043
00000070: 0000 0444 00c0 0f44 0000 d8c1 0000 7041
00000080: 0000 6842 0000 c842 0000 0f43 0000 3943
00000090: 0000 6443 0000 8743 0080 9c43 0080 b143
000000a0: 0000 c743 0000 dc43 0080 f143 0040 0344
000000b0: 00c0 0d44 0000 0c42 0000 ae42 0000 0c43
000000c0: 0000 4043 0000 7443 0000 9443 0080 ae43
000000d0: 0080 c843 0080 e243 0080 fc43 0040 0b44
000000e0: 0080 1844 0080 2544 0080 3244 0080 3f44
000000f0: 0000 e8c1 0000 2041 0000 4442 0000 ae42
00000100: 0000 fc42 0000 2543 0000 4c43 0000 7343
00000110: 0000 8d43 0000 a043 0080 b343 0000 c743
00000120: 0080 da43 0000 ee43 00c0 0044 0000 3cc2
00000130: 0000 00c1 0000 0042 0000 8e42 0000 dc42
00000140: 0000 1543 0000 3d43 0000 6443 0080 8543
00000150: 0000 9943 0000 ad43 0080 c043 0000 d443
00000160: 0080 e743 0080 fb43 0000 e642 0000 2143
00000170: 0000 4e43 0000 7b43 0000 9443 0080 aa43
00000180: 0080 c143 0000 d843 0080 ee43 0080 0244
00000190: 0000 0e44 0040 1944 0080 2444 00c0 2f44
000001a0: 0040 3b44 0000 96c2 0000 38c2 0000 90c1
000001b0: 0000 2041 0000 1842 0000 8642 0000 be42
000001c0: 0000 f642 0000 1843 0000 3443 0000 5043
000001d0: 0000 6c43 0080 8443 0080 9243 0080 a043
000001e0: 0000 cac2 0000 2cc2 0000 8041 0000 9442
000001f0: 0000 0543 0000 3f43 0000 7943 0000 9a43
00000200: 0000 b743 0080 d443 0080 f143 0040 0744
00000210: 0000 1644 0080 2444 0040 3344 0000 5041
00000220: 0000 4042 0000 a442 0000 e842 0000 1643
00000230: 0000 3843 0000 5a43 0000 7c43 0080 8f43
00000240: 0080 a043 0080 b143 0080 c243 0080 d343
00000250: 0080 e443 0000 f643 0000 0080 0000 0842
00000260: 0000 8842 0000 ce42 0000 0943 0000 2b43
00000270: 0000 4e43 0000 7043 0000 8943 0080 9a43
00000280: 0080 ab43 0080 bc43 0000 ce43 0000 df43
00000290: 0000 f043 0000 d0c1 0000 9841 0000 8242
000002a0: 0000 dc42 0000 1b43 0000 4943 0000 7643
000002b0: 0000 9243 0080 a843 0080 bf43 0000 d643
000002c0: 0080 ec43 00c0 0144 0000 0d44 0080 1844
000002d0: 0000 c242 0000 0d43 0000 3a43 0000 6743
000002e0: 0000 8a43 0080 a043 0080 b643 0000 cd43
000002f0: 0080 e343 0000 fa43 0040 0844 0040 1344
00000300: 0080 1e44 00c0 2944 0000 3544 0000 ca42
00000310: 0000 1643 0000 4643 0000 7743 0000 9443
00000320: 0000 ac43 0080 c443 0000 dd43 0000 f543
00000330: 00c0 0644 0000 1344 0000 1f44 0040 2b44
00000340: 0080 3744 0080 4344 0000 0842 0000 9c42
00000350: 0000 f442 0000 2643 0000 5243 0000 7e43
00000360: 0000 9543 0080 aa43 0080 c043 0080 d643
00000370: 0080 ec43 0040 0144 0040 0c44 0000 1744
00000380: 0000 2244 0000 c0c0 0000 c041 0000 5842
00000390: 0000 aa42 0000 e642 0000 1143 0000 2f43
000003a0: 0000 4e43 0000 6c43 0000 8543 0000 9443
000003b0: 0000 a343 0080 b243 0080 c143 0080 d043
000003c0: 0000 9642 0000 d242 0000 0843 0000 2743
000003d0: 0000 4643 0000 6443 0080 8143 0000 9143
000003e0: 0080 a043 0080 af43 0000 bf43 0080 ce43
000003f0: 0080 dd43 0000 ed43 0080 fc43 0000 30c1

MultiThreshold_7_param0 f4 [128, 15]
60.0 140.0 220.0 300.0 380.0 460.0 540.0 620.0
699.0 779.0 859.0 939.0 1019.0 1099.0 1179.0 -99.0
-48.0 3.0 53.0 104.0 154.0 205.0 255.0 306.0
357.0 407.0 458.0 508.0 559.0 609.0 22.0 83.0
143.0 204.0 265.0 326.0 386.0 447.0 508.0 569.0
629.0 690.0 751.0 812.0 872.0 -268.0 -193.0 -119.0
-44.0 31.0 105.0 180.0 255.0 330.0 404.0 479.0
554.0 628.0 703.0 778.0 -146.0 -79.0 -11.0 56.0
124.0 191.0 258.0 326.0 393.0 460.0 528.0 595.0
662.0 730.0 797.0 449.0 538.0 627.0 716.0 805.0
895.0 984.0 1073.0 1162.0 1251.0 1341.0 1430.0 1519.0
1608.0 1697.0 -211.0 -144.0 -78.0 -12.0 55.0 121.0
188.0 254.0 321.0 387.0 454.0 520.0 587.0 653.0
719.0 107.0 195.0 283.0 371.0 458.0 546.0 634.0
722.0 810.0 897.0 985.0 1073.0 1161.0 1249.0 1336.0
26.0 66.0 105.0 144.0 184.0 223.0 263.0 302.0
342.0 381.0 421.0 460.0 500.0 539.0 579.0 132.0
220.0 308.0 396.0 484.0 572.0 660.0 748.0 835.0
923.0 1011.0 1099.0 1187.0 1275.0 1363.0 -16.0 68.0
151.0 234.0 317.0 400.0 483.0 567.0 650.0 733.0
816.0 899.0 982.0 1066.0 1149.0 1.0 72.0 142.0
212.0 282.0 353.0 423.0 493.0 563.0 634.0 704.0
774.0 844.0 914.0 985.0 -135.0 -44.0 47.0 137.0
228.0 319.0 409.0 500.0 591.0 681.0 772.0 862.0
953.0 1044.0 1134.0 217.0 279.0 341.0 402.0 464.0
526.0 588.0 650.0 712.0 774.0 836.0 898.0 960.0
1022.0 1084.0 -10.0 48.0 106.0 163.0 221.0 279.0
337.0 395.0 453.0 511.0 569.0 626.0 684.0 742.0
800.0 -163.0 -107.0 -51.0 6.0 62.0 118.0 175.0
231.0 287.0 344.0 400.0 456.0 513.0 569.0 625.0
210.0 273.0 337.0 400.0 464.0 527.0 591.0 655.0
718.0 782.0 845.0 909.0 972.0 1036.0 1099.0 105.0
00000000: 0000 7042 0000 0c43 0000 5c43 0000 9643
00000010: 0000 be43 0000 e643 0000 0744 0000 1b44
00000020: 00c0 2e44 00c0 4244 00c0 5644 00c0 6a44
00000030: 00c0 7e44 0060 8944 0060 9344 0000 c6c2
00000040: 0000 40c2 0000 4040 0000 5442 0000 d042
00000050: 0000 1a43 0000 4d43 0000 7f43 0000 9943
00000060: 0080 b243 0080 cb43 0000 e543 0000 fe43
00000070: 00c0 0b44 0040 1844 0000 b041 0000 a642
00000080: 0000 0f43 0000 4c43 0080 8443 0000 a343
00000090: 0000 c143 0080 df43 0000 fe43 0040 0e44
000000a0: 0040 1d44 0080 2c44 00c0 3b44 0000 4b44
000000b0: 0000 5a44 0000 86c3 0000 41c3 0000 eec2
000000c0: 0000 30c2 0000 f841 0000 d242 0000 3443
000000d0: 0000 7f43 0000 a543 0000 ca43 0080 ef43
000000e0: 0080 0a44 0000 1d44 00c0 2f44 0080 4244
000000f0: 0000 12c3 0000 9ec2 0000 30c1 0000 6042
00000100: 0000 f842 0000 3f43 0000 8143 0000 a343
00000110: 0080 c443 0000 e643 0000 0444 00c0 1444
00000120: 0080 2544 0080 3644 0040 4744 0080 e043
00000130: 0080 0644 00c0 1c44 0000 3344 0040 4944
00000140: 00c0 5f44 0000 7644 0020 8644 0040 9144
00000150: 0060 9c44 00a0 a744 00c0 b244 00e0 bd44
00000160: 0000 c944 0020 d444 0000 53c3 0000 10c3
00000170: 0000 9cc2 0000 40c1 0000 5c42 0000 f242
00000180: 0000 3c43 0000 7e43 0080 a043 0080 c143
00000190: 0000 e343 0000 0244 00c0 1244 0040 2344
000001a0: 00c0 3344 0000 d642 0000 4343 0080 8d43
000001b0: 0080 b943 0000 e543 0080 0844 0080 1e44
000001c0: 0080 3444 0080 4a44 0040 6044 0040 7644
000001d0: 0020 8644 0020 9144 0020 9c44 0000 a744
000001e0: 0000 d041 0000 8442 0000 d242 0000 1043
000001f0: 0000 3843 0000 5f43 0080 8343 0000 9743
00000200: 0000 ab43 0080 be43 0080 d243 0000 e643
00000210: 0000 fa43 00c0 0644 00c0 1044 0000 0443
00000220: 0000 5c43 0000 9a43 0000 c643 0000 f243
00000230: 0000 0f44 0000 2544 0000 3b44 00c0 5044
00000240: 00c0 6644 00c0 7c44 0060 8944 0060 9444
00000250: 0060 9f44 0060 aa44 0000 80c1 0000 8842
00000260: 0000 1743 0000 6a43 0080 9e43 0000 c843
00000270: 0080 f143 00c0 0d44 0080 2244 0040 3744
00000280: 0000 4c44 00c0 6044 0080 7544 0040 8544
00000290: 00a0 8f44 0000 803f 0000 9042 0000 0e43
000002a0: 0000 5443 0000 8d43 0080 b043 0080 d343
000002b0: 0080 f643 00c0 0c44 0080 1e44 0000 3044
000002c0: 0080 4144 0000 5344 0080 6444 0040 7644
000002d0: 0000 07c3 0000 30c2 0000 3c42 0000 0943
000002e0: 0000 6443 0080 9f43 0080 cc43 0000 fa43
000002f0: 00c0 1344 0040 2a44 0000 4144 0080 5744
00000300: 0040 6e44 0080 8244 00c0 8d44 0000 5943
00000310: 0080 8b43 0080 aa43 0000 c943 0000 e843
00000320: 0080 0344 0000 1344 0080 2244 0000 3244
00000330: 0080 4144 0000 5144 0080 6044 0000 7044
00000340: 0080 7f44 0080 8744 0000 20c1 0000 4042
00000350: 0000 d442 0000 2343 0000 5d43 0080 8b43
00000360: 0080 a843 0080 c543 0080 e243 0080 ff43
00000370: 0040 0e44 0080 1c44 0000 2b44 0080 3944
00000380: 0000 4844 0000 23c3 0000 d6c2 0000 4cc2
00000390: 0000 c040 0000 7842 0000 ec42 0000 2f43
000003a0: 0000 6743 0080 8f43 0000 ac43 0000 c843
000003b0: 0000 e443 0040 0044 0040 0e44 0040 1c44
000003c0: 0000 5243 0080 8843 0080 a843 0000 c843
000003d0: 0000 e843 00c0 0344 00c0 1344 00c0 2344
000003e0: 0080 3344 0080 4344 0040 5344 0040 6344
000003f0: 0000 7344 0080 8144 0060 8944 0000 d242
